examples/carbon/outDir/epoch=1-step=1020-val_loss=0.6927.pt (torch, 752753 bytes, 92 tensors)

cutoff f8 []
000000 00 00 00 00 00 00 08 40
       3.0

weight f4 [7, 64]
000000 15 45 59 3f 83 27 31 3f 6d cc a1 be c1 5f 07 c0
       0.84871036 0.69200915 -0.31601277 -2.1152194
000010 75 56 b6 be a8 db df 3e 53 8c fb 3e 0b 00 51 be
       -0.35612836 0.43722272 0.49130496 -0.20410173
000020 77 6f f5 3d 93 6b 9e 3f 8e f2 8e 3f 7c 36 7d be
       0.11984151 1.2376579 1.1167772 -0.24727815
000030 a7 99 85 bf f6 32 ac bf 11 0d 49 3f 99 2a 7e 3f
       -1.0437516 -1.3453052 0.7853556 0.9928375
000040 8b 4d 19 3f 5b 0d c7 bf ca c6 ae be 4e 2f ed 3f
       0.59883946 -1.5550951 -0.3413604 1.8530061
000050 55 aa ef 3e 5f 7f 21 be db c9 b8 3f a1 37 88 3e
       0.4680964 -0.15771244 1.4436601 0.2660494
000060 c0 d6 b1 3f 00 0d cb 3f 9c 40 72 3f 33 fb 57 bf
       1.3893661 1.5863342 0.94629836 -0.84367675
000070 30 8c 6e 3f 37 27 a1 3f 9a 51 00 40 3a 1b 5c 3d
       0.9318266 1.2590092 2.0049806 0.053736903
000080 d0 1f e1 3e d6 37 e6 3d f8 0a 24 3f 3c df e1 3e
       0.43969584 0.112411186 0.64079237 0.44115627
000090 42 0b 5d be a3 17 3e bf 82 0e 10 3f e2 ed 84 3e
       -0.21586326 -0.74254817 0.5627214 0.2596274
0000a0 2f da 05 3f 55 57 13 40 b7 04 bc bf 9e 18 cb bf
       0.52286047 2.3022053 -1.4688939 -1.5866888
0000b0 3c 03 9a 3f 87 20 ad 3d 2b 9e 99 bf ae d1 9c bb
       1.2032237 0.0845347 -1.2001394 -0.004785738
0000c0 10 dd 6b be 08 94 c8 be 5d 15 0b 3f 17 52 ca be
       -0.23033547 -0.3917544 0.5432947 -0.39515755
0000d0 52 75 52 3e 9f 91 e6 be 2e b5 12 bf f8 2b 0e bf
       0.20552567 -0.45032975 -0.5730771 -0.5553584
0000e0 d9 fd c3 bf 23 f8 9d bf c2 ec e8 3f fc 30 0d bf
       -1.5311843 -1.234135 1.8197253 -0.5515287
0000f0 48 a4 a9 bf 30 14 41 3e fb 75 8d bd db 66 fd be
       -1.325326 0.18855357 -0.069072686 -0.49492535
000100 ce 34 bd bf 8b 4d 24 40 c2 3c f2 be 4f cd ab 3e
       -1.478174 2.5672328 -0.4731198 0.33555076
000110 e8 2a c1 3f c2 3e 05 40 87 75 da 3f f1 57 18 40
       1.5091219 2.0819554 1.7067116 2.3803675
000120 d0 92 88 bf 57 b6 8e 3f 2c 0c 10 be de 45 4e 3f
       -1.0669804 1.1149396 -0.14067143 0.8057536
000130 10 bd a7 3e b5 bd 42 bf b8 ae cc bf 5a 71 97 3c
       0.3276143 -0.7607072 -1.599082 0.018486667
000140 5f 86 57 3f 47 d1 cc be 17 0d 85 3f d8 5f b7 3e
       0.8418941 -0.40003416 1.039462 0.3581531
000150 ca 85 58 bb 1b d1 08 bf 90 97 95 3f 44 fc c9 3e
       -0.003303873 -0.5344407 1.1686878 0.39450276
000160 dc c1 85 bf 3d dd 74 bf b4 58 09 3d 3c c8 35 3f
       -1.0449786 -0.9565008 0.03353186 0.7100866
000170 4a 84 c4 bf ae 4a d3 be a7 5f 77 3f e5 f8 cf 3f
       -1.5352871 -0.41267914 0.9663033 1.6247832
000180 ad 40 27 c0 13 26 d9 bf 37 b8 69 be 43 56 8f 3e
       -2.6133225 -1.6964744 -0.22824179 0.279955
000190 06 02 96 3d 38 81 8e 3f 55 85 90 3e d3 52 de 3e
       0.07324605 1.1133184 0.28226724 0.43422565
0001a0 0f f4 e9 3e fa 88 5d bf cc 03 48 3f 12 42 6d bf
       0.45694014 -0.86537135 0.78130794 -0.9267894
0001b0 cc 5e 53 3e ae b9 aa be 9b 8f db be 22 82 6e 3e
       0.20641631 -0.33344787 -0.42883 0.23291829
0001c0 99 67 76 3f 2e c6 b2 3e ef e4 6b bf 81 2c 66 bd
       0.9625183 0.34916824 -0.921462 -0.056194786
0001d0 0d 97 33 bf 27 b2 84 3f 20 8a 1a bf 94 ae a3 bf
       -0.7015236 1.0366868 -0.6036701 -1.2787652
0001e0 95 c0 fd 3d a0 17 95 3f 35 62 6c 3f e4 92 b1 3f
       0.12390248 1.1647835 0.9233735 1.3872952
0001f0 3e 01 b0 3f 95 dd 28 3f 4b ff f3 3e 5d 16 82 bf
       1.3750379 0.6596311 0.4765571 -1.0163075
000200 db 40 1c 3f 5c 0b ef 3e 22 af f9 3f 9d 13 88 bf
       0.6103646 0.46688354 1.9506571 -1.0630985
000210 03 f7 91 3f 17 14 b8 bd ed d3 3a 3f 6a 33 ec bf
       1.1403507 -0.08988207 0.72979623 -1.845319
000220 f1 15 d1 bd 50 4b 84 bf 32 12 a0 be 30 af 7b 3e
       -0.10209263 -1.0335484 -0.31263882 0.24578547
000230 fd 1d c1 3e 43 f5 8c 3f 8b 46 92 bf 25 f3 19 3d
       0.37718192 1.1012348 -1.1427778 0.037585396
000240 41 c0 93 3e 24 f0 c5 3e b3 e3 4d be b4 83 f1 bd
       0.28857616 0.38659775 -0.20106392 -0.117926985
000250 63 51 54 bf fc 20 b4 bf 83 3c d0 3f 63 68 30 3e
       -0.82936686 -1.4072566 1.6268467 0.1722732
000260 9c 4c 34 bf 1b 23 a1 3e 9a 2b 21 3e 43 4e c5 3e
       -0.70429397 0.31472096 0.15739289 0.3853627
000270 07 db 12 3f 6d 78 7f 3f fd 29 0b 3f 32 64 a1 3d
       0.5736546 0.9979313 0.54360944 0.07880439
000280 da 9a 7f 3f 8b 57 ff be 2a d8 42 3f f7 48 1e 3f
       0.9984566 -0.49871477 0.7611109 0.61830086
000290 ec 48 99 be e5 48 40 be 22 3c f5 3f a4 b0 30 3f
       -0.29938447 -0.18777807 1.9158976 0.6901953
0002a0 32 c9 a0 be 1b 13 8a bf 08 97 76 3e 93 b7 b2 bf
       -0.314035 -1.078708 0.24081051 -1.3962272
0002b0 01 8e e8 3d a7 67 8d 3f ff 94 b2 bf c3 42 f3 3e
       0.1135521 1.1047257 -1.395172 0.47511873
0002c0 96 60 8a 3f 2f a2 06 3e b4 69 c9 3f cb 0b 48 3f
       1.0810726 0.13147806 1.5735383 0.78142995
0002d0 a5 c8 7c 3f 7a 70 be bf 26 31 16 3f 2e 18 22 3e
       0.9874366 -1.4878075 0.58668745 0.15829536
0002e0 2a b2 2a 3f 52 90 7e bf 14 3d 98 bf df 14 99 bf
       0.66678107 -0.99438965 -1.189364 -1.1959494
0002f0 14 ec a7 3f 05 e0 56 be 8b 1f 48 3f 7e 5c 7d 3f
       1.311892 -0.20983894 0.7817313 0.98969257
000300 92 a0 2f 3e 78 44 60 3f 1f fd 92 be 1a c5 82 3f
       0.17151096 0.87604475 -0.2870874 1.0216401
000310 bb d5 02 bf 6f 5b db bf 9b 93 02 bf 31 25 f3 be
       -0.51107377 -1.7137278 -0.5100648 -0.47489312
000320 cb 8a 29 3f 1e 68 9a bf 2b 81 1b 3f 78 12 0c bf
       0.66227406 -1.2063024 0.6074397 -0.5471568
000330 84 dc 8c bf 47 5a 38 bf 2c 78 43 3c b7 f6 ad 3e
       -1.1004796 -0.7201275 0.011930507 0.3397729
000340 c2 77 a0 bf 4a a1 7c 3f 6d 43 fd be c1 3a a4 bf
       -1.2536547 0.9868361 -0.49465504 -1.283043
000350 a1 96 e0 3e 09 60 2f bc 31 4f ab 3f 2d 0e 8f be
       0.4386492 -0.010704049 1.3383542 -0.27940503
000360 dc 4d 93 3e ff b3 08 bd f6 eb 87 bf 45 58 ea bd
       0.2877034 -0.033374783 -1.0618885 -0.11442617
000370 14 15 48 3e 35 b3 3c bf ed 9c d9 3f 2a 43 b1 3e
       0.1953929 -0.7371095 1.7001015 0.34621555
000380 30 3b 14 be ec 3a 23 3f 46 05 90 be 59 39 aa bf
       -0.14475703 0.6376178 -0.28129023 -1.3298751
000390 69 5f 27 bf 32 23 dc 3f 2c 01 76 bf 5d 33 23 bf
       -0.6537996 1.7198241 -0.9609554 -0.6375025
0003a0 05 10 63 bf f0 b9 56 3f 11 92 93 3f aa 6b e1 bf
       -0.8869632 0.8387747 1.1528951 -1.7610981
0003b0 73 b3 8d bf 7e d2 db bf 7f 6c c4 3f 4c 1f 52 bb
       -1.1070389 -1.7173612 1.534561 -0.0032062111
0003c0 22 5d b8 3f 35 7f e2 bd 1d ad 13 3f f9 3b 2d be
       1.4403422 -0.11059419 0.57686025 -0.16917409
0003d0 a3 26 98 3f 9a 49 21 be ab 86 3a bd 5b 02 26 3f
       1.1886791 -0.15750733 -0.045538586 0.64847344
0003e0 0d e9 5e bf 7b 37 14 3e cd 90 f3 3f f5 e1 c7 3e
       -0.8707436 0.14474289 1.9028565 0.3903958
0003f0 bb 6d 07 3d 67 00 83 bf 67 c7 3b 3f 72 11 8f 3f
       0.03306363 -1.0234498 0.7335114 1.1177199

weight f4 [64, 64]
000000 54 ac 86 3e 14 86 3b 3e 51 3e 75 be 7d 98 69 be
       0.2630335 0.18312865 -0.23949553 -0.22812076
000010 28 a7 32 3e e1 b1 9f bd 3d 2a 78 be 7f e9 66 3e
       0.17446578 -0.077975996 -0.24234863 0.22550009
000020 86 03 be be a2 f2 c8 3d 70 8c 58 3e 0c 3b 94 3e
       -0.37112063 0.098119035 0.21147323 0.289513
000030 e0 c8 03 3e 34 58 8d 3e a7 21 08 be 54 91 2e be
       0.12869596 0.27606356 -0.13294087 -0.17047626
000040 9d ef 0d 3e c4 6d 43 3e 92 fa 2b be 6c e2 79 3d
       0.13860936 0.19084841 -0.16794804 0.06100695
000050 e4 52 76 bc 34 40 66 be 6c 78 34 3e a4 5e fb 3d
       -0.015034411 -0.22485429 0.17624062 0.12273911
000060 53 1a 60 3e 99 40 09 3e 1c 01 3f 3e d1 17 04 3e
       0.21885042 0.13403548 0.18652767 0.1289971
000070 2b 48 aa bd 9c 3e bb 3d b2 16 e1 3d 1c 54 ef 3c
       -0.08314546 0.09142801 0.10990657 0.029214911
000080 2d 99 50 3e 75 06 12 be 5b 7e 4c be 24 7f f7 bd
       0.20370932 -0.14260276 -0.19970076 -0.12084797
000090 11 bc 12 be 84 54 9d be f5 4c f7 3d ec d5 8d be
       -0.14329554 -0.30728543 0.12075225 -0.27702272
0000a0 70 2d 3c 3d e0 5f c6 bd 4c f6 a4 3e d9 ea c8 3d
       0.04594177 -0.096862555 0.3221916 0.09810419
0000b0 c8 51 4c 3e ff 41 99 bd 53 70 8c 3d be 68 e5 3d
       0.19953072 -0.07483291 0.06857362 0.112016186
0000c0 4d 66 59 3e f8 fb fc 3d cb a1 38 be 17 3e 31 be
       0.21230431 0.12352747 -0.18030469 -0.17308842
0000d0 a2 9e 47 be a3 33 84 be c1 7e 02 be a6 0c 90 3e
       -0.19494107 -0.25820646 -0.12743665 0.2813465
0000e0 cd 01 84 be 05 9d 93 be c9 a9 57 3d 32 9a 0f 3e
       -0.25782624 -0.28830734 0.052652154 0.14023665
0000f0 2d 6b 7f 3c d9 4a 84 be 15 64 01 3d 6b c6 a8 be
       0.015589518 -0.25838354 0.031589586 -0.3296388
000100 e0 be bd bd c4 db d0 bc 40 0a 17 3e 3e fb cc bc
       -0.09264922 -0.025495417 0.14750004 -0.025022145
000110 f1 5b 34 3c e3 9f 1f bd 30 ba 5b 3d e6 aa 6b bd
       0.011008249 -0.03897084 0.05364436 -0.05753603
000120 d7 ed ed bc 7a bd 00 be c3 2b 9e bd e5 49 ef bd
       -0.029044075 -0.1257228 -0.07723191 -0.11684016
000130 2e 77 5d bd 60 c4 fb bc fc c7 37 3e a8 79 6a 3a
       -0.054068737 -0.030733287 0.17947382 0.000894452
000140 e5 91 d5 bd f5 28 9d bc ec 23 06 3e df bd 54 bc
       -0.10428218 -0.019184569 0.1309964 -0.012984722
000150 a2 89 0b 3d bd eb b0 3d 68 36 04 be 93 d0 cd 3d
       0.034066804 0.086387135 -0.1291138 0.10049548
000160 c7 71 c5 bd 4d b3 ca bd 3b 97 b2 3d 08 58 bb bd
       -0.09640842 -0.0989748 0.08720251 -0.0914765
000170 b1 fc c8 bc 9c ac bb bd 77 2f 8d bb 22 58 10 bd
       -0.024534555 -0.09163782 -0.0043086368 -0.0352403
000180 79 02 84 3d 13 2f d6 bd c9 15 d9 bb ae de 09 3e
       0.06445784 -0.104581974 -0.0066249114 0.13463852
000190 33 8b 32 3d 87 0f 0a 3c 1a 8e 23 be ff ba cb 3d
       0.043589782 0.008426554 -0.15972176 0.09947776
0001a0 b2 0d 2a 3d b8 0e 37 3d 97 8d 08 be 2f f4 4a 3d
       0.041516967 0.04469177 -0.13335262 0.049549278
0001b0 76 65 3c be 8c 6d f3 3c 73 03 09 3d e1 f1 de bd
       -0.1839808 0.029715322 0.033450555 -0.108859785
0001c0 fe c9 60 3d c2 8f d4 bc 34 63 e3 bb c8 c8 2b bd
       0.054880135 -0.025947455 -0.006939316 -0.041939527
0001d0 e2 a8 09 bd e9 70 58 3d a4 00 97 3d 5a d9 ef bd
       -0.033608325 0.052842055 0.07373169 -0.117113784
0001e0 78 42 90 3d 5d 5b a6 3b 97 3f c1 3c de 09 fc bd
       0.07043928 0.0050768093 0.023589892 -0.123065695
0001f0 ab 6f b0 bd 77 a4 04 3e 1b 08 43 3d ae 05 15 3e
       -0.08615049 0.12953363 0.04761515 0.14552948
000200 94 01 f9 bb 5f 69 e5 3c 48 89 95 bd 53 60 8a bd
       -0.007599065 0.028004346 -0.07301575 -0.06756654
000210 be 40 ba 3d 7d a2 44 be 93 43 8c 3c 32 c3 df 3d
       0.0909438 -0.1920261 0.017122066 0.109259024
000220 eb 75 3a be f0 52 90 3d 73 79 a0 3d 00 4a a6 3d
       -0.18209045 0.07047069 0.078356646 0.08119583
000230 87 26 50 3e 93 59 7a bc 78 89 dd bd 94 c7 59 bd
       0.20327197 -0.015280145 -0.10817236 -0.05316885
000240 6a 1e 36 bd 9e e1 a5 3d 53 1e 8d 3d fc 92 11 3e
       -0.0444626 0.08099674 0.068905495 0.14216226
000250 66 2d 7e bc 42 e0 18 be 44 4d 46 3b f8 bd 1e bd
       -0.0155137535 -0.14929298 0.0030258456 -0.038755387
000260 2b d2 b6 3b 18 85 81 bd 1a 6a 1b be f2 4a 75 bd
       0.005579253 -0.06324214 -0.15177193 -0.059885927
000270 b7 24 f3 bd 62 46 51 3d 8a f1 09 3e 6d b8 3a bd
       -0.11872237 0.051092513 0.13471046 -0.04558604
000280 74 35 09 3e 3f 88 4d bd 3e ed af 3d 63 ab 4f be
       0.13399297 -0.050178763 0.08590172 -0.20280223
000290 b8 f9 49 be 6e f3 3b bd 47 2e 0a 3e 8c a4 33 be
       -0.19724166 -0.04588645 0.13494216 -0.17543238
0002a0 46 49 d0 3c 77 bb 38 be fe fc 2b 3e 77 c5 56 3c
       0.025425564 -0.18040262 0.16795728 0.013108603
0002b0 9f c3 f3 3c 68 1f 69 bd a2 53 fd 3d 6d c7 5a 3e
       0.029756365 -0.056914717 0.12369467 0.21365137
0002c0 4e 1f 6d 3d 87 92 0a 3e 0e 61 a6 3d d1 eb 9f bd
       0.057891183 0.13532458 0.081239805 -0.0780865
0002d0 53 2a 9c bc 92 99 c5 3c 64 05 b8 bd 91 09 76 bd
       -0.01906315 0.02412108 -0.08985403 -0.060067717
0002e0 b2 34 a0 bd d5 6b 80 3d ed d8 83 3d c4 fe 22 3e
       -0.07822551 0.06270567 0.0643786 0.15917498
0002f0 1a f0 0c 3e de 16 96 bd f8 25 fa 3d a6 29 b9 bd
       0.13763466 -0.0732858 0.12214273 -0.09041147
000300 db af d8 3d ef 80 81 3e b0 6c dc bd d6 1f a1 be
       0.10580417 0.2529368 -0.10762918 -0.314696
000310 bd 9c b0 3e ea 46 35 be a9 e0 70 be 2f da 80 3e
       0.34494582 -0.17702833 -0.23523201 0.2516646
000320 03 3a 2d be 06 48 ef 3d 59 a3 56 3e 77 e8 58 3e
       -0.16916661 0.11683659 0.2096075 0.21182428
000330 a8 97 a4 3d 64 64 9a 3d 8f 20 17 be f9 f6 83 ba
       0.08036739 0.07538679 -0.14758514 -0.001006811
000340 85 62 5c 3e 67 8e 8a 3e f0 a7 f5 bd bd cf 8b 3d
       0.21521957 0.2706177 -0.11994922 0.06826732
000350 2b 20 5e 3e f6 c7 9d bd d7 1a 33 3e d2 5e 6c 3e
       0.21691959 -0.07704155 0.17490707 0.23083046
000360 de b3 b1 3e 3d d6 58 3e 14 0c 7a 3e cd 39 70 3e
       0.3470754 0.21175475 0.2441867 0.23459549
000370 ff 1a 61 be 9a 6a 76 3d 89 d6 3d 3e 95 f5 b7 3d
       -0.21982954 0.060160257 0.1853887 0.08982388
000380 5a 6b 94 3d a2 24 44 be 0d 8d 00 bd 42 63 ae be
       0.07247038 -0.191546 -0.031384517 -0.34060103
000390 18 f5 3e be 48 d0 a9 be 7e 15 f2 3d 1d 34 48 be
       -0.18648183 -0.33166718 0.118205056 -0.1955113
0003a0 dd 0c 5a bc c7 d0 e2 bd 58 22 aa 3e 81 e4 9f 3e
       -0.013308731 -0.11074977 0.33229327 0.31229022
0003b0 8e 6f 23 3e d9 ad ae bd 60 fa 48 3e 5d f9 a8 3e
       0.15960523 -0.085292526 0.1962676 0.3300275
0003c0 6d 2a 22 3e a9 7b b5 3d 5d 41 f4 bd 46 c3 1f be
       0.15836497 0.08861477 -0.119265296 -0.15601835
0003d0 82 19 66 3c 90 bd 9b be 2a a3 00 be 4a 37 77 3e
       0.0140441675 -0.30418062 -0.12562242 0.24142185
0003e0 b4 64 8e be 4f 56 88 be cd 23 19 3d 73 6b 85 3e
       -0.27811205 -0.26628348 0.037387658 0.2605854
0003f0 2b 66 ff 3d e9 46 91 bd 22 51 80 3e e9 d7 83 be
       0.12470659 -0.07093603 0.250619 -0.25750664

weight f4 [64, 64]
000000 bd b0 91 3d 8c a9 37 be 07 cc f0 bd aa dd 2a be
       0.07113788 -0.17935771 -0.11757665 -0.1668612
000010 17 1b 9e 3c e7 8f 00 bc 52 b9 62 be 60 2d 59 bc
       0.019300027 -0.007846809 -0.22141007 -0.013255447
000020 a5 27 f0 bd 6c 2a 88 3c 98 55 16 bc cc 09 06 3e
       -0.117263116 0.01662179 -0.009175681 0.13089675
000030 c2 a9 64 be c6 e8 76 bc 91 82 14 be ae e3 c8 bd
       -0.22330382 -0.015070146 -0.14502932 -0.098090515
000040 f2 74 09 3e 93 97 ae 3d 7a d7 99 3d cd 31 2e 3d
       0.13423517 0.08525004 0.07511802 0.042527962
000050 15 9d 23 3d e0 bb ea bc 92 da 35 bd 1d 8e 86 bd
       0.039944727 -0.028654039 -0.044397898 -0.06570075
000060 e8 ed c9 bb d7 cf 0d bd eb 59 28 3d 1d 8e 12 bd
       -0.006162394 -0.03462204 0.041101377 -0.03578006
000070 55 b2 06 3e 5c 7d c3 b9 58 09 24 be 85 01 90 3b
       0.13153966 -0.00037286698 -0.1601919 0.0043947124
000080 f9 11 07 bd 0f 30 29 bd 0d 83 68 be 83 8e 1f bd
       -0.032976124 -0.041305598 -0.22706242 -0.03895427
000090 43 3f 29 bd 65 b4 12 bd 71 f9 ad bd 76 dd 0f be
       -0.041320097 -0.03581657 -0.08494843 -0.14049324
0000a0 1f 81 6d be b1 90 a7 bd ca ce 5e 3d ad cc a6 3d
       -0.23193787 -0.081818946 0.05439643 0.081445076
0000b0 31 5d 9f 3c 1e c5 a2 bd df 53 7c 3d 07 e9 48 be
       0.019453617 -0.07947753 0.061603423 -0.19620143
0000c0 f9 a1 d2 3d 52 1a 44 3d 73 b9 0a be da ce bf bd
       0.102848 0.047876664 -0.13547306 -0.09365626
0000d0 7a 5a f6 bd c8 d5 d3 bd ac d3 50 bd 23 64 15 bd
       -0.12028976 -0.1034351 -0.050983116 -0.03647245
0000e0 81 99 cd 3c 17 bb 46 3d ff 3f 0d be c6 98 ae bd
       0.02509761 0.048518267 -0.13793944 -0.08525233
0000f0 38 7a 4a 3e e7 09 f9 bc 0e 06 8b bd 8f 8a 2d 3d
       0.19773185 -0.03040023 -0.06788264 0.042368468
000100 df 48 14 bd 57 18 8d 3d 6c 7d 48 bd 57 fb a8 3d
       -0.036202308 0.06889408 -0.048947737 0.08251064
000110 8d 6a 17 3e ac 3f 16 bd 68 2e b2 3d f5 a5 80 3d
       0.1478674 -0.036681816 0.087002575 0.06281654
000120 f1 a8 eb bd b3 b5 c3 bb ce 32 92 3c 9f fc 12 3d
       -0.115068324 -0.005972588 0.017846491 0.03588545
000130 4a e7 11 3e 7c 94 3a 3c ac 8b 72 3c f6 ab 2b 3d
       0.14248386 0.0113879405 0.014803808 0.04191204
000140 a9 e8 e4 bb 22 60 48 bd ca 8a b4 3c 49 2c e7 bd
       -0.006985743 -0.048919804 0.022038836 -0.112877436
000150 21 c3 0d 3e cb b1 ae 3d 39 0f ce 3d 92 b7 ff 3a
       0.13843967 0.08530005 0.10061497 0.0019509664
000160 97 4b 99 bc f4 35 d8 3d 62 35 7d bd bf a3 6a 3d
       -0.018712802 0.10557166 -0.061818488 0.057285067
000170 15 45 a0 3d 97 8b 34 3d 79 9b 87 3d ae 32 b0 3d
       0.07825676 0.044078436 0.06621451 0.086034164
000180 a0 02 f1 3c 1f 21 90 3d 19 89 18 3e 17 5c b0 bc
       0.029420197 0.07037567 0.14896049 -0.021528287
000190 e7 c6 88 bd 95 1b f5 bc 7b b3 34 3e c2 9d b2 3d
       -0.066785626 -0.029920379 0.17646591 0.08721496
0001a0 0d 21 99 bd 7d 6d 42 be 53 21 96 bd ea 1b d4 bd
       -0.07477007 -0.18987079 -0.07330575 -0.10356887
0001b0 20 57 22 3e a6 7b ec bc c4 5c bf 3d 48 27 6a 3c
       0.15853548 -0.028867554 0.093438655 0.014291592
0001c0 ee 29 23 be aa 4a 7b bc aa 4e e4 3d 4c 29 f9 3b
       -0.15933964 -0.0153376255 0.111478165 0.0076038
0001d0 f2 6b 61 3d 2d ae 2f 3d 41 39 98 3d 89 28 cb bd
       0.055034585 0.042890716 0.07432795 -0.09919841
0001e0 18 5b 98 3d bb 05 b3 bd 28 45 cc 3d b2 0b 80 3c
       0.0743925 -0.087413274 0.09974128 0.015630577
0001f0 87 fb 34 3e fc bb 82 bd 97 1c 17 3d 80 5c 9b bd
       0.17674075 -0.063835114 0.0368925 -0.07586002
000200 55 f7 14 bd 83 0b 45 3d e6 20 a2 3d 45 bd c6 3d
       -0.036368687 0.04810668 0.07916431 0.09704069
000210 ba 5f 8b 3d 17 b1 d2 3c d6 a5 9e 3c 84 f2 3b bd
       0.06805368 0.025719209 0.019366186 -0.045885578
000220 cd ac c1 3d 0f 9d d3 bd 8a 7a fb 3c 2c 00 44 bd
       0.09456787 -0.10332691 0.03069808 -0.047851726
000230 34 cb 3a bd d9 d6 07 bd 1c 70 55 bc 54 0b 2a 3c
       -0.045603946 -0.03316388 -0.013027217 0.010378677
000240 2a 4d 0e 3d a0 1b f3 3c 8e 9c c7 3d bd 7f 07 3b
       0.034741558 0.029676259 0.09746657 0.0020675503
000250 4b 91 74 3d 8b 51 0c be 50 4d 85 bd 67 10 e0 bd
       0.059708875 -0.13702981 -0.06508887 -0.109406285
000260 7d 7b 9f bb 64 5f db 3d 90 47 d8 bc 43 01 96 3d
       -0.004867016 0.10711554 -0.026401311 0.073244594
000270 e7 e7 8b bd da 17 b7 bd 76 1e 3c bd 1c d5 f7 3d
       -0.06831341 -0.08940096 -0.045927487 0.12101194
000280 6e 74 c3 3d b2 c1 cf bd b2 34 09 bb c2 88 41 bb
       0.095436916 -0.10144366 -0.002093595 -0.0029530977
000290 a9 60 92 bd 04 d0 36 bd 90 3e 96 3d cb 98 86 bb
       -0.07147343 -0.044631973 0.073361516 -0.00410757
0002a0 3d 05 d6 bd 4c 69 dd bb 6b 92 97 bd b6 b1 9a bd
       -0.10450218 -0.006756937 -0.07400974 -0.07553427
0002b0 cd 97 4a bd d5 4e 4c 3d e2 04 81 3d 28 24 a6 bc
       -0.049461175 0.049879868 0.062997594 -0.020280913
0002c0 44 aa 27 3e da 30 d1 3d dd fc 0b bd 6a 70 13 be
       0.16373545 0.10214396 -0.034176696 -0.14398351
0002d0 c7 0e c9 3d a5 63 a9 bc a9 13 4d bc 70 5a 94 3d
       0.09817272 -0.020677397 -0.012516894 0.07243812
0002e0 c9 42 d4 bd 88 34 06 bd 19 52 73 3d f1 99 69 ba
       -0.10364301 -0.03276494 0.059404466 -0.00089111837
0002f0 09 bc ad bd c8 65 1d 3d 74 0f ff bd 94 f3 07 bd
       -0.084831305 0.038427144 -0.12454119 -0.03319128
000300 ad c9 75 3d 59 1f 16 3e af 16 8e bd b4 ee e0 bd
       0.060006786 0.14660396 -0.0693792 -0.10983029
000310 16 ac e7 bd 45 15 5f 3d b3 30 c6 3d 63 2e b7 3d
       -0.1131212 0.054463644 0.096772574 0.089443944
000320 02 9e f8 bd 90 63 da ba 19 3f e0 3d 5f c0 b4 3c
       -0.121395126 -0.0016661752 0.10949535 0.022064386
000330 b6 99 35 bc b1 3a bd 3c dd ae f2 ba 5f 00 8b bd
       -0.011084011 0.023099275 -0.0018515248 -0.0678718
000340 ed 74 ac 3d 96 d8 82 bd 3c fd fb bb 98 d1 b4 3d
       0.08420739 -0.06388967 -0.0076901 0.08829039
000350 2f e0 9d bc 62 5f d0 bd 69 ab c1 bd 89 f8 08 3e
       -0.019271938 -0.10174443 -0.09456522 0.13376059
000360 b1 40 8f 3c 60 e9 19 3e f9 1e 94 3d bc b0 ed ba
       0.017486902 0.15030432 0.0723247 -0.0018134336
000370 d6 97 72 bc f0 92 31 bd ac d2 48 3d b8 5d b2 3d
       -0.014806708 -0.04335302 0.049029037 0.08709282
000380 dc 2f e3 3c 0c 1b 8c 3d 06 1d 42 bd 4c 88 a3 bd
       0.027732782 0.06841096 -0.04739096 -0.07984981
000390 15 3e c1 3d ad 0c f2 3d 62 f6 11 bd bc 4c f1 bd
       0.09435669 0.11818824 -0.03563536 -0.11782214
0003a0 cb 80 2c 3b 76 1d d1 3d 5e 6e ba 3c 7c e5 1e 3d
       0.0026321884 0.10210697 0.022757705 0.038793072
0003b0 fe ad e1 bc 2d f2 3e bd f3 d4 8b bd 90 42 0d 3c
       -0.027548786 -0.046617676 -0.06827726 0.008621827
0003c0 4a f9 58 3e 0a 0f f9 bc 37 da 37 3c 5c 1d 8f bd
       0.21188846 -0.030402679 0.01122146 -0.06988022
0003d0 5b 74 6a 3d fd da 1e bd c0 f4 95 bc 5b cb b7 3d
       0.05723987 -0.038783062 -0.018305182 0.08974334
0003e0 b9 bc 81 3d df 12 54 3d 30 9d 47 3e ef 84 0d 3c
       0.06334824 0.05177581 0.19493556 0.008637651
0003f0 29 2a 73 bd 14 2f 31 3d 54 a1 de bc 0f 38 93 bd
       -0.05936638 0.043257788 -0.027176537 -0.07188427

weight f4 [64, 64]
000000 7b 0d 8c bd 89 6a d8 bc 4a 00 ab bd 23 aa b0 bd
       -0.06838509 -0.026417987 -0.083496645 -0.08626201
000010 9b 0f f6 3d 6c 1d f5 bd 9f a9 9b bd 61 15 e5 bd
       0.12014695 -0.119685024 -0.07600712 -0.11185718
000020 db 9f d2 bd 55 be 77 bd 86 02 85 bd 97 d6 7e bd
       -0.10284396 -0.06048425 -0.06494622 -0.062216368
000030 dd aa 54 bc 4a ac 37 bd d6 07 07 be 37 4f 63 bd
       -0.01298019 -0.044842042 -0.13186583 -0.055495467
000040 e8 30 e4 3c f5 fc e3 bd 24 79 00 bd 70 a6 01 3e
       0.027855352 -0.11132232 -0.03136553 0.12661147
000050 4f 9d b5 bd c7 c8 03 3c 81 b4 be bd f3 b3 16 3c
       -0.08867895 0.0080434745 -0.09311772 0.009198177
000060 5c 5f 25 bd b9 ed 8a 3c 7e 0c 03 be 5a 1c f3 3d
       -0.040374145 0.016959058 -0.12797734 0.11870642
000070 a7 99 2c 3b 68 0e 2e 3d 81 a1 83 b9 5e 87 a7 bd
       0.00263367 0.042494208 -0.00025106597 -0.08180116
000080 af 29 c8 3d a3 0f 15 3e 70 0c ce 3c a0 16 da bd
       0.097735755 0.14556746 0.025152415 -0.106488466
000090 11 4d 90 3c d7 4d 94 bc 28 15 9c 3d 5a 73 13 be
       0.017614873 -0.018103523 0.07621223 -0.14399472
0000a0 c6 ce d5 bd 88 84 c0 bd 12 df be bd e0 7b 42 3d
       -0.104398295 -0.09400278 -0.09319891 0.047481418
0000b0 91 93 58 3d 6e 15 f6 3c d1 2f 26 3a 20 df 6b bd
       0.052875105 0.030039515 0.00063395227 -0.057585835
0000c0 0f 57 04 3e d2 56 d4 3d 0f 15 81 3d 13 05 64 3d
       0.12923835 0.10368122 0.06302845 0.0556689
0000d0 b1 92 fe bd 22 54 f2 3c c1 91 47 bd d7 84 cb 3d
       -0.12430323 0.029581133 -0.048722986 0.099374466
0000e0 d9 c1 68 bd 2d ea a9 bd 7d 98 54 bd 64 75 f0 bd
       -0.056825493 -0.082966186 -0.051903237 -0.117411405
0000f0 17 3b 5f bc fb 68 b0 bc 93 a8 f9 3d a6 70 bc bd
       -0.013624928 -0.021534434 0.12190356 -0.092011735
000100 92 f4 d0 bd 01 d1 b3 3c 33 9b 2b 3e 34 6c 20 3d
       -0.10202898 0.021950247 0.16758423 0.03916569
000110 8a 59 50 bd 6e 77 64 3d 6b 8f f0 bd c6 a6 bb 3d
       -0.05086664 0.05577796 -0.11746105 0.09162669
000120 2e cd 27 3d ca 24 53 bd 1c 32 b4 bd 95 83 1d bd
       0.04096716 -0.051548757 -0.0879862 -0.038455565
000130 8a 78 a8 bd ba c6 88 3d b4 0e b2 3d 16 31 10 be
       -0.08226116 0.06678529 0.08694211 -0.14081225
000140 4d 8d 9e 3d a8 5c 21 bd 9a 58 96 bd 37 e6 a3 bc
       0.07741795 -0.039395005 -0.07341118 -0.020007236
000150 b9 0d 41 bd be e0 dd bc bc 4a ad 3d 93 ab 0d 3d
       -0.047132228 -0.027084704 0.0846152 0.034587454
000160 aa 86 11 3e 27 08 1f 3d 8c 21 ff bd 2a e9 35 3e
       0.14211527 0.038826134 -0.124575704 0.17764726
000170 5e 92 d3 bd e1 dc 25 3d 75 5c 07 3d e8 02 82 3d
       -0.10330652 0.04049385 0.03304716 0.063482106
000180 d5 5a 7c bd 1b 2b e0 bd 79 60 66 3d ed fd 95 bd
       -0.06161006 -0.10945722 0.056244347 -0.07323823
000190 d0 2c 43 3d ef fd 4e 3b 16 12 5a 3d fe f7 6e bd
       0.04765016 0.0031584462 0.053239904 -0.058341973
0001a0 d0 28 9e 3d 67 87 48 bc 05 1e a7 bc 31 06 a6 bd
       0.07722628 -0.012239314 -0.020400057 -0.0810665
0001b0 42 0d 2a bd 3c f4 96 3d 6f 0b 8f bd 2b cc d7 bd
       -0.04151655 0.07370803 -0.06984603 -0.10536989
0001c0 47 41 b9 3c e4 33 89 bd 5d 29 d6 3c 4e ed c2 3d
       0.022614134 -0.066993505 0.02614277 0.095179185
0001d0 b3 12 21 3d 05 1e df 3d 94 2d 24 bd cd c8 89 3c
       0.039324474 0.10894398 -0.04008253 0.016819382
0001e0 00 63 90 bd b0 37 db bd 10 ce 98 3c ba 23 0b 3d
       -0.07050133 -0.10703981 0.018652946 0.03396962
0001f0 7f f4 38 3e 81 3b 07 3e 48 55 6f 3d 4b 8e cd bd
       0.18062018 0.13206293 0.05843094 -0.10036906
000200 ac 88 be bd 81 c7 ba ba c4 f8 3b bc 3f 1a 20 3d
       -0.09303412 -0.0014250131 -0.011472885 0.03908753
000210 f8 c3 bc bc a6 9b 7d bd aa ec ad bd 81 64 83 3d
       -0.023042664 -0.061916016 -0.08492406 0.06415654
000220 61 49 05 3c e1 bf 61 bd 7e 53 95 3c 51 ba 93 bd
       0.008135171 -0.05511463 0.018228289 -0.072132714
000230 31 c4 af bd bf c9 35 3d da 64 85 bd 0e b5 b2 bd
       -0.085823424 0.044381853 -0.065133765 -0.0872594
000240 f9 02 2e bd b9 1b 94 3d 3b 71 b9 3d a6 a9 f2 bc
       -0.042483304 0.0723185 0.090548 -0.02962191
000250 e1 a9 a4 3c 2b 39 d3 bc 75 99 d1 3c 59 6b b0 3d
       0.020100536 -0.025784096 0.02558587 0.08614225
000260 92 e2 20 bc ff 71 18 3e e6 59 8c 3d 3a 1f 37 3d
       -0.009819644 0.14887236 0.06853084 0.044707514
000270 10 00 51 bc ff 25 67 3d 5e e5 86 3d 20 56 bd bd
       -0.012756363 0.05643272 0.06586717 -0.09244943
000280 40 75 7d 3d 86 bf 05 be eb ed c9 bd cc 12 e2 3c
       0.061879396 -0.13061342 -0.098598324 0.027596854
000290 4f 2a 34 3b 73 fc d2 3d 0c f1 73 3d 3d 1f 4e 3d
       0.0027491038 0.10302057 0.059556052 0.05032276
0002a0 1f a4 b6 3d 72 7b 31 bd 53 7a df 3d 78 c0 11 3d
       0.08918022 -0.043330617 0.10912003 0.035583943
0002b0 df 1a 61 3a 13 ac 31 3d 01 98 15 be 12 7f b5 bd
       0.0008587073 0.043376993 -0.14608766 -0.08862127
0002c0 42 bc d8 3d d9 5e ba 3a 21 94 f4 bc ba 68 ec bd
       0.10582782 0.0014218941 -0.02985579 -0.115434125
0002d0 62 c7 0c be 53 c1 eb 3c 90 88 8c bc 35 d3 e9 3d
       -0.13747934 0.028778708 -0.017154962 0.11417238
0002e0 cb 77 5c 3b e5 e9 34 bd 9c 8f 95 bd c3 7b 0b be
       0.0033640738 -0.04416837 -0.07302782 -0.1362143
0002f0 fc 58 64 bd 36 37 89 3d f4 42 59 3d 9d 33 93 bd
       -0.055748925 0.06699984 0.053042367 -0.07187579
000300 bc 60 83 3d 21 c5 de bc 6d bd ec bc 11 fd 04 be
       0.06414935 -0.027193608 -0.028898919 -0.12987162
000310 25 95 cd 3d 83 9b fe 3d ab e8 7b 3e 1c 59 ec 3d
       0.10038213 0.12432005 0.24600475 0.11540434
000320 0b 92 37 bd ec 9c 78 bd c7 4c 03 3d 4b 9e bc bc
       -0.04481701 -0.060696527 0.032055642 -0.023024699
000330 fb 31 96 3d b3 ff 3e 3d 24 27 80 3c b6 23 cb bc
       0.07333752 0.046630573 0.015643664 -0.024797302
000340 ff 4a 29 be 89 ab ff bd 5c 3c 00 be e7 48 95 3d
       -0.16532515 -0.124838896 -0.12523025 0.07289296
000350 34 d5 0b be cd 23 26 3d 94 95 84 bd 4f 27 94 3c
       -0.1365555 0.040561486 -0.06473842 0.01808515
000360 02 b9 65 bd fb 4d d3 3d 20 c8 b8 bd 65 9f 27 bd
       -0.05608464 0.10317608 -0.09022546 -0.040923495
000370 54 d9 29 3d 74 87 d4 bc c6 05 db bc fc bf 72 bb
       0.041467026 -0.025943495 -0.026736151 -0.00370407
000380 6a 22 86 bd 20 bc 92 3d ce 7e c3 3a 38 72 17 be
       -0.06549533 0.07164788 0.001491511 -0.14789665
000390 e5 43 ea bc d1 b2 91 bd 49 3a 05 be b2 0e e4 bd
       -0.028596828 -0.07114185 -0.13010515 -0.111356154
0003a0 63 50 d3 3d a3 b4 f3 b8 0a e1 a2 bc 87 4f 11 3b
       0.10318067 -0.00011620789 -0.019882698 0.0022172646
0003b0 3f 92 b0 bc fb 6f d7 3d 63 47 de 3d 41 27 29 3e
       -0.02155411 0.105194055 0.1085346 0.1651888
0003c0 be f6 27 bd 2b 64 dd 3d 5c 1b 30 bd 80 4c b2 3d
       -0.041006796 0.10810121 -0.042994842 0.087059975
0003d0 f7 d5 d7 3d ae 1a ab 3d a0 8f 2d 3e 9f 34 0b 3d
       0.105388574 0.08354698 0.1694932 0.03398573
0003e0 3c 31 60 3c 13 4d b0 bd f5 15 ce 3c f8 b5 1b 3e
       0.013683613 -0.08608451 0.025156954 0.15206134
0003f0 36 a1 86 bc 23 42 e5 bd 57 6b ef bd e3 d4 cf 3d
       -0.016434293 -0.11194255 -0.11690395 0.10148027

freqs f4 [8]
000000 60 78 67 3f 9f af 0b 40 ba 4c 4b 40 0d c0 82 40
       0.9041805 2.182594 3.176558 4.0859437
000010 d5 1d a7 40 6f 3b c8 40 fe 61 eb 40 5d 39 08 41
       5.2223916 6.257255 7.355712 8.514005

weight f4 [64, 8]
000000 4a 0f 5b 3e 14 cc bb 3d 21 43 40 3d fd 57 50 3e
       0.21392551 0.09169784 0.04693902 0.20346065
000010 39 38 4d be e2 0f c0 3d 19 89 70 3d c7 5d 9c 3c
       -0.20040978 0.093780294 0.058724497 0.019087685
000020 50 38 b2 be d2 f2 ab be 3e 16 e9 bd c2 43 76 be
       -0.34808588 -0.33583695 -0.113811955 -0.24049285
000030 9a d4 9c be d6 b9 cc bd 14 e2 f3 bc 29 cb 57 3d
       -0.30630952 -0.09996383 -0.029770888 0.052683983
000040 8b 4b d4 bd ce 3b 2e be d3 e8 1b be de 9d 43 3e
       -0.10365971 -0.17015001 -0.15225534 0.1910319
000050 55 2e c8 3d 73 43 c6 3e 9b af 04 3e ba 60 70 3e
       0.09774462 0.38723335 0.12957613 0.23474398
000060 36 46 4b be f4 60 3b be f4 ba 04 3e 8a 26 3a 3e
       -0.19851002 -0.18298703 0.12961942 0.18178764
000070 a1 8a d1 bd 56 eb 52 3e ec 72 3e be 65 ec 43 3d
       -0.102315195 0.20597586 -0.18598527 0.047832865
000080 e2 1d d1 be 75 8e d3 bd 62 74 06 be ee e2 07 be
       -0.4084311 -0.10329906 -0.13130334 -0.1327016
000090 c9 f3 e2 3c bc a6 25 be 5b 60 b8 3e 01 0f 32 be
       0.027704136 -0.16176885 0.36011013 -0.17388536
0000a0 93 63 2a 3e 53 fc ac be e4 f0 4b 3e ac 4e 5a 3e
       0.16639547 -0.33786258 0.19916111 0.21319073
0000b0 9c 15 81 be 8d ad 1f bd 29 5a 5a bd 69 82 96 bd
       -0.252118 -0.03898387 -0.05330864 -0.073490925
0000c0 60 58 3a 3d 18 9f 72 3e cf c7 e2 bd db de 08 3d
       0.045494437 0.23693502 -0.11073267 0.033415657
0000d0 18 ce 51 be fe 39 d3 bd 27 64 61 be e3 19 8c 3d
       -0.20488775 -0.103137955 -0.22010861 0.06840875
0000e0 9c b6 98 bd fb 3e 91 3e ba 34 04 3e e7 30 e9 bd
       -0.07456705 0.28368363 0.12910739 -0.113862805
0000f0 ce 7f 62 bd 88 b0 00 3e 18 3a c2 bd 5b 21 e1 3d
       -0.055297665 0.12567341 -0.09483737 0.1099269
000100 26 85 72 be 37 31 80 be b5 34 bc ba 77 7c 8b 3d
       -0.23683605 -0.25037548 -0.001435897 0.06810849
000110 5c 9c e4 bc 7a f2 bb 3d 27 1f 3a be 87 8c 89 3d
       -0.02790659 0.09177108 -0.18175946 0.067162566
000120 12 66 f1 be de ef a4 3e c0 d5 b3 3e b6 38 65 be
       -0.47148186 0.32214254 0.35124016 -0.22384915
000130 55 37 4e be d5 dd 91 be 4f 14 25 3e 4d 59 b3 3d
       -0.20138295 -0.28489557 0.16121028 0.08757267
000140 11 f3 f6 be b3 3a ef bd db 7d a4 3e ff bf 38 3d
       -0.4823232 -0.11681118 0.3212727 0.045104977
000150 e0 cf 86 be 9f 14 08 3e a2 1e 99 3e 16 b7 9b 3e
       -0.2633047 0.13289116 0.29906183 0.3041312
000160 e7 1b 3e 3e 96 8d 00 be 20 53 63 ba 50 f3 84 3e
       0.18565331 -0.12554011 -0.00086717494 0.25966883
000170 cb 01 d8 3d d3 b7 4d be e7 ac 45 3e 76 bb c3 bc
       0.10547217 -0.20089655 0.19304238 -0.0238931
000180 0b e9 d9 be 4a 2b 67 be 78 37 8b 3e 24 f9 8a 3e
       -0.4256061 -0.22575107 0.27190757 0.27143204
000190 22 a6 96 be b9 44 eb 3d 54 19 59 3e a2 6e 98 3d
       -0.29423624 0.11487717 0.21201068 0.074429765
0001a0 04 3b 7b 3e 58 41 95 3d 4b ba fa 3d 45 60 0d 3e
       0.24534231 0.07287854 0.12242564 0.13806255
0001b0 0d 8e 7a bd 99 0b a2 3d e2 df b6 bd f5 c5 72 bd
       -0.061170626 0.07912368 -0.08929421 -0.059270818
0001c0 6c 8d 47 3e 1c 17 2f be 64 2d eb 3d 29 36 a4 3e
       0.19487542 -0.1709866 0.11483267 0.3207257
0001d0 28 13 0a 3d 63 46 93 3e 06 f1 a2 3c bc 84 c2 bc
       0.033709675 0.28764638 0.01989032 -0.023744933
0001e0 bd 70 d4 3e b0 f9 4c be a6 4c b0 3e 84 97 a1 3e
       0.41492262 -0.20017123 0.34433478 0.3156091
0001f0 14 93 91 be 28 41 79 bd b2 41 98 3e a0 54 14 bd
       -0.28432524 -0.060853153 0.29737622 -0.036213517
000200 99 4a c7 be 41 f5 10 3d fa 1b e3 be db f7 8e bc
       -0.389241 0.035390142 -0.44357282 -0.017452171
000210 0e 24 7c 3d 4f b9 e8 bd b3 ff 87 bd d6 27 05 3e
       0.061557822 -0.1136347 -0.06640568 0.13003477
000220 a0 20 e1 3d 02 98 9b bc b6 a8 22 be 08 fa 68 3d
       0.10992551 -0.018993381 -0.1588467 0.056879073
000230 1e ab 13 bd 66 50 b9 bd cc bb ed bd 2f ac 39 3d
       -0.036051862 -0.09048538 -0.11608085 0.045330223
000240 a2 17 d5 be 47 67 09 3e 5c 6b 36 be 30 ad 99 3e
       -0.41619593 0.13418303 -0.17814392 0.30014944
000250 1f a6 75 3c df b7 43 3e 61 ae 80 3d 11 60 0d be
       0.01499322 0.1911311 0.0628326 -0.13806178
000260 b5 03 f4 3d 7a 43 8f be eb 3d ac 3d e8 71 aa 3e
       0.119147696 -0.27981168 0.084102474 0.3329003
000270 4d a0 c9 bd ea ed b1 3e 6d 68 88 be f6 70 18 3e
       -0.09845028 0.34751827 -0.2664217 0.14886841
000280 78 a5 88 3e d9 82 28 be 91 48 b7 be 09 56 8c be
       0.26688743 -0.16456164 -0.3579755 -0.2740939
000290 54 52 28 3e a4 8f b0 3e 21 69 91 be b7 71 0b be
       0.16437656 0.3448459 -0.2840052 -0.13617598
0002a0 fb 1b 71 3e 3a 28 c7 bd 94 7d a9 be 53 f8 90 bd
       0.2354583 -0.097244695 -0.3310362 -0.07078614
0002b0 fa 45 ee 3d 53 d4 ac be 2b 8e 21 be 84 d0 34 3e
       0.11634441 -0.3375574 -0.15776889 0.17657667
0002c0 b1 e8 bd 3d f2 79 37 be 26 01 c7 3e d2 7f a4 b9
       0.09272898 -0.17917612 0.38868064 -0.0003137575
0002d0 c7 f4 5b 3e 16 f1 6d 3d 5e e9 e7 bd 5e b8 69 3e
       0.21480094 0.058091246 -0.11323808 0.22824237
0002e0 79 18 ee be b1 ac ed 3d e8 46 48 be e0 95 5e bd
       -0.46503046 0.11605204 -0.19558299 -0.05434215
0002f0 88 e5 87 3e c2 b8 ad be 23 8f e3 3c 0e 86 d5 bd
       0.26542306 -0.33930022 0.027778214 -0.104259595
000300 16 18 c7 3e d1 d7 7b be 4a 12 ab bd 15 58 49 be
       0.38885564 -0.24594046 -0.08353098 -0.19662507
000310 31 e6 84 3e 81 8f 6e 3e 91 5f b2 bc ae 71 10 3e
       0.25956872 0.2329693 -0.021774085 0.14105865
000320 38 6a 04 3f 2f f8 82 be 77 61 b3 3d 6d 86 9a 3e
       0.51724577 -0.25579974 0.08758824 0.30180684
000330 cc 8e 47 be 60 c0 3b be 67 b4 9f 3e d9 dd 81 3e
       -0.19488066 -0.18335104 0.31192324 0.2536457
000340 b0 66 62 3e 92 94 51 3e ec 1f 02 3e 56 4a 6a be
       0.22109485 0.20466831 0.1270749 -0.2287992
000350 c2 01 98 be 5a aa c1 3d 9e 5d 0f be 98 f2 bc 3e
       -0.2968884 0.0945632 -0.14000556 0.36903834
000360 12 e2 78 bd fc be 00 3e ea 63 a0 bd 54 4d f1 bd
       -0.060762472 0.12572855 -0.07831557 -0.11782327
000370 1f f7 36 bc a0 55 51 be 79 5a 87 be 2a bd 82 bd
       -0.011167317 -0.2044282 -0.26436213 -0.063837364
000380 e3 0b de be 7d 0f 95 be 28 54 38 3e f0 bd 2f be
       -0.43368444 -0.2911338 0.18000853 -0.17162299
000390 ab 05 c8 3c 77 1a 93 bc e0 ff 80 be fd 3b 1a be
       0.024416765 -0.017956955 -0.25195217 -0.15061946
0003a0 d2 cf cd be c8 04 7c 3d 4f 5f 90 3e 25 b2 f1 bb
       -0.40197617 0.061527997 0.28197715 -0.007375973
0003b0 ae 18 d1 3d 31 8e 55 3e 69 ef 30 3e 97 23 c6 3c
       0.102097854 0.20855023 0.17278828 0.024186892
0003c0 8c de 2e be 96 a8 1a 3e 18 9f b2 3c 8d ed a3 3e
       -0.17077082 0.15103373 0.021804377 0.32017174
0003d0 dc 33 9d bd b7 73 88 3e ab ac 2b 3e f9 7a 96 3e
       -0.07675907 0.26650783 0.16765086 0.29390696
0003e0 18 13 24 3e e3 cb 59 bd 66 65 90 bd 9c cc 51 3e
       0.16022909 -0.053172957 -0.0705059 0.20488209
0003f0 e2 79 84 3e 82 52 89 3e a9 af 8c be ff a3 91 3d
       0.2587424 0.2682076 -0.27477768 0.07111358

weight f4 [64, 64]
000000 3a f5 40 3d 44 e8 e5 bd 6b b6 3e bd 99 6e bf bd
       0.047108866 -0.11225942 -0.046560686 -0.09347267
000010 f3 eb 1a 3d 88 23 4c bc 2e 05 28 be 69 8b fe 3b
       0.037822675 -0.012459643 -0.16408226 0.007768084
000020 aa d5 82 bc 83 7c 9b bd 14 b9 12 3d d8 93 ba 3d
       -0.015971024 -0.07592108 0.035821036 0.0911023
000030 7b 98 17 3d 45 c9 54 bd 7e 12 98 bd bd a9 a3 bd
       0.03701065 -0.051949758 -0.07425402 -0.079913594
000040 66 9c 6d 3d a1 88 d7 bd 20 c0 5b 3d 5d c6 0c be
       0.05801048 -0.10524107 0.05365002 -0.13747545
000050 ef 6f b7 bd 6f 64 c4 3d 1e 26 87 bb 18 b6 94 bd
       -0.089568965 0.09589469 -0.004124417 -0.07261294
000060 97 2e 17 bc c2 7a b2 3b af 40 6f bd 69 ac 71 bd
       -0.0092274165 0.005446763 -0.058411296 -0.059002314
000070 86 d8 56 be 33 92 fc bd df b9 46 bd 2a e6 4f bc
       -0.20981035 -0.12332573 -0.048517104 -0.012689153
000080 a4 c6 97 3d 1c 81 b6 bd 3f 9e 98 bc 68 7f 6e 3d
       0.074109346 -0.089113444 -0.018630145 0.058226973
000090 30 2e 2a bd 73 88 4f bd ce 1d c4 3c 42 49 4b be
       -0.041547954 -0.050667237 0.023939993 -0.19852164
0000a0 53 b8 ae bc 1b f0 19 bc cc 46 7a bb e8 56 dc bd
       -0.021328127 -0.0093956245 -0.003818917 -0.107587636
0000b0 8b 41 21 3e ba 27 5b 3d f0 2b db bd 86 62 ec 3b
       0.15747659 0.053504683 -0.1070174 0.0072138933
0000c0 90 64 47 be 2d 40 39 bc 19 a1 75 3d 8e 37 9f 3d
       -0.19471955 -0.011306805 0.059968088 0.07774268
0000d0 2e 46 0d 3e 7e 35 91 bc 71 e8 b4 bd 15 99 11 be
       0.13796303 -0.017725702 -0.08833397 -0.14218552
0000e0 c6 ca f8 bc cb ca d2 3d f6 1f 28 ba 22 ac 5d bd
       -0.030370127 0.10292586 -0.0006413454 -0.054119237
0000f0 52 89 44 3d 89 7a 4d 3d 46 14 b4 3d 67 9a 1d 3d
       0.04798252 0.050165687 0.08792929 0.038477328
000100 d8 05 b2 3d 3c d3 7c 3d 91 f4 ed 3d 31 6a 84 3d
       0.08692521 0.061724886 0.11618913 0.06465567
000110 68 9a 3d 3d 9d 1b 6d 3d 8e 70 26 bc 59 e6 0d be
       0.04628983 0.057887662 -0.010158671 -0.13857402
000120 d9 8e a4 bd e5 83 0a bd ce e5 92 bb a4 a8 8f bd
       -0.080350585 -0.03381719 -0.0044829613 -0.070145875
000130 78 b7 16 be ee 0e 9c 3d a7 f2 a1 bd 02 44 b8 bd
       -0.14718425 0.07620035 -0.079076104 -0.089973465
000140 50 78 7b bd ac 26 57 bb d2 b8 b7 bd 13 5a 08 be
       -0.061394036 -0.0032829447 -0.089707986 -0.1331561
000150 ee 76 70 bc 0b fb b8 3d d8 ee 13 3e 1b 3d 44 be
       -0.014676793 0.09032258 0.1444658 -0.19163935
000160 51 a7 dc bc d1 06 12 bd df 62 a5 bc 5b b2 c8 bc
       -0.026935251 -0.035651032 -0.020188747 -0.024499109
000170 ad 2b c8 3d 25 11 24 bd 02 5c db 3d 84 8c e1 bc
       0.097739555 -0.040055413 0.107109085 -0.027532823
000180 d8 57 fc bd 7f e0 21 3d 65 fa bc 3d 45 36 42 3e
       -0.12321442 0.039520737 0.092274465 0.18966015
000190 9a 26 aa bd a2 87 c0 bc 67 d8 d8 bd da ed e3 bd
       -0.08308144 -0.023502175 -0.105881505 -0.11129351
0001a0 d0 7f c0 3b 60 e4 5c 3b 80 70 6a 3d 4b 37 dd 3d
       0.0058746114 0.0033705458 0.057236195 0.10801562
0001b0 09 c2 a0 bd 83 ba a6 3c da bd e9 bd fe 51 23 bd
       -0.07849509 0.020352608 -0.114131644 -0.039873116
0001c0 65 d7 73 3d 14 96 f9 3c f2 30 0d be b8 9d e5 bd
       0.059531588 0.03046707 -0.13788202 -0.11211723
0001d0 00 3d bd bd 2c c9 c0 bd 78 21 1d be e9 98 51 3d
       -0.092401505 -0.094133705 -0.15344799 0.051171217
0001e0 42 a2 d6 3b 78 6d 7d bc 4b a7 ba 3d 5b c2 ff bd
       0.0065501044 -0.015467994 0.0911394 -0.12488242
0001f0 43 85 80 3d 59 db 8a 3d f8 5d 96 bb 65 2f 08 3b
       0.06275418 0.067801185 -0.0045888387 0.0020780202
000200 ab cb 8b bd 08 c3 a9 bd 52 44 79 3d c4 40 07 be
       -0.06825956 -0.082891524 0.06085617 -0.132083
000210 61 be e1 bc 91 76 50 3d 5e f7 1b 3d ff b4 31 3c
       -0.0275566 0.050894324 0.038077705 0.0108463755
000220 3c 8e c1 bd 45 85 c9 3c 75 74 da ba e1 f0 44 ba
       -0.09450957 0.02459968 -0.0016666787 -0.00075127004
000230 a0 29 24 3e 3e 24 9a bd 64 8b b4 3d cf f8 f2 bd
       0.16031504 -0.07526444 0.08815649 -0.11863863
000240 1e 01 dc bd 3e b2 78 3d a8 13 50 bd 54 ce 9e 3d
       -0.107424006 0.06071686 -0.050799996 0.07754198
000250 c9 5d a8 3b 28 5d 1f be 01 ce ee bd c9 61 c1 3d
       0.005138133 -0.1556288 -0.11660386 0.09442479
000260 2f 9c 02 be ed b9 be bc 7f 7f 9e 3d 70 46 14 bd
       -0.12754892 -0.023282016 0.07739162 -0.036199987
000270 ef 48 2f 3e 3f fa ad bc d3 e2 d3 3b 64 7d 5a 3b
       0.17117666 -0.02123749 0.0064662485 0.0033338899
000280 d8 57 00 3e a0 32 01 be d3 5b ac 3c 9e 75 b1 bd
       0.1253351 -0.12616968 0.021039879 -0.08665012
000290 ec 00 6f 3d 21 a2 d1 3c 26 15 83 bd 17 88 00 3e
       0.05835049 0.025590004 -0.06400518 0.12551914
0002a0 2a 61 19 bd fd d1 18 bd ea f9 88 3b 51 5c 92 3d
       -0.03744618 -0.037309635 0.0041801827 0.07146514
0002b0 8c c8 12 bd e1 4c 76 3d 37 14 95 bd 66 fd a2 bd
       -0.035835788 0.06013191 -0.07279246 -0.07958488
0002c0 df a7 02 3e 51 f6 fb bc 4e 0b 4c bd 6d 80 79 3d
       0.1275935 -0.030757101 -0.04981547 0.060913492
0002d0 59 25 e1 bd 45 24 4d bd 27 a6 fe bb db 8b b6 bd
       -0.109934516 -0.050083417 -0.0077712717 -0.08913394
0002e0 94 5a 9f 3d 03 72 af 3d 29 af 5e bd cb 29 3b bd
       0.07780948 0.08566668 -0.054366264 -0.045694154
0002f0 68 bc 13 be d8 b1 76 bd 70 15 c8 bd b5 ef a1 bc
       -0.1442734 -0.0602282 -0.09769714 -0.019767622
000300 b4 f4 88 3d 95 b8 ce bd 4f 67 8d 3c c7 79 6e bd
       0.066872984 -0.100938 0.017261175 -0.058221605
000310 9f df 2c bb ad be 68 3d 31 97 a8 3d 09 d2 57 3d
       -0.0026378406 0.056822468 0.082319625 0.05269054
000320 65 96 06 be f2 68 77 bd a4 65 d6 3d 6f 67 98 ba
       -0.13143308 -0.060402818 0.10468605 -0.0011627505
000330 96 0c 46 bd 34 b3 6c 3d 20 55 c3 3d 84 2a 15 3e
       -0.048351847 0.05778809 0.09537721 0.14567
000340 10 cd 16 be 71 34 c9 3d 7e f1 11 be 73 eb 01 be
       -0.14726663 0.098244555 -0.14252278 -0.12687473
000350 8b 74 de bb ca 86 6d 3c f2 0c d7 bd 4f a2 19 bc
       -0.0067887953 0.014497468 -0.10500516 -0.009377076
000360 c5 cc b1 3c ff 26 e4 3c af 03 12 3e ce 69 59 3e
       0.021704087 0.027850626 0.14259218 0.21231768
000370 f1 a4 e3 bd 1c 65 2b 3d f5 1c c7 3d 61 dc 08 bd
       -0.111154445 0.041844472 0.0972232 -0.033413295
000380 c1 e5 ed bd 4a e5 5f bd aa da 03 bd 2d ce f3 bc
       -0.11616088 -0.054662026 -0.032190956 -0.029761398
000390 7e 54 19 be 01 23 14 be c1 a6 7b bd ef 35 70 bd
       -0.14973637 -0.14466478 -0.061438326 -0.058645185
0003a0 3b dd 1c 3d 76 ab 1d be c9 63 34 3d ae 29 5f 3a
       0.03829692 -0.15397438 0.044040475 0.00085129857
0003b0 e8 d8 9d 3d 2a df 96 3d 51 20 ce 3d 60 bd 96 3d
       0.07707387 0.07366784 0.100647576 0.07360339
0003c0 b2 03 97 3d a2 6b a5 3d 0c 68 2d bd b8 93 91 3c
       0.07373752 0.0807717 -0.042335555 0.017770633
0003d0 0e b9 ed 3c 24 60 eb bd f9 1b 02 3d 74 b6 68 3d
       0.029018905 -0.11492947 0.031764958 0.056814626
0003e0 1a 66 6d bd 52 32 94 bb f1 e1 96 bb 16 6f 9b 3d
       -0.0579587 -0.0045226 -0.004604571 0.07589547
0003f0 90 80 f4 3c c5 7c 00 3e 58 f5 7e bc 8f d0 0a 3e
       0.02984646 0.12547596 -0.015561424 0.13556121

weight f4 [64, 64]
000000 4f e2 88 bd 5d 4b d6 3d 3d 19 15 3e 1d 6d d8 bd
       -0.0668379 0.10463593 0.14560409 -0.10567687
000010 64 05 31 3e 02 95 54 3c 78 0b f4 bd c3 cb 05 3e
       0.17287213 0.012974979 -0.1191625 0.1306601
000020 43 8c 4a 3e e4 92 1e be 0c c2 86 3d 87 3f 58 bc
       0.19780068 -0.15485722 0.0657998 -0.01319874
000030 36 74 b5 3d f3 c1 22 bd c6 6d 64 3d 0d 39 fe 3c
       0.08860056 -0.039735746 0.05576875 0.031033063
000040 a5 40 39 3d 1c 04 7d bd 35 c0 b8 3d 6d 37 8a 3b
       0.045227665 -0.061771497 0.090210356 0.004218033
000050 3c 51 a8 bd f1 0a e2 3d 34 39 ae bd 86 48 8f bd
       -0.08218619 0.11037243 -0.085070044 -0.069962546
000060 eb 53 06 3e 11 92 2b be 19 fe 15 3c 84 fe b1 3d
       0.1311795 -0.16754939 0.00915482 0.08691123
000070 69 66 71 3c 4e e1 a8 3d e4 9d 2c 3e ff 08 a4 bd
       0.014733889 0.082460985 0.16857105 -0.08009528
000080 ab d5 84 be 39 70 f6 3c 45 e8 99 3d 9e 35 a5 3c
       -0.25944266 0.030082809 0.07515005 0.020167168
000090 28 ca 09 bd d8 78 83 3c 21 dd e1 bd c8 d7 83 bc
       -0.033640057 0.016048834 -0.11028505 -0.016094103
0000a0 53 84 d3 bd 08 98 24 be 7d 32 1e be fb 7c a8 bd
       -0.10327973 -0.1607362 -0.15448947 -0.08226963
0000b0 e6 d0 e9 bd e5 fe 65 bc 69 09 06 be 3f 0f cf 3d
       -0.11416797 -0.014037822 -0.13089527 0.1011033
0000c0 58 4d de bc bf f6 55 be c7 6c d3 3b 0e 4f c5 3d
       -0.02713649 -0.20894907 0.0064521763 0.09634219
0000d0 b9 32 f8 3d e4 6d 93 bd f8 3e c0 3d dd 14 32 3d
       0.121190496 -0.07198694 0.0938701 0.043476928
0000e0 69 ef 6f bc 03 c6 f8 3d 5a ee 0c bc e6 af 3c bd
       -0.014644482 0.12147143 -0.008601749 -0.046066187
0000f0 ac 73 15 bd aa 25 83 3e cb 67 dc 3b fb 4b 03 3e
       -0.036487266 0.25614673 0.0067262403 0.12821953
000100 cd 2d 1c bd 43 e0 68 b9 9b 3a 21 3d 1e c5 7a bc
       -0.038129617 -0.00022208788 0.03936253 -0.015305785
000110 a7 5a 51 3d 07 19 9d 3d 3b 66 0f bd c4 fc f2 3c
       0.051111843 0.07670789 -0.035009604 0.029661544
000120 bc 36 7c 3d 3d 77 81 bd 8c 49 8e bd c3 66 49 be
       0.061575636 -0.06321571 -0.06947622 -0.19668107
000130 b6 7e d3 3d 17 72 42 bd 3c 5a 82 bc 45 87 d8 3d
       0.103269026 -0.047472086 -0.015912168 0.105726756
000140 4f 24 02 be 84 d0 8f 3d ae c6 83 bd f2 61 19 be
       -0.12709163 0.07022193 -0.064343795 -0.1497877
000150 80 c3 97 3d 97 3e cf 3d 49 41 39 3d 44 d0 f0 3d
       0.074103355 0.1011936 0.045228276 0.117584735
000160 82 d8 92 3d 69 f8 78 bc 2e 6d 09 3d 2a b9 a4 bd
       0.07170202 -0.015195944 0.033551387 -0.0804313
000170 9c af c1 bd 8d 2b d7 bd 63 ca 9f bc a8 68 5a 3d
       -0.09457323 -0.105063535 -0.019505685 0.053322464
000180 ad fb 23 3e b7 44 08 3e 04 9a 89 3d 76 54 44 3e
       0.16013975 0.13307463 0.06718829 0.19172844
000190 75 46 81 3d 08 bf d8 3d 2d 8e 64 bd 85 33 29 be
       0.06312267 0.10583311 -0.055799652 -0.1652356
0001a0 0f 53 b5 bd a9 93 d4 3d 6d 73 0d 3e 7a 9f cd bd
       -0.08853733 0.103797264 0.13813563 -0.10040183
0001b0 3f 55 50 bd 63 2e ec bd 4e e0 9f bd c3 32 59 bd
       -0.050862547 -0.11532285 -0.078064546 -0.053026926
0001c0 80 80 06 bd 6e 3a 62 3d 29 3e 4c 3d ab 06 bb 3d
       -0.03283739 0.055231504 0.049863968 0.09132131
0001d0 62 bd e2 3b 51 27 51 3d 8c 69 87 3c 00 cc 03 bd
       0.006919549 0.051062886 0.01652982 -0.03217697
0001e0 fd f3 55 3d 47 47 0a 3d aa c0 82 3d 41 35 77 bc
       0.05223464 0.03375938 0.06384404 -0.01508838
0001f0 9c 9a ef bd 06 43 78 3d bd d9 f2 3d c0 74 32 bd
       -0.11699411 0.060610794 0.118579365 -0.043568373
000200 fa 20 87 bd f0 14 90 bd 75 33 8d 3d 87 5d b9 3d
       -0.06598087 -0.070352435 0.0689458 0.09051042
000210 bd 38 5d be e5 3f b0 3b f7 8a 97 3d 6c d7 18 bd
       -0.21603675 0.0053787106 0.07399552 -0.037314817
000220 b2 76 0e 3d 8c 53 e2 bd 3f 40 58 3d 2d e2 5c 3d
       0.034781165 -0.110510916 0.052795645 0.053926636
000230 8c 83 bd bd 31 1e aa bd 7b 3d 14 be 2a 70 8d bb
       -0.09253606 -0.0830654 -0.14476578 -0.0043163495
000240 5d 41 a1 3d 0b c1 14 be 7c 01 64 3d 5b e6 aa bc
       0.07873795 -0.14526765 0.055665478 -0.020861795
000250 5c 11 08 bc 14 fe cd bd 29 4d e9 3c be 01 d7 bd
       -0.00830492 -0.10058227 0.028479176 -0.10498379
000260 d4 fa b8 3c 32 7b 4e bd 60 73 1f be 59 d2 25 bd
       0.022580542 -0.050410457 -0.15571356 -0.040483806
000270 a2 d3 95 3d 38 72 d4 3d 6f 3b 2e be 7f 6d aa 3d
       0.073157564 0.10373348 -0.1701486 0.08321666
000280 ce 44 05 bd a3 98 2a be c9 17 1e bd ba ea 5f be
       -0.03253632 -0.16659789 -0.038596902 -0.21866885
000290 e1 66 c7 bd 6c f5 8e bd 19 01 30 3d 24 ca 18 3e
       -0.097364195 -0.06980404 0.042969797 0.1492086
0002a0 f9 62 89 bd 1f d2 53 be 10 fd 87 3d 91 5a da 3d
       -0.06708331 -0.20685624 0.06640065 0.106618054
0002b0 96 86 a7 bd ea 76 b0 bd b4 55 13 3d 39 ca 29 bd
       -0.08179967 -0.08616431 0.035970405 -0.04145262
0002c0 45 3e 06 bc 8b 04 05 3e 10 b0 93 bd ac ed 8e bc
       -0.008193557 0.12990014 -0.07211316 -0.017447315
0002d0 68 03 f6 3b d8 b0 aa 3b 61 22 a5 bd b3 99 04 3e
       0.0075077303 0.0052090697 -0.08063198 0.12949257
0002e0 67 8d dd 3c 39 a8 9e 3d 5a cc d6 bd eb a3 95 3d
       0.027044965 0.0774693 -0.10488196 0.073066555
0002f0 31 20 a1 bc 15 c9 8a bd 22 bf cf 3d 44 ad 8c 3d
       -0.01966867 -0.067766346 0.101438776 0.06868985
000300 21 5d bf 3d af 2d bc bd f6 94 13 3d 21 37 c6 3c
       0.09343935 -0.09188401 0.036030732 0.02419621
000310 fe 82 bf bc 7e d0 af bc fc 13 ab 3d 9e 60 2d bc
       -0.023377892 -0.021461722 0.08353421 -0.010582117
000320 f5 a4 e9 bd a4 d5 24 3d fa 51 f6 3b a8 08 35 3e
       -0.11408416 0.040242806 0.0075170966 0.17679083
000330 af af 4a bd 94 a6 36 ba b3 02 04 bd 9b 81 ce bc
       -0.04948395 -0.0006967571 -0.032229137 -0.025208285
000340 95 97 32 3d 2b 5e 40 bc 45 e9 fa 3d c7 08 45 3e
       0.04360159 -0.011741201 0.12251524 0.1924163
000350 f1 d7 09 be 0b 0e 32 be 8d 62 8c bd 43 b8 15 bd
       -0.13461281 -0.1738817 -0.068547346 -0.03655268
000360 3d ce a1 3c 75 e3 cc 3c 49 45 10 be 7c 59 89 bc
       0.019751662 0.025010804 -0.1408893 -0.016766302
000370 cd db 6c 3c 16 e7 fe 3c 4b 29 43 be 16 43 9a bc
       0.014456701 0.03111605 -0.19058721 -0.018830817
000380 d6 06 06 ba 7d d0 89 3d 03 1e fb bd 04 76 75 be
       -0.0005112713 0.06729219 -0.12261584 -0.239708
000390 74 87 0e 3d 70 a8 3b 39 29 47 c8 3d b5 aa 17 bd
       0.034797147 0.00017896458 0.09779198 -0.037028033
0003a0 f3 bf b2 bd 3e d2 d5 3d 79 fb d8 3d fa 6f b9 3d
       -0.08728018 0.10440491 0.105948396 0.09054561
0003b0 de 8c 11 3e 61 ab f4 3d 3d 67 8b bc 77 f8 7b bd
       0.14213893 0.119467504 -0.017017001 -0.06151625
0003c0 53 b1 c4 bc f6 c6 67 bd c2 4d b6 bd 7f 05 f0 3c
       -0.024010336 -0.05658623 -0.0890155 0.029299496
0003d0 51 0c a8 38 1f d6 b0 bd d2 ec 67 bd 27 a0 85 bc
       8.0131584e-05 -0.0863459 -0.056622334 -0.016311718
0003e0 1f 76 cd bd 9b 46 2c bd 3a 80 b6 bd 05 a9 5c bd
       -0.100322954 -0.042059522 -0.08911176 -0.053872127
0003f0 c9 f8 c9 bd aa 30 fd bd 14 5f 90 bd 62 84 66 3d
       -0.09861905 -0.123627976 -0.07049385 0.056278594
