examples/carbon/outDir/epoch=2-step=765-val_loss=0.2701.pt (torch, 752753 bytes, 92 tensors)

cutoff f8 []
000000 00 00 00 00 00 00 08 40
       3.0

weight f4 [7, 64]
000000 15 45 59 3f 83 27 31 3f 6d cc a1 be c1 5f 07 c0
       0.84871036 0.69200915 -0.31601277 -2.1152194
000010 75 56 b6 be a8 db df 3e 53 8c fb 3e 0b 00 51 be
       -0.35612836 0.43722272 0.49130496 -0.20410173
000020 77 6f f5 3d 93 6b 9e 3f 8e f2 8e 3f 7c 36 7d be
       0.11984151 1.2376579 1.1167772 -0.24727815
000030 a7 99 85 bf f6 32 ac bf 11 0d 49 3f 99 2a 7e 3f
       -1.0437516 -1.3453052 0.7853556 0.9928375
000040 8b 4d 19 3f 5b 0d c7 bf ca c6 ae be 4e 2f ed 3f
       0.59883946 -1.5550951 -0.3413604 1.8530061
000050 55 aa ef 3e 5f 7f 21 be db c9 b8 3f a1 37 88 3e
       0.4680964 -0.15771244 1.4436601 0.2660494
000060 c0 d6 b1 3f 00 0d cb 3f 9c 40 72 3f 33 fb 57 bf
       1.3893661 1.5863342 0.94629836 -0.84367675
000070 30 8c 6e 3f 37 27 a1 3f 9a 51 00 40 3a 1b 5c 3d
       0.9318266 1.2590092 2.0049806 0.053736903
000080 d0 1f e1 3e d6 37 e6 3d f8 0a 24 3f 3c df e1 3e
       0.43969584 0.112411186 0.64079237 0.44115627
000090 42 0b 5d be a3 17 3e bf 82 0e 10 3f e2 ed 84 3e
       -0.21586326 -0.74254817 0.5627214 0.2596274
0000a0 2f da 05 3f 55 57 13 40 b7 04 bc bf 9e 18 cb bf
       0.52286047 2.3022053 -1.4688939 -1.5866888
0000b0 3c 03 9a 3f 87 20 ad 3d 2b 9e 99 bf ae d1 9c bb
       1.2032237 0.0845347 -1.2001394 -0.004785738
0000c0 10 dd 6b be 08 94 c8 be 5d 15 0b 3f 17 52 ca be
       -0.23033547 -0.3917544 0.5432947 -0.39515755
0000d0 52 75 52 3e 9f 91 e6 be 2e b5 12 bf f8 2b 0e bf
       0.20552567 -0.45032975 -0.5730771 -0.5553584
0000e0 d9 fd c3 bf 23 f8 9d bf c2 ec e8 3f fc 30 0d bf
       -1.5311843 -1.234135 1.8197253 -0.5515287
0000f0 48 a4 a9 bf 30 14 41 3e fb 75 8d bd db 66 fd be
       -1.325326 0.18855357 -0.069072686 -0.49492535
000100 ce 34 bd bf 8b 4d 24 40 c2 3c f2 be 4f cd ab 3e
       -1.478174 2.5672328 -0.4731198 0.33555076
000110 e8 2a c1 3f c2 3e 05 40 87 75 da 3f f1 57 18 40
       1.5091219 2.0819554 1.7067116 2.3803675
000120 d0 92 88 bf 57 b6 8e 3f 2c 0c 10 be de 45 4e 3f
       -1.0669804 1.1149396 -0.14067143 0.8057536
000130 10 bd a7 3e b5 bd 42 bf b8 ae cc bf 5a 71 97 3c
       0.3276143 -0.7607072 -1.599082 0.018486667
000140 5f 86 57 3f 47 d1 cc be 17 0d 85 3f d8 5f b7 3e
       0.8418941 -0.40003416 1.039462 0.3581531
000150 ca 85 58 bb 1b d1 08 bf 90 97 95 3f 44 fc c9 3e
       -0.003303873 -0.5344407 1.1686878 0.39450276
000160 dc c1 85 bf 3d dd 74 bf b4 58 09 3d 3c c8 35 3f
       -1.0449786 -0.9565008 0.03353186 0.7100866
000170 4a 84 c4 bf ae 4a d3 be a7 5f 77 3f e5 f8 cf 3f
       -1.5352871 -0.41267914 0.9663033 1.6247832
000180 ad 40 27 c0 13 26 d9 bf 37 b8 69 be 43 56 8f 3e
       -2.6133225 -1.6964744 -0.22824179 0.279955
000190 06 02 96 3d 38 81 8e 3f 55 85 90 3e d3 52 de 3e
       0.07324605 1.1133184 0.28226724 0.43422565
0001a0 0f f4 e9 3e fa 88 5d bf cc 03 48 3f 12 42 6d bf
       0.45694014 -0.86537135 0.78130794 -0.9267894
0001b0 cc 5e 53 3e ae b9 aa be 9b 8f db be 22 82 6e 3e
       0.20641631 -0.33344787 -0.42883 0.23291829
0001c0 99 67 76 3f 2e c6 b2 3e ef e4 6b bf 81 2c 66 bd
       0.9625183 0.34916824 -0.921462 -0.056194786
0001d0 0d 97 33 bf 27 b2 84 3f 20 8a 1a bf 94 ae a3 bf
       -0.7015236 1.0366868 -0.6036701 -1.2787652
0001e0 95 c0 fd 3d a0 17 95 3f 35 62 6c 3f e4 92 b1 3f
       0.12390248 1.1647835 0.9233735 1.3872952
0001f0 3e 01 b0 3f 95 dd 28 3f 4b ff f3 3e 5d 16 82 bf
       1.3750379 0.6596311 0.4765571 -1.0163075
000200 db 40 1c 3f 5c 0b ef 3e 22 af f9 3f 9d 13 88 bf
       0.6103646 0.46688354 1.9506571 -1.0630985
000210 03 f7 91 3f 17 14 b8 bd ed d3 3a 3f 6a 33 ec bf
       1.1403507 -0.08988207 0.72979623 -1.845319
000220 f1 15 d1 bd 50 4b 84 bf 32 12 a0 be 30 af 7b 3e
       -0.10209263 -1.0335484 -0.31263882 0.24578547
000230 fd 1d c1 3e 43 f5 8c 3f 8b 46 92 bf 25 f3 19 3d
       0.37718192 1.1012348 -1.1427778 0.037585396
000240 41 c0 93 3e 24 f0 c5 3e b3 e3 4d be b4 83 f1 bd
       0.28857616 0.38659775 -0.20106392 -0.117926985
000250 63 51 54 bf fc 20 b4 bf 83 3c d0 3f 63 68 30 3e
       -0.82936686 -1.4072566 1.6268467 0.1722732
000260 9c 4c 34 bf 1b 23 a1 3e 9a 2b 21 3e 43 4e c5 3e
       -0.70429397 0.31472096 0.15739289 0.3853627
000270 07 db 12 3f 6d 78 7f 3f fd 29 0b 3f 32 64 a1 3d
       0.5736546 0.9979313 0.54360944 0.07880439
000280 da 9a 7f 3f 8b 57 ff be 2a d8 42 3f f7 48 1e 3f
       0.9984566 -0.49871477 0.7611109 0.61830086
000290 ec 48 99 be e5 48 40 be 22 3c f5 3f a4 b0 30 3f
       -0.29938447 -0.18777807 1.9158976 0.6901953
0002a0 32 c9 a0 be 1b 13 8a bf 08 97 76 3e 93 b7 b2 bf
       -0.314035 -1.078708 0.24081051 -1.3962272
0002b0 01 8e e8 3d a7 67 8d 3f ff 94 b2 bf c3 42 f3 3e
       0.1135521 1.1047257 -1.395172 0.47511873
0002c0 96 60 8a 3f 2f a2 06 3e b4 69 c9 3f cb 0b 48 3f
       1.0810726 0.13147806 1.5735383 0.78142995
0002d0 a5 c8 7c 3f 7a 70 be bf 26 31 16 3f 2e 18 22 3e
       0.9874366 -1.4878075 0.58668745 0.15829536
0002e0 2a b2 2a 3f 52 90 7e bf 14 3d 98 bf df 14 99 bf
       0.66678107 -0.99438965 -1.189364 -1.1959494
0002f0 14 ec a7 3f 05 e0 56 be 8b 1f 48 3f 7e 5c 7d 3f
       1.311892 -0.20983894 0.7817313 0.98969257
000300 92 a0 2f 3e 78 44 60 3f 1f fd 92 be 1a c5 82 3f
       0.17151096 0.87604475 -0.2870874 1.0216401
000310 bb d5 02 bf 6f 5b db bf 9b 93 02 bf 31 25 f3 be
       -0.51107377 -1.7137278 -0.5100648 -0.47489312
000320 cb 8a 29 3f 1e 68 9a bf 2b 81 1b 3f 78 12 0c bf
       0.66227406 -1.2063024 0.6074397 -0.5471568
000330 84 dc 8c bf 47 5a 38 bf 2c 78 43 3c b7 f6 ad 3e
       -1.1004796 -0.7201275 0.011930507 0.3397729
000340 c2 77 a0 bf 4a a1 7c 3f 6d 43 fd be c1 3a a4 bf
       -1.2536547 0.9868361 -0.49465504 -1.283043
000350 a1 96 e0 3e 09 60 2f bc 31 4f ab 3f 2d 0e 8f be
       0.4386492 -0.010704049 1.3383542 -0.27940503
000360 dc 4d 93 3e ff b3 08 bd f6 eb 87 bf 45 58 ea bd
       0.2877034 -0.033374783 -1.0618885 -0.11442617
000370 14 15 48 3e 35 b3 3c bf ed 9c d9 3f 2a 43 b1 3e
       0.1953929 -0.7371095 1.7001015 0.34621555
000380 30 3b 14 be ec 3a 23 3f 46 05 90 be 59 39 aa bf
       -0.14475703 0.6376178 -0.28129023 -1.3298751
000390 69 5f 27 bf 32 23 dc 3f 2c 01 76 bf 5d 33 23 bf
       -0.6537996 1.7198241 -0.9609554 -0.6375025
0003a0 05 10 63 bf f0 b9 56 3f 11 92 93 3f aa 6b e1 bf
       -0.8869632 0.8387747 1.1528951 -1.7610981
0003b0 73 b3 8d bf 7e d2 db bf 7f 6c c4 3f 4c 1f 52 bb
       -1.1070389 -1.7173612 1.534561 -0.0032062111
0003c0 22 5d b8 3f 35 7f e2 bd 1d ad 13 3f f9 3b 2d be
       1.4403422 -0.11059419 0.57686025 -0.16917409
0003d0 a3 26 98 3f 9a 49 21 be ab 86 3a bd 5b 02 26 3f
       1.1886791 -0.15750733 -0.045538586 0.64847344
0003e0 0d e9 5e bf 7b 37 14 3e cd 90 f3 3f f5 e1 c7 3e
       -0.8707436 0.14474289 1.9028565 0.3903958
0003f0 bb 6d 07 3d 67 00 83 bf 67 c7 3b 3f 72 11 8f 3f
       0.03306363 -1.0234498 0.7335114 1.1177199

weight f4 [64, 64]
000000 9d 4a 2f 3e 78 b3 08 3e 4b a9 45 be 37 31 0b be
       0.17118306 0.13349712 -0.19302861 -0.13592993
000010 d7 03 eb 3d fe 9d 24 bd aa 37 ee bc c5 16 f7 3d
       0.11475342 -0.040189736 -0.029079277 0.1206489
000020 d2 df 71 be 4e ca 52 3d 08 57 07 3e b2 88 40 3e
       -0.23620537 0.051462464 0.13216794 0.18802145
000030 aa 2a 64 3e 7d e3 33 3e 65 1c 0f bd 0e b4 e6 bd
       0.222819 0.17567249 -0.03493919 -0.112648115
000040 0f 82 e5 3d 83 2f 10 3e e0 1c d4 bd b6 bd 45 bb
       0.11206447 0.14080624 -0.1035707 -0.003017289
000050 3f a8 80 bd 2a e5 0e be 54 52 16 3e 43 9e 8b 3d
       -0.062820904 -0.13954607 0.14679843 0.068172954
000060 48 51 15 3e 5b 00 c8 3d be 28 03 3e ea 72 20 3d
       0.14581788 0.09765693 0.1280851 0.03917209
000070 24 89 9a bc c4 44 27 3d f1 bb bd 3c 79 30 2c bd
       -0.018864222 0.040837064 0.023160907 -0.042038415
000080 f4 af 4b 3e ec ca 8a bd 37 d0 e5 bd 94 f6 29 bc
       0.1989134 -0.067769855 -0.112213545 -0.01037373
000090 80 c4 17 bd f9 d0 6f be fc 6a b3 3d d8 0e 34 be
       -0.03705263 -0.2341956 0.0876064 -0.17583787
0000a0 fc 43 bd 3d 3b 2a 58 bd fe 61 36 3e f4 15 ac 3d
       0.092414826 -0.05277465 0.17810819 0.08402625
0000b0 d2 6d 0e 3e b8 49 df bc 1e e4 7b 3c 01 8c b5 3d
       0.1390908 -0.027256832 0.015374212 0.08864594
0000c0 09 37 e4 3d 41 05 a3 3d 91 fc bc bd 73 c5 07 be
       0.111433096 0.079599865 -0.09227861 -0.13258915
0000d0 cb cb 03 be 0c 04 27 be 53 9a 3b bd 16 56 4c 3e
       -0.1287071 -0.16310138 -0.045801472 0.19954714
0000e0 f4 92 17 be 38 89 54 be 4c b0 49 b8 7e 1e 2f 3d
       -0.14802152 -0.2075547 -4.8086324e-05 0.04275369
0000f0 d5 17 a5 bd a4 49 39 be 10 a7 b5 3c f6 37 46 be
       -0.08061186 -0.18094498 0.022174388 -0.19357285
000100 d0 83 c5 bd 74 d4 02 bd 30 8c 1d 3e 05 c0 a2 bc
       -0.09644282 -0.031940892 0.15385509 -0.019866953
000110 54 95 9e 3b 70 ac 19 bd 92 a5 38 3d 0a b3 80 bd
       0.0048395786 -0.037517965 0.045079775 -0.06284149
000120 ec 91 ce bc 5b 84 04 be 09 f8 a4 bd 06 02 f9 bd
       -0.025216065 -0.12941115 -0.080551215 -0.12158589
000130 83 7a 40 bd 83 8c 07 bd 08 e9 3c 3e 43 2e ba 3b
       -0.046991836 -0.033092987 0.1844827 0.0056817844
000140 f1 01 e7 bd b1 b9 cf bc 5d 9e 0a 3e 86 8b 97 bc
       -0.11279667 -0.0253571 0.13536973 -0.018499147
000150 98 e8 47 3d ba e3 b6 3d 64 f2 04 be 23 dd c0 3d
       0.048805803 0.08930154 -0.1298309 0.094171785
000160 b8 09 d0 bd ab 56 d5 bd d2 dc a7 3d 06 67 bd bd
       -0.10158104 -0.10416921 0.08196415 -0.09248166
000170 f8 7c a5 bc 5a 66 c7 bd 1a 67 0c bc b4 20 25 bd
       -0.020201191 -0.09736319 -0.008569503 -0.04031439
000180 1e 08 64 3d 11 d5 ca bd c6 c8 61 bb 0e 2b 0e 3e
       0.055671804 -0.099039204 -0.0034451946 0.13883612
000190 7f 26 45 3d 6f 48 63 3c e6 74 29 be 5e 54 d3 3d
       0.048132416 0.01387225 -0.165485 0.10318826
0001a0 9a 89 19 3d f8 e1 48 3d f0 50 0c be 6b 91 29 3d
       0.037484743 0.049043626 -0.1370275 0.041398447
0001b0 3e b0 40 be cd 7a c9 3c 94 81 e9 3c 81 fb f4 bd
       -0.18817231 0.024594689 0.02850417 -0.11962033
0001c0 f6 82 50 3d 59 89 09 bd 32 1a 17 bb 40 96 18 bd
       0.050906144 -0.03357825 -0.0023056385 -0.037252665
0001d0 3c fa ef bc d2 ae 6d 3d 95 9a 97 3d e1 71 f8 bd
       -0.029294126 0.05802805 0.07402531 -0.12131096
0001e0 15 a8 9a 3d 74 cf 2a 3c 6a e6 a3 3c 99 9f 02 be
       0.0755159 0.010425437 0.02000733 -0.12756194
0001f0 7e fc b4 bd c6 15 08 3e 1c 89 28 3d 6e f2 18 3e
       -0.088372216 0.13289556 0.041146383 0.1493623
000200 e4 2c 15 3c 6d 28 18 3d 86 72 97 bd db c2 8f bd
       0.009104941 0.037147928 -0.073948905 -0.070195876
000210 17 45 ad 3d 16 07 42 be e5 61 14 3d 91 dc ee 3d
       0.084604435 -0.18948016 0.036226172 0.116631635
000220 2e fb 42 be 86 69 99 3d 7c 38 c4 3d 94 0b b0 3d
       -0.1904113 0.0749083 0.09581086 0.08595958
000230 ad 36 4a 3e 6d 02 ca bc 36 8c d2 bd 01 7d 60 bd
       0.1974742 -0.02465936 -0.10280649 -0.054806713
000240 0d c4 ba bd 13 e2 b5 3d 0e 28 35 3d 2a 96 1a 3e
       -0.09119425 0.08881011 0.044227652 0.15096346
000250 96 70 00 be 6c 7c 1a be 62 f4 40 bc 19 9c dd bc
       -0.12542948 -0.15086526 -0.011777015 -0.027051972
000260 82 79 16 bb 1a 00 81 bd ca c4 16 be 33 5a d2 bd
       -0.0022960608 -0.062988475 -0.14723507 -0.102711104
000270 43 2b d8 bd 77 81 5f 3d 49 59 13 3e 30 f2 0a bd
       -0.105551265 0.054566827 0.14389528 -0.033922374
000280 e9 5c 2d 3e 81 46 6b bd 31 f1 a0 3d 90 33 4f be
       0.16929974 -0.057440285 0.078585036 -0.20234513
000290 58 df 45 be 89 d0 52 bd b4 f1 09 3e 92 a9 3c be
       -0.1932348 -0.051468406 0.13471109 -0.18424061
0002a0 14 ba ef 3b f5 36 30 be f3 04 35 3e e6 5e ca 3c
       0.0073158834 -0.17208464 0.17677669 0.024703454
0002b0 2f f6 2f 3d 5e 77 14 bd c1 9e f9 3d 4b 8f 4d 3e
       0.04295939 -0.03624665 0.12188483 0.20074193
0002c0 4c 90 8a 3d 50 5e 00 3e c8 4f a6 3d 9f 7a a8 bd
       0.06765804 0.12535977 0.08120686 -0.08226513
0002d0 94 d5 12 bd ea e7 d5 3c 6a 87 77 bd 32 4e 44 bd
       -0.035848215 0.026111562 -0.060431875 -0.047926135
0002e0 ef 95 a0 bd 70 b4 6f 3d 13 52 be 3d 9f 9c 28 3e
       -0.078410976 0.058521688 0.09292998 0.16465996
0002f0 7f e4 0e 3e cb 3a 98 bd ce 09 00 3e 39 80 c9 bd
       0.13954352 -0.07433089 0.1250374 -0.0983891
000300 27 ba c6 3d a8 cd 7f 3e bb 60 da bd ec 11 9a be
       0.097034745 0.24980795 -0.10662981 -0.30091798
000310 7e 19 af 3e da e5 4b be 8a cc 4d be 31 6d 71 3e
       0.34199136 -0.199119 -0.20097557 0.2357681
000320 cf e6 18 be 64 87 ec 3d 54 5e 4b 3e 98 6f 4b 3e
       -0.14931796 0.11549261 0.19860202 0.19866788
000330 76 d6 ad 3d 17 cb 8b 3d fd 98 09 be 85 35 4c 3b
       0.08488171 0.06825846 -0.13437267 0.003115983
000340 57 df 70 3e bf 8c 88 3e 8e f0 db bd e2 b1 6d 3d
       0.23522697 0.2666988 -0.107392415 0.05803097
000350 b0 4f 89 3e 01 cb 96 bd 03 7d 4b 3e e9 16 66 3e
       0.2681861 -0.07362939 0.19871907 0.22469677
000360 69 dc ac 3e d2 24 58 3e f1 9b 77 3e 08 3a 69 3e
       0.3376191 0.21107796 0.2418058 0.22776043
000370 f9 71 5d be 1f 1e 4b 3d 28 84 36 3e a4 f8 a4 3d
       -0.21625508 0.049589273 0.17823851 0.08055237
000380 d0 ef 84 3d ac 99 3a be 3b ca dc bc de 2c a9 be
       0.06491053 -0.18222684 -0.0269519 -0.33042043
000390 63 84 34 be 49 2b a6 be b0 d0 ed 3d 0f c5 3c be
       -0.17628627 -0.324549 0.116120696 -0.18434547
0003a0 2f 8c f6 3c be 6e e6 bd 5c c6 a1 3e ff 9f 9d 3e
       0.030096142 -0.11251591 0.3159665 0.3078613
0003b0 2b a1 1a 3e 1e e0 8f bd 1b 0d 41 3e 02 7f a6 3e
       0.15100543 -0.07025169 0.18852656 0.32518774
0003c0 93 d2 14 3e 2e 7b a2 3d fc 63 e4 bd 55 f0 1b be
       0.14533453 0.07933651 -0.11151883 -0.15228398
0003d0 7d b8 b5 3c c2 99 96 be 38 ef 12 be a3 1a 6f 3e
       0.022182697 -0.29414183 -0.14349067 0.23350005
0003e0 77 d6 86 be 2b 7a 82 be dd 91 cf 3c 66 02 7e 3e
       -0.263355 -0.25483832 0.025338108 0.24805602
0003f0 e8 e4 fa 3d fa ba 71 bd 97 6d 8d 3e 1e 4f 79 be
       0.12250692 -0.059016205 0.27622673 -0.24346587

weight f4 [64, 64]
000000 d7 7f 5d 3d 92 c7 14 be 9d 16 32 be 8a 30 3a be
       0.054076996 -0.14529255 -0.17391439 -0.18182579
000010 74 01 95 3d cc de 87 bd 3a 9e 34 be 64 7f 2b bc
       0.07275668 -0.06634292 -0.17638484 -0.010467384
000020 fe a5 e3 bd ee 14 61 3d bf b3 b7 bc 19 2d 14 3e
       -0.11115645 0.0549516 -0.022424577 0.14470328
000030 1e 09 86 be 0b fb 3e 3c 97 2a 2f be 16 77 03 be
       -0.2617883 0.011656533 -0.1710609 -0.12838396
000040 04 63 65 3e 11 7d f1 3d 7c 34 b5 3d 2f bc 5e 3d
       0.22401053 0.11791433 0.08847901 0.054378685
000050 9d 74 f7 3d cd ad 71 bd 6f 1b a0 3c 27 cf 2c bd
       0.12082789 -0.05900364 0.019544331 -0.042189743
000060 9a f2 2f 3d c2 ab 3e 3c 9f 18 a1 3d 4c c9 ba 3c
       0.042955972 0.01163763 0.07866024 0.022801064
000070 13 34 a0 3d ee f7 bc 3c 05 db 1b be 93 ff 39 3c
       0.07822432 0.02306744 -0.15220268 0.011352438
000080 f7 db f6 bc 5a a6 6a bd db 09 7b be 60 d6 65 bd
       -0.030134184 -0.05728755 -0.24515478 -0.056112647
000090 15 0b 82 bd 4d 4b 7e bd 1f d3 0e bd 78 cb 0c be
       -0.0634977 -0.06208353 -0.03486931 -0.13749492
0000a0 9c 12 eb bd dd 57 11 be cf 1f 37 3d 33 28 00 3e
       -0.11478159 -0.14193673 0.04470807 0.12515335
0000b0 b8 d9 d7 3c 5a 1e 58 bd b8 b3 c2 3d 2c 62 05 be
       0.026348934 -0.05276332 0.09506935 -0.13025731
0000c0 d9 66 ce 3d 5f 1d db 3d 2a 79 24 be fc 42 f6 bd
       0.100782104 0.106989615 -0.16061845 -0.12024495
0000d0 af 38 f0 bd 54 89 08 be ae d1 ec bd ea a2 ef bc
       -0.117295615 -0.13333637 -0.11563431 -0.029252488
0000e0 c0 fe a7 3b a9 b6 e6 3c 2c 19 2b be 23 73 9a bd
       0.005126804 0.028163271 -0.16708821 -0.07541492
0000f0 07 35 6b 3e 49 4e 48 bd cf d3 10 3b b1 4a 3f 3d
       0.22969447 -0.048902784 0.0022098904 0.04670209
000100 6c e5 36 bd 98 85 72 3d 4e 30 88 bd 3c 9b 4c 3d
       -0.044652387 0.059209436 -0.066498384 0.04995273
000110 ef 36 2c 3e 23 56 97 bc 6c 93 10 3b 1d e6 ad 3d
       0.1681783 -0.01847369 0.0022060527 0.08491156
000120 6b 82 0e be be 26 69 3c fb 0a cb 3c 88 99 90 3d
       -0.13916938 0.014230428 0.02478551 0.07060534
000130 35 69 ca 3d 1d 8d 99 3d cb c2 e9 bc ba ef 44 3d
       0.09883348 0.07497618 -0.028535267 0.048080184
000140 45 f3 36 3c d0 d1 4c bd cb e2 ce 3c bc 81 c0 bd
       0.011166398 -0.05000478 0.025254628 -0.09399745
000150 54 16 4d 3e 7b 4b 27 3d 29 ec 08 3e e2 88 b8 bc
       0.20028049 0.04084347 0.13371338 -0.022526208
000160 9c cf 38 3d 0f 02 e9 3d 80 ef 89 bd c3 70 0f 3e
       0.045119867 0.11377346 -0.06735134 0.14007859
000170 f2 b4 47 3d 0d 27 8e 3d a6 dc b3 3c 42 60 bf 3d
       0.048756547 0.06941042 0.0219558 0.093445316
000180 58 03 84 bd d0 da 7a 3d f2 be d4 3d 03 b8 78 bd
       -0.0644595 0.061243832 0.103879824 -0.060722362
000190 22 f5 e1 bd 74 ec 41 bd 25 e8 2f 3e 7a 1e 8b 3d
       -0.110330835 -0.04734464 0.171784 0.06792922
0001a0 5f d8 b3 bd 2b 26 50 be 69 ef 42 bd cb 04 f5 bd
       -0.08781504 -0.2032706 -0.0475916 -0.11963805
0001b0 3b 79 04 3e b4 af 96 bd ee e6 04 3e 7e f9 11 3d
       0.12936871 -0.073577315 0.12978718 0.035638325
0001c0 28 f2 13 be 94 3f 9a 3c 45 91 85 3d 9f 46 53 3c
       -0.14447844 0.018829145 0.065218486 0.012895255
0001d0 4c 0b 91 3d 57 94 94 3b 4a 0e fd bc 2f 4f b3 bd
       0.07082233 0.004534285 -0.030890603 -0.087553374
0001e0 e1 ae 10 3d 4e dc f7 bd da 93 bd 3d d0 22 24 3d
       0.035323028 -0.12102567 0.09256716 0.040072262
0001f0 9e bf 54 3e 50 59 cb bd 8f 1a 33 3c 70 d8 ca bd
       0.20776221 -0.099291444 0.010931625 -0.099045634
000200 7d b4 73 bd 6f ce 11 ba 47 e9 09 3e a0 b5 25 3e
       -0.0594983 -0.0005562072 0.13467894 0.16182566
000210 4b 9a 6f 39 85 0d a5 3d 2d e2 e8 3d cf 79 d1 bd
       0.00022850295 0.08059219 0.113712646 -0.10228311
000220 b5 ef 0b 3e 37 46 21 be 96 0c 5e ba 14 c8 c6 bd
       0.1366566 -0.15749441 -0.00084705034 -0.097061306
000230 e2 2a 2f 3c cb 27 dd bd 98 69 61 3d c4 24 9f 3d
       0.010691376 -0.107986055 0.055032343 0.07770684
000240 38 42 46 bd a3 1b 00 bd 28 3f bc 3d 8e a9 5a bd
       -0.048402995 -0.031276356 0.091917336 -0.053384356
000250 c5 1c d3 bc d6 32 a0 bd c8 85 f1 bd b9 e0 24 be
       -0.025770554 -0.07822196 -0.11793095 -0.1610135
000260 29 98 b0 bd 5d fd 43 3d 15 5f a8 bd e0 a4 93 bc
       -0.08622772 0.047849048 -0.082212605 -0.018022954
000270 6a 73 82 3b 1b c9 19 be d0 53 d0 bd 5a 54 92 3d
       0.0039810436 -0.15018122 -0.10172236 0.07144995
000280 ad a2 b1 3d ea 8e 47 bd 05 c7 41 3d f2 09 82 3d
       0.08673606 -0.048720278 0.04730894 0.06349553
000290 1f 9b 0a bb 05 6d 30 3c 0e bd 1d 3c ea 1e 3d 3d
       -0.0021149588 0.01076818 0.009627594 0.04617206
0002a0 4e e9 25 be 87 33 6c 3d c5 eb e6 bd c4 87 06 be
       -0.1620228 0.057666328 -0.11275438 -0.13137728
0002b0 9a 44 c7 bd d0 b7 2e 3d 21 b5 93 bb b2 92 be bd
       -0.097298816 0.042655766 -0.004507676 -0.09305324
0002c0 af 30 e9 3d dc 39 c0 3c 39 e4 ec 3c bb 2b b4 bd
       0.11386239 0.02346509 0.028917419 -0.087974034
0002d0 e2 4b 0f 3e a0 99 5d 3d ea 2d 6e 3d e1 83 c2 3c
       0.13993791 0.054101586 0.058149256 0.023744525
0002e0 6f 2f 56 bd 12 82 ee 3c 64 77 1b 3d 7f 3c 6c bd
       -0.05229133 0.029114757 0.037955657 -0.05767488
0002f0 7b b6 12 be 78 79 d7 3d 20 12 31 be db a4 90 3b
       -0.14327423 0.10521215 -0.1729207 0.0044141836
000300 15 e9 49 3d 24 17 01 3e a7 b5 ff 3b 57 b7 8c bd
       0.04929455 0.12606484 0.007803637 -0.06870907
000310 6c b7 25 be 83 3d af 3d f8 31 dc 3d 4b 11 62 3d
       -0.16183251 0.08556654 0.10751718 0.055192273
000320 c3 33 b7 bd 52 95 05 bd fd 10 aa 3d 13 65 4b bc
       -0.0894542 -0.032613106 0.083040215 -0.012414235
000330 17 54 94 3d b4 36 ae bc 95 8a 47 3d 59 7c 8c bd
       0.07242601 -0.021266319 0.048716146 -0.06859655
000340 92 4f 0a 3c 92 05 cb bd fb fe 9e 3c 25 af 7b 3d
       0.008441823 -0.09913172 0.019408694 0.061446328
000350 45 09 9a bd 80 68 8b bd ae f6 0d be d4 a9 ca 3d
       -0.07521299 -0.06807041 -0.13863632 0.098956734
000360 4a a0 57 bd 11 25 f2 3d 6e 3f 15 3d 39 b2 6c bd
       -0.052643098 0.11823476 0.036437444 -0.057787154
000370 b8 57 57 3c 06 8c a5 bd 52 20 75 3d 8f 91 7b 3d
       0.013143472 -0.08083348 0.059845276 0.061418112
000380 a5 fd 0b 3c d9 ba e8 3d 5f a2 7b 3a d5 45 4d bd
       0.00854436 0.11363763 0.00095990853 -0.050115425
000390 11 89 07 3e 79 c5 21 3e 8d 69 3d bd db e6 bf bd
       0.1323588 0.15797986 -0.04624324 -0.09370204
0003a0 50 e0 a1 3b 9a 90 12 3e 6a dc 23 3b 61 52 70 bc
       0.00494007 0.14312974 0.0025003203 -0.014668078
0003b0 fa 32 25 bd a7 d0 30 bd 42 29 0c be 9c 31 ac bd
       -0.04033182 -0.043167736 -0.13687614 -0.084079
0003c0 e5 a6 36 3e 8c b3 cc bd 11 8f 69 3d ba e2 46 bd
       0.17837103 -0.09995183 0.057021204 -0.048556067
0003d0 d3 e6 99 3d c5 13 32 3b a2 f0 8c 3d c2 dc 79 3d
       0.07514729 0.0027172428 0.068818346 0.061001547
0003e0 24 64 d3 3d 5a 81 d0 3d 16 60 4a 3e fa d7 cf bc
       0.10321835 0.10180922 0.19763216 -0.02537154
0003f0 a9 e3 aa bd d8 ae 9e 3d 74 21 49 bd cd b0 4a bd
       -0.08344204 0.077481925 -0.04910417 -0.049485017

weight f4 [64, 64]
000000 b0 59 a7 bd 1a 76 16 3c c2 cb eb bd a0 44 a5 bd
       -0.081714034 0.009183431 -0.11513473 -0.0806973
000010 92 2d 23 3e d0 d1 18 be 27 7e 5f 3c e2 bf f8 bd
       0.15935352 -0.14923787 0.013640917 -0.12145974
000020 36 28 c6 bd 1e 72 57 bd fd 69 9e bd 37 75 7e bd
       -0.096756384 -0.052599065 -0.077350594 -0.062123504
000030 45 0e 2a 3c 78 b7 22 bd 52 00 08 be 0f 9f 95 bd
       0.010379379 -0.03972575 -0.13281372 -0.07305729
000040 50 8a 55 3d 10 8d a4 bd b0 37 e3 bc 0b c0 02 3e
       0.05213386 -0.08034718 -0.027736515 0.12768571
000050 b5 02 23 bd f7 57 e2 3b 37 f7 9c bd dc 3d 91 3c
       -0.039797504 0.006907459 -0.0766434 0.017729692
000060 10 de 3e bc 6d bc 52 3d 6e b8 cb bd 20 f5 13 3e
       -0.0116496235 0.051449228 -0.099472865 0.14448977
000070 bb 9d 52 bc 48 f2 57 3d cf 63 1d 3c 03 83 ae bd
       -0.012854989 0.05272129 0.009606316 -0.08521082
000080 13 ed f4 3d fb ea 15 3e 67 8e 07 3d e0 2a d1 bd
       0.11959281 0.14640419 0.03309479 -0.10213256
000090 d8 43 8c 3c b3 b0 b2 bc d3 c4 e1 3d d1 df 06 be
       0.017122194 -0.021812772 0.11023869 -0.13171317
0000a0 9e d6 13 bb b7 0d 0a be 41 07 c7 bd 6d 91 b2 3d
       -0.0022558342 -0.13481794 -0.097181804 0.08719144
0000b0 1b 01 5b 3d 1e d5 84 3d 5b 10 1b 3c 37 ee d5 3b
       0.05346785 0.064859614 0.009464349 0.0065286416
0000c0 eb 1f ee 3d 75 91 05 3e a3 d9 85 3d 98 76 2c 3d
       0.116271816 0.13043769 0.065356515 0.042105287
0000d0 5b 1a 04 be 7f f6 04 3d e7 ce 87 bd 02 95 c0 3d
       -0.12900679 0.03246164 -0.0663126 0.09403421
0000e0 ac ed 88 bd 18 a0 b0 bd 9c 58 2d bd 87 ad f2 bd
       -0.06685957 -0.086242855 -0.042320833 -0.11849504
0000f0 b4 7e e0 39 20 16 f4 bc ff 2b 24 3e bc a8 a6 bd
       0.0004281901 -0.029795706 0.16032408 -0.08137652
000100 cd ad cb bd 36 53 f7 3c f6 2e 23 3e 2c 3a 07 3d
       -0.09945259 0.030191045 0.15935883 0.03301446
000110 34 2f 24 bd f1 4f 3a 3d 8f 16 f6 bd 0b 4c c8 3d
       -0.04008408 0.045486394 -0.120160215 0.09780129
000120 7f a2 07 3d da f2 1a bd 76 57 a8 bd 96 e7 f4 bc
       0.033113953 -0.037829258 -0.08219807 -0.029895585
000130 0f 23 cc bd 19 50 8e 3d be b4 a3 3d 14 72 17 be
       -0.099676244 0.06948871 0.07993458 -0.14789611
000140 be da c1 3d 15 b6 04 bd db 99 a4 bd 28 f3 28 bc
       0.0946555 -0.03240021 -0.08037158 -0.010311879
000150 67 72 1a bd fe 21 02 bd 16 6c cb 3d 8f 09 23 3d
       -0.03770676 -0.0317707 0.09932725 0.039804038
000160 6f de 1a 3e f1 e1 4c 3d 7f 11 f5 bd a8 4c 42 3e
       0.15123914 0.050020162 -0.11966228 0.18974555
000170 0c f6 ec bd 94 df 47 3d 25 e5 08 3d 7a 80 8e 3d
       -0.11570367 0.048797205 0.033421654 0.06958099
000180 7e 9f 44 bd a7 a7 e2 bd 30 22 4c 3d 5d 60 a3 bd
       -0.048003666 -0.110671334 0.04983729 -0.07977364
000190 83 dc 32 3d 15 a8 97 ba 07 99 89 3d c3 1b 81 bd
       0.043667328 -0.0011570478 0.06718641 -0.06304123
0001a0 10 20 aa 3d 24 40 b9 bc cb f7 5a bc d8 f6 8b bd
       0.08306897 -0.022613592 -0.0133647425 -0.06834191
0001b0 4c 2a 08 bd f2 e4 aa 3d 52 5f 79 bd 99 2c b6 bd
       -0.033243462 0.08344449 -0.06088192 -0.08895225
0001c0 67 b9 da 3c 1b 23 46 bd 2a 5e a6 3c 8b 34 b2 3d
       0.026699735 -0.048373323 0.020308573 0.08701428
0001d0 b9 93 16 3d f5 0a d8 3d a0 f3 46 bd 15 a8 b4 3c
       0.036761973 0.10548965 -0.048572183 0.022052804
0001e0 4d ff a4 bd c8 e2 e5 bd 45 62 af 3c eb 7e 1c 3d
       -0.08056507 -0.11224896 0.021409163 0.038206976
0001f0 ec 29 3d 3e 37 7f f5 3d 34 62 89 3d d8 ac db bd
       0.18473023 0.11987155 0.06708184 -0.10726327
000200 c2 b8 ab bd a3 04 91 3c 3b 3b 00 bd d9 47 c7 3c
       -0.08384849 0.017702406 -0.031306487 0.024326252
000210 85 78 17 bc 19 3e a8 bd 10 00 b0 bd 9f 63 92 3d
       -0.009245043 -0.08214969 -0.08593762 0.071479075
000220 0c 8e 66 3b 1d 5c 22 bd 17 26 e5 3c 79 1e 75 bd
       0.0035179881 -0.039638627 0.027972264 -0.059843514
000230 63 14 ce bd 77 d5 7b 3d c8 0b a3 bd 82 20 cf bd
       -0.10062482 0.061482873 -0.079612315 -0.10113622
000240 0f 17 3b bc a6 75 bc 3d da 0c ad 3d 34 97 9f bc
       -0.011419072 0.09202127 0.08449717 -0.019481279
000250 d1 58 8e 3d 92 6e 2f bd 36 cd 38 3d 59 bb cd 3d
       0.06950534 -0.042830057 0.04511758 0.10045499
000260 f9 16 68 3c f9 b7 2a 3e c3 6f b0 3d 66 f1 81 3d
       0.014165633 0.16671742 0.08615067 0.06344871
000270 11 e2 cb bc fd fb 91 3d 2a 77 96 3d 8e 4c a5 bd
       -0.02488807 0.07128141 0.073469475 -0.08071242
000280 84 8e 9b 3d 5a 57 16 be 91 e0 e7 bd 97 f5 7d 3c
       0.07595542 -0.1468176 -0.113221295 0.015500448
000290 79 fc 4d bc b8 ed b2 3d de 18 99 3d 6e de 20 3d
       -0.012572401 0.087367475 0.07475446 0.039274625
0002a0 0e 40 fe 3d 82 1d 80 bd 65 56 b9 3d 52 e6 54 3d
       0.12414561 -0.06255628 0.090496816 0.051977463
0002b0 9b 47 59 3c 3b 1c 8a 3d 8c 8c 02 be 46 7f 85 bd
       0.013261701 0.06743666 -0.12748927 -0.06518416
0002c0 9b cf ef 3d 93 69 84 3c 62 f7 36 bd 19 33 05 be
       0.117095195 0.016163623 -0.044669516 -0.13007773
0002d0 53 e7 18 be d5 0c 34 3c f4 c1 28 bd e1 64 02 3e
       -0.14931993 0.0109893875 -0.041200593 0.12733795
0002e0 25 ad 9e bb 80 68 73 bd 44 8e a3 bd db 7d 01 be
       -0.004842418 -0.05942583 -0.079861194 -0.12645666
0002f0 c4 4a 1d bd da c7 6c 3d ed c8 97 3d 08 23 a1 bd
       -0.03840138 0.05780778 0.074113704 -0.0786801
000300 a0 7b 9d 3d 5e e3 62 bd 52 41 8b bc 31 75 0f be
       0.07689595 -0.055392615 -0.01699892 -0.14009549
000310 cb a6 a3 3d df 3c 0b 3e 7d 9d 2b 3e 2d 64 00 3e
       0.079907976 0.13597439 0.16759296 0.12538214
000320 e4 f9 73 bd 7a 2f 9a bd 39 7a 21 3d ec 79 c6 bc
       -0.059564486 -0.07528587 0.0394232 -0.024228059
000330 11 2d 77 3d 48 63 62 3d e1 9b a6 3b f4 fe c5 bb
       0.060345713 0.055270463 0.0050845 -0.0060423557
000340 8d 59 44 be 34 a4 0c be 71 22 ea bd 4f f2 85 3d
       -0.19174786 -0.13734514 -0.114323504 0.06540357
000350 d3 76 27 be cc 18 1e 3d 90 c0 a2 bd 16 b8 22 3c
       -0.16353922 0.038597867 -0.07946885 0.009931585
000360 7e b6 76 bd 80 19 ad 3d 86 2e c6 bd 4f 6a 64 bd
       -0.06023263 0.08452129 -0.096768424 -0.055765446
000370 13 aa 80 3d 03 a4 14 bd 32 a6 ed bc 2d c3 88 bb
       0.06282439 -0.036289226 -0.029009912 -0.0041736574
000380 52 b6 cb bd 10 d7 80 3d c6 ea 48 bb 68 8c 21 be
       -0.09946884 0.0629102 -0.0030657514 -0.15776217
000390 a6 cc 1f bd 12 a6 94 bd 48 6e 1e be 03 23 00 be
       -0.039013527 -0.07258238 -0.15471756 -0.12513356
0003a0 01 69 15 3d 54 7a 9e 3c 4a 58 42 bc fe 41 d4 bc
       0.036477093 0.01934544 -0.01186187 -0.025910374
0003b0 d3 0b dd bc d4 47 8d 3d 4b ae cd 3d a1 35 05 3e
       -0.026983177 0.06898466 0.10043009 0.13008739
0003c0 59 ec be bc ad 71 a1 3d 9e 2c 4b bd ba 44 d4 3d
       -0.023306059 0.0788301 -0.049603097 0.10364671
0003d0 4f b9 e0 3d 21 d6 9a 3d 12 09 2b 3e 52 24 16 3d
       0.10972845 0.07560373 0.16702679 0.03665573
0003e0 e1 c2 b5 3c 7f e5 b9 bd 4e 29 ae 3c 80 87 20 3e
       0.022187652 -0.09076976 0.02125993 0.15676689
0003f0 99 26 2e bc 91 69 d2 bd 80 53 11 be f3 b7 b7 3d
       -0.01062932 -0.102740414 -0.14192009 0.089706324

freqs f4 [8]
000000 c3 3a 6c 3f 29 09 0c 40 c2 83 4c 40 ef 57 82 40
       0.92277163 2.188059 3.1955419 4.073234
000010 3a 6a a9 40 c4 dd c8 40 a2 ac eb 40 d5 09 08 41
       5.294217 6.277071 7.3648233 8.5024

weight f4 [64, 8]
000000 55 ea 61 3e 07 a7 a8 3d 58 72 01 3d 59 7c 66 3e
       0.22062047 0.08234983 0.031603187 0.22508372
000010 69 68 3d be d3 29 c0 3d 06 71 48 3d 2a 7f 50 3c
       -0.1849686 0.09382977 0.048935913 0.012725631
000020 48 ee b2 be 0f 1a a7 be 2c 55 d6 bd 57 b5 7d be
       -0.3494742 -0.3263707 -0.10465464 -0.24776207
000030 f9 98 a4 be 4b 2e de bd 5a 5d 97 bc a0 ae b1 3d
       -0.3214796 -0.108486734 -0.01847713 0.08675885
000040 90 54 df bd 01 06 0f be a0 a1 08 be 98 d0 3e 3e
       -0.10904801 -0.13967134 -0.13342905 0.1863426
000050 82 0f a1 3d 4e 3a bd 3e 16 4d 08 3e ce ff 84 3e
       0.07864286 0.36958545 0.13310656 0.25976413
000060 bf 9d ef bd e0 e7 55 be 17 32 02 3e 46 01 8f 3e
       -0.117000096 -0.20889235 0.1271442 0.2793066
000070 2f 79 b7 bd a1 9f 8e 3d 54 77 93 be 29 e9 0e 3e
       -0.08958661 0.069640405 -0.28801978 0.13956131
000080 ee 55 d4 be a6 1b b8 bd 9e 1e e5 bd 97 ed 12 be
       -0.4147181 -0.089896485 -0.111874804 -0.14348446
000090 14 87 0e 3c 3a da 34 be 18 2a be 3e 2d 7b 11 be
       0.008699197 -0.17661372 0.3714149 -0.14207144
0000a0 e8 8a 3d 3e 53 d1 9d be aa 99 58 3e 0a 2a 8f 3e
       0.1851002 -0.30823764 0.21152368 0.2796176
0000b0 af f9 83 be d6 24 ff bd 17 4f be bd 2b b8 8c bd
       -0.2577643 -0.12458198 -0.09292429 -0.06871065
0000c0 99 58 a3 3d 11 58 a0 3e 9f b8 7b bd c0 b2 e4 3d
       0.07975883 0.3131719 -0.061455365 0.11166906
0000d0 2b 51 7c be 15 f2 42 be 75 76 99 be 25 a2 29 3b
       -0.24640338 -0.1903766 -0.29973188 0.0025884
0000e0 33 a1 9c bc 2f 3b b1 3e ff 48 45 3e eb b5 12 3c
       -0.019119835 0.34615466 0.19266127 0.008954505
0000f0 a6 90 e0 bd 42 36 20 3d 71 9d 41 be 51 d7 1a 3d
       -0.109650895 0.039114244 -0.18907715 0.037802998
000100 88 5d fd bd 7d fe 3a be 3e 5a 23 3d ee 45 8d 3d
       -0.12371355 -0.18261142 0.039880984 0.06898104
000110 7a f4 58 bd 4f 1d bd 3b 74 7f 9a be 86 f0 f8 bd
       -0.052967526 0.005771316 -0.30175364 -0.12155251
000120 6b 38 f4 be 65 68 a9 3e d6 91 af 3e 4c ac 9f be
       -0.47699293 0.3308746 0.34290951 -0.3118614
000130 47 0c 6c be 05 6e 8d be 80 a6 53 3e 36 9e 9c 3d
       -0.23051558 -0.27623 0.20668983 0.07647364
000140 e5 8f e8 be 1a eb c5 bd 36 ed a3 3e 20 b6 3e bd
       -0.45422283 -0.09663983 0.32016915 -0.046560407
000150 42 d9 9a be bd f4 0e 3e d7 24 b0 3e 82 91 b5 3e
       -0.3024388 0.13960548 0.34403107 0.35462576
000160 6d 1d 49 3e 81 09 06 be 5c a1 9b 3a c7 a1 a8 3e
       0.19640131 -0.13089563 0.001187365 0.32935926
000170 5a aa e0 3d 6b 0f 99 be 3f 21 33 3e f2 4b c2 3d
       0.10969992 -0.29894575 0.17493151 0.09487142
000180 c3 ba dc be 75 52 5d be 32 68 93 3e fa f8 84 3e
       -0.43111238 -0.21613486 0.28790432 0.25971204
000190 c4 ea a2 be 1c ae ed 3d 71 73 73 3e f5 db 92 3d
       -0.31819737 0.11605474 0.23774506 0.0717086
0001a0 50 31 86 3e 26 e6 fc 3d 11 56 07 3e fa 1b 2e 3e
       0.26209497 0.12348585 0.13216425 0.1700286
0001b0 c1 ee 82 bd 9b 68 b6 3c 40 0b 05 be 9f f3 cd bd
       -0.06393195 0.022266677 -0.12992573 -0.10056233
0001c0 ca b8 76 3e ad ed 1e be 7b 9b e6 3d 3c 5c a0 3e
       0.24093929 -0.15520354 0.11260124 0.3132037
0001d0 99 2f 38 3d eb 6f 91 3e 75 b0 17 bd a5 c8 70 bd
       0.044967268 0.284057 -0.037033517 -0.0587851
0001e0 25 f9 dc 3e ae 54 39 be e9 7c b1 3e 7d d6 bf 3e
       0.43158832 -0.18098709 0.3466561 0.3746833
0001f0 b0 24 90 be 7f 62 08 be a6 96 82 3e d2 ee 49 bd
       -0.2815299 -0.13318823 0.2550556 -0.049300022
000200 b7 b6 cc be 2c d4 71 3d 0a 3b db be df 93 f6 bc
       -0.3998315 0.059040233 -0.4281848 -0.030099807
000210 fd e3 2f 3d c4 f2 f1 bd c7 e0 5b bd f1 42 1a 3e
       0.042942036 -0.11813882 -0.05368116 0.15064599
000220 a5 34 e5 3d 79 4c 36 bd 72 70 21 be d9 b6 77 3c
       0.11191682 -0.044506524 -0.1576555 0.015119278
000230 c4 76 25 bd 43 a7 86 bd 63 63 d0 bd 5a 08 b1 3d
       -0.040396467 -0.065748714 -0.101752065 0.08644171
000240 17 b6 db be a9 4b 0c 3e 38 79 2f be ac 72 a7 3e
       -0.4291236 0.13700737 -0.17136085 0.32704675
000250 8d ed 0b 3c cf b9 33 3e 6f 81 86 3d 48 7f f7 bd
       0.008540523 0.17551349 0.06567656 -0.12084824
000260 6a f2 ea 3d 67 6b 8e be cb eb aa 3d a3 06 a2 3e
       0.11472018 -0.27816316 0.08345755 0.31645688
000270 88 05 ce bd c7 cd b7 3e a9 d2 88 be aa 91 25 3e
       -0.10059649 0.35899183 -0.2672322 0.16168848
000280 53 bf 8d 3e 7e 59 13 be 1e 24 b9 be 7d 5e 92 be
       0.2768503 -0.14389607 -0.36160368 -0.28587714
000290 12 e4 28 3e c3 69 b6 3e 1a 8f 8e be 50 be 3b be
       0.16493252 0.35627565 -0.27843553 -0.18334317
0002a0 96 e0 77 3e 24 47 7b bd 00 67 a6 be f8 13 46 bd
       0.24206766 -0.06134714 -0.32500458 -0.048358887
0002b0 81 a8 ed 3d f5 6f c0 be f0 a3 32 be fc cd 10 3e
       0.11604405 -0.37585416 -0.1744535 0.14141077
0002c0 3d 95 e1 3d a0 25 13 be 8c 6a cf 3e 4b c4 ad 3d
       0.11014793 -0.14369822 0.40510976 0.084847055
0002d0 1a a7 57 3e f4 7b 0d bd ad ee 21 be 0e cd 73 3e
       0.21059838 -0.03454204 -0.15813704 0.23808691
0002e0 6b 56 f3 be 4a bb de 3d 7f 4d 49 be 9f 2f 76 bd
       -0.4752687 0.10875566 -0.19658469 -0.06010401
0002f0 03 7b 87 3e d4 d9 a8 be c2 fa 0a 3d cd 00 a5 bd
       0.26461038 -0.3297869 0.033930548 -0.08056793
000300 8e 27 cc 3e 6a fc 76 be 49 eb ba bd 8b b8 51 be
       0.39873928 -0.24119726 -0.09126908 -0.20480554
000310 f4 26 88 3e 36 94 8a 3e 30 76 a5 bc 71 69 aa 3d
       0.2659222 0.270662 -0.020197958 0.083208926
000320 0f b9 06 3f a7 66 7d be 68 9d aa 3d 7a ff c1 3e
       0.52626127 -0.2474619 0.08330804 0.37890226
000330 6d 9a 3d be cb 26 8a be 56 40 8f 3e d4 d6 8e 3e
       -0.1851594 -0.26982722 0.27978772 0.27898276
000340 91 4f 72 3e 8d 8a 86 3e 85 df 15 3e b8 2a 39 be
       0.23663165 0.2627758 0.14636047 -0.18082702
000350 cd d1 9e be 0c b5 d7 3c f7 f0 41 be 27 bb a9 3e
       -0.3101944 0.026331447 -0.18939577 0.33150598
000360 b0 a1 f6 bc 1d 07 4f 3e a8 c4 8a bc f7 c3 5a bd
       -0.030106395 0.20217557 -0.016939476 -0.053409543
000370 6e 4c 79 bd dd 89 95 be d2 6d ac be b4 8d f3 bd
       -0.060863905 -0.29206744 -0.33677536 -0.11892262
000380 8d 37 e4 be d3 39 9a be 42 75 36 3e f6 81 23 be
       -0.44573632 -0.3012224 0.17818168 -0.15967545
000390 25 54 d9 3c 1e f1 65 bc 9a 35 7f be b2 26 0e be
       0.026529381 -0.014034538 -0.24922791 -0.13881949
0003a0 41 f8 d0 be 4c b1 83 3d 47 f8 94 3e a5 20 8b bc
       -0.40814403 0.06430301 0.2909567 -0.01698334
0003b0 32 51 b4 3d 9e 8b 4a 3e 57 92 41 3e b2 4f 79 3d
       0.08804549 0.19779822 0.1890348 0.06086702
0003c0 50 8e 2f be 21 49 23 3e 69 74 03 3d 6c fa 94 3e
       -0.17144132 0.15945865 0.03209344 0.29097307
0003d0 f5 fe bf bd f1 08 8d 3e 93 a6 3e 3e f8 d0 a9 3e
       -0.09374801 0.27545884 0.1861823 0.33167243
0003e0 77 9c 41 3e f2 32 2a 3d 82 e0 5b bd 66 bb 55 3e
       0.18907343 0.04155249 -0.053680904 0.20872268
0003f0 14 5a 81 3e c3 d5 6a 3e f2 ea b5 be 47 64 9c 3c
       0.25264037 0.22933106 -0.35530812 0.019090785

weight f4 [64, 64]
000000 de 7f f7 3d cb 4a 0b be 00 cb ec bd 3c 5d 8b bd
       0.120849356 -0.1360275 -0.11562157 -0.068048924
000010 fe 16 ce 3c a3 ea 85 3d 77 ff aa bd 90 da 14 3d
       0.025157448 0.06538894 -0.08349507 0.03634125
000020 dc 42 b6 3c 34 31 bd bd 36 a9 01 3c 86 a7 de 3d
       0.022248678 -0.092379004 0.007913878 0.10871796
000030 fa bc bb 3c 7d a5 9b 3c 89 3a 80 bd 2b 42 28 bd
       0.02291726 0.01899981 -0.06261165 -0.041078728
000040 cc 1d 25 bc f7 21 bf bd af d5 2e 3d 06 a7 04 be
       -0.010077905 -0.0933265 0.042684253 -0.1295434
000050 1a 20 a6 bd 69 3a da 3d 68 5d 8a 3d f8 86 7c bd
       -0.08111592 0.10655672 0.06756097 -0.061652154
000060 9b 2d 94 ba 10 f2 24 3c da 0c c0 3a 58 5e dc 3c
       -0.0011305095 0.010067478 0.0014652268 0.026900455
000070 b3 22 4f be bd 54 0a be 62 80 9a bd 52 ff 89 bb
       -0.2022808 -0.13508888 -0.07544018 -0.0042113448
000080 1b c7 a2 3d 9a 4c 98 bd 57 61 d0 3b 78 08 4e 3d
       0.079481326 -0.074364856 0.00635926 0.050301045
000090 27 b3 75 bd 86 4e 57 bd 10 82 36 bc fa ff 51 be
       -0.059985306 -0.05256512 -0.011139408 -0.20507804
0000a0 8f c6 7b bc f1 73 d7 bb e4 1c c2 bc 0a 37 03 be
       -0.015367164 -0.0065751006 -0.023695417 -0.12813964
0000b0 54 71 1e 3e 7c 6b 2b 3d ce d0 0e be 0d 82 5d 3d
       0.15472919 0.041850552 -0.1394684 0.054079104
0000c0 03 e8 52 be 69 87 4d 3d 43 b5 4f 3d 33 6a 1c 3e
       -0.20596318 0.050177965 0.050709974 0.15274887
0000d0 6c 72 ef 3d 23 00 c7 bc 95 55 da bd 7e c5 17 be
       0.11691746 -0.024292057 -0.10660855 -0.14821431
0000e0 f9 87 b8 3c ea 5f f2 3d 42 bb 52 bc 1c 70 89 bd
       0.022525774 0.118347004 -0.012862029 -0.06710836
0000f0 50 a9 50 3d 0b 66 0f 3e eb 31 5f 3d 66 b6 23 3d
       0.05094272 0.1400377 0.054490965 0.03996887
000100 68 01 a5 3d cd b9 5a 3d c0 df f3 3d 0c 4b be 3d
       0.08056909 0.05339985 0.11907911 0.09291658
000110 3d 03 55 3d 2e cd 9e 3d 66 8f 0d 3c 4d b0 0e be
       0.05200504 0.07753979 0.008640146 -0.13934441
000120 02 af 7d 3c 87 e4 55 bd b2 2c b0 bc b8 cf b1 bd
       0.01548362 -0.052219894 -0.021505687 -0.08682197
000130 da 48 16 be af 18 b8 3d f9 79 54 bd 4a dd b8 bd
       -0.14676228 0.08989083 -0.051874135 -0.090265825
000140 3e fd bd bd bf 41 49 bb 66 08 8c bd 6e aa e6 bd
       -0.09276818 -0.0030709354 -0.068375394 -0.11262976
000150 71 f5 8a 39 17 ae ab 3d ad d2 ee 3d 74 ee 2c be
       0.0002650428 0.083828144 0.11661277 -0.16887838
000160 79 be 8c bc 18 71 4d bd a7 ed 2f bd 17 da c4 3b
       -0.017180668 -0.050156683 -0.042951252 0.0060074436
000170 e1 5b f1 3d ab 41 1b bd a3 31 ad 3d 46 63 36 bc
       0.11785103 -0.037904423 0.08456733 -0.011132067
000180 42 a3 d5 bd 50 47 d7 3c 24 7a df 3d 0c 61 34 3e
       -0.104315296 0.026279122 0.10911968 0.17615145
000190 fe 3e 87 bd e7 fa 57 bc 6f 15 06 be d5 92 c6 bd
       -0.06603812 -0.013182378 -0.13094114 -0.09695975
0001a0 c4 4b 9f bc 34 19 d5 3c 8c 64 b2 3c 8b 94 a1 3d
       -0.019445308 0.026012994 0.02177646 0.078896604
0001b0 0c 5a b5 bd 53 61 6b 3b f2 02 11 be e2 88 63 bc
       -0.08855066 0.0035916164 -0.1416128 -0.013887616
0001c0 f4 ad 9a 3d 06 38 33 3d e8 04 b1 bd fd 3f 02 be
       0.0755271 0.0437546 -0.08643514 -0.12719722
0001d0 78 ec 81 bd 61 39 ac bd fd 0b 0f be 68 5f 2a 3d
       -0.06343931 -0.08409382 -0.13969417 0.041594893
0001e0 a7 20 f5 3c 8f 65 01 bd 25 09 79 3d c6 e5 ee bd
       0.029922796 -0.031590994 0.060799737 -0.116649196
0001f0 d8 e0 8f 3d a8 70 d0 3d 72 24 44 ba 50 43 bc bc
       0.070253074 0.101777375 -0.00074822374 -0.022981316
000200 63 7c d5 bd 87 1e 8f bd 3f 96 87 3d f9 12 09 be
       -0.104241155 -0.069882445 0.06620454 -0.13386144
000210 4e 64 a1 bc 8e 47 35 3d 5a 93 05 bd ee a5 ab 3c
       -0.01970115 0.044257693 -0.03261123 0.020953145
000220 ed dc 6d bd d2 42 2f 3d 65 49 58 3c b1 f3 42 bc
       -0.05807202 0.042788334 0.013201092 -0.011898921
000230 64 e6 2f 3e 8b 66 ba bd ee 5f 98 3d ef 13 fb bd
       0.17177731 -0.0910159 0.07440172 -0.122596614
000240 67 54 b9 bd 08 17 53 3d 01 81 23 bd c1 c5 8f 3d
       -0.090493016 0.051535636 -0.03991795 0.070201404
000250 e5 8d 7b bb 3b 3f 27 be f8 56 0a be 54 89 dd 3d
       -0.0038384136 -0.16332714 -0.13509738 0.10817209
000260 3f fb 0e be 60 a5 16 bd 05 e8 11 3d ac 97 96 bd
       -0.1396303 -0.036778808 0.03562166 -0.07353148
000270 8a d7 2b 3e 67 a2 40 bc 43 8a 8f 3c cd ce 86 ba
       0.1678144 -0.01175747 0.017521983 -0.001028502
000280 8b cf f5 3d a6 52 08 be 34 5c f6 3c ea fa 9e bd
       0.12002476 -0.13312778 0.030073263 -0.07762702
000290 2d cc 8f 3d 70 6b 13 3d e5 a5 46 bd cd 43 09 3e
       0.07021365 0.035991132 -0.048498053 0.1340477
0002a0 3b 96 07 bd d7 18 26 bd 0b 98 86 3c d6 0d b0 3d
       -0.033102255 -0.040551033 0.016429922 0.08596389
0002b0 02 05 eb bc 84 d9 6e 3d 65 28 85 bd c8 23 bd bd
       -0.028688911 0.058312908 -0.06501845 -0.0923534
0002c0 49 56 0e 3e 7e 8a 18 bd 10 1e 56 bd e4 fb f5 3c
       0.13900103 -0.03724145 -0.052274764 0.030027337
0002d0 d9 77 f3 bd 07 b2 32 bd 80 41 74 3b 5d e0 a9 bd
       -0.118880935 -0.04362681 0.0037270486 -0.08294747
0002e0 93 98 86 3d 3f ae b5 3d 6f 37 1b bd a1 8e 23 bd
       0.0657207 0.088711254 -0.037894662 -0.039930943
0002f0 34 8c 13 be ee a7 e8 bd 28 c6 bd bd 2a 59 ff bc
       -0.14408952 -0.11360155 -0.09266311 -0.031170446
000300 eb d5 bf 3c c1 2d ed bd 72 31 cd 3d 79 09 43 bd
       0.023417434 -0.115809925 0.100191966 -0.047616456
000310 4c 1f 28 3b ab cd 37 3c 2f c0 cc bc ff 2a 2e 3c
       0.002565342 0.011218469 -0.024993984 0.010630368
000320 90 f1 df bd 22 a8 d1 bd 78 5a 93 3d 77 10 44 ba
       -0.10934746 -0.10237147 0.0719499 -0.000747926
000330 68 38 76 bd 72 d1 13 3d 65 5b 06 3e 51 48 da 3d
       -0.060112387 0.036088414 0.13120802 0.106583245
000340 2d 0f f5 bd 17 1c e3 3d 9e cd 0b be 60 1f c0 bd
       -0.11965785 0.11089342 -0.13652655 -0.09380984
000350 f2 b9 ce 3c 2c 18 a5 3c b0 5a dd bd a5 e6 1c 3c
       0.02523515 0.020153128 -0.10808313 0.009576474
000360 7d 36 68 3d 4e eb e9 3c 8d 34 94 3d 09 3a 50 3d
       0.05669259 0.028554585 0.07236586 0.050836597
000370 b9 ef c4 bd 2f 99 32 3d b8 03 92 3d 9d 9b 91 bb
       -0.09616036 0.04360312 0.071296155 -0.0044435994
000380 a6 84 a7 bd 27 43 b5 bd c5 a7 0a bd 88 1f 60 bc
       -0.081795976 -0.08850699 -0.033851404 -0.013679393
000390 47 17 16 be 80 72 19 be 9a c4 bc bd 18 04 5f bd
       -0.14657317 -0.14985085 -0.09217186 -0.054447263
0003a0 7a 5b 49 3b 3e 51 f5 bd c2 70 8d 3b 9d b1 13 bd
       0.003072469 -0.11978386 0.0043164203 -0.036058057
0003b0 0c 9a 6c 3d f1 cb 9b 3d c3 34 a9 3d 60 75 b4 3d
       0.057764098 0.07607258 0.082620166 0.0881145
0003c0 14 ce 99 3d 39 25 2b 3d 55 04 84 bc b2 36 e2 bb
       0.075100094 0.041783545 -0.016115347 -0.006903493
0003d0 66 af 5b 3d f8 40 de bd 0c 08 35 3d 47 d0 6c 3d
       0.05363407 -0.108522356 0.044197127 0.057815816
0003e0 db a7 9a bd 21 04 6a bc 3d 3b 48 bd 7f 14 9e 3d
       -0.07551547 -0.014283211 -0.04888462 0.07718753
0003f0 c5 f2 4d 3c a2 23 f9 3d 23 63 85 bc 4a 6f 13 3e
       0.012570088 0.121649995 -0.016282624 0.14397922

weight f4 [64, 64]
000000 a0 95 88 bd c4 c3 d1 3d f1 6e 20 3e a8 75 c7 bd
       -0.06669164 0.102424175 0.15667321 -0.09739238
000010 0a 59 39 3e 83 c8 7a 3c 3f f0 f2 bd 46 41 f6 3d
       0.18100372 0.015306595 -0.118622296 0.12024169
000020 15 4a 56 3e 38 df 22 be cf b4 7b 3d 63 a7 7b bc
       0.20926698 -0.15905464 0.06145173 -0.015359732
000030 a8 87 c7 3d c1 54 08 bd 3b 12 4e 3d a8 e4 38 3d
       0.09742671 -0.033283953 0.050310355 0.04513994
000040 5f 8b 25 3d ac 7f 12 bd d4 2a c5 3d d4 f4 d0 3b
       0.040416118 -0.03576629 0.096273094 0.006376842
000050 95 6a ac bd f8 31 eb 3d 8e a3 9f bd ee 0d 81 bd
       -0.084187664 0.1148414 -0.077948675 -0.06301485
000060 c4 6b f2 3d a5 1b 2e be be 89 a5 3c ee ef ba 3d
       0.11836961 -0.17002733 0.020207282 0.09127794
000070 f2 2b 5e 3b 15 c2 de 3d 21 d6 33 3e 8b a0 95 bd
       0.0033900705 0.10876862 0.17562152 -0.07306012
000080 e3 75 85 be bb d6 1d 3d 68 30 a8 3d ce 7d 0f 3d
       -0.26066503 0.03853486 0.08212358 0.035032086
000090 ad a2 c5 bc ba 9a cc 3c ad 82 df bd 62 9d 5a bc
       -0.024125421 0.024976123 -0.10913596 -0.013343187
0000a0 85 a8 e1 bd 3a 1e 2f be a6 d5 1c be 89 0a a5 bd
       -0.11018471 -0.17101374 -0.15315875 -0.0805865
0000b0 67 21 f3 bd 25 fe 13 bc 4a 16 11 be 0e cd e6 3d
       -0.11871605 -0.009032761 -0.14168659 0.1126958
0000c0 62 75 87 bc 2f 22 56 be 05 59 71 3c 2f 9f e1 3d
       -0.016535465 -0.20911478 0.014730697 0.1101669
0000d0 58 c7 02 3e bd 9c 91 bd 51 d5 d3 3d cc df 99 3d
       0.12771356 -0.071099736 0.10343421 0.07513389
0000e0 60 82 3b bb ea dc 03 3e ec 39 30 bc 2b cd 6f bd
       -0.0028611645 0.12877241 -0.010755997 -0.058545273
0000f0 a5 8a 45 bd 2a b7 89 3e e2 18 a7 3b 69 63 0c 3e
       -0.048227925 0.26897556 0.005099402 0.13709797
000100 08 50 81 bd 95 42 c5 3b f1 63 53 3d e8 15 06 bc
       -0.06314093 0.0060199 0.051608983 -0.008183934
000110 25 e4 79 3d 6c e0 65 3d 24 9f 6c bd 64 0b 2f bd
       0.06100859 0.05612223 -0.057768956 -0.042735472
000120 74 7a 9d 3d c7 62 a8 bd 55 87 b2 bd 8b 33 67 be
       0.07689372 -0.08221965 -0.08717219 -0.22578256
000130 53 b4 a2 3d af ad 21 bd e8 44 15 bd 66 06 11 3d
       0.0794455 -0.03947228 -0.036442667 0.035406493
000140 bd 6c 3b be 62 b3 7c bc 0a 08 9a bd 00 12 40 be
       -0.18303199 -0.015423628 -0.075210646 -0.18756866
000150 c2 33 be 3c 20 ad e1 3d 46 25 40 3d ea 48 d8 3d
       0.02321804 0.11019349 0.046910547 0.10560782
000160 3f 00 72 3d 92 54 af bc d1 2d 3a 3d 82 c2 9d bd
       0.059082266 -0.021402631 0.04545385 -0.07703115
000170 d8 7e e7 bd 6c 3e d2 bd e3 71 2e bc 13 d8 d9 3c
       -0.113034904 -0.10265812 -0.01064727 0.02659229
000180 9c d9 11 3e d7 ef 16 3e 21 34 a6 3d 64 11 56 3e
       0.14243168 0.14739929 0.081154115 0.20905071
000190 7a 98 9d 3d 82 12 f7 3d 71 6a ad bd 4d 93 48 be
       0.07695098 0.12064077 -0.08467568 -0.19587441
0001a0 df d9 b0 bd 37 97 9a 3d 99 79 f0 3d 76 fe 0b be
       -0.086353056 0.07548373 0.11741943 -0.13671288
0001b0 19 f2 84 bd 42 31 da bd a1 eb b8 bd 8f ad 1d bd
       -0.06491489 -0.106539264 -0.09029318 -0.038495596
0001c0 7d c9 35 bc c4 8f 0e 3d a9 4c 32 bb 7b 09 dd 3d
       -0.011095402 0.034805074 -0.0027206338 0.10792824
0001d0 ca 98 cf 3c 7d 05 92 3b c6 01 f1 3c 69 76 e7 bc
       0.02534141 0.0044562207 0.029419791 -0.028254705
0001e0 0d 4e 7d 3d bb cc 73 3d f6 e5 2f 3d 3f 2c 93 bc
       0.061842013 0.059521418 0.042943917 -0.017965434
0001f0 ba a8 03 be 38 b0 97 3d 60 29 c4 3d 8f 24 2b bd
       -0.12857333 0.07406658 0.09578204 -0.041782912
000200 ad a0 23 bd 95 0f a3 bd 09 47 1b 3d cf f0 9b 3d
       -0.039948154 -0.079619564 0.03790954 0.0761429
000210 4d b3 66 be f8 64 0a 3d 5c 81 cf 3d c7 bb 73 3d
       -0.22529335 0.033787698 0.10132095 0.05950525
000220 60 df 86 3c 22 8f b9 bd 6e 95 91 3d 80 a7 b3 3d
       0.016463935 -0.090605035 0.071085796 0.087721825
000230 d1 7a 64 bd 34 08 c0 bd fc 12 02 be 72 08 a5 3d
       -0.05578119 -0.093765646 -0.12702554 0.080582514
000240 51 a8 0c 3e ab f9 41 bd c8 e1 86 3d 1d 5c c9 3c
       0.13736083 -0.047357243 0.06586033 0.024580056
000250 e4 45 b8 3c 72 29 db bd 1e 20 19 3d cd 19 8c bd
       0.022494264 -0.107012644 0.037384145 -0.068408586
000260 61 9f e6 3c 1b 39 0a bd 0f 5d 27 be 96 3f 26 bd
       0.02815217 -0.033745866 -0.16344093 -0.040587984
000270 95 20 bd 3d 1a b1 a5 3d 40 2b 36 be f2 d1 ea 3d
       0.0923473 0.0809042 -0.17789936 0.11465825
000280 d9 bd 6e bc 2e e2 37 be 4c d2 49 bd 77 5c 6d be
       -0.01457163 -0.17957374 -0.04927282 -0.23179804
000290 c0 0c ea bd 5b c7 ab bd 41 30 9e 3d 1b c7 43 3e
       -0.11428213 -0.083876334 0.077240475 0.19118921
0002a0 64 08 93 bd 9e 50 3f be 42 68 c1 3d c3 ba 1e 3e
       -0.07179335 -0.18683097 0.09443714 0.15500931
0002b0 cd 5d 92 bd 1c f1 b3 bd 35 bd 42 3d 85 ce 61 bd
       -0.07146797 -0.08786222 0.047543723 -0.055128593
0002c0 aa e8 f5 bc f6 38 1e 3e 2f aa 39 bc ad b6 ff bc
       -0.03001817 0.15451416 -0.011332079 -0.031215036
0002d0 fb a4 0d bc 90 17 73 3d 52 dc bc bd f3 7c 0f 3e
       -0.008645291 0.059348643 -0.0922171 0.14012508
0002e0 26 62 8b 3c e5 8d 36 3d 56 c6 a3 bd a8 36 95 3d
       0.017014574 0.044568915 -0.07996814 0.072858155
0002f0 66 ab 2e bc 31 b1 a0 bd 3b f7 03 3e f6 24 57 3d
       -0.010660982 -0.078462966 0.1288728 0.052525483
000300 a7 d3 d7 3d ef f7 a7 bd 01 43 96 3c ec 15 bc 3c
       0.10538416 -0.082015865 0.018342497 0.022959672
000310 78 8d f2 bc e8 12 ff bb d0 fb d1 3d f3 7e be 3d
       -0.029608473 -0.007784236 0.102531075 0.093015574
000320 5f a1 01 be 0e f9 50 3d de 01 a1 3c 36 13 4e 3e
       -0.12659214 0.051018767 0.01965421 0.20124516
000330 b7 63 56 3a fd 16 cd ba c7 98 90 bc 58 40 91 3d
       0.0008178311 -0.001564711 -0.017650975 0.07092351
000340 bc 95 fc 3d 3b c9 76 3d a9 d5 1f 3e d1 39 65 3e
       0.12333247 0.060250502 0.15608849 0.22385336
000350 29 13 07 be 1c 66 36 be 71 ba 8a bd 68 15 57 3c
       -0.13190903 -0.17812389 -0.06773842 0.013127662
000360 c3 b2 13 3d bc b2 13 3d 30 07 16 be ec 10 cf bc
       0.036059152 0.036059126 -0.1465118 -0.025276624
000370 f2 2f c8 3c 4a 9b e6 3c 9b 98 48 be 2b cc d1 3b
       0.024436925 0.02815022 -0.19589464 0.0064025125
000380 53 4f 36 3c 98 41 6e 3d 2c 01 00 be ce b3 7e be
       0.011127311 0.058168024 -0.12500447 -0.24873278
000390 55 e1 b4 3c 0d 26 04 bc 6d 5e fd 3d 4b a0 1e bb
       0.022080103 -0.008065713 0.12371526 -0.0024204429
0003a0 a7 52 c8 bd d7 91 fb 3d d8 ab f9 3d 81 c6 05 3e
       -0.0978139 0.12283676 0.1219098 0.13064004
0003b0 15 7f 15 3e 64 c1 ef 3d cc d7 5d bc 55 89 8f bd
       0.14599259 0.11706808 -0.0135402195 -0.07008616
0003c0 42 3c 20 bd 4e 72 29 bd 99 33 21 bd e8 52 9f 3c
       -0.039119966 -0.041368775 -0.039355848 0.019448712
0003d0 bc 88 c1 bb aa 3f 14 bd 7a 02 7b bd 19 b0 aa bc
       -0.0059061926 -0.036193527 -0.06128166 -0.020835923
0003e0 ae f3 bf bd 96 15 db bc 9d ee 8e bd 71 cb 58 bd
       -0.0937265 -0.026743691 -0.069791056 -0.05292839
0003f0 fe a9 e0 bd d3 9e 05 be aa 29 57 bd 29 d9 4c 3d
       -0.109699234 -0.13048868 -0.05252997 0.050011788
