examples/carbon/outDir/epoch=174-step=87975-val_loss=0.2137-v1.pt (torch, 745777 bytes, 92 tensors)

cutoff f8 []
000000 00 00 00 00 00 00 08 40
       3.0

weight f4 [7, 64]
000000 15 45 59 3f 83 27 31 3f 6d cc a1 be c1 5f 07 c0
       0.84871036 0.69200915 -0.31601277 -2.1152194
000010 75 56 b6 be a8 db df 3e 53 8c fb 3e 0b 00 51 be
       -0.35612836 0.43722272 0.49130496 -0.20410173
000020 77 6f f5 3d 93 6b 9e 3f 8e f2 8e 3f 7c 36 7d be
       0.11984151 1.2376579 1.1167772 -0.24727815
000030 a7 99 85 bf f6 32 ac bf 11 0d 49 3f 99 2a 7e 3f
       -1.0437516 -1.3453052 0.7853556 0.9928375
000040 8b 4d 19 3f 5b 0d c7 bf ca c6 ae be 4e 2f ed 3f
       0.59883946 -1.5550951 -0.3413604 1.8530061
000050 55 aa ef 3e 5f 7f 21 be db c9 b8 3f a1 37 88 3e
       0.4680964 -0.15771244 1.4436601 0.2660494
000060 c0 d6 b1 3f 00 0d cb 3f 9c 40 72 3f 33 fb 57 bf
       1.3893661 1.5863342 0.94629836 -0.84367675
000070 30 8c 6e 3f 37 27 a1 3f 9a 51 00 40 3a 1b 5c 3d
       0.9318266 1.2590092 2.0049806 0.053736903
000080 d0 1f e1 3e d6 37 e6 3d f8 0a 24 3f 3c df e1 3e
       0.43969584 0.112411186 0.64079237 0.44115627
000090 42 0b 5d be a3 17 3e bf 82 0e 10 3f e2 ed 84 3e
       -0.21586326 -0.74254817 0.5627214 0.2596274
0000a0 2f da 05 3f 55 57 13 40 b7 04 bc bf 9e 18 cb bf
       0.52286047 2.3022053 -1.4688939 -1.5866888
0000b0 3c 03 9a 3f 87 20 ad 3d 2b 9e 99 bf ae d1 9c bb
       1.2032237 0.0845347 -1.2001394 -0.004785738
0000c0 10 dd 6b be 08 94 c8 be 5d 15 0b 3f 17 52 ca be
       -0.23033547 -0.3917544 0.5432947 -0.39515755
0000d0 52 75 52 3e 9f 91 e6 be 2e b5 12 bf f8 2b 0e bf
       0.20552567 -0.45032975 -0.5730771 -0.5553584
0000e0 d9 fd c3 bf 23 f8 9d bf c2 ec e8 3f fc 30 0d bf
       -1.5311843 -1.234135 1.8197253 -0.5515287
0000f0 48 a4 a9 bf 30 14 41 3e fb 75 8d bd db 66 fd be
       -1.325326 0.18855357 -0.069072686 -0.49492535
000100 ce 34 bd bf 8b 4d 24 40 c2 3c f2 be 4f cd ab 3e
       -1.478174 2.5672328 -0.4731198 0.33555076
000110 e8 2a c1 3f c2 3e 05 40 87 75 da 3f f1 57 18 40
       1.5091219 2.0819554 1.7067116 2.3803675
000120 d0 92 88 bf 57 b6 8e 3f 2c 0c 10 be de 45 4e 3f
       -1.0669804 1.1149396 -0.14067143 0.8057536
000130 10 bd a7 3e b5 bd 42 bf b8 ae cc bf 5a 71 97 3c
       0.3276143 -0.7607072 -1.599082 0.018486667
000140 5f 86 57 3f 47 d1 cc be 17 0d 85 3f d8 5f b7 3e
       0.8418941 -0.40003416 1.039462 0.3581531
000150 ca 85 58 bb 1b d1 08 bf 90 97 95 3f 44 fc c9 3e
       -0.003303873 -0.5344407 1.1686878 0.39450276
000160 dc c1 85 bf 3d dd 74 bf b4 58 09 3d 3c c8 35 3f
       -1.0449786 -0.9565008 0.03353186 0.7100866
000170 4a 84 c4 bf ae 4a d3 be a7 5f 77 3f e5 f8 cf 3f
       -1.5352871 -0.41267914 0.9663033 1.6247832
000180 ad 40 27 c0 13 26 d9 bf 37 b8 69 be 43 56 8f 3e
       -2.6133225 -1.6964744 -0.22824179 0.279955
000190 06 02 96 3d 38 81 8e 3f 55 85 90 3e d3 52 de 3e
       0.07324605 1.1133184 0.28226724 0.43422565
0001a0 0f f4 e9 3e fa 88 5d bf cc 03 48 3f 12 42 6d bf
       0.45694014 -0.86537135 0.78130794 -0.9267894
0001b0 cc 5e 53 3e ae b9 aa be 9b 8f db be 22 82 6e 3e
       0.20641631 -0.33344787 -0.42883 0.23291829
0001c0 99 67 76 3f 2e c6 b2 3e ef e4 6b bf 81 2c 66 bd
       0.9625183 0.34916824 -0.921462 -0.056194786
0001d0 0d 97 33 bf 27 b2 84 3f 20 8a 1a bf 94 ae a3 bf
       -0.7015236 1.0366868 -0.6036701 -1.2787652
0001e0 95 c0 fd 3d a0 17 95 3f 35 62 6c 3f e4 92 b1 3f
       0.12390248 1.1647835 0.9233735 1.3872952
0001f0 3e 01 b0 3f 95 dd 28 3f 4b ff f3 3e 5d 16 82 bf
       1.3750379 0.6596311 0.4765571 -1.0163075
000200 db 40 1c 3f 5c 0b ef 3e 22 af f9 3f 9d 13 88 bf
       0.6103646 0.46688354 1.9506571 -1.0630985
000210 03 f7 91 3f 17 14 b8 bd ed d3 3a 3f 6a 33 ec bf
       1.1403507 -0.08988207 0.72979623 -1.845319
000220 f1 15 d1 bd 50 4b 84 bf 32 12 a0 be 30 af 7b 3e
       -0.10209263 -1.0335484 -0.31263882 0.24578547
000230 fd 1d c1 3e 43 f5 8c 3f 8b 46 92 bf 25 f3 19 3d
       0.37718192 1.1012348 -1.1427778 0.037585396
000240 41 c0 93 3e 24 f0 c5 3e b3 e3 4d be b4 83 f1 bd
       0.28857616 0.38659775 -0.20106392 -0.117926985
000250 63 51 54 bf fc 20 b4 bf 83 3c d0 3f 63 68 30 3e
       -0.82936686 -1.4072566 1.6268467 0.1722732
000260 9c 4c 34 bf 1b 23 a1 3e 9a 2b 21 3e 43 4e c5 3e
       -0.70429397 0.31472096 0.15739289 0.3853627
000270 07 db 12 3f 6d 78 7f 3f fd 29 0b 3f 32 64 a1 3d
       0.5736546 0.9979313 0.54360944 0.07880439
000280 da 9a 7f 3f 8b 57 ff be 2a d8 42 3f f7 48 1e 3f
       0.9984566 -0.49871477 0.7611109 0.61830086
000290 ec 48 99 be e5 48 40 be 22 3c f5 3f a4 b0 30 3f
       -0.29938447 -0.18777807 1.9158976 0.6901953
0002a0 32 c9 a0 be 1b 13 8a bf 08 97 76 3e 93 b7 b2 bf
       -0.314035 -1.078708 0.24081051 -1.3962272
0002b0 01 8e e8 3d a7 67 8d 3f ff 94 b2 bf c3 42 f3 3e
       0.1135521 1.1047257 -1.395172 0.47511873
0002c0 96 60 8a 3f 2f a2 06 3e b4 69 c9 3f cb 0b 48 3f
       1.0810726 0.13147806 1.5735383 0.78142995
0002d0 a5 c8 7c 3f 7a 70 be bf 26 31 16 3f 2e 18 22 3e
       0.9874366 -1.4878075 0.58668745 0.15829536
0002e0 2a b2 2a 3f 52 90 7e bf 14 3d 98 bf df 14 99 bf
       0.66678107 -0.99438965 -1.189364 -1.1959494
0002f0 14 ec a7 3f 05 e0 56 be 8b 1f 48 3f 7e 5c 7d 3f
       1.311892 -0.20983894 0.7817313 0.98969257
000300 92 a0 2f 3e 78 44 60 3f 1f fd 92 be 1a c5 82 3f
       0.17151096 0.87604475 -0.2870874 1.0216401
000310 bb d5 02 bf 6f 5b db bf 9b 93 02 bf 31 25 f3 be
       -0.51107377 -1.7137278 -0.5100648 -0.47489312
000320 cb 8a 29 3f 1e 68 9a bf 2b 81 1b 3f 78 12 0c bf
       0.66227406 -1.2063024 0.6074397 -0.5471568
000330 84 dc 8c bf 47 5a 38 bf 2c 78 43 3c b7 f6 ad 3e
       -1.1004796 -0.7201275 0.011930507 0.3397729
000340 c2 77 a0 bf 4a a1 7c 3f 6d 43 fd be c1 3a a4 bf
       -1.2536547 0.9868361 -0.49465504 -1.283043
000350 a1 96 e0 3e 09 60 2f bc 31 4f ab 3f 2d 0e 8f be
       0.4386492 -0.010704049 1.3383542 -0.27940503
000360 dc 4d 93 3e ff b3 08 bd f6 eb 87 bf 45 58 ea bd
       0.2877034 -0.033374783 -1.0618885 -0.11442617
000370 14 15 48 3e 35 b3 3c bf ed 9c d9 3f 2a 43 b1 3e
       0.1953929 -0.7371095 1.7001015 0.34621555
000380 30 3b 14 be ec 3a 23 3f 46 05 90 be 59 39 aa bf
       -0.14475703 0.6376178 -0.28129023 -1.3298751
000390 69 5f 27 bf 32 23 dc 3f 2c 01 76 bf 5d 33 23 bf
       -0.6537996 1.7198241 -0.9609554 -0.6375025
0003a0 05 10 63 bf f0 b9 56 3f 11 92 93 3f aa 6b e1 bf
       -0.8869632 0.8387747 1.1528951 -1.7610981
0003b0 73 b3 8d bf 7e d2 db bf 7f 6c c4 3f 4c 1f 52 bb
       -1.1070389 -1.7173612 1.534561 -0.0032062111
0003c0 22 5d b8 3f 35 7f e2 bd 1d ad 13 3f f9 3b 2d be
       1.4403422 -0.11059419 0.57686025 -0.16917409
0003d0 a3 26 98 3f 9a 49 21 be ab 86 3a bd 5b 02 26 3f
       1.1886791 -0.15750733 -0.045538586 0.64847344
0003e0 0d e9 5e bf 7b 37 14 3e cd 90 f3 3f f5 e1 c7 3e
       -0.8707436 0.14474289 1.9028565 0.3903958
0003f0 bb 6d 07 3d 67 00 83 bf 67 c7 3b 3f 72 11 8f 3f
       0.03306363 -1.0234498 0.7335114 1.1177199

weight f4 [64, 64]
000000 9d 35 3b 3e 56 36 0e 3e 8a 85 4d be 3c 0e 15 be
       0.1828217 0.13887915 -0.20070472 -0.14556211
000010 a5 96 f8 3d dc 5b 38 bd 61 11 fd bc eb 9e 04 3e
       0.12138108 -0.04500948 -0.030892076 0.12951247
000020 28 c8 78 be 50 97 77 3d fd cf 10 3e cf e5 4c 3e
       -0.24295104 0.060447037 0.14141841 0.2000954
000030 e1 23 4f 3e da a2 3e 3e ac c7 29 bd 09 79 f8 bd
       0.2022853 0.1861681 -0.041450188 -0.121324606
000040 91 fe f1 3d ef 89 1b 3e 6a 1a e5 bd d0 71 ec 3b
       0.11816133 0.15189336 -0.11186679 0.007215716
000050 90 9f 7c bd d3 f7 17 be a2 5a 1b 3e ae 17 9f 3d
       -0.06167561 -0.14840631 0.15171292 0.077681884
000060 8d 93 1d 3e 53 47 da 3d ec 71 0c 3e f2 36 23 3d
       0.15388317 0.10658135 0.13715333 0.03984732
000070 62 1e cf bc bd 84 44 3d 4c 13 fa 3c 69 c2 02 bd
       -0.025283042 0.04797815 0.03052678 -0.031923685
000080 0c 78 53 3e ca d4 a2 bd 67 97 fe bd 14 8f 9c bc
       0.20651263 -0.079507425 -0.124312215 -0.019111194
000090 9b ff 39 bd 88 2b 79 be ea f4 c5 3d 1e c4 3e be
       -0.04540978 -0.24333012 0.09665854 -0.186295
0000a0 ea 1e ce 3d a3 ee 6a bd fb f7 3a 3e 97 46 bd 3d
       0.1006449 -0.057356488 0.1825866 0.092419796
0000b0 66 c3 16 3e 44 48 2b bc 8b c2 a4 3c 0b 31 bb 3d
       0.14722976 -0.010454241 0.020112297 0.091402136
0000c0 8a dd f9 3d 8f f2 aa 3d 9f 26 d3 bd fa 33 10 be
       0.12200458 0.08347046 -0.10310101 -0.14082327
0000d0 99 2c 0d be 2e 8e 31 be 72 be 4e bd 42 04 59 3e
       -0.13786544 -0.17339393 -0.05047459 0.2119303
0000e0 74 68 1d be dd e6 63 be b3 3d 28 3b 91 89 4f 3d
       -0.15371877 -0.22256036 0.0025671541 0.050668303
0000f0 d8 91 93 bd eb 6a 3e be e5 4c eb 3c 65 29 59 be
       -0.07205552 -0.18595473 0.02872319 -0.21207197
000100 be cf c3 bd ed 34 e9 bc 73 f2 1a 3e 94 1d b0 bc
       -0.09561108 -0.02846762 0.1513155 -0.021498479
000110 3b 9c b6 3b 04 8a 1a bd 3c bd 36 3d 33 fa 7d bd
       0.0055728233 -0.03772928 0.04461406 -0.062006187
000120 ad e4 cf bc 69 da 03 be a3 44 a4 bd fd 9e f2 bd
       -0.025377596 -0.12876286 -0.08020904 -0.11846731
000130 86 e7 4a bd 67 ad e3 bc 82 17 3c 3e 19 c3 81 3b
       -0.049537204 -0.027792646 0.18368343 0.003960025
000140 8c 99 e6 bd 40 74 b1 bc c5 be 0b 3e 3a 25 90 bc
       -0.112597555 -0.021661878 0.13646992 -0.017595876
000150 bb a4 4a 3d 7b 56 b2 3d f4 3a 04 be 96 d3 c9 3d
       0.049473505 0.08707901 -0.12913114 0.0985481
000160 0a 8e cf bd 9f 4a cf bd 0a 00 b4 3d 8e 87 bd bd
       -0.10134514 -0.10121655 0.0878907 -0.09254371
000170 48 3d aa bc f1 f2 c3 bd 73 74 d9 bb 92 bb 21 bd
       -0.020781174 -0.09567822 -0.0066361963 -0.03948552
000180 5d d4 5c 3d 2f eb d5 bd 87 43 cd bb 58 bf 0c 3e
       0.053913463 -0.10445248 -0.0062641534 0.13744867
000190 4a cf 41 3d e3 79 25 3c 60 10 29 be 6e 32 d2 3d
       0.047316827 0.010099861 -0.16510153 0.10263525
0001a0 89 7c 1d 3d 42 48 48 3d 2b a8 0c be bb a8 2c 3d
       0.038448844 0.048897035 -0.13736026 0.0421531
0001b0 3d 56 40 be 1f 60 cc 3c 2f b8 f4 3c 41 ff f4 bd
       -0.18782897 0.024948178 0.029872982 -0.11962748
0001c0 06 e8 58 3d a8 71 0a bd f2 4a c0 bb 41 2a 1d bd
       0.05295565 -0.033799797 -0.005868309 -0.038370375
0001d0 c9 3e fd bc cc 29 69 3d 90 38 96 3d 1c 79 f1 bd
       -0.030913727 0.056924626 0.07335007 -0.11790678
0001e0 45 69 9a 3d d8 12 cb 3b 6d 5e 95 3c f1 73 01 be
       0.0753961 0.0061973147 0.018233502 -0.12641884
0001f0 e5 be b3 bd ef dd 07 3e b9 0e 37 3d 91 d8 15 3e
       -0.087766446 0.13268255 0.044691775 0.14633395
000200 f8 ae 07 3c a4 a8 1a 3d c6 87 98 bd 42 b7 92 bd
       0.008281462 0.037758484 -0.07447772 -0.0716386
000210 da 4d b0 3d 24 b0 41 be 1b 26 10 3d af 0b f1 3d
       0.08608599 -0.18914849 0.03519259 0.117698066
000220 9d 37 44 be 82 5f 98 3d 47 b1 c0 3d cb 51 b6 3d
       -0.1916184 0.07440092 0.09408813 0.089023195
000230 63 5b 47 3e ff 17 b4 bc 98 fa d5 bd 1a 66 63 bd
       0.19468455 -0.021984098 -0.104481876 -0.055517294
000240 7e f4 b5 bd 8b 1a b7 3d b5 87 42 3d 59 7d 1a 3e
       -0.08884524 0.089406095 0.0474927 0.15086879
000250 13 b6 f9 bd 18 54 1b be ae 1e 3b bc b4 a3 d6 bc
       -0.12192931 -0.15168798 -0.011420889 -0.026201107
000260 5d 33 65 b9 ee 11 80 bd 24 18 16 be 92 2a cd bd
       -0.00021858276 -0.0625342 -0.14657646 -0.10017885
000270 bc a7 da bd 0f 30 61 3d 35 00 15 3e 9e 7f 0b bd
       -0.10676524 0.054977473 0.1455086 -0.034057252
000280 17 26 2a 3e f7 32 70 bd c4 76 9f 3d eb 9d 50 be
       0.16616093 -0.058642354 0.077863246 -0.20372741
000290 98 88 47 be 0a 30 59 bd 72 16 0a 3e e4 98 3c be
       -0.194857 -0.05302433 0.13485125 -0.18417698
0002a0 e9 55 0a 3c cf c0 30 be 40 62 35 3e de da c9 3c
       0.008443334 -0.1726105 0.1771326 0.024640497
0002b0 3e 59 2c 3d 6e b2 1a bd 54 77 fc 3d 41 0b 4f 3e
       0.042077295 -0.03776782 0.123274475 0.20219137
0002c0 58 eb 8b 3d 10 d6 01 3e 11 b7 a2 3d 43 43 a8 bd
       0.06831998 0.12679315 0.079450734 -0.08215954
0002d0 98 97 10 bd 86 a8 c5 3c 9d 4c 81 bd 2c 68 43 bd
       -0.03530082 0.02412821 -0.06313441 -0.047706768
0002e0 a8 d3 a3 bd 33 c6 67 3d d9 4d b3 3d d0 ee 29 3e
       -0.079993546 0.056585502 0.08755083 0.16595006
0002f0 a2 90 0f 3e 2d de 97 bd 74 0a 00 3e 24 8d d5 bd
       0.14020017 -0.074154235 0.12503988 -0.10427311
000300 c4 75 c2 3d 78 e6 7f 3e cd 07 d8 bd f3 2f 9b be
       0.09495118 0.2499026 -0.10548363 -0.3031002
000310 0f c5 af 3e 24 14 4b be c1 c2 52 be 89 bd 74 3e
       0.3433003 -0.19831902 -0.20582105 0.23900427
000320 0f 7d 1e be 38 ba e8 3d 54 87 4b 3e c5 9f 4a 3e
       -0.15477394 0.113636434 0.19875842 0.1978751
000330 86 f9 cf 3d e3 14 8d 3d ed d7 0d be f4 55 ff 3a
       0.10155015 0.068887495 -0.138519 0.0019480572
000340 fe 52 73 3e 01 45 87 3e f5 98 e1 bd 26 66 6f 3d
       0.23762128 0.26419833 -0.11015502 0.058447026
000350 97 b8 8b 3e 16 ea 94 bd 62 83 48 3e 4f 5a 65 3e
       0.27289268 -0.07271211 0.19581369 0.22397731
000360 3f 11 af 3e c5 3b 56 3e 3a f0 74 3e 02 9d 70 3e
       0.34192845 0.20921238 0.23919764 0.23497394
000370 5e 37 5f be ac ed 58 3d 91 d3 37 3e 44 0c a6 3d
       -0.21798465 0.052961037 0.179518 0.08107808
000380 a2 59 8b 3d e6 03 3b be fa d9 c0 bc 2b d7 a9 be
       0.068042055 -0.18263206 -0.02354144 -0.33171973
000390 f0 f3 36 be 45 3c a6 be 07 17 ed 3d b3 74 3d be
       -0.17866492 -0.32467857 0.11576658 -0.18501548
0003a0 55 19 ee 3c fa e6 e6 bd 1d 3b a3 3e b9 13 9e 3e
       0.029064814 -0.11274524 0.31881037 0.30874422
0003b0 84 30 1c 3e 2d a4 a9 bd 90 3b 45 3e b5 0c a9 3e
       0.15252882 -0.08283267 0.19261003 0.33017507
0003c0 3b fe 14 3e 9e 3b af 3d d4 f3 e2 bd 92 b6 1c be
       0.14550106 0.08556293 -0.11081663 -0.1530402
0003d0 25 23 af 3c 68 97 97 be e8 d3 15 be db ae 6c 3e
       0.021379063 -0.296077 -0.14631617 0.23113577
0003e0 b0 3a 8a be 6a dd 82 be 8d b5 e5 3c 7f e1 80 3e
       -0.269979 -0.2555955 0.028040672 0.2517204
0003f0 98 6d f6 3d 59 6e 82 bd ae 2a 8c 3e 8a 57 75 be
       0.12032622 -0.063687034 0.27376312 -0.23959175

weight f4 [64, 64]
000000 3d 59 7a 3d 95 8b 0b be ff c9 37 be 77 6b 45 be
       0.06112026 -0.13627465 -0.17948149 -0.19279276
000010 85 7c a5 3d 61 78 a2 bd e0 5c 40 be ed d0 28 bb
       0.08080391 -0.07933117 -0.18785429 -0.0025759295
000020 13 ef f9 bd 4a e5 86 3d 1a a2 5a bc ac 52 1d 3e
       -0.12203803 0.06586702 -0.013344312 0.15363568
000030 cc 6b 71 be 6e 0f b5 3c d0 12 3a be d7 ef 0c be
       -0.23576277 0.022102084 -0.18171239 -0.13763367
000040 5d 2b 6d 3e 4f 9e fb 3d 72 6c a0 3d 79 23 7b 3d
       0.23161073 0.12286054 0.07833184 0.061313126
000050 70 78 06 3e 16 c1 8e bd ed 5a eb 3c e9 12 0f bd
       0.13131881 -0.06970422 0.02872988 -0.034930144
000060 2b 67 53 3d 4a de a0 3c 27 44 b1 3d 88 30 0f 3d
       0.05161206 0.019637246 0.08655577 0.034958392
000070 0f ca 8a 3d 73 1d 07 3d b9 c0 0f be d1 4d 97 3c
       0.06776821 0.03298707 -0.14038362 0.018469723
000080 51 3d a7 bc 78 36 84 bd 07 9f 81 be 72 ae 86 bd
       -0.02041498 -0.064557016 -0.2531664 -0.065762416
000090 64 1a 94 bd 35 9f 8e bd 2d 16 d2 bc b1 60 17 be
       -0.07231596 -0.0696396 -0.02564534 -0.14782979
0000a0 12 d8 d9 bd ab bc 1a be d9 48 5b 3d 34 55 06 3e
       -0.10636915 -0.15111034 0.05353627 0.1311844
0000b0 71 54 16 3d 24 05 5b bd 6d a1 d5 3d e0 3c fa bd
       0.036701623 -0.0534717 0.1043118 -0.12218642
0000c0 39 2e e2 3d fa d6 f0 3d bd 8d 2b be 86 91 04 be
       0.110439725 0.117597535 -0.16753288 -0.12946138
0000d0 60 6f 01 be 32 62 10 be 0f cb ff bd 31 7f ad bc
       -0.12640142 -0.14099959 -0.12489902 -0.021178814
0000e0 65 5c d8 bb 78 4d a4 3c c2 ac 1f be bc c2 86 bd
       -0.006602811 0.020056471 -0.15593246 -0.065801114
0000f0 3c b6 72 3e 68 30 7c bd d4 f6 31 3c f6 6a 16 3d
       0.2370233 -0.0615696 0.010862071 0.0367231
000100 e7 4f 43 bd d5 ca 83 3d f1 86 97 bd 44 5e 45 3d
       -0.047683623 0.064351715 -0.07398785 0.0481856
000110 bc 25 33 3e e2 a6 11 bd f7 c6 0f bc fe 0a ab 3d
       0.17494863 -0.035559542 -0.008775464 0.08351706
000120 54 11 0d be 60 db aa 3c 2e dc b9 3c d4 d5 8e 3d
       -0.13776141 0.02085656 0.022687998 0.06974378
000130 81 d3 d4 3d 56 c3 a2 3d fa aa 05 bd 6d f7 36 3d
       0.10391904 0.079474136 -0.03263376 0.044669557
000140 88 14 b9 3c f6 63 3c bd 2a 8a f5 3c a7 7f c3 bd
       0.022592798 -0.045993768 0.029973108 -0.09545832
000150 e9 0d 5a 3e 6d 19 1f 3d b4 04 1a 3e 50 92 9f bc
       0.21294369 0.038842607 0.15040857 -0.019478947
000160 57 89 4f 3d fc 8b f7 3d c0 3e 7e bd 02 4d 18 3e
       0.050668087 0.12087247 -0.06207156 0.14873126
000170 c5 c8 2b 3d 9c 13 96 3d 88 7d d6 3c e0 5c bc 3d
       0.041939516 0.07327959 0.026182905 0.09197402
000180 44 f7 7e bd bf 6e 6f 3d 72 bb dc 3d ae e7 7a bd
       -0.06224753 0.058455225 0.1077794 -0.061256103
000190 4c 87 e6 bd 44 82 4e bd 50 1b 39 3e 1d 96 8f 3d
       -0.112562746 -0.0504172 0.18076825 0.07011054
0001a0 5c de a4 bd ad f9 5c be 3c 73 50 bd bd 46 e4 bd
       -0.08050224 -0.21579619 -0.050891146 -0.11146305
0001b0 88 3a 08 3e e2 7e 95 bd 68 03 0b 3e 44 cf 39 3d
       0.13303578 -0.072995916 0.13575518 0.04536368
0001c0 43 d1 16 be 49 68 c6 3c 98 5f 8a 3d ad 2c f3 3b
       -0.14728265 0.024219649 0.06756514 0.0074210973
0001d0 cb 4d 92 3d 6e 31 30 3b eb 5c 24 bd 51 b4 b6 bd
       0.07143744 0.002688493 -0.040127676 -0.089211114
0001e0 9b 0e 0e 3d ee 3d fb bd 64 0e b8 3d ab 92 20 3d
       0.034681898 -0.122676715 0.0898712 0.039202373
0001f0 cc ab 5a 3e f4 67 d3 bd 1f 4f d3 3c d4 d1 c2 bd
       0.21354598 -0.10322562 0.025794564 -0.09512678
000200 ba 61 86 bd c9 58 5b bc 5d 7b 16 3e c9 a9 31 3e
       -0.065616086 -0.013387867 0.14695497 0.17349924
000210 2f 06 49 bc ed 65 c7 3d 28 23 07 3e 4a 83 e3 bd
       -0.012269541 0.09736238 0.13197005 -0.11109026
000220 0b 80 16 3e 4a ed 2e be 80 3e 0c bc 4f 4c dc bd
       0.14697282 -0.17082706 -0.008559823 -0.10756742
000230 e3 c7 88 bb 3c 6b f5 bd 05 b2 89 3d f6 43 b7 3d
       -0.004174219 -0.11983344 0.06723408 0.089485094
000240 31 93 78 bd 50 d2 2e bd 98 57 cd 3d f4 09 80 bd
       -0.060687248 -0.04268104 0.10026473 -0.062518984
000250 3f c1 24 bd fe 6d 88 bd 9d 9b 08 be 5b f7 30 be
       -0.040223356 -0.06661604 -0.13340612 -0.17281859
000260 65 56 c7 bd 51 b3 10 3d 69 33 c0 bd be 50 05 bd
       -0.09733275 0.03532726 -0.09384806 -0.032547705
000270 82 b4 85 3c ba c3 27 be 89 9d e8 bd 84 74 7e 3d
       0.016321424 -0.16383258 -0.113581724 0.062122837
000280 68 f0 98 3d 47 bf 16 bd b8 64 67 3d dc 83 95 3d
       0.07467729 -0.03680351 0.056492537 0.07300541
000290 90 f7 0e 3c 80 04 b8 3c ae 1b 65 bb 0c 39 5b 3d
       0.008726016 0.022463083 -0.0034959125 0.0535212
0002a0 5c 1e 35 be 2a 19 97 3d 6d 4f f5 bd a4 41 14 be
       -0.17687362 0.073778465 -0.1197804 -0.14478165
0002b0 e9 9a e2 bd 7f 36 23 3d e9 81 98 bc 5d 4b de bd
       -0.11064703 0.039846893 -0.018616633 -0.10854218
0002c0 8f 7d d4 3d f9 79 2a 3c 88 72 19 3d a7 43 98 bd
       0.10375511 0.010405057 0.03746274 -0.07434779
0002d0 63 67 1a 3e 8b 74 81 3d a8 48 94 3d 51 18 66 3c
       0.15078501 0.06321057 0.072404206 0.014043883
0002e0 2e e2 28 bd 27 2e 25 3d 5f 9b e8 3c 6b 46 8a bd
       -0.041231327 0.040327217 0.0283944 -0.067517124
0002f0 5e f5 1e be ab 6e f2 3d 05 ad 3f be b7 e3 3d 3c
       -0.15523288 0.118375145 -0.18718345 0.011589936
000300 df 7f 49 3d 2a 18 ef 3d e2 31 47 3c b8 91 88 bd
       0.049194213 0.11674531 0.012157889 -0.06668419
000310 e2 ef 2a be 27 59 ba 3d ec f9 e2 3d 16 0a 5c 3d
       -0.1669307 0.09099036 0.11082825 0.053720556
000320 bd 73 b8 bd 00 23 11 bd bc c9 a8 3d d7 09 65 bc
       -0.0900645 -0.03543377 0.08241603 -0.013979397
000330 6d e9 58 3d b0 dd be bc 7b dd 53 3d 19 f7 7e bd
       0.052956987 -0.023299068 0.051724892 -0.06224737
000340 65 e9 2f 3b db b5 d4 bd 9f 16 cc 3c 48 6e 73 3d
       0.0026841995 -0.10386249 0.02491313 0.059431344
000350 bf b3 a3 bd 2f db 86 bd b2 7e 11 be 9d a9 bf 3d
       -0.07993268 -0.06584775 -0.14208487 0.09358523
000360 a2 73 69 bd 57 d0 e6 3d 6b df ff 3c 62 e4 85 bd
       -0.05699504 0.112702064 0.031234464 -0.06537701
000370 7c 07 97 3c 94 e0 b2 bd 27 28 61 3d 3e 18 72 3d
       0.018436186 -0.08734241 0.054969933 0.05910515
000380 bc f8 25 ba ba 62 f0 3d d0 44 0d bb 4a 14 4b bd
       -0.0006331315 0.117375806 -0.0021555908 -0.049579896
000390 e9 ca 09 3e 15 19 25 3e 12 61 53 bd c4 78 be bd
       0.1345631 0.1612285 -0.051606245 -0.09300378
0003a0 55 47 c0 bb 3e cb 18 3e bb 78 0c 3b 41 5f b7 bc
       -0.0058678784 0.1492128 0.0021434266 -0.022384288
0003b0 29 0d 3a bd 41 77 2d bd b1 ad 11 be 1c c3 bf bd
       -0.045422707 -0.042350058 -0.14226414 -0.09363386
0003c0 06 89 38 3e 89 84 dd bd 9e af 66 3d 1c 55 2e bd
       0.1802102 -0.10816295 0.056319825 -0.042561635
0003d0 28 d5 a1 3d 3d 1e ad 3b 57 bc 93 3d f0 07 77 3d
       0.079019845 0.0052831457 0.07213657 0.060310304
0003e0 8d 3e dd 3d 95 99 d5 3d 00 29 44 3e 0f 16 e6 bc
       0.10802946 0.10429684 0.19156265 -0.02808669
0003f0 be d5 af bd d5 1a a8 3d c3 ad 6d bd a6 0f 6b bd
       -0.0858569 0.08208243 -0.05802704 -0.05738797

weight f4 [64, 64]
000000 ff c8 8e bd 63 d1 68 3c 48 c5 e5 bd f4 6d ae bd
       -0.06971931 0.014210078 -0.11219269 -0.08517066
000010 40 37 1f 3e 8e 77 14 be a0 bf 90 3c c6 b5 e8 bd
       0.1554842 -0.14498731 0.017669499 -0.113627955
000020 13 6a da bd a4 b8 51 bd 97 0d 84 bd a6 21 50 bd
       -0.10664763 -0.051201478 -0.064479046 -0.05081334
000030 6e 7e cb 3a 7a 40 24 bd ce d1 08 be a8 1e 99 bd
       0.001552535 -0.040100552 -0.13361284 -0.0747655
000040 c0 96 31 3d e2 1f a2 bd 81 42 1f bd 5c 80 09 3e
       0.043356657 -0.079162374 -0.038881782 0.13427871
000050 70 6e 54 bd 09 69 72 3b 2c 22 a6 bd 0b 3d b9 3c
       -0.051863134 0.0036988875 -0.081119865 0.022612115
000060 88 eb 87 bc 00 fb 50 3d 78 f2 c6 bd 09 aa 0b 3e
       -0.016591802 0.051020622 -0.09714216 0.13639082
000070 53 b0 1a bc a5 89 5a 3d 52 03 68 3c dc bd 9f bd
       -0.009441453 0.053353924 0.014160948 -0.07799885
000080 a6 87 f8 3d f1 19 17 3e 77 c5 d4 3c 7f 42 dc bd
       0.12135248 0.1475599 0.025973065 -0.107548706
000090 8d 97 71 3c b4 45 c1 bc 0f 0c dc 3d 7b 59 12 be
       0.014745605 -0.023592807 0.107444875 -0.14291947
0000a0 14 83 0d bc 04 9c 05 be 2a 59 ac bd 5c ec ad 3d
       -0.0086372085 -0.13047796 -0.08415444 0.084923476
0000b0 49 72 6b 3d 78 95 95 3d dc 75 d8 3b 31 10 f4 ba
       0.057482038 0.073038995 0.006605847 -0.0018620548
0000c0 49 b8 fd 3d 1b f1 00 3e 21 83 7b 3d 3f 08 28 3d
       0.12388665 0.12591974 0.06140435 0.04102349
0000d0 c6 eb 0a be e6 2b 02 3d e7 e2 7c bd 35 7b cf 3d
       -0.13566503 0.031780146 -0.06173983 0.10130922
0000e0 64 29 92 bd 5b 22 b8 bd 58 02 03 bd 2d 23 e5 bd
       -0.07136801 -0.08990928 -0.031984657 -0.1118835
0000f0 4d 97 d5 39 ec 4c 08 bd aa ff 21 3e 4e 76 ca bd
       0.00040739254 -0.033276483 0.15820184 -0.09885846
000100 10 82 cb bd 78 15 06 3d 64 21 27 3e 86 5d 0a 3d
       -0.09936917 0.032735318 0.16321331 0.033780597
000110 5e 7e 22 bd 9b 1a 43 3d 0d 42 e9 bd d3 dd c7 3d
       -0.039671294 0.047632795 -0.11389551 0.097591065
000120 c3 90 07 3d 7c 5b 20 bd 15 b7 a8 bd 47 27 f6 bc
       0.03309704 -0.039149746 -0.08238045 -0.030048026
000130 f1 f3 b9 bd 05 07 8a 3d 01 a9 a7 3d ac 4e 1a be
       -0.09079731 0.0673962 0.08186532 -0.15069073
000140 3b 31 c1 3d 81 46 04 bd 94 14 ac bd 73 c1 19 bc
       0.09433218 -0.0322938 -0.084023625 -0.009384501
000150 47 92 24 bd cd 07 00 bd 0d df c4 3d c2 36 21 3d
       -0.040178563 -0.03125744 0.09612856 0.03935886
000160 ba 3a 1a 3e 3a 36 4c 3d e0 78 f7 bd 0e f9 42 3e
       0.15061465 0.049856402 -0.12083602 0.1904032
000170 4f 2c ee bd 6e 7b 4d 3d e3 24 10 3d 41 18 90 3d
       -0.11629545 0.05016654 0.035191428 0.07035876
000180 86 ab 2d bd 83 0c e0 bd a4 9d 54 3d f5 a4 a0 bd
       -0.042399906 -0.109398864 0.05190815 -0.07843963
000190 c8 e5 37 3d d3 4f bd 3a 30 50 8c 3d a6 53 7e bd
       0.04489687 0.0014443345 0.06851232 -0.062091492
0001a0 b7 c7 b5 3d 6b e5 bf bc 21 d3 4c bc 53 f6 86 bd
       0.08875983 -0.023424825 -0.012501509 -0.06589951
0001b0 5f b1 04 bd f0 13 b6 3d f8 55 80 bd c5 bc b3 bd
       -0.032395717 0.088905215 -0.06266397 -0.08776239
0001c0 65 2e d1 3c dc 44 3d bd cb be af 3c dd 18 ae 3d
       0.025534818 -0.046208248 0.021453282 0.08500836
0001d0 8d a5 0d 3d a1 9a d9 3d c3 6e 39 bd 72 37 b2 3c
       0.03458171 0.10625196 -0.045271646 0.021754954
0001e0 dd 43 a8 bd d0 b7 e3 bd f2 6e d3 3c dd 03 20 3d
       -0.08216069 -0.11119044 0.025809739 0.039066184
0001f0 c8 00 3c 3e 36 24 f6 3d 4e fd 8b 3d dd 66 e0 bd
       0.18359673 0.120186254 0.068354234 -0.109571196
000200 7e 7e 9d bd ff e7 f0 3c 52 a0 10 bd 1c 62 84 3c
       -0.07690142 0.0294075 -0.035309143 0.016160063
000210 1c 4b 12 bb 59 8a a9 bd 26 df c0 bd 7d e1 a6 3d
       -0.00223226 -0.08278341 -0.09417562 0.08148477
000220 d1 9d 2e bc c8 07 12 bd 99 2d 13 3d 05 c4 52 bd
       -0.010657744 -0.035651952 0.035932157 -0.05145647
000230 3d 29 ca bd 30 f7 8c 3d 41 09 b6 bd a1 20 e1 bd
       -0.09871147 0.06883085 -0.08888484 -0.109925516
000240 99 46 17 bc 47 1c c7 3d c4 6b 96 3d e8 13 2b bc
       -0.00923314 0.0972219 0.073447734 -0.010441758
000250 ff fa 8d 3d eb 25 43 bd a1 dc 34 3d a4 51 db 3d
       0.06932639 -0.047643583 0.04415572 0.10708931
000260 ce 52 ad 3c f9 34 2f 3e 16 53 bb 3d 02 a0 9a 3d
       0.021157648 0.17110051 0.09146707 0.0755005
000270 10 08 01 bd fd f0 a2 3d 96 4e aa 3d 82 f6 93 bd
       -0.03150183 0.07956121 0.0831577 -0.07224752
000280 5b 95 ae 3d 51 5f 1b be 6f c8 ef bd 06 47 e0 3b
       0.08524581 -0.15173079 -0.117081515 0.006844404
000290 09 69 ae bc 84 d0 a7 3d 4d 96 a1 3d 86 0c ff 3c
       -0.021290319 0.08194068 0.07889996 0.031133901
0002a0 b4 b0 fc 3d 3f 8d 8a bd 22 28 d8 3d dd cc 6f 3d
       0.12338391 -0.06765222 0.1055453 0.058544982
0002b0 3c b4 b3 3c e0 19 86 3d 5f cb f4 bd bf 64 62 bd
       0.021936528 0.06547904 -0.119528525 -0.05527186
0002c0 f7 76 ff 3d ed 73 e0 3c 8d c9 53 bd c4 9d 0c be
       0.124738626 0.027399028 -0.051705886 -0.13732058
0002d0 c4 33 22 be 63 e0 71 3b 54 d7 3a bd e4 b2 08 3e
       -0.1584006 0.0036907427 -0.04561551 0.13349491
0002e0 6f 61 95 bc 2a 77 88 bd fb 5e 88 bd a2 79 ef bd
       -0.018234937 -0.06663354 -0.06658741 -0.116931215
0002f0 03 48 0e bd 0a f6 40 3d 82 d2 9b 3d ae de ab bd
       -0.034736644 0.04710964 0.076085106 -0.08392082
000300 e3 5b a8 3d e8 ef 46 bd 71 49 bb bc 7f b4 12 be
       0.08220651 -0.048568636 -0.022862168 -0.14326666
000310 6c bc ad 3d 1c 44 07 3e 75 49 2d 3e 8d 4f 04 3e
       0.08483204 0.13209575 0.16922553 0.12920971
000320 46 af 71 bd 0b 60 91 bd af 4d 33 3d 42 37 ac bc
       -0.059005044 -0.07098397 0.043775257 -0.021022443
000330 a3 93 7f 3d b3 ef 6d 3d 81 e5 37 3b ea 22 4e bc
       0.062396657 0.058089923 0.002806038 -0.012581566
000340 90 e3 3f be 40 ba 05 be 3a e1 ff bd ee ab 91 3d
       -0.18739152 -0.1305933 -0.124941304 0.07112871
000350 b1 04 25 be 3c 07 0b 3d a7 6f 9a bd 46 95 80 3c
       -0.16115071 0.033942446 -0.07540827 0.01569618
000360 9f 11 64 bd 84 61 b8 3d ea b4 bb bd 74 0a 5e bd
       -0.055680867 0.09002975 -0.09165366 -0.054209188
000370 7a f1 6d 3d 32 da f9 bc 7c 01 c6 bc 99 54 09 3b
       0.058091618 -0.030499551 -0.02417063 0.0020954965
000380 a5 e0 b3 bd 26 c9 6c 3d 63 bf df bb 07 b8 24 be
       -0.08783082 0.057809018 -0.006828235 -0.16085826
000390 b9 1d 2d bd 63 99 9e bd 44 a3 17 be 99 17 04 be
       -0.042264674 -0.077441 -0.14808375 -0.12899627
0003a0 ea 81 35 3d f2 3b 6a 3c 74 3d 31 bc 12 54 92 bc
       0.04431335 0.014296519 -0.010817874 -0.017862353
0003b0 9b ce ab bc 56 0c a5 3d 4b 51 d6 3d 72 3b 0b 3e
       -0.02097254 0.080589935 0.10464724 0.13596895
0003c0 bf 6c a7 bc d6 ae ab 3d d0 14 5a bd 7b 3b c7 3d
       -0.020437596 0.08382957 -0.053242505 0.09728142
0003d0 24 98 d2 3d 79 0f 92 3d 7d 5c 28 3e 9c bf 2b 3d
       0.10282925 0.071318574 0.16441531 0.04193078
0003e0 b4 a3 99 3c b0 54 c3 bd 0c 46 cf 3c 6b 9f 25 3e
       0.018754818 -0.09537637 0.025301956 0.16174094
0003f0 a1 11 c4 bb d9 a6 d8 bd 01 92 0a be 65 38 b5 3d
       -0.005983547 -0.10578699 -0.13532259 0.08848647

freqs f4 [8]
000000 58 5c 6f 3f 9a 88 0b 40 0a 38 4b 40 63 0f 82 40
       0.9350028 2.1802125 3.1752954 4.0643783
000010 be dc a8 40 e7 7d c8 40 f7 8f eb 40 d7 be 07 41
       5.276946 6.265369 7.361324 8.484092

weight f4 [64, 8]
000000 8f 61 6c 3e 3a 5a bd 3d 37 ce 1f 3d 6a c0 54 3e
       0.2308409 0.09245725 0.03901502 0.20776525
000010 8b 3a 4a be 5c 67 b6 3d f5 41 58 3d 4e 51 d7 3c
       -0.19748895 0.08906433 0.052797277 0.026283886
000020 0f 35 b6 be 32 dd ae be cc be e9 bd ca c8 69 be
       -0.35587355 -0.34153134 -0.11413345 -0.22830501
000030 7c a0 9e be 32 dc d0 bd c4 c9 9a bc cd b7 a2 3d
       -0.30981815 -0.10198249 -0.018895037 0.079452135
000040 91 06 ed bd db d1 21 be 8c 65 13 be 51 cd 4c 3e
       -0.11573518 -0.1580271 -0.14394206 0.20000197
000050 0b 6f b3 3d 40 4c c1 3e fc 2b 0b 3e 5a 22 83 3e
       0.08761414 0.37753487 0.13590997 0.25612146
000060 2f fe e5 bd 4e a7 4d be 1a c9 00 3e a6 84 7c 3e
       -0.11230122 -0.20083353 0.12576714 0.24659976
000070 34 8e c8 bd f7 16 a3 3d 70 cd 90 be 84 50 18 3e
       -0.09792748 0.079633646 -0.28281736 0.14874464
000080 2d 5c d6 be 9d 65 d5 bd 6c 15 01 be f2 1e 0c be
       -0.418672 -0.10419772 -0.12605828 -0.1368368
000090 fa 94 99 3c a1 8e 2a be 57 62 be 3e 52 56 19 be
       0.018747795 -0.16655971 0.37184402 -0.14974335
0000a0 3f 2b 42 3e d3 f5 9a be 75 57 59 3e 64 6d 80 3e
       0.1896181 -0.30265674 0.21224768 0.25083458
0000b0 d9 28 89 be 7b cb f0 bd 7d e5 b0 bd c6 d3 67 bd
       -0.26788977 -0.11757561 -0.086375214 -0.056598447
0000c0 d4 c8 b7 3d 16 3e a3 3e b5 ac 70 bd d4 e5 a5 3d
       0.08973852 0.31883305 -0.058758456 0.08100477
0000d0 9a 65 84 be a6 fb 41 be e9 f2 94 be 61 12 bd 3c
       -0.25858766 -0.18943653 -0.29091576 0.023080053
0000e0 0c 04 2d bc 92 90 b3 3e f2 9e 46 3e b1 34 cc bc
       -0.010560047 0.35071236 0.1939657 -0.024927469
0000f0 d1 d6 fb bd 49 31 28 3d b6 9d 30 be 7d 52 85 3d
       -0.12296832 0.041062627 -0.17247662 0.06509874
000100 d2 6b 00 be 26 af 30 be 97 3a 1a 3d 7b 99 43 3d
       -0.1254113 -0.17254314 0.037653532 0.047753792
000110 4b 7b 5f bd 4e 2b 83 3c 57 cc 9a be 34 2c fe bd
       -0.05456094 0.01601186 -0.30234024 -0.12410775
000120 dc f7 e9 be 56 f6 aa 3e b7 41 ac 3e e1 be 9f be
       -0.45696914 0.33391064 0.33643886 -0.31200317
000130 09 fa 67 be ca a1 8d be cb 8d 55 3e 45 8c 97 3d
       -0.22653975 -0.27662498 0.20854871 0.07399801
000140 10 d5 ef be 05 23 e9 bd e9 5b 95 3e f7 83 06 bd
       -0.4684224 -0.113836326 0.29171684 -0.032840695
000150 64 6b 90 be a3 4c 22 3e 7d 08 ad 3e 31 36 ae 3e
       -0.28206933 0.15849547 0.3379554 0.3402572
000160 e9 6c 4a 3e db 90 f4 bd 3c 25 4c 3b 62 af 9c 3e
       0.19768108 -0.119416915 0.0031150123 0.30602556
000170 2a ea d1 3d f3 5b 96 be b4 a4 36 3e e1 b1 c4 3d
       0.102497414 -0.29367027 0.17836267 0.0960424
000180 bb b8 dd be af d8 68 be c9 50 89 3e 1c f6 8d 3e
       -0.43305 -0.22738908 0.26819447 0.2772683
000190 a9 ab 9a be 24 ce f9 3d 1d 2e 6f 3e f2 18 86 3d
       -0.3020909 0.12197521 0.23357435 0.06547727
0001a0 85 b2 89 3e 36 01 04 3e 0d c0 09 3e de 96 15 3e
       0.26894012 0.12891087 0.13452168 0.14608333
0001b0 ee b9 97 bd 7c c4 c3 3c 6b 03 00 be 2d 0e ae bd
       -0.0740851 0.023897402 -0.12501304 -0.084987976
0001c0 d4 42 5a 3e 2f aa 2e be cb 0c c1 3d 90 ab 9d 3e
       0.21314555 -0.17057107 0.09426268 0.30794954
0001d0 63 8e 80 3d 2b 2a a1 3e 0a 64 32 bd 87 96 b0 bd
       0.06277158 0.31477484 -0.043552436 -0.08622461
0001e0 f3 7f df 3e d5 d8 33 be 32 4f b5 3e 1f 24 b4 3e
       0.43652305 -0.17563184 0.35411984 0.35183808
0001f0 cd c8 97 be 6b 8e 07 be 73 1a 88 3e 1d c7 02 bd
       -0.29645386 -0.13237922 0.2658268 -0.03192817
000200 66 e4 d0 be 08 1e 36 3d 37 59 de be f2 38 17 bc
       -0.40799254 0.044462234 -0.4342744 -0.009229885
000210 54 91 5e 3d df b1 ea bd b2 8d 66 bd 73 1d 16 3e
       0.054337814 -0.114597075 -0.056287475 0.14659671
000220 29 73 ca 3d 28 bc 4a bd a3 bb 23 be b6 17 27 3d
       0.09885246 -0.049495846 -0.15989546 0.040794097
000230 08 f0 05 bd d5 8b 83 bd 35 8b e1 bd 74 e4 80 3d
       -0.032699615 -0.06423155 -0.1101288 0.06293574
000240 68 26 db be ed f3 01 3e fe 07 31 be e6 ce ab 3e
       -0.4280274 0.12690707 -0.17288205 0.33556288
000250 b8 e4 23 3c dd 9c 33 3e 34 81 89 3d 15 82 f6 bd
       0.010003261 0.17540307 0.06714097 -0.1203653
000260 fb fb de 3d 15 99 92 be 29 cb ac 3d fb 0e ac 3e
       0.10887905 -0.28632417 0.08437187 0.3360518
000270 3f 76 c3 bd 91 e3 b5 3e 10 cf 88 be 04 e9 1d 3e
       -0.09544038 0.35525182 -0.26720476 0.1542092
000280 05 f4 8b 3e 9b d3 10 be 1e ba b9 be 30 c9 92 be
       0.2733461 -0.14143221 -0.3627481 -0.2866912
000290 56 b1 2b 3e dc b0 b6 3e 47 81 91 be b3 ae 3f be
       0.16766867 0.35681808 -0.28418943 -0.18718986
0002a0 63 1a 7f 3e 67 55 52 bd 80 33 a6 be db c2 96 bd
       0.2491241 -0.051350977 -0.32461166 -0.073613845
0002b0 a0 e5 de 3d 5e c8 be be 57 dd 30 be 06 2a 1a 3e
       0.10883641 -0.37262243 -0.17271934 0.15055093
0002c0 4f bf ee 3d d1 7d 0c be c8 53 cf 3e 3f 53 5c 3d
       0.11657583 -0.1371987 0.40493608 0.053790327
0002d0 95 31 4e 3e e6 70 e3 bc 4b 84 1c be 5a 22 80 3e
       0.20136102 -0.027763795 -0.15284841 0.25026208
0002e0 3b 61 f3 be e9 df c9 3d d8 73 49 be 2c 29 2a bd
       -0.47535118 0.098571606 -0.19673097 -0.04154317
0002f0 8a 25 89 3e e3 98 ab be c2 2a 0c 3d ea ff a6 bd
       0.26786453 -0.3351508 0.034220465 -0.081542805
000300 7e f5 c9 3e 43 68 6e be 3c e8 b5 bd 72 89 53 be
       0.39445108 -0.2328196 -0.08882186 -0.206579
000310 79 11 88 3e be 35 89 3e c1 bd da bc 98 59 a5 3d
       0.2657583 0.26798815 -0.02670181 0.08073729
000320 75 b4 08 3f aa d3 74 be af ae bf 3d 9a b2 b4 3e
       0.53400356 -0.23908868 0.0935949 0.35292512
000330 e5 e8 4c be 18 5a 8a be db 6f 93 3e 42 e2 95 3e
       -0.20010717 -0.2702186 0.28796276 0.29274184
000340 ec 0f 7d 3e b5 27 8a 3e 68 98 20 3e b1 55 50 be
       0.24713105 0.2698342 0.15683138 -0.20345189
000350 b5 6d a6 be fa 22 ae 3c 99 66 39 be 71 e7 b3 3e
       -0.32505575 0.021256912 -0.18105544 0.35137513
000360 01 28 bc bc b4 4b 55 3e 85 71 95 bc ce e8 a4 bd
       -0.022968294 0.2082966 -0.018242607 -0.080522165
000370 37 1e 8c bd 6f 57 93 be ee b1 aa be fb c2 d8 bd
       -0.068417005 -0.28777644 -0.33338875 -0.105840646
000380 42 68 e3 be 71 af 9c be 48 7e 39 3e 12 00 16 be
       -0.4441548 -0.306026 0.18114579 -0.14648464
000390 e2 29 d3 3c 13 37 b4 bc 4e a5 7d be df 9c 0a be
       0.025776807 -0.021998918 -0.2477009 -0.13536404
0003a0 e5 a1 d2 be f1 74 54 3d 13 ee 8f 3e d2 0c 0e bc
       -0.4113914 0.051869337 0.28111324 -0.008670049
0003b0 8e 04 c8 3d 1a 4e 53 3e 45 eb 41 3e 5d 84 56 3d
       0.09766494 0.20635262 0.18937404 0.052372325
0003c0 07 b7 37 be da 40 16 3e 85 42 89 3c 5e df 9c 3e
       -0.17940913 0.14673176 0.016755352 0.30639166
0003d0 50 80 a6 bd 39 9c 90 3e 61 dc 3d 3e a3 db a4 3e
       -0.081299424 0.28244188 0.18541099 0.3219882
0003e0 e0 b4 3f 3e 37 a0 36 3d b2 a8 6b bd 11 37 44 3e
       0.18721342 0.044586387 -0.057533927 0.19161631
0003f0 09 51 82 3e b7 38 77 3e 80 c1 b6 be ed 28 99 3c
       0.2545245 0.24142729 -0.35694504 0.018696273

weight f4 [64, 64]
000000 35 34 05 3e 08 25 09 be 19 1d 05 be d6 ff a1 bd
       0.13008197 -0.13393033 -0.12999381 -0.07910125
000010 2c 79 a2 3c 0a f9 5c 3d 64 43 a6 bd 21 6b 26 3d
       0.01983317 0.05394844 -0.081183225 0.04062951
000020 55 22 7a 3c b5 0e a2 bd 87 ab 95 3c 00 65 d3 3d
       0.015266974 -0.079129614 0.018270267 0.103219986
000030 04 01 b4 3c 4e 7d a1 3c b8 2f 93 bd 7e cd 0b bd
       0.02197314 0.01971307 -0.07186836 -0.03413152
000040 51 f1 79 bc 90 02 c4 bd 33 7e 0c 3d 0e d7 0d be
       -0.015255288 -0.09570801 0.03430004 -0.13851568
000050 83 88 a7 bd 0b bc de 3d 44 13 85 3d 16 d4 93 bd
       -0.081803344 0.1087571 0.06497815 -0.072181866
000060 89 97 81 bb 6b 6f a0 3c 00 8d 18 3c 1f a0 e3 3c
       -0.003954832 0.019584378 0.009310961 0.027786313
000070 35 0f 57 be 91 c2 0d be c5 3a 8e bd d5 cc bc bb
       -0.21001895 -0.13843752 -0.06944803 -0.0057617226
000080 d7 68 9f 3d 01 89 8c bd df fd db bb 96 31 2d 3d
       0.077836685 -0.06862069 -0.0067136134 0.042283617
000090 5b 6b 8b bd 4a b1 71 bd ab aa 10 3b c4 65 59 be
       -0.06807586 -0.059006967 0.0022074382 -0.21230227
0000a0 dd 4e 0d bb c8 65 18 bc e1 e4 24 bc 87 b1 eb bd
       -0.0021561899 -0.00930161 -0.010064335 -0.1150847
0000b0 f0 a3 28 3e a3 5f 59 3d bc ba 0a be 23 0e 46 3d
       0.16468787 0.053069722 -0.13547796 0.048353326
0000c0 39 c4 59 be 3b fd 59 3d 03 27 22 3d 3b 71 22 3e
       -0.21266259 0.053220015 0.039587986 0.15863506
0000d0 d6 41 de 3d 07 eb 04 bd 93 9b e7 bd e8 e7 25 be
       0.10852401 -0.032450702 -0.1130897 -0.16201746
0000e0 11 c4 88 3c 21 44 03 3e d2 a2 41 bb 49 32 9b bd
       0.016695054 0.12818958 -0.0029546511 -0.075779505
0000f0 5b 2b 75 3d 65 4b 0c 3e 7b 33 8b 3d ac 56 58 3d
       0.0598558 0.13700636 0.067969285 0.05281703
000100 d7 8f ce 3d a6 33 6e 3d 29 e9 e3 3d a5 b1 98 3d
       0.10086029 0.058154725 0.11128456 0.07455758
000110 df ce 3a 3d c8 16 98 3d b4 d8 8c 3c 5f 28 0b be
       0.045607444 0.0742622 0.017193176 -0.13589619
000120 2b 84 2c bc dc ce 0b bd ef 17 e1 bb f4 e0 90 bd
       -0.010529558 -0.034132823 -0.006869308 -0.070741564
000130 da 5e 1a be 27 20 b8 3d 87 fe 94 bd 63 f1 9a bd
       -0.15075245 0.089905076 -0.0727511 -0.07565572
000140 f9 a0 c6 bd 82 72 91 3a cd 99 bd bd 74 8e 03 be
       -0.09698672 0.0011096748 -0.09257851 -0.1284731
000150 5e 54 1c bc 7d e0 c3 3d de b9 ff 3d c2 bd 44 be
       -0.009541599 0.09564302 0.12486623 -0.19213012
000160 e7 bf b6 bc fc 85 cf bc e2 38 d9 bb 9a 45 e6 3a
       -0.022308303 -0.025332443 -0.0066290954 0.001756835
000170 98 be 9c 3d e6 e9 3c bd 36 a9 cb 3d 5d 79 a3 bc
       0.076535404 -0.0461215 0.09944384 -0.019955331
000180 d8 1d ed bd 0d 5e 15 3d ad 3e 84 3d 4e bb 39 3e
       -0.11577958 0.036466647 0.06457267 0.18137857
000190 19 af bb bd a9 1b d7 bc c7 f6 db bd 5a 03 f0 bd
       -0.091642566 -0.026258307 -0.107404284 -0.11719389
0001a0 c5 72 f5 3b 05 3b 39 3c 97 59 39 3d 73 e3 d2 3d
       0.0074904882 0.011305575 0.045251455 0.10297289
0001b0 01 e1 58 bd 83 b7 da 3c 35 14 fa bd bd 18 ef bc
       -0.052948955 0.026698833 -0.122108854 -0.0291866
0001c0 f6 21 70 3d 33 f4 81 3d 02 22 d6 bd 6b 6c d1 bd
       0.058626138 0.063454054 -0.10455705 -0.10225757
0001d0 ff e0 81 bd 4a 27 c9 bd 0e ce 22 be a4 90 ff 3c
       -0.06341743 -0.09821947 -0.15898916 0.0311969
0001e0 f2 f6 f1 3b 29 67 61 bc f6 b0 9e 3d e6 06 02 be
       0.0073841745 -0.013757505 0.07748596 -0.12697944
0001f0 60 06 c8 3d df ce e1 3d 3a 65 0f 3d 28 0b e0 3b
       0.09766841 0.11025786 0.035008647 0.0068372674
000200 61 a3 e1 bd 29 27 90 bd ee e3 b3 3d 8b 5c 06 be
       -0.1101749 -0.07038719 0.087837085 -0.1312124
000210 bd fa 8a bc 1f e9 43 3d 13 1c 2c bd 45 ea 1a 3c
       -0.016965264 0.047829743 -0.04201896 0.009455268
000220 6d b1 70 bd b1 04 03 3d 78 2f 1a 3c 44 24 dc bb
       -0.058762956 0.031986896 0.0094107315 -0.0067181904
000230 97 bd 2f 3e ae fc c7 bd 50 77 a7 3d 91 69 01 be
       0.17162167 -0.09764992 0.08177054 -0.12637927
000240 5b 49 b8 bd eb 1a 5a 3d 15 1a 17 bd 41 bc 99 3d
       -0.089983664 0.053248327 -0.03689011 0.0750661
000250 06 d2 66 bb 02 86 28 be 1f 3b 0a be bb 3c e3 3d
       -0.0035220399 -0.1645737 -0.13499115 0.11095568
000260 a4 9e 0b be dd 70 27 bd 39 70 c5 3c 31 df a6 bd
       -0.13634735 -0.04087912 0.024101363 -0.08148039
000270 90 8b 2e 3e c0 68 2d bc 8c 8d 8b 3c ce ee d8 ba
       0.17045426 -0.010584056 0.017035268 -0.0016550662
000280 6c 21 f5 3d 0c f4 09 be 65 89 07 3d f4 38 97 bd
       0.11969265 -0.13472003 0.033090014 -0.0738391
000290 cc 12 9b 3d f3 84 13 3d 8f 77 5f bd 88 94 0b 3e
       0.075719446 0.036015462 -0.05455738 0.13630879
0002a0 1c 6e 34 bd 49 a1 27 bd df f4 06 3c df 8f 9f 3d
       -0.04405032 -0.040925298 0.008237093 0.07791113
0002b0 f3 2a 19 bd 1d 69 5c 3d 1f bd 7f bd f4 9e bd bd
       -0.037394475 0.05381118 -0.06243622 -0.092588335
0002c0 d7 df 0f 3e aa e2 35 bd 2b db 2a bd 73 75 be 3c
       0.14050232 -0.044405617 -0.04171292 0.023249364
0002d0 29 a6 e1 bd 65 2f 24 bd 2f 94 e4 3b 63 c9 9c bd
       -0.11018021 -0.04008426 0.0069756727 -0.07655599
0002e0 fd f3 87 3d 0b d3 a3 3d f7 d3 3f bd 7d 3b 0a bd
       0.06638334 0.079992376 -0.046833005 -0.03374814
0002f0 58 db 17 be f6 76 e2 bd f4 96 c7 bd 0d 29 0d bd
       -0.14829767 -0.11057846 -0.09745589 -0.034462977
000300 70 91 40 3d 36 0a ed bd 8c f5 87 3d 5a d2 67 bd
       0.0470137 -0.11574213 0.06638631 -0.05659709
000310 74 2d 7f bc 92 dc 14 3d 24 dd 44 bb ce a2 e5 3c
       -0.015574802 0.036343165 -0.0030039037 0.028031733
000320 f6 b3 00 be c3 5a aa bd 51 e2 b6 3d 2d 43 8e 3c
       -0.1256865 -0.08318093 0.08929885 0.017366016
000330 f4 81 85 bd 1e 2c 83 3d f1 8f ed 3d 01 dd 0a 3e
       -0.06518927 0.06404899 0.1159972 0.13560869
000340 c2 55 0b be c3 be e7 3d 94 63 24 be d7 2d df bd
       -0.13606933 0.11315682 -0.16053611 -0.10897415
000350 17 03 29 3c 5a 49 03 3d cb 95 c6 bd f3 de 2c bc
       0.010315678 0.032052375 -0.096965395 -0.010551202
000360 c5 56 2d 3d 92 38 58 3d a6 b4 b8 3d c9 d7 87 3d
       0.042319078 0.052788325 0.09018831 0.066329546
000370 94 d8 ed bd 4a 49 ca 3c 92 54 af 3d 76 c1 94 bc
       -0.116135746 0.02469315 0.085610524 -0.018158656
000380 77 8c cd bd 20 4c 9c bd 69 52 73 bd e6 5e 98 bc
       -0.10036557 -0.07631707 -0.059404764 -0.018599939
000390 1a 55 2a be dc d0 29 be 90 41 96 bd 5d bf 9f bd
       -0.16634026 -0.1658358 -0.07336724 -0.078001715
0003a0 41 4d be 3c 4e df 0b be 9e aa b8 3c 40 ee 95 bc
       0.023230197 -0.13659403 0.022542294 -0.018302083
0003b0 c2 f5 a9 3d 17 db bc 3d 4e 28 c4 3d 79 a5 a6 3d
       0.08298828 0.092214756 0.09578 0.0813703
0003c0 7b b9 65 3d 24 c7 85 3d d8 82 e7 bc cb 2e 65 3c
       0.05608509 0.06532124 -0.028260633 0.013988207
0003d0 2a 7b 6b 3d c3 3e 06 be b3 f6 84 3c 8a 9e 2c 3d
       0.057490505 -0.13109879 0.016230917 0.042143382
0003e0 22 88 b2 bd 4a 65 54 3b af 82 fb bc f6 53 84 3d
       -0.087173715 0.0032409006 -0.030701963 0.06461327
0003f0 62 9a 10 3d 26 cd 09 3e 76 75 d8 3a 6b 3b 23 3e
       0.03530348 0.13457164 0.0016514498 0.15940635

weight f4 [64, 64]
000000 59 ce 8c bd bc 6b d1 3d d2 a2 1a 3e 19 e1 c9 bd
       -0.06875295 0.10225627 0.15101174 -0.09857387
000010 b8 84 35 3e 4e 74 54 3c dc 19 fc bd b6 50 ff 3d
       0.1772641 0.012967182 -0.1230962 0.12466566
000020 c6 a7 57 3e 69 95 2e be ab f3 59 3d fc 7c 9e bc
       0.21060094 -0.17049183 0.053210896 -0.019346707
000030 24 77 9d 3d 2f ee 0b bd ce 3a 39 3d 36 23 b4 3c
       0.0768874 -0.034162696 0.045222096 0.021989446
000040 7d a4 00 3d f6 55 3e bd 0f 44 9c 3d 40 55 73 bb
       0.03140687 -0.046468697 0.07630169 -0.003712967
000050 76 ac 9c bd 4b de eb 3d ad 02 af bd f8 79 95 bd
       -0.07650082 0.115170084 -0.08545432 -0.07298654
000060 bb 21 eb 3d ee 87 2c be 89 24 74 3c 71 00 b5 3d
       0.11481043 -0.16848728 0.014901289 0.08837975
000070 f3 4d 4f 3b 0b 1e c1 3d 66 4b 32 3e 34 07 a8 bd
       0.0031632155 0.09429558 0.17411575 -0.08204499
000080 c1 81 89 be bf 62 0b 3d 1c 4a a0 3d c7 9b cc 3c
       -0.26856807 0.03402972 0.07826635 0.024976624
000090 39 6e da bc 8b 3b b2 3c 42 1d f0 bd 1b 21 bf bc
       -0.026663886 0.021756908 -0.117243305 -0.023331216
0000a0 bf 7c dd bd c7 fa 37 be 2f 28 23 be 94 db b9 bd
       -0.10814809 -0.17966758 -0.15933298 -0.09075084
0000b0 e3 a8 f5 bd d1 c4 31 bc 3a df 12 be 00 5c dc 3d
       -0.11995103 -0.010850147 -0.14342967 0.10759735
0000c0 46 6d 9b bc 87 6d 5b be 49 a6 32 3b 43 41 d0 3d
       -0.018973004 -0.214285 0.0027259758 0.10168698
0000d0 67 84 fd 3d ff d6 a9 bd 1e 41 ce 3d 12 b6 3a 3d
       0.12378769 -0.082929604 0.10071014 0.045583792
0000e0 1e e0 72 bc a8 a6 ff 3d 52 c7 9e bc f8 77 53 bd
       -0.0148239415 0.12482959 -0.019382153 -0.051628083
0000f0 fd e4 2e bd 9f 65 85 3e 23 f1 9a 3b 57 fc 05 3e
       -0.04269885 0.26054093 0.004728453 0.13084541
000100 40 07 93 bd 34 12 ff ba 35 e9 65 3d c6 a5 80 bc
       -0.07179117 -0.0019460381 0.056130607 -0.015704047
000110 33 5e 82 3d 35 7e 4e 3d 22 7a 6a bd f4 3c 27 bd
       0.06365623 0.05041333 -0.05724538 -0.040829614
000120 1c 94 a8 3d 75 81 b7 bd c1 47 c6 bd c9 19 6d be
       0.082313746 -0.08960239 -0.09681655 -0.23154368
000130 65 65 a7 3d a1 f2 3d bd 84 ac 1f bd 43 37 01 3d
       0.08173636 -0.046373967 -0.038982883 0.031546842
000140 b1 b3 40 be 5b da 9f bc 80 d0 9f bd c2 c2 44 be
       -0.18818547 -0.0195133 -0.0780344 -0.19214919
000150 d2 f3 bb 3c 94 8f e8 3d a3 5d 40 3d c6 7e d3 3d
       0.022943411 0.1135551 0.0469643 0.103269145
000160 4e 51 64 3d 38 85 a7 bc 7b c3 40 3d 0c ff 9c bd
       0.0557416 -0.020449266 0.047061425 -0.07665834
000170 fa 30 fa bd a5 b0 d6 bd ef 50 08 bc 6c 77 8a 3c
       -0.12216373 -0.10482911 -0.008320077 0.016902648
000180 c4 c7 19 3e df db 17 3e 40 a4 aa 3d c8 d8 56 3e
       0.15017611 0.14829968 0.083321095 0.20981133
000190 e4 01 a6 3d c5 f3 01 3e 77 f5 be bd 03 b0 4f be
       0.08105829 0.12690647 -0.093241625 -0.20281987
0001a0 be ad b7 bd 51 a8 8b 3d de ea f0 3d 30 d7 12 be
       -0.089686856 0.06819213 0.11763547 -0.143399
0001b0 a2 61 88 bd 68 2e d5 bd 00 ca ca bd c0 f8 15 bd
       -0.06659247 -0.10409242 -0.0990181 -0.03661418
0001c0 9b 75 f6 bb ba 3c 18 3d c4 04 73 bc 10 f3 de 3d
       -0.007521344 0.03716729 -0.014832679 0.10886204
0001d0 49 98 e4 3c f0 b6 8e ba 94 96 02 3d ce 27 1c bd
       0.027904646 -0.001088826 0.031881884 -0.0381239
0001e0 4d 30 5f 3d 9a de 4b 3d 44 93 02 3d b1 3e ac bc
       0.054489423 0.049772836 0.031878725 -0.021025987
0001f0 93 b5 06 be 0e 3c 99 3d 04 65 c8 3d 5a c2 1d bd
       -0.13155203 0.07482158 0.09784892 -0.038515426
000200 e3 4a 0e bd 5e 4c 95 bd 88 78 24 3d 88 78 a0 3d
       -0.034739386 -0.072899565 0.04015401 0.078354895
000210 2c f2 67 be ee d0 1d 3d 99 01 d3 3d 65 6c 69 3d
       -0.22650975 0.03852933 0.10303039 0.05698814
000220 26 01 6a 3c 2d 5c ab bd c3 37 a2 3d b1 74 ba 3d
       0.0142825 -0.083671905 0.07920792 0.09104288
000230 a4 ed 67 bd f2 da b3 bd ea c9 fe bd 85 68 a8 3d
       -0.056623116 -0.08781995 -0.12440856 0.082230605
000240 fa d2 0e 3e 73 63 2d bd 9f af 97 3d 2f 74 d4 3c
       0.13947669 -0.04233117 0.07406544 0.025934307
000250 25 3e 8f 3c 87 2e e1 bd 5e 1d 1f 3d 80 ba 83 bd
       0.017485688 -0.109952025 0.038846366 -0.064320564
000260 c3 68 07 3d 6d 25 21 bd c2 fa 27 be ec a0 2c bd
       0.033058893 -0.039342333 -0.1640425 -0.042145655
000270 aa 7a c7 3d 11 98 b1 3d 45 80 38 be e7 1a f9 3d
       0.09740193 0.086715825 -0.18017681 0.12163334
000280 4c 2e 52 bc 93 6c 39 be 0a 3b 4d bd 2d 48 6b be
       -0.012828421 -0.18107824 -0.050105132 -0.22976752
000290 9e c9 ea bd 5e 7d b0 bd 7b 79 a8 3d b7 5f 48 3e
       -0.11464237 -0.08617662 0.082262956 0.19567762
0002a0 df e3 92 bd d1 7f 3c be 9d ff cb 3d 1b 03 22 3e
       -0.07172369 -0.18408133 0.09960864 0.15821497
0002b0 83 58 8b bd d0 24 b7 bd 54 98 61 3d 53 af 66 bd
       -0.06803992 -0.08942568 0.055076912 -0.056319546
0002c0 89 e9 04 bd 8c 67 22 3e 15 8b 93 bb a4 b9 ef bc
       -0.03244928 0.15859812 -0.004502664 -0.029263325
0002d0 5d 15 26 bc ed 61 77 3d 11 70 c1 bd 9b 4e 19 3e
       -0.010136929 0.060396124 -0.09445203 0.14971392
0002e0 a5 5c ce 3c a2 e4 4f 3d c9 c0 97 bd e3 a3 91 3d
       0.02519066 0.05075515 -0.07409818 0.07111337
0002f0 09 b8 50 bc 14 19 a0 bd 43 ef 04 3e af 02 57 3d
       -0.01273919 -0.07817283 0.12981896 0.052492794
000300 a2 d8 e8 3d 50 52 9b bd 72 cc 7f 3c ea 45 fd 3c
       0.113694444 -0.07584059 0.015612708 0.030917127
000310 29 a3 09 bd e5 08 45 b9 39 a9 d6 3d fa 5a ad 3d
       -0.033602867 -0.00018790698 0.104814954 0.08464618
000320 57 00 08 be 9f c5 80 3d f6 c0 fb 3c e9 fe 53 3e
       -0.1328138 0.06287693 0.03073166 0.2070271
000330 66 e9 a2 bb ff c5 3f 3c ae 97 59 bc 8f 79 9a 3d
       -0.004971671 0.011704921 -0.013280792 0.07542717
000340 4a 6b 01 3e 13 72 86 3d 51 94 1c 3e 71 1b 6d 3e
       0.12638584 0.06564727 0.15290953 0.23155
000350 a7 f3 06 be 32 59 3c be 91 d1 8c bd c3 7d 1e 3c
       -0.13178883 -0.183934 -0.06875909 0.009673539
000360 bf 52 31 3d 4b 8a 1e 3d 6d 72 19 be b9 cc d2 bc
       0.043291803 0.038706105 -0.14985056 -0.025732385
000370 44 3d 0b 3d d9 4f d6 3c 81 97 4c be a6 54 84 3c
       0.033993974 0.026161121 -0.19979669 0.016153645
000380 66 24 68 3c a4 8d 67 3d e5 d9 03 be 7b 25 80 be
       0.014168834 0.056531563 -0.12876089 -0.25028595
000390 e1 a3 90 3c 34 30 55 bc bc 28 07 3e 5e 39 6a 3b
       0.017656269 -0.013011981 0.13199133 0.003573976
0003a0 e3 a9 b8 bd 8e 32 08 3e 94 50 02 3e 17 59 0c 3e
       -0.09016778 0.13300535 0.1272605 0.1370586
0003b0 04 df 1a 3e 44 f8 e6 3d 3a d2 31 bb e2 96 95 bd
       0.15124136 0.11277822 -0.0027133361 -0.07304169
0003c0 63 3a 34 bd f9 36 1c bd 0c 92 e5 bc 92 ac 8d 3c
       -0.044000994 -0.038138364 -0.028023742 0.017294202
0003d0 2f 6b 1f bc 18 77 ee bc 25 26 86 bd 8b 8d e6 bb
       -0.009730144 -0.029109523 -0.06550244 -0.007035916
0003e0 b5 b9 bc bd 6e cc 90 bc 3e 6c 78 bd d0 4d 43 bd
       -0.09215108 -0.017675605 -0.060650103 -0.04768163
0003f0 27 52 d0 bd 5b 53 07 be 6f e7 56 bd 5f 36 32 3d
       -0.10171919 -0.13215391 -0.052466806 0.043508884
