examples/carbon/outDir/epoch=2-step=1530-val_loss=11720162304.0000.pt (torch, 752753 bytes, 92 tensors)

cutoff f8 []
00000000: 0000 0000 0000 0840
3.0

weight f4 [7, 64]
00000000: 1545 593f 8327 313f 6dcc a1be c15f 07c0
00000010: 7556 b6be a8db df3e 538c fb3e 0b00 51be
00000020: 776f f53d 936b 9e3f 8ef2 8e3f 7c36 7dbe
00000030: a799 85bf f632 acbf 110d 493f 992a 7e3f
00000040: 8b4d 193f 5b0d c7bf cac6 aebe 4e2f ed3f
00000050: 55aa ef3e 5f7f 21be dbc9 b83f a137 883e
00000060: c0d6 b13f 000d cb3f 9c40 723f 33fb 57bf
00000070: 308c 6e3f 3727 a13f 9a51 0040 3a1b 5c3d
00000080: d01f e13e d637 e63d f80a 243f 3cdf e13e
00000090: 420b 5dbe a317 3ebf 820e 103f e2ed 843e
000000a0: 2fda 053f 5557 1340 b704 bcbf 9e18 cbbf
000000b0: 3c03 9a3f 8720 ad3d 2b9e 99bf aed1 9cbb
000000c0: 10dd 6bbe 0894 c8be 5d15 0b3f 1752 cabe
000000d0: 5275 523e 9f91 e6be 2eb5 12bf f82b 0ebf
000000e0: d9fd c3bf 23f8 9dbf c2ec e83f fc30 0dbf
000000f0: 48a4 a9bf 3014 413e fb75 8dbd db66 fdbe
00000100: ce34 bdbf 8b4d 2440 c23c f2be 4fcd ab3e
00000110: e82a c13f c23e 0540 8775 da3f f157 1840
00000120: d092 88bf 57b6 8e3f 2c0c 10be de45 4e3f
00000130: 10bd a73e b5bd 42bf b8ae ccbf 5a71 973c
00000140: 5f86 573f 47d1 ccbe 170d 853f d85f b73e
00000150: ca85 58bb 1bd1 08bf 9097 953f 44fc c93e
00000160: dcc1 85bf 3ddd 74bf b458 093d 3cc8 353f
00000170: 4a84 c4bf ae4a d3be a75f 773f e5f8 cf3f
00000180: ad40 27c0 1326 d9bf 37b8 69be 4356 8f3e
00000190: 0602 963d 3881 8e3f 5585 903e d352 de3e
000001a0: 0ff4 e93e fa88 5dbf cc03 483f 1242 6dbf
000001b0: cc5e 533e aeb9 aabe 9b8f dbbe 2282 6e3e
000001c0: 9967 763f 2ec6 b23e efe4 6bbf 812c 66bd
000001d0: 0d97 33bf 27b2 843f 208a 1abf 94ae a3bf
000001e0: 95c0 fd3d a017 953f 3562 6c3f e492 b13f
000001f0: 3e01 b03f 95dd 283f 4bff f33e 5d16 82bf
00000200: db40 1c3f 5c0b ef3e 22af f93f 9d13 88bf
00000210: 03f7 913f 1714 b8bd edd3 3a3f 6a33 ecbf
00000220: f115 d1bd 504b 84bf 3212 a0be 30af 7b3e
00000230: fd1d c13e 43f5 8c3f 8b46 92bf 25f3 193d
00000240: 41c0 933e 24f0 c53e b3e3 4dbe b483 f1bd
00000250: 6351 54bf fc20 b4bf 833c d03f 6368 303e
00000260: 9c4c 34bf 1b23 a13e 9a2b 213e 434e c53e
00000270: 07db 123f 6d78 7f3f fd29 0b3f 3264 a13d
00000280: da9a 7f3f 8b57 ffbe 2ad8 423f f748 1e3f
00000290: ec48 99be e548 40be 223c f53f a4b0 303f
000002a0: 32c9 a0be 1b13 8abf 0897 763e 93b7 b2bf
000002b0: 018e e83d a767 8d3f ff94 b2bf c342 f33e
000002c0: 9660 8a3f 2fa2 063e b469 c93f cb0b 483f
000002d0: a5c8 7c3f 7a70 bebf 2631 163f 2e18 223e
000002e0: 2ab2 2a3f 5290 7ebf 143d 98bf df14 99bf
000002f0: 14ec a73f 05e0 56be 8b1f 483f 7e5c 7d3f
00000300: 92a0 2f3e 7844 603f 1ffd 92be 1ac5 823f
00000310: bbd5 02bf 6f5b dbbf 9b93 02bf 3125 f3be
00000320: cb8a 293f 1e68 9abf 2b81 1b3f 7812 0cbf
00000330: 84dc 8cbf 475a 38bf 2c78 433c b7f6 ad3e
00000340: c277 a0bf 4aa1 7c3f 6d43 fdbe c13a a4bf
00000350: a196 e03e 0960 2fbc 314f ab3f 2d0e 8fbe
00000360: dc4d 933e ffb3 08bd f6eb 87bf 4558 eabd
00000370: 1415 483e 35b3 3cbf ed9c d93f 2a43 b13e
00000380: 303b 14be ec3a 233f 4605 90be 5939 aabf
00000390: 695f 27bf 3223 dc3f 2c01 76bf 5d33 23bf
000003a0: 0510 63bf f0b9 563f 1192 933f aa6b e1bf
000003b0: 73b3 8dbf 7ed2 dbbf 7f6c c43f 4c1f 52bb
000003c0: 225d b83f 357f e2bd 1dad 133f f93b 2dbe
000003d0: a326 983f 9a49 21be ab86 3abd 5b02 263f
000003e0: 0de9 5ebf 7b37 143e cd90 f33f f5e1 c73e
000003f0: bb6d 073d 6700 83bf 67c7 3b3f 7211 8f3f
0.84871036 0.69200915 -0.31601277 -2.1152194 -0.35612836 0.43722272 0.49130496 -0.20410173
0.11984151 1.2376579 1.1167772 -0.24727815 -1.0437516 -1.3453052 0.7853556 0.9928375
0.59883946 -1.5550951 -0.3413604 1.8530061 0.4680964 -0.15771244 1.4436601 0.2660494
1.3893661 1.5863342 0.94629836 -0.84367675 0.9318266 1.2590092 2.0049806 0.053736903
0.43969584 0.112411186 0.64079237 0.44115627 -0.21586326 -0.74254817 0.5627214 0.2596274
0.52286047 2.3022053 -1.4688939 -1.5866888 1.2032237 0.0845347 -1.2001394 -0.004785738
-0.23033547 -0.3917544 0.5432947 -0.39515755 0.20552567 -0.45032975 -0.5730771 -0.5553584
-1.5311843 -1.234135 1.8197253 -0.5515287 -1.325326 0.18855357 -0.069072686 -0.49492535
-1.478174 2.5672328 -0.4731198 0.33555076 1.5091219 2.0819554 1.7067116 2.3803675
-1.0669804 1.1149396 -0.14067143 0.8057536 0.3276143 -0.7607072 -1.599082 0.018486667
0.8418941 -0.40003416 1.039462 0.3581531 -0.003303873 -0.5344407 1.1686878 0.39450276
-1.0449786 -0.9565008 0.03353186 0.7100866 -1.5352871 -0.41267914 0.9663033 1.6247832
-2.6133225 -1.6964744 -0.22824179 0.279955 0.07324605 1.1133184 0.28226724 0.43422565
0.45694014 -0.86537135 0.78130794 -0.9267894 0.20641631 -0.33344787 -0.42883 0.23291829
0.9625183 0.34916824 -0.921462 -0.056194786 -0.7015236 1.0366868 -0.6036701 -1.2787652
0.12390248 1.1647835 0.9233735 1.3872952 1.3750379 0.6596311 0.4765571 -1.0163075
0.6103646 0.46688354 1.9506571 -1.0630985 1.1403507 -0.08988207 0.72979623 -1.845319
-0.10209263 -1.0335484 -0.31263882 0.24578547 0.37718192 1.1012348 -1.1427778 0.037585396
0.28857616 0.38659775 -0.20106392 -0.117926985 -0.82936686 -1.4072566 1.6268467 0.1722732
-0.70429397 0.31472096 0.15739289 0.3853627 0.5736546 0.9979313 0.54360944 0.07880439
0.9984566 -0.49871477 0.7611109 0.61830086 -0.29938447 -0.18777807 1.9158976 0.6901953
-0.314035 -1.078708 0.24081051 -1.3962272 0.1135521 1.1047257 -1.395172 0.47511873
1.0810726 0.13147806 1.5735383 0.78142995 0.9874366 -1.4878075 0.58668745 0.15829536
0.66678107 -0.99438965 -1.189364 -1.1959494 1.311892 -0.20983894 0.7817313 0.98969257
0.17151096 0.87604475 -0.2870874 1.0216401 -0.51107377 -1.7137278 -0.5100648 -0.47489312
0.66227406 -1.2063024 0.6074397 -0.5471568 -1.1004796 -0.7201275 0.011930507 0.3397729
-1.2536547 0.9868361 -0.49465504 -1.283043 0.4386492 -0.010704049 1.3383542 -0.27940503
0.2877034 -0.033374783 -1.0618885 -0.11442617 0.1953929 -0.7371095 1.7001015 0.34621555
-0.14475703 0.6376178 -0.28129023 -1.3298751 -0.6537996 1.7198241 -0.9609554 -0.6375025
-0.8869632 0.8387747 1.1528951 -1.7610981 -1.1070389 -1.7173612 1.534561 -0.0032062111
1.4403422 -0.11059419 0.57686025 -0.16917409 1.1886791 -0.15750733 -0.045538586 0.64847344
-0.8707436 0.14474289 1.9028565 0.3903958 0.03306363 -1.0234498 0.7335114 1.1177199

weight f4 [64, 64]
00000000: b905 2fbd 225f c5be 6dd1 34be b7e0 babe
00000010: 4e71 103c ddb5 173f 0c18 77bf 7592 263f
00000020: a796 b0be fa93 98be ea59 f43e 6ce7 dc3e
00000030: 6c46 9c3f 6c0d 95be 4fe3 5ebe e82c 10bf
00000040: a92d 1dbe 02fe 38bd 67b4 f53e 5740 d83e
00000050: cafe 8f3c df16 4dbe 49bb 853e 00c0 f53d
00000060: e649 1c3f 3675 1ebe 8eaf 263d cc9a 753f
00000070: 723d 09bf 12b2 a73d ebb2 bb3e f56f 363e
00000080: 918f 80bf 3db9 a8be ffec f4be e92f 14bf
00000090: 38c3 2cbf 7bce 82bf e053 b63e afa6 fbbd
000000a0: 6167 03be 53fb a2be 54d7 943e d763 53bf
000000b0: 2106 06bd d787 90bf 569f 7bbd 48b5 f9be
000000c0: 2508 1e3e 68e6 15be 7e31 dabd d91e 123e
000000d0: 7b91 debe b66d e1be 9740 33bf 01bb 173f
000000e0: 1002 23bf ccf1 74be 0417 0bbf d7f2 893e
000000f0: 7476 613e 139d cfbe 188c 35bf 70e3 d3be
00000100: bd90 5dbf 8d04 90bc 0b5c e2be e37b 22bf
00000110: e159 5ebf f155 b53d 1ce9 84bf cf04 ef3e
00000120: 4aa5 97be 8a41 b8bd ffd0 f03e 0005 78bc
00000130: 06d0 1d3d 3764 93bd e98d 3bbf a8c2 a8bd
00000140: 1982 cd3b c932 00be 6627 d73d 4292 603f
00000150: ad34 f23e 4193 bdbe b288 3bbf 4855 22be
00000160: 03b0 a63d 9f94 463f a55d 033d 1bfe bf3d
00000170: 8cd6 2dbf 42f1 90bc 94b6 1d3e 517b 193f
00000180: 71f5 8b3e 3c37 2fbf 6f61 50bf 8ad7 fb3c
00000190: d325 03bd cda8 00bf 232b d33e ce68 0a3e
000001a0: cb02 89bf 80e9 153f 93ff 83bd 939b 05bd
000001b0: 1a8a 26bf 352a 48bd dd27 153f 8d55 97be
000001c0: 69dc 063c 5dde 3bbf 0b82 8fbe 097b 93bd
000001d0: ab38 3fbf 1d29 673e fcdd e8be 5a81 5a3e
000001e0: 35c8 05bf f75a f3be 1539 443d 3fe2 f93a
000001f0: 3b78 a3bd 2bd9 24bd d6af 4cbd d49a 12bd
00000200: bb2a 09be 24c6 b73e 65d1 ae3e 66d8 5e3e
00000210: 7377 a7bd 39a0 03bf 088f 753f 1728 573d
00000220: a02c 213f 0576 cc3c ea75 01bf d86a f9be
00000230: 7755 47be 7b51 d7bd df77 ee3d 219b 083f
00000240: 62d7 18bc 2483 37bf ea78 5b3d 57a6 7fbf
00000250: 50cc 3dbf 76a7 253e da3a 2cbf 34be 1ebf
00000260: 2836 1abf 7419 2dbf c79e 7bbe 2afb 42bf
00000270: 6b5c 073f efa4 11be fb7e 2dbe 9c90 b8be
00000280: e630 af3e 82d0 493f ae03 553f b1a3 e83e
00000290: 7c52 02be ab5f 5ebc c1c1 01bf a2a4 b6bd
000002a0: 76b4 3cbe 051f 22be 78e3 1abf 2e07 c13e
000002b0: fc9a 8ebd 153a a53e 6147 11be 8b18 3b3f
000002c0: 67ad 41bf 1378 e73d ffc1 113f 60d3 c8bd
000002d0: 0b34 453f ec7d 093f a777 293f 5f8c d6be
000002e0: 8e5b f03d c5af ff3e 5007 7d3e d660 b9be
000002f0: b9b0 a3be fe0f fd3e cf5a 3f3f d7e7 1e3f
00000300: 4c56 ef3e 6c29 933e f389 a33e 3a43 3a3b
00000310: 7a2b afbd 1ed6 b9be 3249 c1bd 45d1 7abe
00000320: f23b 77bb a7a3 20be 4c3c c0be 5171 e43d
00000330: 821e 69be 15c7 49bc 5b90 973e 06ab 26be
00000340: 72be 213f 3aa8 923c bc73 09be f16f 08bf
00000350: a03f 3a3f 436c 1e3e a54e 103f bd33 133f
00000360: 0e4d 1e3f ebbc a1be d129 6c3e 54f9 893e
00000370: 4306 c53e 519d ae3c 2c3c 2e3d 6906 4dbe
00000380: 4da2 f0bc 42c8 693e ffb5 2e3f f73e 23bf
00000390: 89ce c5be 6c61 853e eaca b2be 4e72 ebbe
000003a0: 1ac9 033f 4198 2e3f 5182 acbe afe7 da3e
000003b0: 2a78 c2be 4edf 3bbe 165f 98be 7969 733e
000003c0: ad96 02bf 0200 c6be e1aa 04be 2eae d1bd
000003d0: e93b 333f ccfb 073e 9de2 a1bd 3499 053e
000003e0: 9a99 c13e f273 b6bd 9834 773d 2987 c1be
000003f0: ff36 993e ec14 193e 5e83 e93e 2c87 a83e
-0.042730067 -0.38549143 -0.17658015 -0.3649957 0.008816076 0.59261876 -0.9652107 0.65067226
-0.3448994 -0.29800397 0.4772485 0.4314531 1.2208991 -0.29111803 -0.21766399 -0.5631852
-0.15349449 -0.045164116 0.479892 0.42236587 0.017577548 -0.20028256 0.2611945 0.11999512
0.6105026 -0.154744 0.040694766 0.95939326 -0.53609383 0.08188261 0.3665994 0.17816146
-1.0043813 -0.32953826 -0.47837064 -0.57885605 -0.6748538 -1.0219263 0.35610867 -0.12287652
-0.12832405 -0.3183237 0.29070532 -0.8257422 -0.03272069 -1.1291455 -0.06143125 -0.4877112
0.15432794 -0.14638674 -0.10653971 0.1426958 -0.43470368 -0.44029015 -0.7002043 0.5926972
-0.6367502 -0.23920363 -0.54331994 0.26943085 0.22017843 -0.40549526 -0.7091689 -0.4138446
-0.8654898 -0.017580295 -0.44210848 -0.63470286 -0.86855894 0.08854283 -1.0383639 0.46683356
-0.29618293 -0.089968756 0.4703445 -0.015137911 0.038528465 -0.07196849 -0.7326341 -0.08240253
0.0062716124 -0.12519373 0.105055615 0.8772317 0.47305813 -0.37026408 -0.73255455 -0.15852845
0.0813904 0.7757053 0.03207173 0.09374639 -0.679055 -0.017693166 0.1540168 0.5995379
0.27335694 -0.68443656 -0.8139867 0.030742425 -0.032018494 -0.5025757 0.41243848 0.13516542
-1.0703977 0.5855942 -0.06445231 -0.03261907 -0.65054476 -0.048868377 0.5826395 -0.29557458
0.008231261 -0.73386174 -0.28028902 -0.072012015 -0.74695843 0.22574277 -0.4548186 0.21338406
-0.52258617 -0.47530338 0.047906 0.0019064619 -0.079819165 -0.04024617 -0.049972378 -0.035792187
-0.13395207 0.35893357 0.3414413 0.21762237 -0.0817708 -0.51416355 0.95921373 0.052528467
0.6295872 0.02495862 -0.5057055 -0.48714328 -0.19466196 -0.10513588 0.11643957 0.5336171
-0.009328695 -0.7168448 0.05358211 -0.9986319 -0.7413988 0.16177163 -0.672773 -0.62008977
-0.60238886 -0.67616963 -0.24572287 -0.76164496 0.52875394 -0.14223073 -0.1694297 -0.36047828
0.34216994 0.7883378 0.8320874 0.45437387 -0.12726778 -0.013572614 -0.5068627 -0.0891812
-0.18428215 -0.15832146 -0.6050334 0.3770079 -0.06963155 0.32270876 -0.14187385 0.73084325
-0.75655216 0.11302199 0.5693664 -0.098059416 0.77032536 0.53707767 0.661982 -0.4190397
0.11736213 0.4993879 0.24709821 -0.36206692 -0.31970766 0.49426264 0.7474794 0.6207251
0.46745527 0.2874254 0.31941184 0.0028421418 -0.08553214 -0.3629617 -0.09437789 -0.24493892
-0.003772494 -0.15687428 -0.37546003 0.11154426 -0.22765544 -0.012315531 0.29602322 -0.16276178
0.6318122 0.017902482 -0.13423055 -0.5329581 0.72753334 0.15470986 0.5637 0.5750082
0.61836326 -0.31589445 0.23062827 0.26948035 0.3848134 0.021315249 0.042537853 -0.20021977
-0.029374266 0.22830299 0.68246454 -0.6376795 -0.38634136 0.2605089 -0.34920436 -0.45985645
0.5147873 0.6820107 -0.33693174 0.42754886 -0.37982303 -0.18346903 -0.29760045 0.23770703
-0.51011163 -0.3867188 -0.1295581 -0.102383 0.7001329 0.13279647 -0.07904551 0.13046724
0.378125 -0.089088336 0.06035289 -0.37798432 0.2992477 0.14949387 0.45608038 0.32915628

weight f4 [64, 64]
00000000: 33f8 633f 987e b63c 894b 4e3e ca11 a9be
00000010: e7e1 493d b704 f4bb 7c79 dabe 3285 953d
00000020: 387a 32be 2442 793e 861b 9ebd 8483 dc3c
00000030: 5197 08bf 4919 413f dca3 27bf 9618 bfbe
00000040: 9f32 493f c36c 1a3e 31ff 12bf 532d 813e
00000050: 1bd4 fa3e cb80 b1bd 4aa9 5a3f 2826 313e
00000060: d2f0 c53e 2967 8f3c 3720 4b3c 369c de3e
00000070: 3b83 f03d 3965 1c3e b35e f73d 2fb3 153f
00000080: f9b0 c9be e1e4 143e e07d e0bd 8e7e 1fbf
00000090: 8415 46bf 1f13 1bbe 62d6 b03c d0d3 3dbf
000000a0: c4b2 cabe 50e1 0d3e ce6a 493e 008a f93d
000000b0: 06f0 c0be a3c4 1f3d a6cf 26be d335 09be
000000c0: 53e8 073f 8989 363f 55da cfbe 0522 31be
000000d0: 0e60 6cbd 8c3d cfbe 90eb 04bf bbf0 0a3f
000000e0: 5311 513e fed1 2b3e 3f4e a23e 5f3e babc
000000f0: bbd0 643f db5b e63d 3b97 0abd cee3 533d
00000100: e956 76be bb10 15be 9cad 4cbe 8fc9 9b3d
00000110: ae2c efbe 451b 903e 94f5 86bf 80e5 933d
00000120: 33c2 7cbe 2fb8 3bbe c3e7 bebe 1e08 d13e
00000130: c37a 123c a42f 753e f3a4 4fbc 99a2 f9bc
00000140: 3ece 953e ec16 043f ae8f 913e 6fd0 a23e
00000150: 8f2a 383f 8a5a 663c 8351 803d 8d85 c83e
00000160: 2814 9c3e 6890 7a3d ca6d b3be 7a30 2a3f
00000170: a51f b7be bb88 af3d 078b 8a3e 7933 a5bd
00000180: 5263 2ebf 6d9e e4bc 437a fcbe 73f0 1ebe
00000190: e397 9cbe 8942 2c3d 957d 233f ef53 9a3d
000001a0: 0f2f 01bf c49c 873e 2ad1 e3be a3ba 613d
000001b0: 5b6e 9a3d ae4f 3d3d dfe5 fcbd 2f5a 25bd
000001c0: b896 93be 1ea8 27bf ffe2 033e 539b 2a3e
000001d0: 06ce 27be c0d1 f8bc e3a7 75bf 99b9 0cbd
000001e0: 7418 81bd 2256 f4be dc6d 89be ca69 50be
000001f0: 36e5 8f3e 7c78 8cbe 5d19 23be 32e3 4f3e
00000200: 96b6 d0be 682f d5be e725 b23c 7c31 c03e
00000210: 2b70 6e3f 02d0 0c3f ef46 273f 2b70 2ebf
00000220: 797c af3e dd50 05bd fb37 71bd d8b7 e5be
00000230: 8d9e 073f 22be 52be 3361 b03c c163 e43e
00000240: 5380 82be bec9 d03e fc0c a8bd d5b7 1bbf
00000250: 38ef 94bf d2c5 f23e d583 b0bd 025b 34bf
00000260: 280b c6be 22db dabd f0cd 4fbe 8db2 f2be
00000270: 21e9 0f3f 9650 26bf edb9 64bf 03c6 c8be
00000280: 7987 513d b1a8 60be d3e4 743d be68 a83e
00000290: b6af 673d e3b5 553f bca5 5cbf 9d38 1e3f
000002a0: b7ef 093f 0983 43bf cc48 143e 3086 18bf
000002b0: ddf6 9f3e 1e9f fdbe 8b34 aa3e 2615 27bf
000002c0: 64b3 4b3f d59f 393f 9eec af3e 03d8 da3d
000002d0: ee4c 163f 2db2 a23e c2a1 303f d509 66be
000002e0: b264 bc3e 3c5d b8be 0a7f 9abd 0751 0c3e
000002f0: 32ee 87be 42d7 383e e47b 29bf da42 02be
00000300: b1f4 51bf 6dc3 0f3e 6014 05bf fc07 8d3e
00000310: 56df 4abe ab9e 263e 67e1 c63e ccd9 2ebf
00000320: cff3 893e 25e5 92be 72f7 0b3d 2b4d 2ebf
00000330: 240f 9cbc d0aa cbbe d3ad 073f 155e a13e
00000340: cc25 9f3d 9cac c0be 3de0 193e 51d0 e2be
00000350: 130a 9a3e 0bf3 91ba 5060 18bf b12a f3be
00000360: 160b 26bf 9c44 d33e 7215 00bd b194 14bf
00000370: 0f33 d13e 1293 3abe 90b7 51bf 5a3a 04bf
00000380: 0d52 083f 11c5 8fbe 5054 f03e 2e36 fe3e
00000390: 09ea 7d3f e80f 8f3f 1443 1dbf 5d64 a63d
000003a0: ee8a d9be 7644 3c3e 3d3a 14be a9b5 17be
000003b0: 84ee 07be 276d 80be b7b2 e33e ea0c 90be
000003c0: 7f3d e43d 719e 95be 1a62 ba3e 628d f0bc
000003d0: 7022 763e c7b2 b73f fc9d 103f 9d6c b8be
000003e0: 5a1b 443f 3c6d 5bbd e123 8a3e f11d d7be
000003f0: 9a4d 6cbf fa37 0b3f c5cb cdbc 3741 f23e
0.89050597 0.022277161 0.20146002 -0.33021384 0.049287703 -0.007446851 -0.4267081 0.073007956
-0.17429435 0.24341637 -0.077200934 0.02691818 -0.5335589 0.7542921 -0.65484405 -0.37323445
0.78592867 0.15080552 -0.5742064 0.25229892 0.4898995 -0.086671434 0.85414565 0.17299712
0.38660294 0.017505245 0.012397817 0.43478554 0.1174378 0.15272988 0.12078609 0.5847654
-0.39392832 0.14540435 -0.10961509 -0.6230248 -0.7737658 -0.15144013 0.0215866 -0.74151325
-0.39589512 0.13855481 0.19669649 0.121845245 -0.37683123 0.039005887 -0.16290149 -0.13399439
0.53088874 0.7130361 -0.40596262 -0.17298134 -0.057708792 -0.40476644 -0.5192194 0.54273576
0.20416765 0.16779324 0.31700322 -0.022734819 0.89381 0.11247989 -0.03383563 0.051730923
-0.24056591 -0.14557163 -0.19988102 0.076068036 -0.46713775 0.28145805 -1.0543694 0.07221508
-0.24683456 -0.18331979 -0.37286195 0.40826505 0.0089404015 0.23943955 -0.012673604 -0.03047304
0.29258913 0.51597476 0.2842993 0.31799647 0.7193994 0.014059672 0.06265547 0.3916439
0.30484128 0.061172873 -0.350447 0.6648022 -0.3576633 0.08571001 0.27059194 -0.08066458
-0.681203 -0.027907575 -0.49312028 -0.15521412 -0.3058463 0.04205564 0.638635 0.0753554
-0.5046243 0.2648679 -0.44495517 0.05510963 0.0754058 0.046218567 -0.12348532 -0.04036921
-0.28825927 -0.654909 0.12879561 0.16660814 -0.16387185 -0.030373454 -0.959593 -0.034356687
-0.06303492 -0.47721964 -0.2684163 -0.20352855 0.28104562 -0.27435672 -0.15927644 0.20301512
-0.40764302 -0.4163773 0.021746589 0.37537754 0.93139905 0.55004895 0.6534261 -0.68139905
0.34274653 -0.03254782 -0.058891278 -0.44866824 0.52976304 -0.20580342 0.021530723 0.44607356
-0.2548853 0.40778917 -0.082056016 -0.6082738 -1.1635504 0.4741655 -0.08618895 -0.70451367
-0.38680387 -0.106863275 -0.20293403 -0.47401848 0.562151 -0.64966714 -0.893462 -0.3921357
0.051154587 -0.2193935 0.059788536 0.32892412 0.056564055 0.8348066 -0.8619039 0.61805135
0.538814 -0.7637182 0.14480895 -0.59579754 0.3124303 -0.4953546 0.33243212 -0.65266645
0.79570603 0.7250951 0.34360212 0.10685732 0.58711135 0.31776562 0.6899682 -0.22464688
0.36795574 -0.36008632 -0.07543762 0.13702784 -0.26548916 0.18050864 -0.6620467 -0.12720814
-0.82013994 0.14039393 -0.51984215 0.27545154 -0.19811758 0.16271465 0.38843843 -0.6830108
0.26943824 -0.28690448 0.03417153 -0.680865 -0.019050188 -0.39778757 0.5299961 0.3151709
0.07770881 -0.3763169 0.15026946 -0.44299558 0.3008581 -0.0011135055 -0.5952196 -0.47493508
-0.64860666 0.41263282 -0.03127045 -0.58039385 0.40859267 -0.18220165 -0.8192072 -0.5165154
0.532502 -0.28080037 0.46939325 0.4965071 0.99185234 1.1176729 -0.6143048 0.081246115
-0.42488807 0.18385491 -0.14475341 -0.14815392 -0.1327458 -0.25083277 0.44472286 -0.28134853
0.11144542 -0.29222444 0.3640297 -0.029364292 0.24036574 1.4351434 0.56491065 -0.36020365
0.76604235 -0.05357097 0.26980498 -0.4201503 -0.9230591 0.5438229 -0.025121579 0.4731538

weight f4 [64, 64]
00000000: 8935 bcbd 4f0b 353e cad0 2ebd e0d5 d2be
00000010: 93e1 963e 03d7 92be b792 0cbe 49dd 6ebe
00000020: e929 83bd 27a2 233e 1b2c bcbe 676c 39be
00000030: 5341 c1bd 07c5 9e3e c297 61bf 8981 0fbf
00000040: 8b11 083f b464 2cbf cfae 08be 8930 0d3e
00000050: 6600 e43e f6a3 13bf 130c 163e 3143 4cbd
00000060: 0845 cf3e 4a38 b93e d4f8 a93d c996 c53e
00000070: cff8 c5bd 5721 1c3f 20ae 153e f8c1 933e
00000080: 3cb0 223f 4cb6 0e3e 7943 1c3c 9a82 ebbe
00000090: a702 aebe 4101 1bbe 7c02 d73e 3fb3 1ebf
000000a0: 1fa5 ba3e 75b6 7cbd cd4e 69be 17f8 b8bd
000000b0: 93ed 5fbf b98b cbbc 5af5 c43c a39e 8dbe
000000c0: 29b7 6c3d 9d75 0bbf 8d0f 45be 1481 85be
000000d0: 90e1 31be 0f68 303f ae04 44be 2e19 463f
000000e0: 5cb9 65bd 3b1e 1a3e da3a 2c3e 6a1f 24be
000000f0: 17ea e13e b9a0 41bd 43e6 eb3e 4f62 4d3e
00000100: c72c 0c3f 0913 b53d 9067 8c3f ffce 2c3e
00000110: 1cb9 6d3e eac8 5f3c dd45 4f3e 0d5d 183d
00000120: c542 81bd bcef bc3d abd4 03bf 90b1 793e
00000130: 792e 4fbe c3b9 273e 188d 3a3f 9838 2fbe
00000140: f419 033e 5365 b53d e8c9 62be c309 80be
00000150: c69c edbe 6aca e83e eb71 153f 80dc ce3e
00000160: a1eb ca3e 7029 4cbf f629 b2bd 29e6 e9bd
00000170: cdb0 903e 4653 66be 9e5a a9bd 619a c7be
00000180: 4db4 83bc 5d9f 763f 299c d43e 4154 a2be
00000190: c5c4 c43e 3058 673e fd8d de3c 063e a33e
000001a0: e401 ce3d 01eb bebe 9b4f cf3c 3639 a0bd
000001b0: 0f51 e03e 8ade 9a3e 890f 8cbf 513b 7e3e
000001c0: 473e b13d d9dd c83e 3675 e93e 1e01 ee3d
000001d0: d801 c63e 198b a7be c395 b13e db4f bfbe
000001e0: 7f1b 6f3d 3e22 3abe a4ae 033e 3752 113e
000001f0: 21b5 6d3e 476a f5ba 7c60 8c3d 8f87 afbe
00000200: fff9 113f 6882 d33e f4eb 2b3f abf7 a43e
00000210: 9c28 e7bd 3c0b 9abe 8fb5 063e 1420 71be
00000220: 7429 453f 81c4 cf3c ac9b 28bf dff3 e4be
00000230: 30d8 a4be 7004 dc3d cace bd3e e812 173e
00000240: 9f86 20be 3839 24be 6fee 0abe 49fe 20bf
00000250: fabf eb3e b037 703f b036 6c3e e162 843e
00000260: 8bc7 a0be 75eb 17bf ff5d 233d 6285 0cbf
00000270: 28db d73e 2d02 36be 9a2e f9be 7a9f 03be
00000280: f526 fb3e 6965 073f 3270 0a3f e6ab dc3e
00000290: 01b4 8a3e c079 063f 01f3 82be 143e 6bbe
000002a0: 34b4 753d d3cf 813e c586 5dbe d56c cb3e
000002b0: 56a3 103e 9408 d13c 4414 49bf 90c3 f23d
000002c0: 3d5d d8be 2f4b c23e a2bc 2e3f fb6d b3bd
000002d0: e4c9 013f db93 983e cf10 a43e a784 b3be
000002e0: e1b2 e93e d0b9 063e dff1 c43e 6c3b d6be
000002f0: 332e 4ebd f055 113f c9d9 cb3e abf2 893e
00000300: f3f2 dcbe 2185 27bf a1c4 02be d6dc 0ebf
00000310: 47d1 1b3e 8372 133f ec8e ca3e 2d23 473e
00000320: 2136 cbbd 662d 9a3e 9d47 953d e306 d8bd
00000330: 8885 5a3f 3fef e93e bba4 a9be e108 813e
00000340: 0f6b e8be 1ba0 663f 1df3 70be eac5 3a3e
00000350: 2ea1 8fbe 57de b93d 7a18 14bf 3949 aabe
00000360: ecf6 eabd d08e f4bc 0a14 1cbe 1a31 05bf
00000370: 5d1f e1be ea73 1abe 99d4 f3be 86d7 e0be
00000380: 6fa5 f4be c2b8 393d f806 80be 1973 ce3e
00000390: c966 afbd 9fce 153f 1b16 cdbd d423 973e
000003a0: 5fb4 e43e f0e2 bebe 6b86 403f 73b3 4cbf
000003b0: 27e6 1a3f 6823 19bf 8573 883e b74a 49bf
000003c0: fdb7 363f 9c3d fa3e d303 6f3e da2f c03d
000003d0: e990 bbbe d64b 54bd 4b6e 0b3f 6511 89be
000003e0: 2ae2 00bf e4f0 5bbf ad4d 223e 7394 5e3f
000003f0: 3ca9 ae3e cd6e 55be 4081 78bf adbb d5be
-0.091898985 0.17680095 -0.042679586 -0.411788 0.29468974 -0.28679666 -0.13727842 -0.23326601
-0.06404478 0.15979825 -0.367524 -0.18107758 -0.09436288 0.31009695 -0.8812219 -0.5605703
0.5315177 -0.6734116 -0.13347934 0.13788046 0.44531554 -0.5767206 0.14653043 -0.049868766
0.40482354 0.36175758 0.08299413 0.38591602 -0.09666597 0.6098837 0.14617205 0.28858924
0.6355016 0.13936728 0.009537571 -0.4599808 -0.339864 -0.15137197 0.41994083 -0.6199226
0.36454102 -0.061697442 -0.22783966 -0.090316944 -0.87471884 -0.024846898 0.024042774 -0.27660093
0.057791863 -0.5447634 -0.19244213 -0.2607504 -0.17371202 0.6890878 -0.1914241 0.7738217
-0.056084976 0.15050595 0.16819325 -0.16027609 0.4412391 -0.047272418 0.46074113 0.20057033
0.54755825 0.08841521 1.0969105 0.16875838 0.23215145 0.0136587415 0.20241494 0.037198115
-0.063115634 0.09225413 -0.5149638 0.24384141 -0.20232572 0.16379456 0.7287154 -0.17111433
0.12802869 0.08857217 -0.22147334 -0.25007448 -0.4640867 0.4546693 0.5837695 0.40402603
0.39632896 -0.7975073 -0.0869941 -0.11420853 0.28259888 -0.22492704 -0.08269237 -0.3898497
-0.016077185 0.9633692 0.4152539 -0.31704906 0.38431373 0.22592235 0.027167315 0.31883258
0.10058954 -0.3728867 0.025306514 -0.07823412 0.43811843 0.3024791 -1.0942241 0.24827315
0.086544566 0.39231756 0.45597237 0.11621307 0.38673282 -0.3272331 0.34684572 -0.37365612
0.05837583 -0.18177125 0.12859589 0.14191519 0.23213626 -0.001872369 0.068543404 -0.3428311
0.5702209 0.4131043 0.6715691 0.32220206 -0.112870425 -0.30086696 0.13155197 -0.23547393
0.7701638 0.025362255 -0.65862536 -0.4471731 -0.32196188 0.10743034 0.3707183 0.14753306
-0.15676354 -0.16037452 -0.13567518 -0.6288801 0.46044904 0.9383497 0.23067737 0.2585669
-0.3140224 -0.59343654 0.039884564 -0.54891026 0.4215939 -0.17774267 -0.48668367 -0.12853804
0.4905316 0.52889115 0.54077446 0.43099898 0.27090457 0.52529526 -0.25576022 -0.229729
0.05998631 0.2535387 -0.21633442 0.3973147 0.14124808 0.025516786 -0.7854655 0.11853707
-0.42258635 0.37947986 0.6825658 -0.087612115 0.50698686 0.29800305 0.32044074 -0.35062143
0.45644286 0.1315682 0.38465783 -0.4184221 -0.050337028 0.56771755 0.39814594 0.26942953
-0.43154106 -0.65437514 -0.1277032 -0.5580572 0.15216552 0.57596606 0.39562166 0.19447012
-0.09922434 0.3011276 0.0728905 -0.105481885 0.8536 0.45690343 -0.33133492 0.25202087
-0.4539418 0.9008805 -0.2353024 0.1823956 -0.28052658 0.09075611 -0.5784985 -0.3325899
-0.11472878 -0.029853255 -0.1524202 -0.5202805 -0.4396924 -0.1508328 -0.47623137 -0.4391443
-0.47782466 0.045342214 -0.25005317 0.40322188 -0.085645266 0.58518404 -0.10013982 0.29519522
0.44668862 -0.37282515 0.75205106 -0.7996132 0.60507435 -0.5981965 0.26650634 -0.7862963
0.71374494 0.4887513 0.23341303 0.09384127 -0.36633995 -0.051830135 0.5446517 -0.26771083
-0.503451 -0.85914445 0.15849943 0.86945266 0.3411349 -0.20843048 -0.9707222 -0.41744748

freqs f4 [8]
00000000: e1ad dc3a fa46 1740 b54b 4940 0c71 8f40
00000010: 72be ab40 433f bf40 4507 f440 0873 0341
0.0016836488 2.363707 3.1452458 4.4825497 5.3669977 5.9764724 7.6258874 8.215584

weight f4 [64, 8]
00000000: f72e 0e3e 7897 a63e 2779 a73d 3a89 c63e
00000010: f621 b73e e924 633c f0e1 1cbe 64df 56be
00000020: 281d acbe 2d45 723e 8840 383d 84e8 1abe
00000030: b527 29bf 43da f6be beec ac3d bf8b 03be
00000040: ff8c 59be 5b90 dbbd 2d49 913e 06f3 c03e
00000050: 41e1 a4be 5063 ec3e 2212 d83e 9eba f2bd
00000060: 08d2 36bd 294f fbbd 05c6 bc3d 4a69 353e
00000070: 81ec 60bd f259 c9bb 6c71 5bbe a12f 79be
00000080: 7327 6abe e103 ea3e 2854 41be b73f aabe
00000090: e7a0 4fbd c12c e1be be9c a73e 05c8 983e
000000a0: 11eb 373d 7e7f 80be a7fb 2c3e ba45 223f
000000b0: b50a 9ebd 6d4a 6ebe cd6c 7b3e 99e5 3cbe
000000c0: c286 013c 482b fe3d 41bc 833d 3744 cc3e
000000d0: 8968 853e b22a 8cbd 18ec bcbe ed2c 8e3e
000000e0: 5b05 123d c3d3 333d f8ea 123e 54c5 2e3f
000000f0: 2e4f 99bc 8507 84be 19cc 0fbd 49c4 ffbb
00000100: 6538 7d3b eefe 7c3e 1c10 fabc cce8 c23d
00000110: 4539 5cbd 5699 3ebe 7138 5dbe b3c6 e2be
00000120: 46fa 2f3d d2ae 9a3d 39b3 db3e c33d 5d3d
00000130: a410 2a3c 5d62 8ebe ba73 38bf ba30 e1bd
00000140: 65da 9bbe 701b 20be 1145 eb3e 9972 963e
00000150: 2a15 983e 8415 313e 4daf 34be 6c0b 70be
00000160: 9e0a 44bd 8bb4 9b3e 48ac 003d fbfe a2be
00000170: 5fa5 a03e f781 b0ba a181 a63e 9fe4 1e3e
00000180: 1ec1 88be 0d7e 5bbe de07 ff3e 55ac 013f
00000190: 9a8d 8f3d 87ed 593d 5463 263c fc7a cabe
000001a0: 490f fdbe 6cb7 41be 1b9f 1e3f 7730 453f
000001b0: c9c5 2cbd fa83 303e bc78 e43e 5c81 b6be
000001c0: ab0e febd 7451 51be 2b8c 503e 15f8 893e
000001d0: f19c e4bd 9ad2 243e 8b20 08be 31b6 acbe
000001e0: ec70 f63d 992d 4bbd 2e37 323e bdd4 943e
000001f0: de8d 5a3e 1d61 80be 5708 6a3e 9177 7bbe
00000200: 093d 453d 46e1 54be 5bf9 b4bc 4750 1abe
00000210: 1720 33be 9f4b 93bd b514 0a3f 9183 3dbd
00000220: a50b d43e a121 663e 0253 44bd 6d8e 6c3e
00000230: 55bd 4e3c be04 01bd c652 1b3e 29c9 223e
00000240: a391 0fbe bcf2 c03e 536b 0abd 8d7a 3b3e
00000250: c17d 2ebd b140 45bd 19b2 8b3d 98e6 7a3e
00000260: 5100 0e3e 5357 e7bc f88c 9e3d 92a0 af3e
00000270: 18c8 1a3e 4376 49bd d21f 73bd b31a 7ebe
00000280: db1e 06bf 5449 0abf c45e 873c 4055 fc3d
00000290: 3c7a d13d 37d0 d93d ab50 053d 3942 84be
000002a0: a9fa 02be 0f47 2fbe cc20 273e ec00 c83d
000002b0: 4f74 0f3e 0116 5ebe 9742 283c b470 093d
000002c0: 82cd 863d 86a4 49be c820 e83e 527e 8d3e
000002d0: a8e2 073f 6de7 0bbe ba1b f03d facd be3d
000002e0: c66c 453e 43f8 ce3d ab22 56bd 7421 c2bd
000002f0: 6e72 0f3e c2ab adbe e444 6dbe 1ba5 c03e
00000300: e93a acbe 0701 02bf 291f 393e 3db8 653c
00000310: 8c96 ad3e 47ec 0a3e ba16 933e 4735 cbbe
00000320: 3973 f4bb 07e6 22be 476d 233d 2345 b03e
00000330: 5647 8f3d f1f8 00bf 8c86 e43e d1b4 78be
00000340: 5c78 8dbd 15d4 7fbe f665 d73e 3836 53bd
00000350: 1089 b23e 21e0 dc3e 0ed2 35be 8c3b dc3e
00000360: e031 76bd 9ca9 223e a483 e3bd 838b 92bd
00000370: e5a0 893d a192 a4be 07b2 3dbe 7c07 933e
00000380: d3cc 93be b9cc 10be b404 443d e5cb 403e
00000390: e450 683e 6d95 34be 5257 56be 72a5 abbe
000003a0: 9da6 463d f7a5 e8be 3d84 903e c91c 003e
000003b0: d20a 913e 9df0 e43e 5d62 5cbe a8b9 5abc
000003c0: 1021 873e 6445 3a3e 01c0 493e f03c da3e
000003d0: 145d 71bd c88b 6b3e ab91 8fbe b903 51bb
000003e0: c0e9 1ebe 7b01 b5be edce ab3e 66ad c53e
000003f0: 4c01 31be f1fd 913e 7bdb 23be f16d f4bc
0.13885103 0.32537436 0.08177405 0.3877657 0.35768098 0.013863781 -0.15320563 -0.20983654
-0.33615994 0.23659201 0.044983417 -0.1512776 -0.66076213 -0.48213395 0.084435925 -0.12846278
-0.21245192 -0.10720893 0.2837614 0.37685412 -0.32203105 0.4616952 0.42201334 -0.11852001
-0.044633895 -0.12270958 0.09217457 0.17715946 -0.054913048 -0.0061447555 -0.21429986 -0.24334575
-0.22866611 0.45706084 -0.1887976 -0.33251736 -0.050690558 -0.43979457 0.32736772 0.29840103
0.04490191 -0.2509727 0.16892873 0.63387644 -0.07716886 -0.23270579 0.24553223 -0.1844696
0.007905664 0.12410599 0.06432391 0.39895794 0.26056316 -0.06844081 -0.36898875 0.2776865
0.03564964 0.043903124 0.14347446 0.6826985 -0.018714514 -0.25786987 -0.035106752 -0.0078053814
0.003863835 0.24706623 -0.03052526 0.09517059 -0.053765554 -0.1861318 -0.21603562 -0.4429222
0.04296329 0.075528756 0.42910174 0.05401398 0.010379944 -0.2780942 -0.72051585 -0.10995622
-0.3044006 -0.15635467 0.4595113 0.29384306 0.29703647 0.17293364 -0.17644997 -0.23441857
-0.047861688 0.3041118 0.0314143 -0.3183516 0.31376168 -0.0013466467 0.32520774 0.155169
-0.26709837 -0.21434803 0.4981069 0.5065358 0.0700943 0.05320504 0.010155518 -0.39546955
-0.49425724 -0.18917626 0.61961526 0.77027076 -0.04218081 0.17237845 0.44623363 -0.35645568
-0.124051414 -0.20441228 0.2036597 0.26947084 -0.11162747 0.16095963 -0.13293664 -0.3373275
0.12033257 -0.049604032 0.17403862 0.29068556 0.2134318 -0.25074092 0.22854744 -0.2455733
0.04815391 -0.2078906 -0.022091558 -0.15069686 -0.1749271 -0.07192158 0.53937846 -0.04626805
0.41415134 0.22473766 -0.047930725 0.23101206 0.012618382 -0.031498663 0.15168294 0.15897049
-0.140204 0.37685192 -0.03379376 0.18308468 -0.042600397 -0.048157398 0.06821079 0.24502027
0.13867308 -0.028239882 0.077417314 0.34302193 0.15115392 -0.04918505 -0.059356518 -0.24814872
-0.5239083 -0.5401814 0.01652468 0.12320948 0.102283925 0.10635417 0.032547634 -0.25831774
-0.12790932 -0.1711695 0.16321105 0.09765801 0.14009212 -0.21688081 0.0102697825 0.033554748
0.06582166 -0.19691667 0.4533751 0.27635437 0.53080225 -0.136625 0.117240384 0.09316631
0.19279775 0.10105946 -0.052279156 -0.09479037 0.14008495 -0.33920103 -0.23170811 0.37625965
-0.33638695 -0.5078282 0.18078293 0.014020977 0.3390392 0.13566695 0.28728276 -0.39689085
-0.0074600247 -0.15908061 0.039899137 0.34427747 0.06996028 -0.50379854 0.446339 -0.24287726
-0.06907722 -0.24983247 0.42069978 -0.05156538 0.34870195 0.43139747 -0.17755911 0.4301418
-0.06010616 0.15885013 -0.11109093 -0.07155516 0.06720141 -0.3214312 -0.18524943 0.28716648
-0.28867206 -0.14140595 0.047856048 0.1882778 0.22687107 -0.17635126 -0.20931748 -0.33524662
0.04849874 -0.4543912 0.2822589 0.1251098 0.28328568 0.44714823 -0.21521898 -0.013349928
0.26392412 0.18190533 0.1970215 0.42624617 -0.058926657 0.23002541 -0.28040823 -0.0031893088
-0.15518856 -0.35352692 0.3355631 0.38608855 -0.17285651 0.28514054 -0.16001694 -0.02983758

weight f4 [64, 64]
00000000: 8128 d03e 31db b63e 92bb ed3d 5288 0dbe
00000010: 6e3e 96bd 67a0 5a3e 8d60 bcbe dc3b 843e
00000020: 9262 5d3d 6699 36be 0cfa fc3d 8fca 0c3e
00000030: 983a 883e 1dd0 853e a136 083e c237 c63b
00000040: ac78 153d 4729 24be 0811 f23d 368a 8f3d
00000050: d3b7 b3be f3d4 473e 250d 84be d8c8 3dbe
00000060: fe39 e3be 34ed 973e 913e efbe e81f aabd
00000070: 9e2e 8ebd 09ba 40be 9d42 b43d 65e0 41bd
00000080: 6d72 5abc 37ed f4bd 2e69 e2bd 2ac0 fe3e
00000090: 4af6 e8bd 87bf 933d 7c54 8d3e 9f37 bebe
000000a0: 0063 6cbe ff02 f03e 39bb 0abe 3757 95be
000000b0: 2dca 103d 455a 40be dd75 533e d73d 4ebe
000000c0: 2666 eebd b942 98be b932 663e dd42 5cbd
000000d0: 847e 13bc 65b3 37bd 11fd 333e ed31 163e
000000e0: ba9e dabb afaa 4e3e f8d9 66be 5cd2 a7bc
000000f0: 8b59 a5bd 65cd 9a3d 5199 36bd 1960 a0bd
00000100: fa7f eabd e39d 343e f345 f93d 24d6 68bd
00000110: 02b7 e83d d5e0 a43e 61d6 91bd c1e1 bcbe
00000120: 22fc 9a3e b5cb e93d d18f 573d 8c86 94bc
00000130: ad09 08bd 8837 a13e 4387 c4bd b953 b5bd
00000140: 3da9 3abe a24f c73d 7d09 53be 9bde 043e
00000150: ffef 2cbe f224 213e 4fc7 b83e 8a5a c1bd
00000160: 6f16 68be 2a0a 413e 5c81 02be 5d35 c0bd
00000170: ac7a 473d df23 03bf eaba 563e 43d2 adbd
00000180: cd77 aebe 7ddb e9be 6096 e83d 025d cb3e
00000190: 5a7a d7bd 6077 473e 0b95 0fbe 5709 243e
000001a0: 4a24 cdbe be75 ca3e b914 e9be efcb 293b
000001b0: 0e68 a43c d61e e03d d3a0 2ebc c69e 823d
000001c0: 2d41 513e f788 153e 2b34 0a3f 8fc5 c1bd
000001d0: 3ed6 db3d 5932 7ebe c664 babe f0bf 203f
000001e0: 87c5 59bc 5ffd 48be 2508 563e b891 9ebd
000001f0: d3e4 fcbc 9312 84bd 3c82 afbb 2798 093d
00000200: aba9 48be 258d e2be 062c afbe 5608 20be
00000210: 6b53 b23e 604d 82bd 695b 653d 1215 603e
00000220: eef6 c63c ad9a bc3d 8e65 b23d c607 97be
00000230: 70ab 553c b694 4d3e 8abd ddbe 0315 a63c
00000240: 4483 4fbd b45b 013f 00a6 283e 3856 233e
00000250: 9a1a fd3d 551e d9be 574b 823e 04d1 59be
00000260: 4974 243e f01e 003e 96cd 133d af84 a53e
00000270: 142e 573e a489 00bf dc8e f7bc 2694 5f3d
00000280: 8430 223e 623c be3e 37e1 c8be bd06 8c3e
00000290: a7de b83d 93a5 ff3c 62b9 54be e1cc 3abe
000002a0: 62ae 15be 6742 be3e 8fd7 c93e 1537 c4bd
000002b0: 6ac8 10be 821b 413e 13a8 23be 36dd 97be
000002c0: 5445 2f3d 1624 cd3e 7e2c 893d 08b3 e7bd
000002d0: fe0f 97be 9873 823e 870b ab3e bcc5 3fbe
000002e0: 9b86 ef3e 9535 f93d 0e9f 3e3e bcd7 803d
000002f0: bcb7 9abe ce4e 413f b2a3 4a3d 44ae acbe
00000300: 760c 263d c150 72be b66f 053d 3231 39be
00000310: a7f5 09bd a2ea a93e 2174 c7bd cc61 63bd
00000320: a523 c6be db6a 9dbd 981e 853e cece da3c
00000330: 4e36 183e 1b3e 3dbe 0a41 d93e beee 993d
00000340: 0a90 1ebf 4cff 95be b770 64be 74aa 5cbe
00000350: 6322 fa3d 300c 403e 618e 27bf 6c28 723e
00000360: 6262 f1bd 5ea3 c7be 14e1 8ebd 2343 9bbe
00000370: 31dc 9ebe 92fc b63e 10ce 913d 8cb3 31be
00000380: a5db c33c 14bb 8cbd 5e3f fb3d 8000 80be
00000390: 9456 fdbe ab96 d33d 062c 72be 41b0 053f
000003a0: 3228 44be a345 08bf a3f0 f1be 5c72 4c3d
000003b0: 4ca3 753e fa35 99be dbdd 2f3e 13a5 c33e
000003c0: e60a 803e d886 09be c174 7a3e e429 8bbe
000003d0: ba94 2d3e 945a 0ebd 47e7 8dbe d3ca 2e3e
000003e0: 99fe 21be b5f9 90bc 2d1f 5fbe 3c6b 7f3e
000003f0: 197c 843e 696b d9bc 2a91 943d 3dc5 a43e
0.40655902 0.35714105 0.11608042 -0.13821533 -0.07336126 0.21350251 -0.36792412 0.2582692
0.054049082 -0.17831954 0.1235238 0.13749145 0.26607203 0.2613534 0.1330209 0.0060491273
0.036492035 -0.16031371 0.11819655 0.070087835 -0.35101184 0.19514827 -0.25791278 -0.18533647
-0.44380182 0.2967316 -0.46727422 -0.08306867 -0.06942485 -0.18820967 0.08801768 -0.04733314
-0.013332945 -0.11959308 -0.11055218 0.49755985 -0.11375101 0.07214265 0.2760352 -0.3715181
-0.2308464 0.46877286 -0.13547982 -0.29168102 0.03534906 -0.18784435 0.2065043 -0.20140778
-0.11640577 -0.29738405 0.22480287 -0.053774703 -0.009002332 -0.04484882 0.17577006 0.14667483
-0.0066717537 0.20182298 -0.22544086 -0.02048605 -0.080737196 0.07558707 -0.044579808 -0.07830829
-0.11450191 0.17638354 0.12171545 -0.056844845 0.11363031 0.32202783 -0.07120968 -0.36890987
0.30270487 0.11415807 0.05262739 -0.018130563 -0.033212353 0.3148768 -0.095961116 -0.088538595
-0.18228622 0.09731986 -0.20609088 0.12975542 -0.16888426 0.1573675 0.3608956 -0.09441097
-0.22664808 0.18851534 -0.12744659 -0.09385178 0.048700973 -0.5122661 0.2096974 -0.0848737
-0.34075776 -0.4567527 0.11356807 0.39719397 -0.105213836 0.19479132 -0.14021699 0.16019188
-0.4006675 0.39542955 -0.45523623 0.0025908907 0.020069148 0.109433815 -0.010658461 0.0637794
0.20435019 0.14603029 0.5398585 -0.094615094 0.10734223 -0.24823894 -0.3640501 0.62792873
-0.013291723 -0.19627903 0.20901544 -0.077426374 -0.03087083 -0.06448855 -0.0053561013 0.03359237
-0.19595973 -0.4424831 -0.34213275 -0.1562818 0.34829268 -0.06362414 0.05599538 0.21883038
0.024287667 0.092091896 0.08710776 -0.29498118 0.013041362 0.2007626 -0.4330867 0.020273691
-0.050662294 0.5053055 0.16469574 0.15950859 0.123585895 -0.42405954 0.25448105 -0.2127114
0.16059984 0.12511802 0.036084734 0.32327792 0.21013671 -0.5021002 -0.030219488 0.054584645
0.1583882 0.37155443 -0.39234325 0.2734889 0.090268426 0.031206882 -0.20773843 -0.18242218
-0.14617303 0.37160036 0.3942227 -0.095808186 -0.14138952 0.1885815 -0.15982084 -0.29660958
0.042790726 0.40066594 0.06697939 -0.113134444 -0.2950439 0.25478816 0.33407232 -0.18727773
0.46782383 0.12168423 0.18615362 0.06291148 -0.30218303 0.7551087 0.04947252 -0.33726704
0.040539227 -0.23663618 0.03257724 -0.18085173 -0.033681538 0.33186823 -0.09738947 -0.05551319
-0.3869907 -0.07686397 0.25999904 0.02670994 0.14864466 -0.18480723 0.42432433 0.075162396
-0.61938536 -0.2929634 -0.22308622 -0.21549398 0.1221359 0.18754649 -0.6545163 0.23648232
-0.11786343 -0.38991827 -0.06976524 -0.3032466 -0.31027368 0.3573957 0.071193814 -0.17353648
0.023908446 -0.0687162 0.12267946 -0.2500038 -0.49480116 0.10331472 -0.23649606 0.5222207
-0.19155958 -0.5323126 -0.47253904 0.04991375 0.23988074 -0.29923993 0.17174475 0.3821188
0.25008315 -0.13430345 0.244586 -0.27180398 0.16951266 -0.03475435 -0.27715513 0.17069559
-0.15819778 -0.017697195 -0.21789236 0.2494325 0.2587593 -0.026540475 0.0725425 0.3218173

weight f4 [64, 64]
00000000: 70e7 cb3e ce17 acbe 8de2 b6bd 4d03 f7be
00000010: 55f9 32be 12ca c33e c87e b33e acc9 5a3e
00000020: d876 f8bd a65d a53d 56bf 4b3f 63bb 023e
00000030: 0133 f73e 1fac 2ebd 8a37 28be c3f1 3abf
00000040: 737d 313d ccbf d83e 7564 e43e 21b6 3a3e
00000050: a4e4 6d3f 4900 42be 9f51 c7be 822b 443d
00000060: eaaa d33e d774 a93e d96f d7be a612 4b3f
00000070: e93f 8ebb dacf c4be 8970 b73d e44d ed3d
00000080: 10a6 f83e 94fb 803f 5b44 76be e8c1 d9bd
00000090: b25d 743e 77de 97be e111 a83e ab07 183e
000000a0: 5ea2 223f d825 ee3e ce46 4bbe 8d3e 1d3e
000000b0: 5e32 863e f935 83be 0675 89be 6113 e1bc
000000c0: 7bc1 aa3e ac41 4abd 3461 dc3e 32d2 89be
000000d0: e5cb 19be 6363 dbbe 3ee2 453f f34c 143f
000000e0: 2135 773d f77f 79be 845f 003c 6c00 a6be
000000f0: 3513 ef3e 1007 8f3d 8ab4 e33e 178b 14be
00000100: 6d26 6dbe b997 acbe 0153 f1be 7e61 9fbd
00000110: 9bc0 933d 2412 fb3d 3a65 60be b022 82be
00000120: 16e2 11be 850c 313d 0ccc a43d 7cbc 96be
00000130: 2d32 223d f558 8cbc e0da 6c3d 3a8c fb3d
00000140: 67db bfbd 47ca 78bd ffd1 3ebe 3a3a 8cbe
00000150: ee8c 19be a715 093e ddeb b5bd 6888 e0bd
00000160: 5de1 afbd 63ac b9be 29b8 a7be d88e 573d
00000170: 287c 9e3c 8a1b 8dbe 70b8 313d c765 bf3d
00000180: 99bb 983d 6dd4 bb3e 9aa4 0fbe eaf9 45bd
00000190: f561 98be 0485 80be 1df4 b4be 2e08 67be
000001a0: 392e 32bd 43d5 60bb d4c9 da3d 36f6 d6bd
000001b0: 427b 10be 854c f8bc 52d9 cbbd 35ed 9abe
000001c0: 664f 94be 4e7b 28bd f781 8c3d 074d 2a3e
000001d0: 887f 8ebe 70ba 23bd 20b9 85bb ad69 2ebe
000001e0: d226 d8bd 4bcd 9dbd 980f 833c 1ada 54bd
000001f0: d05a c7be f66f 89be 0db7 713e 4ba3 9ebe
00000200: 5bc8 113e 712e 91bb 0665 a93e bc34 f9bd
00000210: 0170 12bf 5daf 063c 99dd 843e 7782 963d
00000220: 7d0c 823e 726d 0dbf 99fe 37bc 5874 443d
00000230: f183 0cbf 2095 f33e e232 5f3e 6709 88be
00000240: 97bb a6bd 0d98 45be c03a 92bd 3269 2abd
00000250: 4d8c ab3e a446 8bbe f9b6 0bbd 951d 8ebd
00000260: ecab 1f3e 35d5 b6bd f94b 95bd bd23 053d
00000270: b262 193f 6881 81bd 7aa2 5cbe ba71 353f
00000280: 9bba ad3d 29e7 36be 2858 7cbe a4d7 71be
00000290: a9b5 b63e 5578 583e f3f3 d13d 72bd db3d
000002a0: 6341 d23d e46e 39bd cfcc 133c 072c c03c
000002b0: 008d d83d b52f fdbe c20c 1a3f 93b4 c23e
000002c0: a30d 43be 5380 763d b6a0 aebd 66d6 24be
000002d0: 3403 7e3e e15d ef3e c4b0 c4bd e9af ec3e
000002e0: 3664 043f 6f65 c6ba 016d d53e fcf8 433e
000002f0: 7a0e d4bc f505 403d aa4a 333e ab4d ef3d
00000300: e20a 3b3e fcbd 923e 79f6 913d cce9 ca3d
00000310: 7046 c2be ac2f 6bba c95c 4e3e 6e48 abbe
00000320: b40c 66bd d548 24be fd81 99bd 8e64 dd3d
00000330: 6bde 12bc 028c 953e cb89 863d beed a73b
00000340: aa80 5a3e 01f9 c03c cae2 62be e6f3 ca3d
00000350: 403a 2d3d 58fc 0abf 8fc4 6cbe b0bf 76be
00000360: 07e4 503d 28f2 a93e 0769 7cbe 2a91 cf3d
00000370: ffdd 933e ea8f 8abd 45cf a8bd edfc cd3e
00000380: 3c57 42bd fe00 803e 8a48 bd3d 5c09 a3be
00000390: f559 3c3e 0ed7 943d 66b8 043e dd2a debd
000003a0: afd9 5d3e 95a6 fc3e 4d84 293e f74a 2bbd
000003b0: 5ddb 3a3e 98cc 74bc 9c71 a03e e783 533e
000003c0: 74b0 42bd 44a3 b7bd c5fa f83d 8fd9 22bd
000003d0: ff38 4c3e 41c7 373e 4c09 c03d 7552 d43e
000003e0: ed0f f13e 0565 b9bd dcda 043e ca51 493e
000003f0: 16e8 0f3e 3e66 97be 7306 4c3a e99d d23e
0.3982501 -0.33611912 -0.0892993 -0.48244706 -0.17477925 0.38240105 0.35057664 0.21365994
-0.12132043 0.08074503 0.7958883 0.12766795 0.482811 -0.042644616 -0.16427436 -0.7302515
0.04333253 0.4233383 0.44607893 0.18233539 0.92927 -0.18945421 -0.3892946 0.047893055
0.41341335 0.33096954 -0.4207752 0.7932533 -0.004341115 -0.38439828 0.08957011 0.11587122
0.48564196 1.0076776 -0.24049513 -0.10632688 0.23863867 -0.29661915 0.3282614 0.14846675
0.63529 0.46513247 -0.19851229 0.15355892 0.26210302 -0.25627115 -0.26847094 -0.02747506
0.3335074 -0.049379036 0.4304291 -0.2691818 -0.15019186 -0.42849264 0.77298343 0.57929915
0.060353402 -0.24365221 0.007835273 -0.32422197 0.4669434 0.06983769 0.44473678 -0.14506184
-0.2315919 -0.33709505 -0.4713364 -0.07782267 0.07214471 0.122593194 -0.21913615 -0.2541709
-0.14246401 0.04322483 0.08046731 -0.29440677 0.039598633 -0.017132262 0.057825923 0.122826055
-0.093680196 -0.06073978 -0.18634795 -0.27388173 -0.14995167 0.13387166 -0.08882878 -0.109635174
-0.085879065 -0.36264333 -0.3275769 0.05262646 0.019346312 -0.27560073 0.043388784 0.09345584
0.074576564 0.36685506 -0.14027634 -0.04833404 -0.29762235 -0.25101483 -0.35342494 -0.22561714
-0.043501113 -0.0034306801 0.10683027 -0.1049618 -0.14109519 -0.030309925 -0.0995356 -0.302591
-0.28966826 -0.041133218 0.06860726 0.16630946 -0.27831674 -0.039972723 -0.0040809065 -0.170325
-0.105542794 -0.07705172 0.015998647 -0.05196581 -0.38936472 -0.26843232 0.23604985 -0.30983958
0.14236586 -0.004430585 0.33084887 -0.121682614 -0.57202154 0.008220521 0.25950316 0.07349103
0.25400153 -0.55245125 -0.011230134 0.047962517 -0.54888827 0.4757471 0.21796754 -0.26569673
-0.08141249 -0.19296284 -0.07140112 -0.04160423 0.33505479 -0.27202332 -0.034110043 -0.06939236
0.15592927 -0.08927385 -0.07289881 0.032504786 0.5991622 -0.063235104 -0.21546355 0.7087666
0.08482858 -0.17861618 -0.24643004 -0.23617417 0.3568547 0.21139653 0.10251608 0.10729493
0.10266378 -0.04527177 0.009020998 0.023458494 0.105737686 -0.4945046 0.60175717 0.38028392
-0.19048171 0.060180973 -0.08526747 -0.16097412 0.2480591 0.4675131 -0.09604028 0.4622796
0.5171541 -0.0015136431 0.41684726 0.19137949 -0.02588581 0.04688068 0.17508951 0.11684736
0.1826587 0.28660572 0.07127089 0.099078745 -0.37944365 -0.0008971642 0.20152582 -0.33453697
-0.05616446 -0.16043408 -0.074954964 0.10810195 -0.008964161 0.2920838 0.06569251 0.0051247766
0.21338144 0.023556234 -0.22156826 0.09909801 0.04229188 -0.54291296 -0.23121856 -0.2409656
0.050998714 0.33192563 -0.2464944 0.1013511 0.28880307 -0.06765731 -0.082426585 0.4023203
-0.047446474 0.25000757 0.09242351 -0.31843078 0.18393691 0.07267581 0.12960967 -0.10848019
0.21665071 0.49345842 0.16554375 -0.04181954 0.18247743 -0.014941357 0.31336677 0.20655786
-0.04753156 -0.08966687 0.121572055 -0.03975826 0.19943617 0.17947103 0.09376773 0.4146916
0.47082463 -0.09052471 0.12974113 0.19660106 0.14053378 -0.29570192 0.00077829434 0.411361

weight f4 [64, 64]
00000000: bb5a 763e a2bf 453e db78 1bbf abc5 d1bd
00000010: e5c5 36be 0804 92be ae01 86be 0079 debe
00000020: a1ad 26bf 6a20 2e3e 7bb3 47be 3ad3 763f
00000030: a90e 05bd 111a dd3c 3ab2 d43e cca1 663d
00000040: 40ab f1be b0e7 37bf 899d b33e 8732 063f
00000050: f446 1dbf abeb 0a3f bd53 a03d 7b13 fbbe
00000060: 1b02 7fbd 1268 653e eed0 14bf 4f8a 75bf
00000070: 8d98 a6be 3749 52bf 2f1f 5dbf 7ef7 0bbd
00000080: 9c1b 4dbe e4a0 2a3e 8678 07bf c112 243f
00000090: b598 adbd 4276 8a3e dfc9 89be 9293 723f
000000a0: db50 dcbe 0705 bdbd 3aee 77bf 681b 0fbe
000000b0: 4cbf 7c3e 79b7 5cbd 8bb7 053f fa45 e8be
000000c0: 72fb f1bd 1b39 223e a01a b33d f5a7 593f
000000d0: 1863 b43e 5083 173e f3c1 bc3d ded7 02bf
000000e0: 7e94 54bf 875f a13b 2fe9 26be fed5 b93e
000000f0: 7342 0ebe b1b0 c53e bb29 8c3f 6977 173e
00000100: 6872 093f ed7c bdbd 9c1f fdbd 2f82 28bf
00000110: ae5d a6bc 51e5 bcbe 0257 f53d 0623 893e
00000120: 30db 0c3e bdc4 27bf 6e7a 00be 48e9 20bf
00000130: 1833 18bf 723a 1f3f b472 27bf ec5b cf3e
00000140: 3ccc 1abf d48b 93be 7fbd 9abe dc1d 9e3d
00000150: 4435 b03e 3dbc 1fbe 4d15 a73e d7b1 81be
00000160: d101 3a3e ece3 9dbe e45e 1abf a955 86be
00000170: e335 8e3f 3a37 cfbd 87b8 1b3f 1082 2e3e
00000180: fcce bf3d f984 753f 49c2 01be c626 3cbf
00000190: 0408 773d d07f 0bbe 60cd c53e c9a1 773f
000001a0: 6e1b c9be 8167 8e3e 626d 073f 03fa ea3d
000001b0: 5eb8 6ebf 384c c63d 476b 59be 06d2 413e
000001c0: 59a6 813d b058 073d 020a 9c3d e7bd cabd
000001d0: f5f7 96bc 3511 18bd f902 21be 7842 f53d
000001e0: 1f5a aebf 6425 0fbf 518c 1a3e f9ce 30bf
000001f0: d37a 553f 551e 2c3d 55f1 a63d 835a 883d
00000200: ed1a 4abf 7296 8b3f 0f60 f23e a3d5 23bf
00000210: a32b 68bf 6263 69bd f0bb 41be 5881 9ebf
00000220: 37ab 07bf ac6b ecbe fa37 99be 1427 513f
00000230: 349b 093e ee94 e03e 9fc5 e2bd 451f e13e
00000240: 8a77 07bf a939 a23d ee5a 51bf f294 653f
00000250: e0ad 10bf d761 153f 3881 1e3f a328 f73d
00000260: 7c28 893f aa54 823d 4ffc 1abf 419c 74bf
00000270: 24f0 ba3e bc47 583e d959 10bf e8ec 383f
00000280: c8e2 63bd 6725 913f 0d30 77bf a49d 473e
00000290: 91d9 1dbf e34e 433e 5ae2 ddbe 75a5 2f3f
000002a0: 20a8 fbbe b5f0 fb3e 2693 773e cd75 af3f
000002b0: 5dae 07bf db50 01be cd72 2e3e b1d5 2abe
000002c0: 037a 70bf 4002 923e d531 2a3f e4dc 37bd
000002d0: 42ad 3c3f 92e0 ab3e b919 3cbf 59a9 60be
000002e0: f824 223f 3428 ed3d d805 83be a3bf debd
000002f0: 7969 4cbe aa69 dd3e e210 2fbe cbb6 d83e
00000300: 3d51 53bf ba6e 8d3e e598 333e 0bb1 95be
00000310: dca0 54bf f564 80bf 8608 a23e cd3b eabe
00000320: 2a6c 133f 20de 95bf 1210 9e3f 79e0 29be
00000330: ab3c b6bc 92b1 a43d f54e 28bf c10d 303f
00000340: 339f 88bf 0125 583f 2ad2 86bd 813d 763d
00000350: 2a9f c63e 7010 9b3f 14b8 573f 1689 b6bf
00000360: a601 643f a745 32bd 06a3 70bf 2784 50bf
00000370: 4651 e03c 1329 27bf e163 623e 6e61 9ebe
00000380: 9cb8 553e 05cc 8d3e b719 f4be ce6d d6be
00000390: ee1f 3ebe ff91 b23e e3d7 07bf 4985 babe
000003a0: 8452 ac3e 2200 77be 1854 39bf 0ace 993f
000003b0: 4a5a fbbe 856f 3ebe 7c1e 1bbf 26cb b73e
000003c0: a849 00bf 1ded 62bf a03f 783f 15d9 823f
000003d0: ec15 1f3f 6aa2 003f e803 9c3d d7d6 13bf
000003e0: eebd f6be 0dda f4be 6be6 8cbe 7444 2bbe
000003f0: afa4 9bbe b234 0ebf 4c1b d6be d56e 0f3e
0.24058048 0.19311383 -0.60731286 -0.1024278 -0.17848928 -0.285187 -0.26173156 -0.4345169
-0.65108687 0.17004552 -0.1950206 0.96416056 -0.032484684 0.026989968 0.41542226 0.056306645
-0.47200966 -0.718379 0.35081127 0.5242085 -0.6143639 0.5426585 0.07828472 -0.490383
-0.062257867 0.22402981 -0.581313 -0.9591417 -0.32538262 -0.82142967 -0.8637571 -0.034171574
-0.20030063 0.16662937 -0.5291828 0.64091116 -0.08476392 0.2704335 -0.26911828 0.94756424
-0.43030438 -0.092294745 -0.9684788 -0.13975298 0.24682349 -0.05388591 0.5223319 -0.45365888
-0.118155375 0.15842097 0.08745313 0.8502191 0.35231853 0.14796185 0.092166804 -0.5111064
-0.8303908 0.004924718 -0.1629989 0.36296076 -0.13892536 0.38611367 1.0950235 0.14791645
0.53690195 -0.09252343 -0.12359545 -0.65823644 -0.020308342 -0.36893705 0.11979486 0.26784533
0.13755488 -0.65534574 -0.12546703 -0.6285596 -0.5945296 0.62198555 -0.654094 0.40499818
-0.60467887 -0.28817618 -0.302227 0.07720539 0.34415638 -0.15599151 0.3263344 -0.25330994
0.18164755 -0.30837953 -0.6030104 -0.2623723 1.1110195 -0.101179555 0.6082844 0.17041802
0.09365651 0.95906025 -0.1267177 -0.73496664 0.06031038 -0.13622975 0.3863325 0.9673124
-0.3927874 0.27813342 0.5290128 0.11473467 -0.9325007 0.09682506 -0.2123233 0.18927774
0.063305564 0.033043563 0.07619096 -0.09899502 -0.018428782 -0.037125785 -0.1572379 0.119755685
-1.3621253 -0.5591643 0.15092589 -0.69065815 0.8339054 0.042021114 0.08151499 0.06657889
-0.78947335 1.0905287 0.47338912 -0.6399786 -0.90691584 -0.056979544 -0.18919349 -1.2383223
-0.5299563 -0.46175897 -0.2992552 0.81700253 0.13438112 0.43863624 -0.110728495 0.4396917
-0.5291678 0.07921154 -0.8177937 0.896804 -0.5651531 0.58352417 0.6191592 0.12068298
1.071548 0.06363805 -0.6054124 -0.95550925 0.36511338 0.21121114 -0.56387097 0.7223649
-0.055636197 1.1339539 -0.96557695 0.19493729 -0.61660105 0.19073062 -0.43336755 0.6861184
-0.49151707 0.49207082 0.24177226 1.3707825 -0.5300043 -0.126285 0.1703598 -0.1668308
-0.93936175 0.28517342 0.6648229 -0.044888392 0.7370187 0.3356977 -0.7347675 -0.21939601
0.6333766 0.11579934 -0.25590396 -0.108763956 -0.1996211 0.43244678 -0.17096284 0.4232696
-0.82545835 0.2762354 0.17538793 -0.29236636 -0.8305795 -1.003081 0.31647128 -0.4574875
0.5758692 -1.1708412 1.2348654 -0.16589536 -0.022245726 0.08041681 -0.6574548 0.68770987
-1.0673584 0.84431463 -0.06583054 0.06011725 0.38793308 1.2114391 0.84265256 -1.4260585
0.89065015 -0.043523457 -0.93998754 -0.8145165 0.027382504 -0.6529705 0.22108413 -0.30933708
0.20871204 0.27694717 -0.4767587 -0.4188065 -0.18566868 0.3487701 -0.5306379 -0.36429814
0.33656704 -0.24121144 -0.7239394 1.2016003 -0.49092323 -0.18597229 -0.6059339 0.35897177
-0.5011239 -0.88643056 0.96972084 1.0222498 0.62142825 0.50247824 0.076179326 -0.57749695
-0.4819178 -0.4782261 -0.27519545 -0.16725332 -0.3039908 -0.55549157 -0.418177 0.14007123
