examples/carbon/outDir/epoch=174-step=87975-val_loss=0.2137.pt (torch, 745777 bytes, 92 tensors)

cutoff f8 []
0	0x4008000000000000	3.0

weight f4 [7, 64]
0	0x3f594515	0.84871036
1	0x3f312783	0.69200915
2	0xbea1cc6d	-0.31601277
3	0xc0075fc1	-2.1152194
4	0xbeb65675	-0.35612836
5	0x3edfdba8	0.43722272
6	0x3efb8c53	0.49130496
7	0xbe51000b	-0.20410173
8	0x3df56f77	0.11984151
9	0x3f9e6b93	1.2376579
10	0x3f8ef28e	1.1167772
11	0xbe7d367c	-0.24727815
12	0xbf8599a7	-1.0437516
13	0xbfac32f6	-1.3453052
14	0x3f490d11	0.7853556
15	0x3f7e2a99	0.9928375
16	0x3f194d8b	0.59883946
17	0xbfc70d5b	-1.5550951
18	0xbeaec6ca	-0.3413604
19	0x3fed2f4e	1.8530061
20	0x3eefaa55	0.4680964
21	0xbe217f5f	-0.15771244
22	0x3fb8c9db	1.4436601
23	0x3e8837a1	0.2660494
24	0x3fb1d6c0	1.3893661
25	0x3fcb0d00	1.5863342
26	0x3f72409c	0.94629836
27	0xbf57fb33	-0.84367675
28	0x3f6e8c30	0.9318266
29	0x3fa12737	1.2590092
30	0x4000519a	2.0049806
31	0x3d5c1b3a	0.053736903
32	0x3ee11fd0	0.43969584
33	0x3de637d6	0.112411186
34	0x3f240af8	0.64079237
35	0x3ee1df3c	0.44115627
36	0xbe5d0b42	-0.21586326
37	0xbf3e17a3	-0.74254817
38	0x3f100e82	0.5627214
39	0x3e84ede2	0.2596274
40	0x3f05da2f	0.52286047
41	0x40135755	2.3022053
42	0xbfbc04b7	-1.4688939
43	0xbfcb189e	-1.5866888
44	0x3f9a033c	1.2032237
45	0x3dad2087	0.0845347
46	0xbf999e2b	-1.2001394
47	0xbb9cd1ae	-0.004785738
48	0xbe6bdd10	-0.23033547
49	0xbec89408	-0.3917544
50	0x3f0b155d	0.5432947
51	0xbeca5217	-0.39515755
52	0x3e527552	0.20552567
53	0xbee6919f	-0.45032975
54	0xbf12b52e	-0.5730771
55	0xbf0e2bf8	-0.5553584
56	0xbfc3fdd9	-1.5311843
57	0xbf9df823	-1.234135
58	0x3fe8ecc2	1.8197253
59	0xbf0d30fc	-0.5515287
60	0xbfa9a448	-1.325326
61	0x3e411430	0.18855357
62	0xbd8d75fb	-0.069072686
63	0xbefd66db	-0.49492535
64	0xbfbd34ce	-1.478174
65	0x40244d8b	2.5672328
66	0xbef23cc2	-0.4731198
67	0x3eabcd4f	0.33555076
68	0x3fc12ae8	1.5091219
69	0x40053ec2	2.0819554
70	0x3fda7587	1.7067116
71	0x401857f1	2.3803675
72	0xbf8892d0	-1.0669804
73	0x3f8eb657	1.1149396
74	0xbe100c2c	-0.14067143
75	0x3f4e45de	0.8057536
76	0x3ea7bd10	0.3276143
77	0xbf42bdb5	-0.7607072
78	0xbfccaeb8	-1.599082
79	0x3c97715a	0.018486667
80	0x3f57865f	0.8418941
81	0xbeccd147	-0.40003416
82	0x3f850d17	1.039462
83	0x3eb75fd8	0.3581531
84	0xbb5885ca	-0.003303873
85	0xbf08d11b	-0.5344407
86	0x3f959790	1.1686878
87	0x3ec9fc44	0.39450276
88	0xbf85c1dc	-1.0449786
89	0xbf74dd3d	-0.9565008
90	0x3d0958b4	0.03353186
91	0x3f35c83c	0.7100866
92	0xbfc4844a	-1.5352871
93	0xbed34aae	-0.41267914
94	0x3f775fa7	0.9663033
95	0x3fcff8e5	1.6247832
96	0xc02740ad	-2.6133225
97	0xbfd92613	-1.6964744
98	0xbe69b837	-0.22824179
99	0x3e8f5643	0.279955
100	0x3d960206	0.07324605
101	0x3f8e8138	1.1133184
102	0x3e908555	0.28226724
103	0x3ede52d3	0.43422565
104	0x3ee9f40f	0.45694014
105	0xbf5d88fa	-0.86537135
106	0x3f4803cc	0.78130794
107	0xbf6d4212	-0.9267894
108	0x3e535ecc	0.20641631
109	0xbeaab9ae	-0.33344787
110	0xbedb8f9b	-0.42883
111	0x3e6e8222	0.23291829
112	0x3f766799	0.9625183
113	0x3eb2c62e	0.34916824
114	0xbf6be4ef	-0.921462
115	0xbd662c81	-0.056194786
116	0xbf33970d	-0.7015236
117	0x3f84b227	1.0366868
118	0xbf1a8a20	-0.6036701
119	0xbfa3ae94	-1.2787652
120	0x3dfdc095	0.12390248
121	0x3f9517a0	1.1647835
122	0x3f6c6235	0.9233735
123	0x3fb192e4	1.3872952
124	0x3fb0013e	1.3750379
125	0x3f28dd95	0.6596311
126	0x3ef3ff4b	0.4765571
127	0xbf82165d	-1.0163075
128	0x3f1c40db	0.6103646
129	0x3eef0b5c	0.46688354
130	0x3ff9af22	1.9506571
131	0xbf88139d	-1.0630985
132	0x3f91f703	1.1403507
133	0xbdb81417	-0.08988207
134	0x3f3ad3ed	0.72979623
135	0xbfec336a	-1.845319
136	0xbdd115f1	-0.10209263
137	0xbf844b50	-1.0335484
138	0xbea01232	-0.31263882
139	0x3e7baf30	0.24578547
140	0x3ec11dfd	0.37718192
141	0x3f8cf543	1.1012348
142	0xbf92468b	-1.1427778
143	0x3d19f325	0.037585396
144	0x3e93c041	0.28857616
145	0x3ec5f024	0.38659775
146	0xbe4de3b3	-0.20106392
147	0xbdf183b4	-0.117926985
148	0xbf545163	-0.82936686
149	0xbfb420fc	-1.4072566
150	0x3fd03c83	1.6268467
151	0x3e306863	0.1722732
152	0xbf344c9c	-0.70429397
153	0x3ea1231b	0.31472096
154	0x3e212b9a	0.15739289
155	0x3ec54e43	0.3853627
156	0x3f12db07	0.5736546
157	0x3f7f786d	0.9979313
158	0x3f0b29fd	0.54360944
159	0x3da16432	0.07880439
160	0x3f7f9ada	0.9984566
161	0xbeff578b	-0.49871477
162	0x3f42d82a	0.7611109
163	0x3f1e48f7	0.61830086
164	0xbe9948ec	-0.29938447
165	0xbe4048e5	-0.18777807
166	0x3ff53c22	1.9158976
167	0x3f30b0a4	0.6901953
168	0xbea0c932	-0.314035
169	0xbf8a131b	-1.078708
170	0x3e769708	0.24081051
171	0xbfb2b793	-1.3962272
172	0x3de88e01	0.1135521
173	0x3f8d67a7	1.1047257
174	0xbfb294ff	-1.395172
175	0x3ef342c3	0.47511873
176	0x3f8a6096	1.0810726
177	0x3e06a22f	0.13147806
178	0x3fc969b4	1.5735383
179	0x3f480bcb	0.78142995
180	0x3f7cc8a5	0.9874366
181	0xbfbe707a	-1.4878075
182	0x3f163126	0.58668745
183	0x3e22182e	0.15829536
184	0x3f2ab22a	0.66678107
185	0xbf7e9052	-0.99438965
186	0xbf983d14	-1.189364
187	0xbf9914df	-1.1959494
188	0x3fa7ec14	1.311892
189	0xbe56e005	-0.20983894
190	0x3f481f8b	0.7817313
191	0x3f7d5c7e	0.98969257
192	0x3e2fa092	0.17151096
193	0x3f604478	0.87604475
194	0xbe92fd1f	-0.2870874
195	0x3f82c51a	1.0216401
196	0xbf02d5bb	-0.51107377
197	0xbfdb5b6f	-1.7137278
198	0xbf02939b	-0.5100648
199	0xbef32531	-0.47489312
200	0x3f298acb	0.66227406
201	0xbf9a681e	-1.2063024
202	0x3f1b812b	0.6074397
203	0xbf0c1278	-0.5471568
204	0xbf8cdc84	-1.1004796
205	0xbf385a47	-0.7201275
206	0x3c43782c	0.011930507
207	0x3eadf6b7	0.3397729
208	0xbfa077c2	-1.2536547
209	0x3f7ca14a	0.9868361
210	0xbefd436d	-0.49465504
211	0xbfa43ac1	-1.283043
212	0x3ee096a1	0.4386492
213	0xbc2f6009	-0.010704049
214	0x3fab4f31	1.3383542
215	0xbe8f0e2d	-0.27940503
216	0x3e934ddc	0.2877034
217	0xbd08b3ff	-0.033374783
218	0xbf87ebf6	-1.0618885
219	0xbdea5845	-0.11442617
220	0x3e481514	0.1953929
221	0xbf3cb335	-0.7371095
222	0x3fd99ced	1.7001015
223	0x3eb1432a	0.34621555
224	0xbe143b30	-0.14475703
225	0x3f233aec	0.6376178
226	0xbe900546	-0.28129023
227	0xbfaa3959	-1.3298751
228	0xbf275f69	-0.6537996
229	0x3fdc2332	1.7198241
230	0xbf76012c	-0.9609554
231	0xbf23335d	-0.6375025
232	0xbf631005	-0.8869632
233	0x3f56b9f0	0.8387747
234	0x3f939211	1.1528951
235	0xbfe16baa	-1.7610981
236	0xbf8db373	-1.1070389
237	0xbfdbd27e	-1.7173612
238	0x3fc46c7f	1.534561
239	0xbb521f4c	-0.0032062111
240	0x3fb85d22	1.4403422
241	0xbde27f35	-0.11059419
242	0x3f13ad1d	0.57686025
243	0xbe2d3bf9	-0.16917409
244	0x3f9826a3	1.1886791
245	0xbe21499a	-0.15750733
246	0xbd3a86ab	-0.045538586
247	0x3f26025b	0.64847344
248	0xbf5ee90d	-0.8707436
249	0x3e14377b	0.14474289
250	0x3ff390cd	1.9028565
251	0x3ec7e1f5	0.3903958
252	0x3d076dbb	0.03306363
253	0xbf830067	-1.0234498
254	0x3f3bc767	0.7335114
255	0x3f8f1172	1.1177199

weight f4 [64, 64]
0	0x3e3b359a	0.18282166
1	0x3e0e365d	0.13887925
2	0xbe4d858a	-0.20070472
3	0xbe150e3a	-0.14556208
4	0x3df896a8	0.121381104
5	0xbd385bde	-0.045009486
6	0xbcfd1161	-0.030892076
7	0x3e049eee	0.12951252
8	0xbe78c82b	-0.24295108
9	0x3d779753	0.06044705
10	0x3e10cffd	0.14141841
11	0x3e4ce5d3	0.20009546
12	0x3e4f23e1	0.2022853
13	0x3e3ea2d9	0.18616809
14	0xbd29c7aa	-0.04145018
15	0xbdf8790b	-0.12132462
16	0x3df1fe93	0.11816134
17	0x3e1b89ec	0.15189332
18	0xbde51a69	-0.11186678
19	0x3bec71d4	0.007215718
20	0xbd7c9f90	-0.06167561
21	0xbe17f7d2	-0.1484063
22	0x3e1b5aa5	0.15171297
23	0x3d9f17ac	0.07768187
24	0x3e1d938d	0.15388317
25	0x3dda4753	0.10658135
26	0x3e0c71eb	0.13715331
27	0x3d2336f1	0.039847318
28	0xbccf1e64	-0.025283046
29	0x3d4484c2	0.04797817
30	0x3cfa134d	0.030526781
31	0xbd02c265	-0.03192367
32	0x3e53780d	0.20651264
33	0xbda2d4ce	-0.079507455
34	0xbdfe9767	-0.124312215
35	0xbc9c8f11	-0.019111188
36	0xbd39ff9b	-0.04540978
37	0xbe792b84	-0.24333006
38	0x3dc5f4e9	0.096658535
39	0xbe3ec41c	-0.18629497
40	0x3dce1eed	0.100644924
41	0xbd6aeea3	-0.057356488
42	0x3e3af7fb	0.1825866
43	0x3dbd4696	0.09241979
44	0x3e16c365	0.14722975
45	0xbc2b4844	-0.010454241
46	0x3ca4c28e	0.020112302
47	0x3dbb310d	0.09140215
48	0x3df9dd8d	0.122004606
49	0x3daaf291	0.08347047
50	0xbdd326a1	-0.10310102
51	0xbe1033f9	-0.14082326
52	0xbe0d2c95	-0.13786538
53	0xbe318e30	-0.17339396
54	0xbd4ebe71	-0.050474588
55	0x3e590446	0.21193036
56	0xbe1d6875	-0.15371878
57	0xbe63e6e6	-0.2225605
58	0x3b283daf	0.0025671532
59	0x3d4f898e	0.05066829
60	0xbd9391d9	-0.072055526
61	0xbe3e6aea	-0.18595472
62	0x3ceb4cea	0.028723199
63	0xbe592960	-0.2120719
64	0xbdc3cfc3	-0.09561112
65	0xbce934f1	-0.028467627
66	0x3e1af273	0.1513155
67	0xbcb01d9d	-0.021498496
68	0x3bb69c3d	0.0055728243
69	0xbd1a8a0e	-0.037729315
70	0x3d36bd36	0.04461404
71	0xbd7dfa31	-0.06200618
72	0xbccfe4a1	-0.025377573
73	0xbe03da6b	-0.12876289
74	0xbda4449e	-0.080209
75	0xbdf29f0f	-0.11846744
76	0xbd4ae785	-0.0495372
77	0xbce3ad80	-0.027792692
78	0x3e3c1785	0.18368347
79	0x3b81c31c	0.0039600264
80	0xbde69988	-0.112597525
81	0xbcb17430	-0.021661848
82	0x3e0bbec6	0.13646993
83	0xbc902534	-0.017595865
84	0x3d4aa4b7	0.04947349
85	0x3db25679	0.087078996
86	0xbe043af4	-0.12913114
87	0x3dc9d3a1	0.09854818
88	0xbdcf8e0d	-0.10134516
89	0xbdcf4a93	-0.10121646
90	0x3db40013	0.08789077
91	0xbdbd878a	-0.09254368
92	0xbcaa3d3a	-0.020781148
93	0xbdc3f2f2	-0.095678225
94	0xbbd97459	-0.006636184
95	0xbd21bb9a	-0.03948555
96	0x3d5cd461	0.053913478
97	0xbdd5eb32	-0.104452506
98	0xbbcd4362	-0.006264136
99	0x3e0cbf55	0.13744862
100	0x3d41cf45	0.04731681
101	0x3c2579f5	0.010099878
102	0xbe29105f	-0.16510151
103	0x3dd23264	0.102635175
104	0x3d1d7c8a	0.038448848
105	0x3d484848	0.048897058
106	0xbe0ca822	-0.13736013
107	0x3d2ca8c0	0.04215312
108	0xbe40563c	-0.18782896
109	0x3ccc6019	0.024948167
110	0x3cf4b831	0.029872986
111	0xbdf4ff49	-0.11962754
112	0x3d58e804	0.052955642
113	0xbd0a71ad	-0.033799816
114	0xbbc04aea	-0.0058683055
115	0xbd1d2a3e	-0.038370363
116	0xbcfd3ec5	-0.03091372
117	0x3d6929d7	0.056924667
118	0x3d96388b	0.073350035
119	0xbdf17930	-0.11790693
120	0x3d9a6945	0.0753961
121	0x3bcb12cf	0.0061973105
122	0x3c955e67	0.018233491
123	0xbe0173e0	-0.12641859
124	0xbdb3bedf	-0.0877664
125	0x3e07dde8	0.13268244
126	0x3d370ec3	0.044691812
127	0x3e15d892	0.14633396
128	0x3c07aef0	0.008281454
129	0x3d1aa8a2	0.037758477
130	0xbd9887ce	-0.07447778
131	0xbd92b743	-0.07163861
132	0x3db04dd6	0.08608596
133	0xbe41b024	-0.18914849
134	0x3d102619	0.035192583
135	0x3df10bb3	0.117698096
136	0xbe44379f	-0.19161843
137	0x3d985f83	0.074400924
138	0x3dc0b145	0.094088115
139	0x3db651bd	0.08902309
140	0x3e475b60	0.1946845
141	0xbcb417fa	-0.02198409
142	0xbdd5fa9b	-0.1044819
143	0xbd636620	-0.055517316
144	0xbdb5f47e	-0.08884524
145	0x3db71a83	0.089406036
146	0x3d4287b4	0.047492698
147	0x3e1a7d5b	0.15086882
148	0xbdf9b613	-0.12192931
149	0xbe1b5418	-0.15168798
150	0xbc3b1eab	-0.011420886
151	0xbcd6a3b5	-0.026201108
152	0xb9653370	-0.00021858304
153	0xbd8011ef	-0.062534206
154	0xbe161825	-0.14657648
155	0xbdcd2a90	-0.10017884
156	0xbddaa7bd	-0.10676525
157	0x3d613005	0.054977436
158	0x3e150032	0.14550856
159	0xbd0b7f9d	-0.03405725
160	0x3e2a2614	0.16616088
161	0xbd7032f9	-0.05864236
162	0x3d9f76c9	0.07786328
163	0xbe509dea	-0.2037274
164	0xbe478898	-0.194857
165	0xbd592fff	-0.05302429
166	0x3e0a166f	0.1348512
167	0xbe3c98df	-0.1841769
168	0x3c0a55de	0.008443324
169	0xbe30c0ce	-0.17261049
170	0x3e356242	0.17713264
171	0x3cc9dad6	0.024640482
172	0x3d2c5939	0.042077277
173	0xbd1ab26d	-0.037767816
174	0x3dfc774d	0.12327442
175	0x3e4f0b40	0.20219135
176	0x3d8beb5b	0.06832
177	0x3e01d610	0.12679315
178	0x3da2b70c	0.0794507
179	0xbda8433c	-0.08215949
180	0xbd109797	-0.035300817
181	0x3cc5a884	0.024128206
182	0xbd814c9e	-0.06313442
183	0xbd43682a	-0.04770676
184	0xbda3d3ad	-0.07999358
185	0x3d67c627	0.056585457
186	0x3db34ddb	0.08755084
187	0x3e29eecc	0.16595
188	0x3e0f90a2	0.14020017
189	0xbd97de36	-0.0741543
190	0x3e000a74	0.12503988
191	0xbdd58d1f	-0.10427307
192	0x3dc275d6	0.09495132
193	0x3e7fe67a	0.24990264
194	0xbdd807c8	-0.10548359
195	0xbe9b2ff0	-0.3031001
196	0x3eafc50d	0.34330025
197	0xbe4b1427	-0.19831906
198	0xbe52c2bf	-0.20582102
199	0x3e74bd8f	0.23900436
200	0xbe1e7d15	-0.15477403
201	0x3de8ba30	0.113636374
202	0x3e4b8754	0.19875842
203	0x3e4a9fba	0.19787493
204	0x3dcff984	0.10155013
205	0x3d8d14d4	0.06888738
206	0xbe0dd7e8	-0.13851893
207	0x3aff55eb	0.0019480562
208	0x3e7352fd	0.23762126
209	0x3e874500	0.2641983
210	0xbde198f9	-0.11015505
211	0x3d6f6631	0.058447067
212	0x3e8bb897	0.27289268
213	0xbd94ea1b	-0.072712146
214	0x3e488360	0.19581366
215	0x3e655a4a	0.22397724
216	0x3eaf1140	0.34192848
217	0x3e563bcd	0.2092125
218	0x3e74f031	0.23919751
219	0x3e709d03	0.23497395
220	0xbe5f375f	-0.21798466
221	0x3d58eda6	0.052961014
222	0x3e37d38f	0.17951797
223	0x3da60c48	0.08107811
224	0x3d8b59a2	0.068042055
225	0xbe3b03db	-0.1826319
226	0xbcc0d9fd	-0.023541445
227	0xbea9d723	-0.3317195
228	0xbe36f3f3	-0.17866497
229	0xbea63c4c	-0.32467878
230	0x3ded1708	0.115766585
231	0xbe3d74ae	-0.18501541
232	0x3cee1964	0.029064842
233	0xbde6e6f8	-0.112745225
234	0x3ea33b18	0.31881022
235	0x3e9e13b5	0.3087441
236	0x3e1c3086	0.15252885
237	0xbda9a42a	-0.08283265
238	0x3e453b88	0.1926099
239	0x3ea90cb5	0.33017507
240	0x3e14fe4b	0.1455013
241	0x3daf3b99	0.08556289
242	0xbde2f3d8	-0.11081666
243	0xbe1cb69b	-0.15304033
244	0x3caf232e	0.02137908
245	0xbe979769	-0.29607704
246	0xbe15d3e7	-0.14631616
247	0x3e6caee0	0.23113585
248	0xbe8a3ab1	-0.26997903
249	0xbe82dd65	-0.25559536
250	0x3ce5b58a	0.028040666
251	0x3e80e17d	0.25172034
252	0x3df66d97	0.12032621
253	0xbd826e5c	-0.06368706
254	0x3e8c2ab1	0.2737632
255	0xbe75578e	-0.2395918

weight f4 [64, 64]
0	0x3d7a593a	0.06112025
1	0xbe0b8b96	-0.13627467
2	0xbe37c9ff	-0.17948149
3	0xbe456b78	-0.19279277
4	0x3da57c85	0.08080391
5	0xbda27860	-0.07933116
6	0xbe405ce2	-0.18785432
7	0xbb28d0fb	-0.0025759328
8	0xbdf9ef1d	-0.1220381
9	0x3d86e54e	0.06586705
10	0xbc5aa222	-0.01334432
11	0x3e1d52ab	0.15363567
12	0xbe716bca	-0.23576275
13	0x3cb50f70	0.022102088
14	0xbe3a12d2	-0.18171242
15	0xbe0cefd8	-0.13763368
16	0x3e6d2b5c	0.23161072
17	0x3dfb9e5a	0.122860625
18	0x3da06c72	0.07833184
19	0x3d7b236f	0.06131309
20	0x3e06786b	0.13131873
21	0xbd8ec113	-0.0697042
22	0x3ceb5ad6	0.028729837
23	0xbd0f12f0	-0.03493017
24	0x3d536731	0.051612083
25	0x3ca0de39	0.019637214
26	0x3db14428	0.08655578
27	0x3d0f308c	0.034958407
28	0x3d8aca10	0.067768216
29	0x3d071d6f	0.032987054
30	0xbe0fc0ba	-0.14038363
31	0x3c974dd9	0.018469738
32	0xbca73d50	-0.020414978
33	0xbd84367f	-0.06455707
34	0xbe819f05	-0.25316635
35	0xbd86ae6f	-0.06576239
36	0xbd941a66	-0.072315976
37	0xbd8e9f35	-0.0696396
38	0xbcd21636	-0.025645357
39	0xbe1760bb	-0.14782993
40	0xbdd9d80e	-0.10636912
41	0xbe1abca9	-0.1511103
42	0x3d5b48ce	0.05353623
43	0x3e06553c	0.13118452
44	0x3d165472	0.036701627
45	0xbd5b0521	-0.05347169
46	0x3dd5a16c	0.104311794
47	0xbdfa3cec	-0.12218651
48	0x3de22e41	0.110439785
49	0x3df0d6f7	0.11759751
50	0xbe2b8dbd	-0.16753288
51	0xbe049186	-0.12946138
52	0xbe016f60	-0.12640142
53	0xbe106238	-0.14099967
54	0xbdffcb03	-0.12489893
55	0xbcad7f3b	-0.021178832
56	0xbbd85c83	-0.006602825
57	0x3ca44d75	0.020056466
58	0xbe1facbf	-0.15593241
59	0xbd86c2b9	-0.06580109
60	0x3e72b638	0.23702323
61	0xbd7c306c	-0.061569616
62	0x3c31f6c2	0.010862054
63	0x3d166b05	0.036723156
64	0xbd434ff2	-0.047683664
65	0x3d83cad1	0.064351685
66	0xbd9786f0	-0.07398784
67	0x3d455e47	0.048185613
68	0x3e3325b6	0.17494854
69	0xbd11a6e5	-0.035559554
70	0xbc0fc6f4	-0.008775461
71	0x3dab0b01	0.08351708
72	0xbe0d1154	-0.13776141
73	0x3caadb60	0.02085656
74	0x3cb9dc34	0.022688009
75	0x3d8ed5d6	0.0697438
76	0x3dd4d37f	0.10391902
77	0x3da2c35f	0.0794742
78	0xbd05aafe	-0.032633774
79	0x3d36f770	0.04466957
80	0x3cb91480	0.022592783
81	0xbd3c63ff	-0.0459938
82	0x3cf58a2c	0.029973112
83	0xbdc37fa9	-0.095458336
84	0x3e5a0deb	0.21294372
85	0x3d1f1965	0.038842577
86	0x3e1a04b2	0.15040854
87	0xbc9f925e	-0.019478973
88	0x3d4f8953	0.050668072
89	0x3df78bf6	0.12087242
90	0xbd7e3ec8	-0.06207159
91	0x3e184d01	0.14873125
92	0x3d2bc8c1	0.0419395
93	0x3d9613a1	0.07327963
94	0x3cd67d7c	0.026182882
95	0x3dbc5cdc	0.09197399
96	0xbd7ef74c	-0.06224756
97	0x3d6f6ec4	0.058455244
98	0x3ddcbb67	0.10777932
99	0xbd7ae7b0	-0.06125611
100	0xbde6874a	-0.11256273
101	0xbd4e8242	-0.050417192
102	0x3e391b53	0.1807683
103	0x3d8f961d	0.07011054
104	0xbda4de58	-0.08050221
105	0xbe5cf9ad	-0.21579619
106	0xbd507346	-0.050891183
107	0xbde446b4	-0.11146298
108	0x3e083a8e	0.13303587
109	0xbd957ee0	-0.0729959
110	0x3e0b0368	0.13575518
111	0x3d39cf3f	0.04536366
112	0xbe16d13d	-0.14728256
113	0x3cc66843	0.024219638
114	0x3d8a5f8e	0.06756507
115	0x3bf32ca5	0.0074210935
116	0x3d924dbd	0.07143734
117	0x3b303162	0.0026884903
118	0xbd245ce9	-0.04012767
119	0xbdb6b447	-0.08921104
120	0x3d0e0e96	0.03468188
121	0xbdfb3ded	-0.12267671
122	0x3db80e65	0.089871205
123	0x3d2092ab	0.039202373
124	0x3e5aabcc	0.21354598
125	0xbdd367f4	-0.10322562
126	0x3cd34f25	0.025794575
127	0xbdc2d1d9	-0.095126815
128	0xbd8661b9	-0.06561608
129	0xbc5b58c8	-0.013387866
130	0x3e167b61	0.14695503
131	0x3e31a9ce	0.17349932
132	0xbc490639	-0.01226955
133	0x3dc765e9	0.09736235
134	0x3e072329	0.13197006
135	0xbde38353	-0.111090325
136	0x3e168012	0.14697292
137	0xbe2eed48	-0.17082703
138	0xbc0c3e76	-0.008559814
139	0xbddc4c53	-0.10756745
140	0xbb88c7f0	-0.004174225
141	0xbdf56b35	-0.11983339
142	0x3d89b205	0.06723408
143	0x3db743fe	0.08948515
144	0xbd789335	-0.060687263
145	0xbd2ed255	-0.042681057
146	0x3dcd5796	0.10026471
147	0xbd8009f1	-0.06251896
148	0xbd24c13d	-0.04022335
149	0xbd886dfb	-0.06661602
150	0xbe089b9e	-0.13340613
151	0xbe30f754	-0.17281848
152	0xbdc75661	-0.09733272
153	0x3d10b353	0.035327267
154	0xbdc03367	-0.09384804
155	0xbd0550bd	-0.0325477
156	0x3c85b47d	0.016321415
157	0xbe27c3ad	-0.16383238
158	0xbde89d8a	-0.11358173
159	0x3d7e7489	0.062122855
160	0x3d98f06d	0.074677326
161	0xbd16bf3c	-0.03680347
162	0x3d6764c1	0.05649257
163	0x3d9583d8	0.07300538
164	0x3c0ef794	0.008726019
165	0x3cb80471	0.022463055
166	0xbb651bae	-0.0034959125
167	0x3d5b391c	0.05352126
168	0xbe351e56	-0.17687353
169	0x3d97192a	0.073778465
170	0xbdf54f6a	-0.11978038
171	0xbe1441a9	-0.14478172
172	0xbde29aeb	-0.110647045
173	0x3d233680	0.039846897
174	0xbc9881df	-0.018616615
175	0xbdde4b5e	-0.10854219
176	0x3dd47d81	0.103755005
177	0x3c2a7a19	0.010405087
178	0x3d19727b	0.037462693
179	0xbd9843a5	-0.07434777
180	0x3e1a6760	0.15078497
181	0x3d81747e	0.06321047
182	0x3d9448a8	0.072404206
183	0x3c661845	0.014043872
184	0xbd28e217	-0.04123124
185	0x3d252e30	0.04032725
186	0x3ce89b5e	0.028394397
187	0xbd8a4663	-0.067517065
188	0xbe1ef560	-0.1552329
189	0x3df26eac	0.11837515
190	0xbe3fad01	-0.1871834
191	0x3c3de3af	0.0115899285
192	0x3d497fe2	0.049194224
193	0x3def182b	0.116745315
194	0x3c4731e6	0.012157893
195	0xbd8891c0	-0.066684246
196	0xbe2aefe3	-0.16693072
197	0x3dba5925	0.09099034
198	0x3de2f9e7	0.11082821
199	0x3d5c0a0f	0.05372053
200	0xbdb873bc	-0.090064496
201	0xbd1122ff	-0.035433766
202	0x3da8c9c0	0.08241606
203	0xbc6509cd	-0.0139793875
204	0x3d58e96c	0.052956983
205	0xbcbeddbc	-0.02329909
206	0x3d53dd81	0.051724914
207	0xbd7ef70a	-0.062247314
208	0x3b2fe95b	0.0026841972
209	0xbdd4b5d9	-0.10386247
210	0x3ccc16a9	0.024913149
211	0x3d736e50	0.059431374
212	0xbda3b3be	-0.079932675
213	0xbd86db33	-0.06584778
214	0xbe117eb0	-0.14208484
215	0x3dbfa9a3	0.093585275
216	0xbd69739f	-0.05699503
217	0x3de6d063	0.11270215
218	0x3cffdf45	0.031234393
219	0xbd85e462	-0.06537701
220	0x3c970776	0.018436175
221	0xbdb2e093	-0.087342404
222	0x3d612827	0.054969933
223	0x3d72183c	0.059105143
224	0xba25f8c0	-0.0006331317
225	0x3df062b7	0.11737578
226	0xbb0d4494	-0.0021555768
227	0xbd4b144a	-0.049579896
228	0x3e09caec	0.13456315
229	0x3e25191c	0.1612286
230	0xbd536114	-0.051606253
231	0xbdbe78bd	-0.09300373
232	0xbbc04741	-0.005867869
233	0x3e18cb3c	0.14921278
234	0x3b0c78c0	0.0021434277
235	0xbcb75f42	-0.02238429
236	0xbd3a0d2e	-0.045422725
237	0xbd2d773e	-0.042350046
238	0xbe11adb1	-0.14226414
239	0xbdbfc319	-0.09363384
240	0x3e38890f	0.18021034
241	0xbddd848c	-0.10816297
242	0x3d66afa2	0.05631984
243	0xbd2e550c	-0.042561576
244	0x3da1d52b	0.07901987
245	0x3bad1e48	0.005283151
246	0x3d93bc5b	0.0721366
247	0x3d7707ec	0.06031029
248	0x3ddd3e88	0.108029425
249	0x3dd5999d	0.1042969
250	0x3e442902	0.19156268
251	0xbce61606	-0.028086673
252	0xbdafd5bb	-0.08585688
253	0x3da81adb	0.08208247
254	0xbd6dadb7	-0.058026996
255	0xbd6b0fa2	-0.057387955

weight f4 [64, 64]
0	0xbd8ec8fd	-0.06971929
1	0x3c68d14f	0.014210059
2	0xbde5c53e	-0.112192616
3	0xbdae6df4	-0.08517066
4	0x3e1f373f	0.15548418
5	0xbe14778e	-0.14498731
6	0x3c90bfa3	0.017669505
7	0xbde8b5ca	-0.113627985
8	0xbdda6a15	-0.10664765
9	0xbd51b8ad	-0.05120151
10	0xbd840d9a	-0.06447907
11	0xbd5021a9	-0.05081335
12	0x3acb7e73	0.0015525356
13	0xbd244089	-0.040100608
14	0xbe08d1cc	-0.13361281
15	0xbd991ea9	-0.07476551
16	0x3d3196be	0.04335665
17	0xbda21fe2	-0.079162374
18	0xbd1f4280	-0.03888178
19	0x3e09805c	0.13427871
20	0xbd546e6f	-0.05186313
21	0x3b7268fe	0.003698885
22	0xbda6222d	-0.08111987
23	0x3cb93d08	0.02261211
24	0xbc87eb8b	-0.016591808
25	0x3d50fafd	0.05102061
26	0xbdc6f291	-0.097142346
27	0x3e0baa09	0.13639082
28	0xbc1ab046	-0.009441441
29	0x3d5a89a3	0.053353917
30	0x3c680357	0.0141609525
31	0xbd9fbdd7	-0.07799881
32	0x3df887a9	0.1213525
33	0x3e1719f8	0.14756
34	0x3cd4c57d	0.025973076
35	0xbddc427e	-0.1075487
36	0x3c719791	0.014745609
37	0xbcc145c9	-0.023592846
38	0x3ddc0c11	0.10744489
39	0xbe12597b	-0.14291947
40	0xbc0d830b	-0.0086372
41	0xbe059c03	-0.13047795
42	0xbdac592c	-0.08415446
43	0x3dadec5a	0.08492346
44	0x3d6b724a	0.05748204
45	0x3d959577	0.07303899
46	0x3bd875d0	0.006605841
47	0xbaf41045	-0.0018620571
48	0x3dfdb84c	0.123886675
49	0x3e00f11b	0.12591974
50	0x3d7b832c	0.061404392
51	0x3d28083e	0.041023485
52	0xbe0aebcb	-0.1356651
53	0x3d022be5	0.031780142
54	0xbd7ce2e7	-0.06173983
55	0x3dcf7b38	0.10130924
56	0xbd922967	-0.07136803
57	0xbdb82250	-0.089909196
58	0xbd03025b	-0.03198467
59	0xbde5232a	-0.11188348
60	0x39d59754	0.00040739274
61	0xbd084cf3	-0.03327651
62	0x3e21ffa8	0.15820181
63	0xbdca764a	-0.09885843
64	0xbdcb8208	-0.09936911
65	0x3d061571	0.032735292
66	0x3e27215f	0.16321324
67	0x3d0a5d87	0.0337806
68	0xbd227e53	-0.039671253
69	0x3d431a9b	0.047632795
70	0xbde9420d	-0.11389551
71	0x3dc7ddd5	0.09759108
72	0x3d0790c7	0.033097055
73	0xbd205b75	-0.03914972
74	0xbda8b716	-0.08238046
75	0xbcf6273f	-0.03004801
76	0xbdb9f3f1	-0.09079731
77	0x3d8a0709	0.06739623
78	0x3da7a8f7	0.08186524
79	0xbe1a4eb0	-0.1506908
80	0x3dc1313e	0.0943322
81	0xbd04467e	-0.03229379
82	0xbdac1490	-0.084023595
83	0xbc19c17a	-0.009384507
84	0xbd249246	-0.04017856
85	0xbd0007cb	-0.031257432
86	0x3dc4df0e	0.09612857
87	0x3d2136c3	0.039358865
88	0x3e1a3abb	0.15061466
89	0x3d4c3629	0.04985634
90	0xbdf778e6	-0.120836064
91	0x3e42f90e	0.1904032
92	0xbdee2c51	-0.116295464
93	0x3d4d7b6c	0.050166532
94	0x3d1024dd	0.035191406
95	0x3d90184b	0.070358835
96	0xbd2dab89	-0.042399917
97	0xbde00c81	-0.10939885
98	0x3d549d9b	0.051908117
99	0xbda0a4fb	-0.078439675
100	0x3d37e5c7	0.044896867
101	0x3abd4f67	0.0014443219
102	0x3d8c5035	0.06851236
103	0xbd7e53ab	-0.06209151
104	0x3db5c7b2	0.088759795
105	0xbcbfe562	-0.023424808
106	0xbc4cd32d	-0.01250152
107	0xbd86f657	-0.06589954
108	0xbd04b157	-0.032395687
109	0x3db613ee	0.0889052
110	0xbd8055f3	-0.062663935
111	0xbdb3bcc0	-0.087762356
112	0x3cd12e65	0.025534818
113	0xbd3d44dd	-0.04620825
114	0x3cafbec2	0.021453265
115	0x3dae18de	0.08500837
116	0x3d0da589	0.034581695
117	0x3dd99aab	0.10625204
118	0xbd396ec4	-0.04527165
119	0x3cb23757	0.021754904
120	0xbda843e1	-0.08216072
121	0xbde3b7ca	-0.11119039
122	0x3cd36efd	0.02580976
123	0x3d2003df	0.03906619
124	0x3e3c00cb	0.18359677
125	0x3df62432	0.120186225
126	0x3d8bfd49	0.0683542
127	0xbde066d8	-0.10957116
128	0xbd9d7e7d	-0.07690141
129	0x3cf0e80e	0.029407527
130	0xbd10a049	-0.03530911
131	0x3c84620d	0.016160036
132	0xbb124b1e	-0.0022322605
133	0xbda98a5c	-0.08278343
134	0xbdc0df26	-0.09417562
135	0x3da6e185	0.08148483
136	0xbc2e9dcf	-0.010657742
137	0xbd1207c5	-0.03565194
138	0x3d132d95	0.035932142
139	0xbd52c405	-0.05145647
140	0xbdca293b	-0.09871145
141	0x3d8cf737	0.0688309
142	0xbdb60942	-0.088884845
143	0xbde1209d	-0.109925486
144	0xbc174698	-0.009233139
145	0x3dc71c45	0.09722189
146	0x3d966bc5	0.07344774
147	0xbc2b13f1	-0.010441766
148	0x3d8dfb01	0.06932641
149	0xbd4325eb	-0.047643583
150	0x3d34dc9e	0.04415571
151	0x3ddb51a5	0.10708932
152	0x3cad52d2	0.021157656
153	0x3e2f34fe	0.17110059
154	0x3dbb5313	0.091467045
155	0x3d9aa002	0.0755005
156	0xbd01080f	-0.031501826
157	0x3da2f0ff	0.079561226
158	0x3daa4ea2	0.08315779
159	0xbd93f67f	-0.0722475
160	0x3dae955d	0.085245825
161	0xbe1b5f55	-0.15173085
162	0xbdefc875	-0.11708156
163	0x3be04710	0.006844409
164	0xbcae6907	-0.021290315
165	0x3da7d088	0.08194071
166	0x3da1964b	0.07889994
167	0x3cff0c8c	0.031133913
168	0x3dfcb0b4	0.12338391
169	0xbd8a8d3d	-0.0676522
170	0x3dd8281f	0.105545275
171	0x3d6fcce4	0.05854501
172	0x3cb3b445	0.021936545
173	0x3d8619e1	0.06547905
174	0xbdf4cb5f	-0.119528525
175	0xbd6264c3	-0.055271875
176	0x3dff76f0	0.124738574
177	0x3ce073e7	0.027399017
178	0xbd53c98c	-0.051705882
179	0xbe0c9dc1	-0.13732053
180	0xbe2233c5	-0.15840061
181	0x3b71e04b	0.003690737
182	0xbd3ad756	-0.045615517
183	0x3e08b2e6	0.13349494
184	0xbc956168	-0.018234923
185	0xbd887722	-0.06663348
186	0xbd885efd	-0.066587426
187	0xbdef79ac	-0.11693129
188	0xbd0e4803	-0.034736644
189	0x3d40f609	0.047109637
190	0x3d9bd288	0.07608515
191	0xbdabdeae	-0.08392082
192	0x3da85bdd	0.082206465
193	0xbd46efe4	-0.04856862
194	0xbcbb4978	-0.022862181
195	0xbe12b477	-0.14326654
196	0x3dadbc6e	0.08483206
197	0x3e07441c	0.13209575
198	0x3e2d4977	0.16922556
199	0x3e044f8e	0.12920973
200	0xbd71af34	-0.059004977
201	0xbd916011	-0.07098401
202	0x3d334da5	0.04377522
203	0xbcac374c	-0.021022461
204	0x3d7f93a1	0.06239665
205	0x3d6defb0	0.058089912
206	0x3b37e571	0.0028060342
207	0xbc4e22d2	-0.012581544
208	0xbe3fe38d	-0.18739147
209	0xbe05ba3f	-0.13059328
210	0xbdffe13f	-0.12494134
211	0x3d91abe4	0.07112864
212	0xbe2504b2	-0.16115072
213	0x3d0b0740	0.03394246
214	0xbd9a6fa8	-0.07540828
215	0x3c809548	0.015696183
216	0xbd6411a5	-0.05568089
217	0x3db86183	0.09002974
218	0xbdbbb4e0	-0.091653585
219	0xbd5e0a75	-0.05420919
220	0x3d6df174	0.058091596
221	0xbcf9da2b	-0.030499538
222	0xbcc60189	-0.024170654
223	0x3b095496	0.0020954958
224	0xbdb3e0a4	-0.08783081
225	0x3d6cc912	0.057808943
226	0xbbdfbf74	-0.006828243
227	0xbe24b80e	-0.16085836
228	0xbd2d1db9	-0.042264674
229	0xbd9e996e	-0.07744108
230	0xbe17a345	-0.14808376
231	0xbe041797	-0.12899624
232	0x3d3581da	0.04431329
233	0x3c6a3bee	0.014296515
234	0xbc313d72	-0.010817872
235	0xbc925416	-0.01786236
236	0xbcabcea3	-0.020972556
237	0x3da50c51	0.0805899
238	0x3dd65145	0.1046472
239	0x3e0b3b77	0.13596903
240	0xbca76cce	-0.020437624
241	0x3dabaed5	0.08382956
242	0xbd5a14d4	-0.05324252
243	0x3dc73b7e	0.09728144
244	0x3dd29822	0.10282923
245	0x3d920f74	0.07131854
246	0x3e285c7e	0.16441533
247	0x3d2bbf92	0.041930743
248	0x3c99a3b5	0.01875482
249	0xbdc354b5	-0.09537641
250	0x3ccf4608	0.025301948
251	0x3e259f65	0.16174085
252	0xbbc411a2	-0.0059835473
253	0xbdd8a6dc	-0.10578701
254	0xbe0a9203	-0.13532262
255	0x3db5385d	0.08848641

freqs f4 [8]
0	0x3f6f5c56	0.9350027
1	0x400b889a	2.1802125
2	0x404b380a	3.1752954
3	0x40820f63	4.0643783
4	0x40a8dcbe	5.276946
5	0x40c87de8	6.2653694
6	0x40eb8ff7	7.361324
7	0x4107bed7	8.484092

weight f4 [64, 8]
0	0x3e6c6190	0.23084092
1	0x3dbd5a3f	0.09245729
2	0x3d1fce32	0.039015003
3	0x3e54c06e	0.20776531
4	0xbe4a3a87	-0.19748889
5	0x3db6675a	0.089064315
6	0x3d5841ea	0.052797236
7	0x3cd7513d	0.026283855
8	0xbeb6350e	-0.35587353
9	0xbeaedd30	-0.34153128
10	0xbde9bece	-0.11413346
11	0xbe69c8d2	-0.22830513
12	0xbe9ea07a	-0.3098181
13	0xbdd0dc36	-0.10198252
14	0xbc9ac9b8	-0.018895015
15	0x3da2b7e4	0.079452306
16	0xbded068a	-0.11573513
17	0xbe21d1da	-0.15802708
18	0xbe13659c	-0.1439423
19	0x3e4ccd4c	0.2000019
20	0x3db36f0b	0.08761414
21	0x3ec14c42	0.37753493
22	0x3e0b2bf8	0.13590991
23	0x3e832259	0.25612143
24	0xbde5fe2f	-0.11230122
25	0xbe4da74e	-0.20083353
26	0x3e00c919	0.12576713
27	0x3e7c84a9	0.24659981
28	0xbdc88e35	-0.09792749
29	0x3da316f4	0.07963362
30	0xbe90cd6f	-0.28281733
31	0x3e185083	0.14874463
32	0xbed65c32	-0.41867214
33	0xbdd5659f	-0.10419773
34	0xbe01156c	-0.12605828
35	0xbe0c1efc	-0.13683695
36	0x3c999508	0.018747821
37	0xbe2a8ea1	-0.16655971
38	0x3ebe6252	0.37184387
39	0xbe195650	-0.14974332
40	0x3e422b39	0.189618
41	0xbe9af5d3	-0.30265674
42	0x3e595774	0.21224767
43	0x3e806d66	0.25083464
44	0xbe8928d9	-0.26788977
45	0xbdf0cb79	-0.11757559
46	0xbdb0e57b	-0.0863752
47	0xbd67d3c3	-0.056598436
48	0x3db7c8d4	0.08973852
49	0x3ea33e17	0.31883308
50	0xbd70acb4	-0.058758453
51	0x3da5e5d2	0.08100475
52	0xbe846599	-0.25858763
53	0xbe41fba6	-0.18943653
54	0xbe94f2ec	-0.29091585
55	0x3cbd1267	0.023080064
56	0xbc2d040e	-0.010560049
57	0x3eb39092	0.35071236
58	0x3e469ef2	0.1939657
59	0xbccc34ae	-0.024927463
60	0xbdfbd6d1	-0.12296832
61	0x3d283148	0.041062623
62	0xbe309db5	-0.1724766
63	0x3d85527c	0.06509873
64	0xbe006bd2	-0.1254113
65	0xbe30af26	-0.17254314
66	0x3d1a3a98	0.037653536
67	0x3d439973	0.047753762
68	0xbd5f7b48	-0.05456093
69	0x3c832b49	0.01601185
70	0xbe9acc58	-0.30234027
71	0xbdfe2c22	-0.124107614
72	0xbee9f7dc	-0.45696914
73	0x3eaaf656	0.33391064
74	0x3eac41b7	0.33643886
75	0xbe9fbee1	-0.31200317
76	0xbe67fa09	-0.22653975
77	0xbe8da1ca	-0.27662498
78	0x3e558dcb	0.20854871
79	0x3d978c44	0.073998004
80	0xbeefd512	-0.46842247
81	0xbde922ff	-0.11383628
82	0x3e955be8	0.2917168
83	0xbd0683ea	-0.032840647
84	0xbe906b64	-0.28206933
85	0x3e224ca8	0.15849555
86	0x3ead087b	0.33795533
87	0x3eae3631	0.3402572
88	0x3e4a6cea	0.1976811
89	0xbdf490dc	-0.11941692
90	0x3b4c2546	0.0031150146
91	0x3e9caf60	0.3060255
92	0x3dd1ea29	0.10249741
93	0xbe965bf4	-0.2936703
94	0x3e36a4b2	0.17836264
95	0x3dc4b1d2	0.09604229
96	0xbeddb8ba	-0.43304998
97	0xbe68d8ae	-0.22738907
98	0x3e8950c9	0.26819447
99	0x3e8df61d	0.27726832
100	0xbe9aaba9	-0.3020909
101	0x3df9ce22	0.1219752
102	0x3e6f2e1f	0.23357438
103	0x3d8618f9	0.06547732
104	0x3e89b283	0.26894006
105	0x3e040136	0.12891087
106	0x3e09c00e	0.1345217
107	0x3e1596dd	0.14608331
108	0xbd97b9f2	-0.07408513
109	0x3cc3c46d	0.023897374
110	0xbe00036a	-0.12501302
111	0xbdae0e29	-0.084987946
112	0x3e5a42d4	0.21314555
113	0xbe2eaa2f	-0.17057107
114	0x3dc10ccb	0.09426268
115	0x3e9dab8d	0.30794945
116	0x3d808e64	0.06277159
117	0x3ea12a2b	0.31477484
118	0xbd32640b	-0.04355244
119	0xbdb09684	-0.086224586
120	0x3edf7ff3	0.43652305
121	0xbe33d8d5	-0.17563184
122	0x3eb54f33	0.35411987
123	0x3eb42424	0.35183823
124	0xbe97c8cf	-0.29645392
125	0xbe078e67	-0.13237916
126	0x3e881a71	0.26582673
127	0xbd02c712	-0.03192813
128	0xbed0e465	-0.4079925
129	0x3d361e06	0.044462226
130	0xbede5935	-0.43427435
131	0xbc1738e1	-0.00922987
132	0x3d5e914e	0.054337792
133	0xbdeab1de	-0.11459707
134	0xbd668dd8	-0.056287616
135	0x3e161d72	0.1465967
136	0x3dca7329	0.09885246
137	0xbd4abc2a	-0.049495853
138	0xbe23bba3	-0.15989546
139	0x3d2717b2	0.040794082
140	0xbd05f00c	-0.03269963
141	0xbd838bd3	-0.06423154
142	0xbde18b34	-0.11012879
143	0x3d80e479	0.06293578
144	0xbedb2667	-0.42802736
145	0x3e01f3e6	0.12690696
146	0xbe3107f0	-0.17288184
147	0x3eabceda	0.33556253
148	0x3c23e4df	0.010003298
149	0x3e339cdb	0.17540304
150	0x3d898136	0.06714098
151	0xbdf681ff	-0.120365135
152	0x3ddefbff	0.10887908
153	0xbe929915	-0.28632417
154	0x3daccb2a	0.08437188
155	0x3eac0efa	0.33605176
156	0xbdc37642	-0.0954404
157	0x3eb5e391	0.35525182
158	0xbe88cf0f	-0.26720473
159	0x3e1de8f4	0.15420896
160	0x3e8bf409	0.27334622
161	0xbe10d39a	-0.1414322
162	0xbeb9ba22	-0.3627482
163	0xbe92c930	-0.2866912
164	0x3e2bb14f	0.16766857
165	0x3eb6b0d6	0.3568179
166	0xbe918144	-0.28418934
167	0xbe3faeab	-0.18718974
168	0x3e7f1a64	0.24912411
169	0xbd525562	-0.05135096
170	0xbea63380	-0.32461166
171	0xbd96c2e5	-0.07361392
172	0x3ddee59f	0.108836405
173	0xbebec85f	-0.37262246
174	0xbe30dd55	-0.17271931
175	0x3e1a2a08	0.15055096
176	0x3deebf4d	0.116575815
177	0xbe0c7dd2	-0.13719872
178	0x3ecf53cb	0.40493616
179	0x3d5c534d	0.05379038
180	0x3e4e3193	0.20136099
181	0xbce370ef	-0.027763812
182	0xbe1c8451	-0.1528485
183	0x3e80225c	0.25026214
184	0xbef3613b	-0.47535118
185	0x3dc9dfe7	0.09857159
186	0xbe4973d6	-0.19673094
187	0xbd2a2938	-0.041543216
188	0x3e89258c	0.26786458
189	0xbeab98e3	-0.3351508
190	0x3d0c2aca	0.034220494
191	0xbda6ffdf	-0.08154272
192	0x3ec9f57e	0.39445108
193	0xbe6e6842	-0.23281959
194	0xbdb5e83f	-0.08882188
195	0xbe53896f	-0.20657896
196	0x3e881179	0.2657583
197	0x3e8935bd	0.26798812
198	0xbcdabdc6	-0.02670182
199	0x3da559a2	0.08073737
200	0x3f08b476	0.5340036
201	0xbe74d3a9	-0.23908867
202	0x3dbfaeb0	0.09359491
203	0x3eb4b2a2	0.35292536
204	0xbe4ce8e5	-0.20010717
205	0xbe8a5a18	-0.2702186
206	0x3e936fdc	0.2879628
207	0x3e95e243	0.29274186
208	0x3e7d0ff2	0.24713114
209	0x3e8a27b8	0.26983428
210	0x3e20986a	0.15683141
211	0xbe5055b4	-0.20345193
212	0xbea66daf	-0.32505557
213	0x3cae2307	0.021256937
214	0xbe39668d	-0.18105526
215	0x3eb3e76f	0.35137507
216	0xbcbc2806	-0.022968303
217	0x3e554bb5	0.20829661
218	0xbc957189	-0.018242614
219	0xbda4e8cf	-0.08052217
220	0xbd8c1e39	-0.06841702
221	0xbe93576e	-0.2877764
222	0xbeaab1ee	-0.33338875
223	0xbdd8c2ff	-0.105840676
224	0xbee36845	-0.4441549
225	0xbe9caf6f	-0.30602595
226	0x3e397e4a	0.18114582
227	0xbe16000a	-0.14648452
228	0x3cd329e4	0.025776811
229	0xbcb43711	-0.021998914
230	0xbe7da54e	-0.2477009
231	0xbe0a9ce1	-0.13536407
232	0xbed2a1e4	-0.41139138
233	0x3d5474f5	0.05186935
234	0x3e8fee13	0.28111324
235	0xbc0e0ce4	-0.008670066
236	0x3dc8048f	0.097664945
237	0x3e534e1d	0.20635267
238	0x3e41eb3d	0.18937393
239	0x3d56846b	0.052372377
240	0xbe37b70c	-0.1794092
241	0x3e1640d5	0.14673169
242	0x3c894292	0.016755376
243	0x3e9cdf61	0.30639175
244	0xbda6805a	-0.0812995
245	0x3e909c36	0.2824418
246	0x3e3ddc61	0.18541099
247	0x3ea4dba0	0.3219881
248	0x3e3fb4e6	0.18721351
249	0x3d36a031	0.044586364
250	0xbd6ba8ab	-0.0575339
251	0x3e443707	0.19161616
252	0x3e82510b	0.25452456
253	0x3e7738bb	0.24142735
254	0xbeb6c17b	-0.3569449
255	0x3c9928eb	0.018696269

weight f4 [64, 64]
0	0x3e053436	0.13008198
1	0xbe09250a	-0.13393036
2	0xbe051d19	-0.12999381
3	0xbda1ffd4	-0.079101235
4	0x3ca2792f	0.019833175
5	0x3d5cf90a	0.05394844
6	0xbda64364	-0.081183225
7	0x3d266b23	0.040629517
8	0x3c7a2263	0.0152669875
9	0xbda20eb4	-0.07912961
10	0x3c95ab8f	0.018270282
11	0x3dd36502	0.10322
12	0x3cb4010c	0.021973155
13	0x3ca17d4d	0.019713068
14	0xbd932fb6	-0.071868345
15	0xbd0bcd7d	-0.034131516
16	0xbc79f14e	-0.015255285
17	0xbdc4028c	-0.09570798
18	0x3d0c7e33	0.03430004
19	0xbe0dd70c	-0.13851565
20	0xbda78885	-0.08180336
21	0x3ddebc0c	0.10875711
22	0x3d851348	0.06497818
23	0xbd93d412	-0.072181836
24	0xbb81978b	-0.003954833
25	0x3ca06f76	0.019584399
26	0x3c188d00	0.009310961
27	0x3ce3a01c	0.027786307
28	0xbe570f38	-0.21001899
29	0xbe0dc293	-0.13843755
30	0xbd8e3ac2	-0.06944801
31	0xbbbccce1	-0.005761728
32	0x3d9f68d8	0.07783669
33	0xbd8c8901	-0.06862069
34	0xbbdbfdd7	-0.0067136097
35	0x3d2d3194	0.04228361
36	0xbd8b6b5d	-0.06807587
37	0xbd71b147	-0.059006955
38	0x3b10aab5	0.0022074406
39	0xbe5965c2	-0.21230224
40	0xbb0d4ed7	-0.0021561885
41	0xbc1865c6	-0.009301608
42	0xbc24e4d0	-0.010064319
43	0xbdebb186	-0.11508469
44	0x3e28a3f1	0.16468789
45	0x3d595fa7	0.053069737
46	0xbe0ababc	-0.13547796
47	0x3d460e22	0.04835332
48	0xbe59c439	-0.21266259
49	0x3d59fd3c	0.05322002
50	0x3d222705	0.039587993
51	0x3e227137	0.158635
52	0x3dde41d9	0.10852403
53	0xbd04eb10	-0.032450736
54	0xbde79b93	-0.1130897
55	0xbe25e7e5	-0.16201742
56	0x3c88c414	0.01669506
57	0x3e034422	0.1281896
58	0xbb41a2ca	-0.0029546493
59	0xbd9b3244	-0.07577947
60	0x3d752b58	0.05985579
61	0x3e0c4b69	0.13700642
62	0x3d8b3372	0.06796922
63	0x3d5856a6	0.05281701
64	0x3dce8fe0	0.10086036
65	0x3d6e33a9	0.058154736
66	0x3de3e929	0.11128456
67	0x3d98b1a4	0.07455757
68	0x3d3acedf	0.045607444
69	0x3d9816c4	0.07426217
70	0x3c8cd8b5	0.017193178
71	0xbe0b285f	-0.13589619
72	0xbc2c8430	-0.010529563
73	0xbd0bcee0	-0.03413284
74	0xbbe117fc	-0.0068693142
75	0xbd90e0f7	-0.07074159
76	0xbe1a5ee2	-0.15075257
77	0x3db82026	0.08990507
78	0xbd94fe86	-0.07275109
79	0xbd9af15d	-0.07565568
80	0xbdc6a0fd	-0.09698675
81	0x3a91729f	0.0011096782
82	0xbdbd99c9	-0.09257848
83	0xbe038e74	-0.1284731
84	0xbc1c5463	-0.009541604
85	0x3dc3e086	0.09564309
86	0x3dffb9dc	0.12486622
87	0xbe44bdb7	-0.19212995
88	0xbcb6bfe8	-0.022308305
89	0xbccf8601	-0.025332453
90	0xbbd938dd	-0.006629093
91	0x3ae645aa	0.0017568369
92	0x3d9cbe9b	0.076535426
93	0xbd3ce9e3	-0.04612149
94	0x3dcba93c	0.09944388
95	0xbca37963	-0.019955343
96	0xbded1dd8	-0.11577958
97	0x3d155e0d	0.036466647
98	0x3d843eb0	0.06457269
99	0x3e39bb51	0.18137862
100	0xbdbbaf1a	-0.09164257
101	0xbcd71bb9	-0.026258336
102	0xbddbf6cb	-0.107404314
103	0xbdf00363	-0.11719396
104	0x3bf572b9	0.0074904826
105	0x3c393b01	0.0113055715
106	0x3d395999	0.045251463
107	0x3dd2e372	0.10297288
108	0xbd58e0ff	-0.052948948
109	0x3cdab78e	0.026698854
110	0xbdfa1434	-0.12210885
111	0xbcef18ba	-0.029186595
112	0x3d7021ee	0.058626108
113	0x3d81f432	0.06345405
114	0xbdd621ff	-0.10455703
115	0xbdd16c65	-0.10225753
116	0xbd81e102	-0.06341745
117	0xbdc9274a	-0.09821947
118	0xbe22ce0e	-0.15898916
119	0x3cff90a6	0.031196903
120	0x3bf1f6e8	0.00738417
121	0xbc61672e	-0.01375751
122	0x3d9eb0fc	0.07748601
123	0xbe0206e4	-0.12697941
124	0x3dc80665	0.09766845
125	0x3de1cee0	0.110257864
126	0x3d0f652f	0.035008606
127	0x3be00b1e	0.006837263
128	0xbde1a363	-0.11017492
129	0xbd90272b	-0.07038721
130	0x3db3e3ee	0.087837085
131	0xbe065c86	-0.13121232
132	0xbc8afabd	-0.016965264
133	0x3d43e91c	0.047829732
134	0xbd2c1c14	-0.042018965
135	0x3c1aea45	0.009455268
136	0xbd70b176	-0.05876299
137	0x3d0304b5	0.03198691
138	0x3c1a2f7e	0.009410737
139	0xbbdc242c	-0.006718179
140	0x3e2fbd98	0.17162168
141	0xbdc7fcae	-0.09764992
142	0x3da7774e	0.081770524
143	0xbe016991	-0.12637927
144	0xbdb84959	-0.08998365
145	0x3d5a1ae3	0.053248297
146	0xbd171a15	-0.03689011
147	0x3d99bc41	0.0750661
148	0xbb66d219	-0.0035220443
149	0xbe2885ff	-0.16457365
150	0xbe0a3b1d	-0.13499112
151	0x3de33cbe	0.1109557
152	0xbe0b9ea2	-0.13634732
153	0xbd2770df	-0.040879127
154	0x3cc5703b	0.024101367
155	0xbda6df32	-0.0814804
156	0x3e2e8b90	0.17045426
157	0xbc2d68ae	-0.01058404
158	0x3c8b8d8d	0.01703527
159	0xbad8eece	-0.0016550662
160	0x3df5216f	0.119692676
161	0xbe09f409	-0.13471998
162	0x3d07896a	0.033090033
163	0xbd9738e8	-0.07383901
164	0x3d9b12c9	0.07571942
165	0x3d1384fb	0.036015492
166	0xbd5f778c	-0.05455737
167	0x3e0b9484	0.13630873
168	0xbd346e1c	-0.04405032
169	0xbd27a145	-0.040925283
170	0x3c06f4e9	0.008237102
171	0x3d9f8fe0	0.07791114
172	0xbd192af2	-0.03739447
173	0x3d5c6920	0.053811193
174	0xbd7fbd1b	-0.062436204
175	0xbdbd9ef2	-0.09258832
176	0x3e0fdfd7	0.14050232
177	0xbd35e2ab	-0.04440562
178	0xbd2adb2e	-0.041712932
179	0x3cbe7570	0.023249358
180	0xbde1a629	-0.11018021
181	0xbd242f62	-0.04008425
182	0x3be49428	0.0069756694
183	0xbd9cc95b	-0.07655593
184	0x3d87f3fc	0.06638333
185	0x3da3d30d	0.07999239
186	0xbd3fd3f6	-0.046833
187	0xbd0a3b7f	-0.033748146
188	0xbe17db5a	-0.1482977
189	0xbde276f8	-0.11057848
190	0xbdc796f3	-0.09745588
191	0xbd0d28ff	-0.034462925
192	0x3d409170	0.0470137
193	0xbded0a37	-0.11574214
194	0x3d87f58d	0.06638632
195	0xbd67d25c	-0.0565971
196	0xbc7f2d71	-0.015574799
197	0x3d14dc92	0.036343165
198	0xbb44dd26	-0.0030039041
199	0x3ce5a2ce	0.028031733
200	0xbe00b3f6	-0.1256865
201	0xbdaa5ac3	-0.08318093
202	0x3db6e252	0.08929886
203	0x3c8e432a	0.01736601
204	0xbd8581f6	-0.06518929
205	0x3d832c1e	0.06404899
206	0x3ded8ff1	0.1159972
207	0x3e0add01	0.13560869
208	0xbe0b55c2	-0.13606933
209	0x3de7bec2	0.11315681
210	0xbe246393	-0.1605361
211	0xbddf2dd9	-0.108974166
212	0x3c29030d	0.010315669
213	0x3d03495f	0.032052394
214	0xbdc695c7	-0.096965365
215	0xbc2cdee7	-0.010551191
216	0x3d2d56c5	0.042319078
217	0x3d583893	0.05278833
218	0x3db8b4a6	0.09018831
219	0x3d87d7c9	0.066329546
220	0xbdedd893	-0.11613574
221	0x3cca4944	0.024693139
222	0x3daf5493	0.08561053
223	0xbc94c179	-0.018158661
224	0xbdcd8c79	-0.10036559
225	0xbd9c4c1f	-0.076317064
226	0xbd735268	-0.05940476
227	0xbc985ee9	-0.018599944
228	0xbe2a5519	-0.16634025
229	0xbe29d0dd	-0.16583581
230	0xbd964190	-0.07336724
231	0xbd9fbf5a	-0.07800169
232	0x3cbe4d41	0.023230197
233	0xbe0bdf4e	-0.13659403
234	0x3cb8aa9b	0.022542289
235	0xbc95ee3b	-0.018302074
236	0x3da9f5c4	0.08298829
237	0x3dbcdb14	0.09221473
238	0x3dc4284e	0.09578
239	0x3da6a579	0.0813703
240	0x3d65b97d	0.0560851
241	0x3d85c724	0.06532124
242	0xbce782cf	-0.028260617
243	0x3c652ec8	0.013988204
244	0x3d6b7b2b	0.05749051
245	0xbe063ec2	-0.13109878
246	0x3c84f6b3	0.016230917
247	0x3d2c9e8c	0.04214339
248	0xbdb28822	-0.087173715
249	0x3b546551	0.0032409022
250	0xbcfb82a9	-0.030701952
251	0x3d8453f8	0.06461328
252	0x3d109a61	0.035303477
253	0x3e09cd26	0.13457164
254	0x3ad87581	0.0016514511
255	0x3e233b6d	0.15940638

weight f4 [64, 64]
0	0xbd8cce56	-0.06875293
1	0x3dd16bbb	0.10225626
2	0x3e1aa2d1	0.15101172
3	0xbdc9e115	-0.09857384
4	0x3e3584b9	0.17726411
5	0x3c54746d	0.012967211
6	0xbdfc19dd	-0.123096205
7	0x3dff50c8	0.1246658
8	0x3e57a7c3	0.2106009
9	0xbe2e956c	-0.17049187
10	0x3d59f3ae	0.053210907
11	0xbc9e7cfd	-0.019346708
12	0x3d9d7724	0.0768874
13	0xbd0bee2d	-0.03416269
14	0x3d393acb	0.045222085
15	0x3cb42334	0.021989442
16	0x3d00a47e	0.031406872
17	0xbd3e55f6	-0.046468697
18	0x3d9c440f	0.07630169
19	0xbb73553a	-0.0037129656
20	0xbd9cac75	-0.07650081
21	0x3debde4e	0.11517011
22	0xbdaf02ae	-0.08545433
23	0xbd9579f8	-0.07298654
24	0x3deb21bc	0.11481044
25	0xbe2c87ea	-0.16848722
26	0x3c74248b	0.014901291
27	0x3db5006e	0.088379726
28	0x3b4f4e06	0.00316322
29	0x3dc11e0b	0.09429558
30	0x3e324b63	0.1741157
31	0xbda80737	-0.08204501
32	0xbe8981c2	-0.2685681
33	0x3d0b62ba	0.0340297
34	0x3da04a1c	0.07826635
35	0x3ccc9bc1	0.024976613
36	0xbcda6e34	-0.026663877
37	0x3cb23b85	0.021756897
38	0xbdf01d40	-0.11724329
39	0xbcbf211c	-0.023331217
40	0xbddd7cc0	-0.1081481
41	0xbe37fac9	-0.1796676
42	0xbe232833	-0.15933304
43	0xbdb9db93	-0.090750836
44	0xbdf5a8ea	-0.119951084
45	0xbc31c4d5	-0.010850151
46	0xbe12df3b	-0.14342968
47	0x3ddc5c02	0.107597366
48	0xbc9b6d48	-0.018973008
49	0xbe5b6d7f	-0.21428488
50	0x3b32a643	0.0027259744
51	0x3dd04140	0.101686954
52	0x3dfd846b	0.12378772
53	0xbda9d6ff	-0.082929604
54	0x3dce411c	0.100710124
55	0x3d3ab611	0.04558379
56	0xbc72e020	-0.014823943
57	0x3dffa6af	0.12482964
58	0xbc9ec74f	-0.019382147
59	0xbd5377f8	-0.051628083
60	0xbd2ee4ff	-0.042698856
61	0x3e8565a1	0.260541
62	0x3b9af11c	0.0047284495
63	0x3e05fc59	0.13084544
64	0xbd930745	-0.07179121
65	0xbaff1221	-0.0019460359
66	0x3d65e93a	0.056130625
67	0xbc80a5c8	-0.01570405
68	0x3d825e30	0.06365621
69	0x3d4e7e25	0.05041327
70	0xbd6a7a23	-0.057245385
71	0xbd273ced	-0.040829588
72	0x3da89416	0.0823137
73	0xbdb78172	-0.089602366
74	0xbdc647bd	-0.09681652
75	0xbe6d19cc	-0.23154372
76	0x3da76564	0.081736356
77	0xbd3df29b	-0.046373945
78	0xbd1fac80	-0.03898287
79	0x3d013741	0.031546835
80	0xbe40b3b3	-0.1881855
81	0xbc9fda5b	-0.0195133
82	0xbd9fd07f	-0.07803439
83	0xbe44c2c2	-0.19214919
84	0x3cbbf3d2	0.022943411
85	0x3de88f96	0.11355512
86	0x3d405da4	0.046964303
87	0x3dd37ec5	0.10326914
88	0x3d64514d	0.055741597
89	0xbca78530	-0.020449251
90	0x3d40c37c	0.04706143
91	0xbd9cff0e	-0.07665835
92	0xbdfa30f2	-0.12216367
93	0xbdd6b0a7	-0.104829125
94	0xbc0850f4	-0.008320082
95	0x3c8a7766	0.016902637
96	0x3e19c7ba	0.15017596
97	0x3e17dbda	0.1482996
98	0x3daaa44f	0.083321206
99	0x3e56d8c9	0.20981134
100	0x3da601dd	0.08105824
101	0x3e01f3c5	0.12690647
102	0xbdbef578	-0.09324163
103	0xbe4fb003	-0.20281987
104	0xbdb7adbe	-0.089686856
105	0x3d8ba854	0.068192154
106	0x3df0eaec	0.11763558
107	0xbe12d72f	-0.14339899
108	0xbd8861aa	-0.06659253
109	0xbdd52e6c	-0.10409245
110	0xbdcac9fe	-0.09901808
111	0xbd15f8c8	-0.03661421
112	0xbbf67596	-0.0075213416
113	0x3d183ce3	0.03716744
114	0xbc7304c3	-0.014832678
115	0x3ddef30f	0.108862035
116	0x3ce49848	0.027904645
117	0xba8eb6ea	-0.0010888253
118	0x3d029691	0.031881873
119	0xbd1c27ce	-0.0381239
120	0x3d5f304c	0.05448942
121	0x3d4bdea3	0.04977287
122	0x3d02934e	0.031878762
123	0xbcac3eb3	-0.021025991
124	0xbe06b593	-0.13155203
125	0x3d993c06	0.07482152
126	0x3dc86509	0.09784896
127	0xbd1dc259	-0.038515422
128	0xbd0e4ad9	-0.03473935
129	0xbd954c5c	-0.07289955
130	0x3d247886	0.040154003
131	0x3da07890	0.078354955
132	0xbe67f22c	-0.22650975
133	0x3d1dd0e4	0.03852929
134	0x3dd3018b	0.10303029
135	0x3d696c53	0.05698807
136	0x3c6a0108	0.014282472
137	0xbdab5c2b	-0.08367189
138	0x3da237c0	0.0792079
139	0x3dba74b1	0.09104288
140	0xbd67eda3	-0.056623112
141	0xbdb3daee	-0.08781992
142	0xbdfeca06	-0.12440877
143	0x3da8688a	0.08223064
144	0x3e0ed2fa	0.13947669
145	0xbd2d6373	-0.04233117
146	0x3d97afa1	0.074065454
147	0x3cd4742b	0.0259343
148	0x3c8f3e10	0.017485648
149	0xbde12e84	-0.109952
150	0x3d1f1d5a	0.03884635
151	0xbd83ba87	-0.06432062
152	0x3d0768ae	0.033058815
153	0xbd212577	-0.03934237
154	0xbe27fac5	-0.16404255
155	0xbd2ca0e3	-0.04214562
156	0x3dc77ab2	0.09740199
157	0x3db19812	0.08671583
158	0xbe388049	-0.18017687
159	0x3df91ae8	0.12163335
160	0xbc522e80	-0.012828469
161	0xbe396c8b	-0.18107812
162	0xbd4d3b12	-0.050105162
163	0xbe6b4823	-0.22976737
164	0xbdeac9a4	-0.11464241
165	0xbdb07d52	-0.08617653
166	0x3da87978	0.08226293
167	0x3e485fb6	0.19567761
168	0xbd92e3d9	-0.07172365
169	0xbe3c7fda	-0.18408147
170	0x3dcbff92	0.099608555
171	0x3e220314	0.15821487
172	0xbd8b588b	-0.068039976
173	0xbdb724d2	-0.0894257
174	0x3d619855	0.055076916
175	0xbd66af49	-0.05631951
176	0xbd04e983	-0.032449257
177	0x3e22676e	0.15859768
178	0xbb938b1a	-0.004502666
179	0xbcefb9aa	-0.029263336
180	0xbc26154e	-0.010136915
181	0x3d7761ee	0.060396127
182	0xbdc17004	-0.094451934
183	0x3e194e9c	0.14971393
184	0x3cce5caa	0.02519067
185	0x3d4fe4a3	0.050755154
186	0xbd97c0c0	-0.07409811
187	0x3d91a3de	0.07111333
188	0xbc50b7f4	-0.01273917
189	0xbda01918	-0.07817286
190	0x3e04ef41	0.12981893
191	0x3d5702b7	0.052492823
192	0x3de8d899	0.11369438
193	0xbd9b524c	-0.07584056
194	0x3c7fcc77	0.015612713
195	0x3cfd45df	0.030917106
196	0xbd09a329	-0.033602867
197	0xb9450a11	-0.00018791134
198	0x3dd6a935	0.104814924
199	0x3dad5af8	0.084646165
200	0xbe080058	-0.13281381
201	0x3d80c599	0.06287689
202	0x3cfbc0f7	0.030731661
203	0x3e53feea	0.20702711
204	0xbba2e965	-0.0049716705
205	0x3c3fc5f7	0.011704913
206	0xbc5997c4	-0.013280813
207	0x3d9a798f	0.07542717
208	0x3e016b49	0.12638582
209	0x3d867214	0.065647274
210	0x3e1c9450	0.15290952
211	0x3e6d1b71	0.23155
212	0xbe06f3a4	-0.13178879
213	0xbe3c592e	-0.18393394
214	0xbd8cd190	-0.068759084
215	0x3c1e7dc0	0.009673536
216	0x3d3152c4	0.043291822
217	0x3d1e8a51	0.038706128
218	0xbe197270	-0.1498506
219	0xbcd2ccb9	-0.025732385
220	0x3d0b3d4c	0.033994004
221	0x3cd64fde	0.02616113
222	0xbe4c9782	-0.1997967
223	0x3c8454a0	0.016153634
224	0x3c682470	0.014168844
225	0x3d678da5	0.056531567
226	0xbe03d9d1	-0.12876059
227	0xbe802578	-0.25028586
228	0x3c90a3d4	0.017656244
229	0xbc55304c	-0.013012003
230	0x3e0728bb	0.13199131
231	0x3b6a3963	0.0035739772
232	0xbdb8a9e2	-0.090167776
233	0x3e08328b	0.1330053
234	0x3e02508e	0.12726042
235	0x3e0c5917	0.1370586
236	0x3e1adf08	0.15124142
237	0x3de6f841	0.112778194
238	0xbb31d254	-0.0027133422
239	0xbd9596df	-0.07304167
240	0xbd343a63	-0.044000994
241	0xbd1c36f9	-0.038138364
242	0xbce5920b	-0.02802374
243	0x3c8dac8b	0.017294189
244	0xbc1f6b41	-0.009730161
245	0xbcee7715	-0.029109517
246	0xbd86262e	-0.06550251
247	0xbbe68d8a	-0.0070359157
248	0xbdbcb9b3	-0.09215107
249	0xbc90cc6c	-0.017675601
250	0xbd786c3f	-0.060650107
251	0xbd434dd3	-0.04768164
252	0xbdd05228	-0.1017192
253	0xbe075359	-0.13215388
254	0xbd56e779	-0.052466843
255	0x3d323660	0.043508887
