examples/carbon/outDir/epoch=3-step=1020-val_loss=0.2599.pt (torch, 752753 bytes, 92 tensors)

cutoff f8 []
0	0x4008000000000000	3.0

weight f4 [7, 64]
0	0x3f594515	0.84871036
1	0x3f312783	0.69200915
2	0xbea1cc6d	-0.31601277
3	0xc0075fc1	-2.1152194
4	0xbeb65675	-0.35612836
5	0x3edfdba8	0.43722272
6	0x3efb8c53	0.49130496
7	0xbe51000b	-0.20410173
8	0x3df56f77	0.11984151
9	0x3f9e6b93	1.2376579
10	0x3f8ef28e	1.1167772
11	0xbe7d367c	-0.24727815
12	0xbf8599a7	-1.0437516
13	0xbfac32f6	-1.3453052
14	0x3f490d11	0.7853556
15	0x3f7e2a99	0.9928375
16	0x3f194d8b	0.59883946
17	0xbfc70d5b	-1.5550951
18	0xbeaec6ca	-0.3413604
19	0x3fed2f4e	1.8530061
20	0x3eefaa55	0.4680964
21	0xbe217f5f	-0.15771244
22	0x3fb8c9db	1.4436601
23	0x3e8837a1	0.2660494
24	0x3fb1d6c0	1.3893661
25	0x3fcb0d00	1.5863342
26	0x3f72409c	0.94629836
27	0xbf57fb33	-0.84367675
28	0x3f6e8c30	0.9318266
29	0x3fa12737	1.2590092
30	0x4000519a	2.0049806
31	0x3d5c1b3a	0.053736903
32	0x3ee11fd0	0.43969584
33	0x3de637d6	0.112411186
34	0x3f240af8	0.64079237
35	0x3ee1df3c	0.44115627
36	0xbe5d0b42	-0.21586326
37	0xbf3e17a3	-0.74254817
38	0x3f100e82	0.5627214
39	0x3e84ede2	0.2596274
40	0x3f05da2f	0.52286047
41	0x40135755	2.3022053
42	0xbfbc04b7	-1.4688939
43	0xbfcb189e	-1.5866888
44	0x3f9a033c	1.2032237
45	0x3dad2087	0.0845347
46	0xbf999e2b	-1.2001394
47	0xbb9cd1ae	-0.004785738
48	0xbe6bdd10	-0.23033547
49	0xbec89408	-0.3917544
50	0x3f0b155d	0.5432947
51	0xbeca5217	-0.39515755
52	0x3e527552	0.20552567
53	0xbee6919f	-0.45032975
54	0xbf12b52e	-0.5730771
55	0xbf0e2bf8	-0.5553584
56	0xbfc3fdd9	-1.5311843
57	0xbf9df823	-1.234135
58	0x3fe8ecc2	1.8197253
59	0xbf0d30fc	-0.5515287
60	0xbfa9a448	-1.325326
61	0x3e411430	0.18855357
62	0xbd8d75fb	-0.069072686
63	0xbefd66db	-0.49492535
64	0xbfbd34ce	-1.478174
65	0x40244d8b	2.5672328
66	0xbef23cc2	-0.4731198
67	0x3eabcd4f	0.33555076
68	0x3fc12ae8	1.5091219
69	0x40053ec2	2.0819554
70	0x3fda7587	1.7067116
71	0x401857f1	2.3803675
72	0xbf8892d0	-1.0669804
73	0x3f8eb657	1.1149396
74	0xbe100c2c	-0.14067143
75	0x3f4e45de	0.8057536
76	0x3ea7bd10	0.3276143
77	0xbf42bdb5	-0.7607072
78	0xbfccaeb8	-1.599082
79	0x3c97715a	0.018486667
80	0x3f57865f	0.8418941
81	0xbeccd147	-0.40003416
82	0x3f850d17	1.039462
83	0x3eb75fd8	0.3581531
84	0xbb5885ca	-0.003303873
85	0xbf08d11b	-0.5344407
86	0x3f959790	1.1686878
87	0x3ec9fc44	0.39450276
88	0xbf85c1dc	-1.0449786
89	0xbf74dd3d	-0.9565008
90	0x3d0958b4	0.03353186
91	0x3f35c83c	0.7100866
92	0xbfc4844a	-1.5352871
93	0xbed34aae	-0.41267914
94	0x3f775fa7	0.9663033
95	0x3fcff8e5	1.6247832
96	0xc02740ad	-2.6133225
97	0xbfd92613	-1.6964744
98	0xbe69b837	-0.22824179
99	0x3e8f5643	0.279955
100	0x3d960206	0.07324605
101	0x3f8e8138	1.1133184
102	0x3e908555	0.28226724
103	0x3ede52d3	0.43422565
104	0x3ee9f40f	0.45694014
105	0xbf5d88fa	-0.86537135
106	0x3f4803cc	0.78130794
107	0xbf6d4212	-0.9267894
108	0x3e535ecc	0.20641631
109	0xbeaab9ae	-0.33344787
110	0xbedb8f9b	-0.42883
111	0x3e6e8222	0.23291829
112	0x3f766799	0.9625183
113	0x3eb2c62e	0.34916824
114	0xbf6be4ef	-0.921462
115	0xbd662c81	-0.056194786
116	0xbf33970d	-0.7015236
117	0x3f84b227	1.0366868
118	0xbf1a8a20	-0.6036701
119	0xbfa3ae94	-1.2787652
120	0x3dfdc095	0.12390248
121	0x3f9517a0	1.1647835
122	0x3f6c6235	0.9233735
123	0x3fb192e4	1.3872952
124	0x3fb0013e	1.3750379
125	0x3f28dd95	0.6596311
126	0x3ef3ff4b	0.4765571
127	0xbf82165d	-1.0163075
128	0x3f1c40db	0.6103646
129	0x3eef0b5c	0.46688354
130	0x3ff9af22	1.9506571
131	0xbf88139d	-1.0630985
132	0x3f91f703	1.1403507
133	0xbdb81417	-0.08988207
134	0x3f3ad3ed	0.72979623
135	0xbfec336a	-1.845319
136	0xbdd115f1	-0.10209263
137	0xbf844b50	-1.0335484
138	0xbea01232	-0.31263882
139	0x3e7baf30	0.24578547
140	0x3ec11dfd	0.37718192
141	0x3f8cf543	1.1012348
142	0xbf92468b	-1.1427778
143	0x3d19f325	0.037585396
144	0x3e93c041	0.28857616
145	0x3ec5f024	0.38659775
146	0xbe4de3b3	-0.20106392
147	0xbdf183b4	-0.117926985
148	0xbf545163	-0.82936686
149	0xbfb420fc	-1.4072566
150	0x3fd03c83	1.6268467
151	0x3e306863	0.1722732
152	0xbf344c9c	-0.70429397
153	0x3ea1231b	0.31472096
154	0x3e212b9a	0.15739289
155	0x3ec54e43	0.3853627
156	0x3f12db07	0.5736546
157	0x3f7f786d	0.9979313
158	0x3f0b29fd	0.54360944
159	0x3da16432	0.07880439
160	0x3f7f9ada	0.9984566
161	0xbeff578b	-0.49871477
162	0x3f42d82a	0.7611109
163	0x3f1e48f7	0.61830086
164	0xbe9948ec	-0.29938447
165	0xbe4048e5	-0.18777807
166	0x3ff53c22	1.9158976
167	0x3f30b0a4	0.6901953
168	0xbea0c932	-0.314035
169	0xbf8a131b	-1.078708
170	0x3e769708	0.24081051
171	0xbfb2b793	-1.3962272
172	0x3de88e01	0.1135521
173	0x3f8d67a7	1.1047257
174	0xbfb294ff	-1.395172
175	0x3ef342c3	0.47511873
176	0x3f8a6096	1.0810726
177	0x3e06a22f	0.13147806
178	0x3fc969b4	1.5735383
179	0x3f480bcb	0.78142995
180	0x3f7cc8a5	0.9874366
181	0xbfbe707a	-1.4878075
182	0x3f163126	0.58668745
183	0x3e22182e	0.15829536
184	0x3f2ab22a	0.66678107
185	0xbf7e9052	-0.99438965
186	0xbf983d14	-1.189364
187	0xbf9914df	-1.1959494
188	0x3fa7ec14	1.311892
189	0xbe56e005	-0.20983894
190	0x3f481f8b	0.7817313
191	0x3f7d5c7e	0.98969257
192	0x3e2fa092	0.17151096
193	0x3f604478	0.87604475
194	0xbe92fd1f	-0.2870874
195	0x3f82c51a	1.0216401
196	0xbf02d5bb	-0.51107377
197	0xbfdb5b6f	-1.7137278
198	0xbf02939b	-0.5100648
199	0xbef32531	-0.47489312
200	0x3f298acb	0.66227406
201	0xbf9a681e	-1.2063024
202	0x3f1b812b	0.6074397
203	0xbf0c1278	-0.5471568
204	0xbf8cdc84	-1.1004796
205	0xbf385a47	-0.7201275
206	0x3c43782c	0.011930507
207	0x3eadf6b7	0.3397729
208	0xbfa077c2	-1.2536547
209	0x3f7ca14a	0.9868361
210	0xbefd436d	-0.49465504
211	0xbfa43ac1	-1.283043
212	0x3ee096a1	0.4386492
213	0xbc2f6009	-0.010704049
214	0x3fab4f31	1.3383542
215	0xbe8f0e2d	-0.27940503
216	0x3e934ddc	0.2877034
217	0xbd08b3ff	-0.033374783
218	0xbf87ebf6	-1.0618885
219	0xbdea5845	-0.11442617
220	0x3e481514	0.1953929
221	0xbf3cb335	-0.7371095
222	0x3fd99ced	1.7001015
223	0x3eb1432a	0.34621555
224	0xbe143b30	-0.14475703
225	0x3f233aec	0.6376178
226	0xbe900546	-0.28129023
227	0xbfaa3959	-1.3298751
228	0xbf275f69	-0.6537996
229	0x3fdc2332	1.7198241
230	0xbf76012c	-0.9609554
231	0xbf23335d	-0.6375025
232	0xbf631005	-0.8869632
233	0x3f56b9f0	0.8387747
234	0x3f939211	1.1528951
235	0xbfe16baa	-1.7610981
236	0xbf8db373	-1.1070389
237	0xbfdbd27e	-1.7173612
238	0x3fc46c7f	1.534561
239	0xbb521f4c	-0.0032062111
240	0x3fb85d22	1.4403422
241	0xbde27f35	-0.11059419
242	0x3f13ad1d	0.57686025
243	0xbe2d3bf9	-0.16917409
244	0x3f9826a3	1.1886791
245	0xbe21499a	-0.15750733
246	0xbd3a86ab	-0.045538586
247	0x3f26025b	0.64847344
248	0xbf5ee90d	-0.8707436
249	0x3e14377b	0.14474289
250	0x3ff390cd	1.9028565
251	0x3ec7e1f5	0.3903958
252	0x3d076dbb	0.03306363
253	0xbf830067	-1.0234498
254	0x3f3bc767	0.7335114
255	0x3f8f1172	1.1177199

weight f4 [64, 64]
0	0x3e26ffff	0.16308592
1	0x3e122479	0.14271726
2	0xbe47fbc3	-0.19529633
3	0xbe09b8a7	-0.13449346
4	0x3df46946	0.11934142
5	0xbd2bd96e	-0.041955404
6	0xbcd432ca	-0.025903124
7	0x3df1f81d	0.11814902
8	0xbe6cf008	-0.2313844
9	0x3d4a18c5	0.04934003
10	0x3dfd219b	0.12359925
11	0x3e41ff03	0.18944936
12	0x3e804290	0.25050783
13	0x3e3393a6	0.17536792
14	0xbd0c2a55	-0.03422006
15	0xbdf40940	-0.11915827
16	0x3defae8d	0.11703215
17	0x3e121734	0.14266664
18	0xbdce54d5	-0.10074774
19	0xbb867b41	-0.0041040485
20	0xbd6c0378	-0.057620496
21	0xbe0f4b5a	-0.13993588
22	0x3e1890c4	0.14898974
23	0x3d91528b	0.07095822
24	0x3e18578c	0.14877146
25	0x3dccc745	0.09998945
26	0x3e0542d3	0.13013773
27	0x3d3fcdab	0.046827
28	0xbcc5d895	-0.024151126
29	0x3d327267	0.043566134
30	0x3ce76a23	0.028248852
31	0xbd316b33	-0.043315124
32	0x3e514aa3	0.20438628
33	0xbd89abcf	-0.06722223
34	0xbdd85e29	-0.105648346
35	0xbc154ea1	-0.009112985
36	0xbd13b08c	-0.03605704
37	0xbe70ce0a	-0.23516098
38	0x3dbf4847	0.09339958
39	0xbe2d500c	-0.16925067
40	0x3dd99904	0.106248885
41	0xbd6db396	-0.058032595
42	0x3e354264	0.17701107
43	0x3db8a928	0.09016639
44	0x3e10d2fc	0.14142984
45	0xbcc48bf5	-0.023992518
46	0x3c929800	0.017894745
47	0x3dc7dbdc	0.09758732
48	0x3dd656af	0.10465752
49	0x3db4ef54	0.08834711
50	0xbdb918e8	-0.090379536
51	0xbe0a6442	-0.13514808
52	0xbe03df2d	-0.12878104
53	0xbe286914	-0.16446334
54	0xbd420918	-0.047371954
55	0x3e493971	0.19650818
56	0xbe1bee70	-0.15227675
57	0xbe54d70b	-0.20785157
58	0x3a5c0a55	0.00083938736
59	0x3d31f7a6	0.043449067
60	0xbda2afea	-0.07943709
61	0xbe3aaffc	-0.18231195
62	0x3ce6e275	0.028184155
63	0xbe406d1d	-0.18791623
64	0xbdc3160a	-0.09525688
65	0xbcf9fb5b	-0.030515363
66	0x3e1c9ac7	0.15293418
67	0xbcafe640	-0.021472096
68	0x3bcb2813	0.0061998456
69	0xbd1d5677	-0.038412537
70	0x3d339808	0.04384616
71	0xbd7a53c1	-0.06111503
72	0xbce250a5	-0.027626345
73	0xbe0347b1	-0.12820317
74	0xbda2b6f9	-0.079450555
75	0xbdf526c2	-0.11970283
76	0xbd471845	-0.04860713
77	0xbd0114bc	-0.031513914
78	0x3e3b3307	0.18281184
79	0x3b931210	0.004488237
80	0xbde5276d	-0.111891605
81	0xbcc65e43	-0.02421487
82	0x3e095603	0.13411717
83	0xbc8b1489	-0.016977565
84	0x3d4aaccf	0.04948121
85	0x3db482f3	0.08814039
86	0xbe043fdf	-0.1291499
87	0x3dc33359	0.09531278
88	0xbdcca153	-0.09991708
89	0xbdd34d17	-0.10317438
90	0x3da9fc44	0.08300069
91	0xbdb9a578	-0.09064764
92	0xbcb130d8	-0.021629736
93	0xbdc504aa	-0.0962003
94	0xbbec0fb0	-0.0072040185
95	0xbd2004ff	-0.039067265
96	0x3d6713ee	0.05641549
97	0xbdccdfab	-0.10003599
98	0xbb92a6eb	-0.0044754646
99	0x3e0c6f0d	0.13714238
100	0x3d3ecf95	0.046584684
101	0x3c506c27	0.012721098
102	0xbe28243e	-0.16420075
103	0x3dd00dd8	0.101588905
104	0x3d18b773	0.037284326
105	0x3d4462e9	0.04794589
106	0xbe0996d5	-0.13436444
107	0x3d2d5b59	0.042323444
108	0xbe3f4874	-0.18679982
109	0x3ccc9992	0.024975572
110	0x3cf20da7	0.029547526
111	0xbdf2a78d	-0.11848364
112	0x3d563ecf	0.052305993
113	0xbd0239fd	-0.031793583
114	0xbb704696	-0.0036663166
115	0xbd1c66f0	-0.038184106
116	0xbcf81dcf	-0.030287651
117	0x3d66e870	0.056374013
118	0x3d958488	0.07300669
119	0xbdf5c617	-0.12000673
120	0x3d9663de	0.07343267
121	0x3c12eee3	0.008968088
122	0x3cb28d5b	0.02179592
123	0xbe0114d2	-0.12605599
124	0xbdb2cf8d	-0.087309934
125	0x3e062a6c	0.1310212
126	0x3d2ae6ee	0.041724138
127	0x3e16d25e	0.14728686
128	0x3c357776	0.011075845
129	0x3d1f350d	0.038868953
130	0xbd9dd07a	-0.077057794
131	0xbd9869f8	-0.07442087
132	0x3db5529c	0.08853647
133	0xbe449ac2	-0.1919966
134	0x3cf58795	0.029971877
135	0x3dfa4d6f	0.122218005
136	0xbe4b39a2	-0.19846204
137	0x3d9dc34d	0.07703266
138	0x3dc95b48	0.09831864
139	0x3dba38ee	0.0909289
140	0x3e4a03ec	0.19728059
141	0xbca38ee4	-0.019965596
142	0xbddf37d5	-0.10899321
143	0xbd6802b1	-0.05664319
144	0xbdb47478	-0.08811277
145	0x3db9390e	0.090440854
146	0x3d32fb14	0.043696478
147	0x3e1cac73	0.15300159
148	0xbdf4d81c	-0.11955282
149	0xbe1e08a6	-0.15432987
150	0xbc0cf9dc	-0.008604493
151	0xbcc9cbbf	-0.024633287
152	0x3b13de2e	0.002256285
153	0xbd7978d9	-0.060906265
154	0xbe1464a0	-0.1449151
155	0xbdc334b3	-0.09531536
156	0xbde009e5	-0.10939387
157	0x3d6a5e92	0.057219096
158	0x3e160932	0.14651945
159	0xbd007195	-0.03135832
160	0x3e29a95f	0.16568516
161	0xbd7b2dfe	-0.06132316
162	0x3d9b60eb	0.07586845
163	0xbe54b918	-0.20773733
164	0xbe4b56ca	-0.19857326
165	0xbd624806	-0.05524447
166	0x3e0b36dc	0.13595146
167	0xbe41080e	-0.18850729
168	0x3b93d177	0.004511054
169	0xbe335e5c	-0.17516464
170	0x3e3ceb04	0.18449026
171	0x3ccdabf1	0.025106402
172	0x3d3822d2	0.044955082
173	0xbd22d56d	-0.03975432
174	0x3e020eee	0.12701008
175	0x3e52250c	0.20521945
176	0x3d919b05	0.07109646
177	0x3e05fc98	0.13084638
178	0x3d9d6afb	0.076864205
179	0xbdaba63e	-0.083813176
180	0xbd185ecd	-0.037199784
181	0x3cb25126	0.02176721
182	0xbd876284	-0.06610587
183	0xbd3b12c1	-0.045672182
184	0xbdae58c4	-0.085130244
185	0x3d5c8677	0.053839173
186	0x3db91193	0.09036555
187	0x3e2e27e2	0.17007402
188	0x3e129557	0.14314781
189	0xbda3599f	-0.07976078
190	0x3e007c15	0.12547334
191	0xbdd3ea61	-0.103474386
192	0x3dcb115c	0.099154204
193	0x3e7e3f44	0.24828821
194	0xbdd67c0b	-0.10472878
195	0xbe997628	-0.2997296
196	0x3eaddc8c	0.33957326
197	0xbe4a4464	-0.19752651
198	0xbe49b790	-0.1969893
199	0x3e714fe1	0.23565628
200	0xbe196067	-0.14978181
201	0x3dea4da6	0.114405915
202	0x3e4d9967	0.2007805
203	0x3e49fdb0	0.1972568
204	0x3db304d1	0.08741153
205	0x3d883d26	0.06652288
206	0xbe07f074	-0.1327532
207	0x3bac2981	0.005253971
208	0x3e6cbeb3	0.23119621
209	0x3e877e32	0.26463467
210	0xbddf74ce	-0.109109506
211	0x3d6abfa7	0.05731168
212	0x3e872f14	0.26403105
213	0xbd92d418	-0.0716936
214	0x3e488187	0.19580661
215	0x3e651d6b	0.22374503
216	0x3eaae877	0.33380482
217	0x3e560bd2	0.20902947
218	0x3e760849	0.24026598
219	0x3e65d270	0.22443557
220	0xbe5aeabf	-0.21378611
221	0x3d459def	0.04824632
222	0x3e35a704	0.17739493
223	0x3da4bb97	0.080435924
224	0x3d84e32e	0.064886436
225	0xbe396263	-0.18103938
226	0xbcd85784	-0.026408918
227	0xbea8bfbc	-0.32958782
228	0xbe32f486	-0.17476091
229	0xbea5976b	-0.32342085
230	0x3de82fab	0.11337217
231	0xbe3d6e47	-0.18499099
232	0x3cd34f0a	0.025794525
233	0xbde183be	-0.11011456
234	0x3ea2171f	0.31658265
235	0x3e9ccdea	0.3062585
236	0x3e194b71	0.14970185
237	0xbd90a697	-0.070630245
238	0x3e3fdb3c	0.18735975
239	0x3ea52e62	0.3226195
240	0x3e14d739	0.14535226
241	0x3d9e382f	0.0772556
242	0xbde1a19f	-0.11017155
243	0xbe1af6c1	-0.15133192
244	0x3cb3be41	0.021941306
245	0xbe9555ea	-0.2916711
246	0xbe0f4e20	-0.13994646
247	0x3e6e94af	0.23298906
248	0xbe862b7e	-0.26205057
249	0xbe81b659	-0.25334433
250	0x3cd24299	0.025666522
251	0x3e7df7e6	0.24801597
252	0x3df70fcb	0.12063559
253	0xbd6ec592	-0.058293886
254	0x3e8c4bbd	0.27401534
255	0xbe797b1b	-0.24363367

weight f4 [64, 64]
0	0x3d713ba9	0.058894787
1	0xbe1901f5	-0.14942153
2	0xbe32a26a	-0.17444769
3	0xbe3814d0	-0.1797669
4	0x3d918690	0.07105744
5	0xbd8e2178	-0.069399774
6	0xbe3133e0	-0.17304945
7	0xbc6a1715	-0.01428773
8	0xbdd2eff2	-0.10299672
9	0x3d6bfcce	0.05761414
10	0xbcb0eea0	-0.02159816
11	0x3e0fb382	0.1403332
12	0xbe950373	-0.29104194
13	0x3c2ebe99	0.010665559
14	0xbe2bffe6	-0.16796836
15	0xbe01438f	-0.12623428
16	0x3e64fd23	0.22362189
17	0x3df35e66	0.118832394
18	0x3db6f397	0.0893318
19	0x3d5dc4c2	0.05414272
20	0x3df37680	0.118878365
21	0xbd70cc1d	-0.058788408
22	0x3cb38bf7	0.021917326
23	0xbd30eca7	-0.04319444
24	0x3d250121	0.04028428
25	0x3c5a60b4	0.01332872
26	0x3da256f4	0.07926741
27	0x3c8a0085	0.01684595
28	0x3da4c291	0.08044923
29	0x3caab922	0.020840231
30	0xbe1dfc65	-0.15428312
31	0x3c393751	0.011304692
32	0xbcf43d60	-0.029814422
33	0xbd68393d	-0.05669521
34	0xbe7dda0e	-0.24790213
35	0xbd5d8ff5	-0.054092366
36	0xbd7aca56	-0.06122812
37	0xbd7b64e6	-0.06137552
38	0xbd0e3c0d	-0.034725238
39	0xbe0cc930	-0.13748622
40	0xbde88e77	-0.11355298
41	0xbe10a1b2	-0.14124182
42	0x3d10aba0	0.035319924
43	0x3dffa5e6	0.124828145
44	0x3cd00c32	0.02539644
45	0xbd340fde	-0.043960445
46	0x3dbd0daf	0.092311256
47	0xbe092f77	-0.13397013
48	0x3dd010c2	0.10159446
49	0x3dcf5489	0.10123546
50	0xbe238eaf	-0.15972398
51	0xbdf6e1ad	-0.12054763
52	0xbdef2104	-0.11676219
53	0xbe068d16	-0.13139758
54	0xbde87e43	-0.113522075
55	0xbce25044	-0.027626164
56	0x3c404742	0.011735739
57	0x3cf998eb	0.030468425
58	0xbe2f4035	-0.17114337
59	0xbda30129	-0.07959206
60	0x3e6ae20d	0.22937794
61	0xbd36b9b1	-0.044610683
62	0x3b9079bd	0.0044090436
63	0x3d4a702e	0.04942339
64	0xbd56887a	-0.052376248
65	0x3d4426ba	0.047888495
66	0xbd705bb8	-0.05868122
67	0x3d792d61	0.060834292
68	0x3e22182b	0.15829532
69	0xbc47663f	-0.012170373
70	0x3c1e953a	0.009679133
71	0x3d977e31	0.07397116
72	0xbe044b41	-0.12919332
73	0x3bab4b97	0.005227517
74	0x3c96a90b	0.018391153
75	0x3d6fe43f	0.05856728
76	0x3dc72d4e	0.09725438
77	0x3d85cd0e	0.06533252
78	0xbc93b065	-0.018028447
79	0x3d6f9dd0	0.05850011
80	0x3b8f183d	0.004366903
81	0xbd70f401	-0.05882645
82	0x3d0eb05f	0.03483617
83	0xbdd4d50e	-0.103921995
84	0x3e473bbe	0.19456384
85	0x3d4c0696	0.04981097
86	0x3e031896	0.12802348
87	0xbd050666	-0.032476805
88	0x3d0dd62e	0.034628086
89	0x3dd926cb	0.10603102
90	0xbd9ba7b3	-0.076003455
91	0x3e03c2fb	0.12867348
92	0x3d71fddd	0.059079994
93	0x3d75a547	0.059972074
94	0x3c33f325	0.010983263
95	0x3dab5b35	0.08367006
96	0xbd96d7e8	-0.073653996
97	0x3d8f53d5	0.069984116
98	0x3de4983f	0.11161851
99	0xbd4e8758	-0.050422043
100	0xbdcc5ecd	-0.09979019
101	0xbd1b5738	-0.037924975
102	0x3e25fac6	0.16208944
103	0x3d9aba4d	0.07555065
104	0xbdbf1c9e	-0.0933163
105	0xbe4791a9	-0.19489159
106	0xbd6d5f81	-0.057952408
107	0xbe036a3e	-0.12833497
108	0x3df2f51a	0.11863156
109	0xbda0e603	-0.07856371
110	0x3df68b2f	0.12038266
111	0x3cd6d582	0.026224855
112	0xbe1d1c25	-0.15342768
113	0x3bdf0ca0	0.006806925
114	0x3d98977b	0.074507676
115	0x3cb3b398	0.021936223
116	0x3da4ecd9	0.080529876
117	0x3c7cfa8b	0.0154405935
118	0xbcb7a8ef	-0.022419421
119	0xbdc5e631	-0.09663046
120	0x3d45c5ca	0.04828433
121	0xbde29cb9	-0.11065049
122	0x3da6a19e	0.08136295
123	0x3cec1df4	0.028822877
124	0x3e4b4d6e	0.19853756
125	0xbdb326f6	-0.087476656
126	0x3b7b6eb2	0.003836554
127	0xbdb7bb69	-0.089712925
128	0xbd63018d	-0.0554214
129	0x3ba30959	0.0049754796
130	0x3e06a800	0.13150024
131	0x3e1e5eb5	0.15465815
132	0x3bb31971	0.0054656793
133	0x3da30713	0.07960334
134	0x3dd967d0	0.10615504
135	0xbdbe60b2	-0.09295787
136	0x3dfe586f	0.12419211
137	0xbe1e3194	-0.154486
138	0x3baf6634	0.0053527597
139	0xbdb523ee	-0.08844744
140	0x3c93c4bd	0.018038148
141	0xbdcfdf9d	-0.10150073
142	0x3d401e30	0.04690379
143	0x3d94872c	0.072523445
144	0xbd3d135f	-0.04616105
145	0xbce98701	-0.028506758
146	0x3db19218	0.08670443
147	0xbd4467cb	-0.047950547
148	0xbcb48cc1	-0.022039773
149	0xbdaa75e1	-0.08323265
150	0xbdee07af	-0.11622559
151	0xbe1fdc87	-0.15611468
152	0xbda4e03d	-0.080505826
153	0x3d4de82d	0.05027025
154	0xbda18055	-0.078858055
155	0xbc26800e	-0.010162367
156	0xbae2aa7f	-0.0017293243
157	0xbe146ff3	-0.1449583
158	0xbdc3ef6b	-0.0956715
159	0x3d9dfdd6	0.07714431
160	0x3db5eca2	0.08883025
161	0xbd5c4d0c	-0.053784415
162	0x3d30c45f	0.043156024
163	0x3d626a9c	0.055277452
164	0xbc1e87e9	-0.009675958
165	0x3bb5aa4d	0.005543983
166	0x3c517e84	0.012786511
167	0x3d1d5366	0.038409613
168	0xbe2744a4	-0.16334778
169	0x3d5d6a61	0.05405653
170	0xbdcc164a	-0.09965189
171	0xbe03c05b	-0.12866347
172	0xbdbbb27f	-0.09164905
173	0x3d1b323b	0.0378897
174	0x3ac1653f	0.0014754905
175	0xbdb402d7	-0.08789604
176	0x3df677e8	0.12034589
177	0x3cfed4d1	0.031107338
178	0x3cb4fd4a	0.022093434
179	0xbdbba42c	-0.09162173
180	0x3e0a3dc1	0.1350012
181	0x3d433e20	0.04766667
182	0x3d567434	0.052356914
183	0x3ce55978	0.027996764
184	0xbd7e968f	-0.062155303
185	0x3cb734d2	0.022364054
186	0x3d320af1	0.043467466
187	0xbd483b08	-0.04888442
188	0xbe0dc991	-0.13846423
189	0x3dc5ef03	0.096647285
190	0xbe3077ba	-0.17233172
191	0xbbbb5bdb	-0.005717737
192	0x3d810b78	0.063010156
193	0x3e0ae187	0.13562594
194	0x3a56020c	0.0008163757
195	0xbda65fd3	-0.08123746
196	0xbe1db77f	-0.1540203
197	0x3daf7eac	0.085690826
198	0x3dc2d0ff	0.09512519
199	0x3d920ee7	0.07131749
200	0xbddc48fe	-0.1075611
201	0xbcd183dd	-0.025575573
202	0x3dc89ae0	0.09795165
203	0x3b0ec1c9	0.0021782985
204	0x3d642911	0.055703226
205	0xbc52665c	-0.012841787
206	0x3d16f014	0.03685005
207	0xbd9c6987	-0.07637315
208	0x3c426658	0.011865221
209	0xbdb9d851	-0.09074462
210	0x3b9b04b2	0.0047307843
211	0x3d965b9d	0.073416926
212	0xbd99e064	-0.07513502
213	0xbd9a178b	-0.07524022
214	0xbe0d2bb7	-0.13786207
215	0x3ddfb889	0.10923869
216	0xbd2e0735	-0.042487342
217	0x3dfc49e3	0.1231878
218	0x3d320f38	0.043471545
219	0xbd4bb0d9	-0.049729202
220	0x3bcd336e	0.0062622344
221	0xbd920259	-0.07129354
222	0x3d8b9fce	0.0681759
223	0x3d978e68	0.07400209
224	0x3c9571f2	0.01824281
225	0x3dd3ea6d	0.103474475
226	0xbc281ef7	-0.010261289
227	0xbd7ef515	-0.062245447
228	0x3df59bd8	0.119926155
229	0x3e17717e	0.14789388
230	0xbd25eae3	-0.04050721
231	0xbddafbe3	-0.10692575
232	0x3aa39337	0.0012479787
233	0x3e0d7fd9	0.13818301
234	0x3cae4b43	0.021276122
235	0xbbef5f21	-0.0073050414
236	0xbcecf33a	-0.028924573
237	0xbd2f8b0c	-0.042857215
238	0xbe01c5ec	-0.12673157
239	0xbd9ca345	-0.07648329
240	0x3e4434f7	0.1916083
241	0xbdb7db31	-0.08977354
242	0x3d3aa207	0.045564678
243	0xbd6612b4	-0.05617018
244	0x3d833837	0.064072065
245	0xbc121b44	-0.008917633
246	0x3d7ddaa4	0.06197609
247	0x3d9419a7	0.07231455
248	0x3db5d85d	0.08879159
249	0x3db7810c	0.089601606
250	0x3e5aa7d9	0.21353091
251	0xbc3b5f64	-0.011436317
252	0xbd998bab	-0.07497343
253	0x3d8503ef	0.06494891
254	0xbd4163bb	-0.04721425
255	0xbd8668a6	-0.06562929

weight f4 [64, 64]
0	0xbd9baf5c	-0.076018065
1	0x3c20178c	0.009771239
2	0xbded3d9d	-0.115840174
3	0xbda76601	-0.081737526
4	0x3e23cc9a	0.15996018
5	0xbe19ba43	-0.1501246
6	0x3c869e2e	0.016432848
7	0xbdf47828	-0.119369805
8	0xbdca1f9d	-0.09869311
9	0xbd4e60fd	-0.050385464
10	0xbd9670c0	-0.07345724
11	0xbd7a56c9	-0.06111792
12	0x3c06542b	0.008198778
13	0xbd1f2a64	-0.038858786
14	0xbe088207	-0.13330851
15	0xbd97fc7e	-0.07421206
16	0x3d4dd738	0.050254077
17	0xbda2c8d0	-0.07948458
18	0xbd026b69	-0.031840716
19	0x3e054b77	0.13017069
20	0xbd312b5d	-0.043254245
21	0x3bca2e3d	0.006170063
22	0xbd9d4bce	-0.07680474
23	0x3ca11e76	0.019667845
24	0xbc592e8f	-0.013255729
25	0x3d57d24a	0.05269078
26	0xbdc8ae7e	-0.09798907
27	0x3e1264fe	0.14296338
28	0xbc5f1dbd	-0.01361793
29	0x3d5b96d2	0.05361063
30	0x3c44ebe9	0.012019136
31	0xbda84144	-0.082155734
32	0x3dfb3938	0.12266773
33	0x3e14e2b2	0.14539602
34	0x3d0035d3	0.03130133
35	0xbdd4fbae	-0.103995666
36	0x3c853271	0.016259404
37	0xbcbf4797	-0.023349566
38	0x3de3ef2d	0.111296035
39	0xbe09e6c3	-0.13466935
40	0xbb5d3a18	-0.003375655
41	0xbe0a8950	-0.13528943
42	0xbdc12443	-0.094307445
43	0x3db54f09	0.088529654
44	0x3d64f212	0.05589492
45	0x3d8e4c69	0.06948168
46	0x3c220bbe	0.009890495
47	0x3bc580d8	0.0060273223
48	0x3df3a77a	0.11897178
49	0x3e056f1b	0.13030665
50	0x3d82f10f	0.063936345
51	0x3d23c689	0.03998426
52	0xbe07405d	-0.13208146
53	0x3d02eefa	0.031966187
54	0xbd843690	-0.064557195
55	0x3dc5cf56	0.09658687
56	0xbd8a7d82	-0.0676222
57	0xbdb2949b	-0.087197505
58	0xbd1f6f7d	-0.038924683
59	0xbdee7030	-0.11642492
60	0x3aa2ede2	0.0012430514
61	0xbd00d759	-0.03145537
62	0x3e2558ce	0.16147158
63	0xbdacc5a4	-0.084361345
64	0xbdc763d8	-0.097358406
65	0x3d086ca4	0.033306733
66	0x3e2002a8	0.15626013
67	0x3cfed75c	0.03110855
68	0xbd1857d1	-0.037193123
69	0x3d2c89c3	0.042123567
70	0xbdf5aa33	-0.119953535
71	0x3dcb6760	0.099318266
72	0x3d066904	0.032814994
73	0xbd11b110	-0.03556925
74	0xbda62f37	-0.08114474
75	0xbce7a49c	-0.028276734
76	0xbdcab5c7	-0.098979525
77	0x3d91c0ca	0.0711685
78	0x3da05ba9	0.07829983
79	0xbe1a1c87	-0.15049945
80	0x3dc9673f	0.09834146
81	0xbcf23e2a	-0.029570658
82	0xbda907ce	-0.08253442
83	0xbc0afed8	-0.008483611
84	0xbd0ca266	-0.034334563
85	0xbd098170	-0.033570707
86	0x3dd17e89	0.10229213
87	0x3d2f08fa	0.04273317
88	0x3e1d319c	0.15350956
89	0x3d5863a7	0.05282941
90	0xbdeed6db	-0.11662074
91	0x3e4480bb	0.19189732
92	0xbdf29ebc	-0.118466824
93	0x3d51ff1d	0.051268686
94	0x3d1440e3	0.036194693
95	0x3d92eb39	0.071737714
96	0xbd364983	-0.0445037
97	0xbde79150	-0.11307013
98	0x3d45b0f0	0.048264444
99	0xbda64b01	-0.081197746
100	0x3d2b5d76	0.04183718
101	0xbb72baa9	-0.0037037528
102	0x3d902d73	0.07039919
103	0xbd830f9e	-0.06399463
104	0x3db3b7af	0.08775269
105	0xbcd258ab	-0.025677046
106	0xbc525365	-0.012837266
107	0xbd84b9c8	-0.064807475
108	0xbcfe00a8	-0.031006172
109	0x3db3510d	0.087556936
110	0xbd6ebb5c	-0.05828415
111	0xbdaf2829	-0.08552582
112	0x3ce524a4	0.027971573
113	0xbd3a9571	-0.045552675
114	0x3c990f23	0.018683976
115	0x3dac5ea8	0.08416492
116	0x3d0d295f	0.034463283
117	0x3dd3204a	0.10308893
118	0xbd4fc625	-0.050726075
119	0x3cc54f7b	0.02408575
120	0xbda8c07e	-0.0823984
121	0xbde9e5e7	-0.114208035
122	0x3cb94112	0.022614036
123	0x3d24cf61	0.040236834
124	0x3e3fd961	0.18735267
125	0x3df1f36b	0.118140064
126	0x3d91f047	0.071259074
127	0xbddcf709	-0.10789306
128	0xbdaa6254	-0.08319536
129	0x3c863eda	0.016387392
130	0xbcf5db1c	-0.030011706
131	0x3cdf4039	0.027252303
132	0xbc41bf90	-0.011825457
133	0xbda6932c	-0.081335396
134	0xbda304eb	-0.079599224
135	0x3d8bf364	0.068335325
136	0x3c0170b8	0.007900409
137	0xbd25a4a4	-0.040440217
138	0x3ce4040a	0.027833957
139	0xbd811e1a	-0.063045695
140	0xbdd76427	-0.105171494
141	0x3d6ba122	0.057526715
142	0xbd99cdeb	-0.07509979
143	0xbdcba936	-0.09944384
144	0xbc56d09d	-0.013111261
145	0x3dbb9ca8	0.09160739
146	0x3dab7ddc	0.08373615
147	0xbca7e864	-0.020496555
148	0x3d869f20	0.065733194
149	0xbd25f4f1	-0.040516797
150	0x3d30c9b4	0.04316111
151	0x3dcb9b7e	0.09941767
152	0x3c30587f	0.010763287
153	0x3e29d978	0.16586864
154	0x3daea5b7	0.08527701
155	0x3d6c7d3d	0.057736624
156	0xbcb315a3	-0.021860903
157	0x3d8eccbf	0.06972646
158	0x3d917bb0	0.0710367
159	0xbda778f0	-0.08177364
160	0x3d9fc48a	0.07801159
161	0xbe14596f	-0.14487241
162	0xbde582c9	-0.11206586
163	0x3c9f3453	0.01943413
164	0xbc1224b9	-0.008919888
165	0x3db6d8ed	0.08928094
166	0x3d974618	0.07386416
167	0x3d2b1a15	0.04177292
168	0x3e006f17	0.12542377
169	0xbd78b93a	-0.06072352
170	0x3db15865	0.08659438
171	0x3d5603d4	0.052249745
172	0x3c42c674	0.011888135
173	0x3d92ef1c	0.07174513
174	0xbe054cb7	-0.13017546
175	0xbd8aa2a5	-0.06769303
176	0x3debeaf0	0.1151942
177	0x3c4f5385	0.01265419
178	0xbd2aa030	-0.041656673
179	0xbe04a286	-0.12952623
180	0xbe189f8c	-0.14904612
181	0x3c64f923	0.013975414
182	0xbd165fff	-0.036712643
183	0x3e01b371	0.12666108
184	0xba20b055	-0.0006129791
185	0xbd67be62	-0.056578048
186	0xbda2762a	-0.07932694
187	0xbe04a527	-0.12953626
188	0xbd2662fa	-0.040621735
189	0x3d7b9bbf	0.061427828
190	0x3d98e664	0.074658185
191	0xbd9a1b6e	-0.07524763
192	0x3da244cc	0.07923278
193	0xbd672fe5	-0.05644216
194	0xbc8ffcf1	-0.017576667
195	0xbe112b05	-0.14176567
196	0x3da5b3ba	0.08090921
197	0x3e0af83a	0.13571253
198	0x3e2773d7	0.16352783
199	0x3e03077a	0.12795821
200	0xbd816a16	-0.063190624
201	0xbd97d655	-0.074139275
202	0x3d283fae	0.041076355
203	0xbcb5022b	-0.02209576
204	0x3d6e2b9c	0.058147058
205	0x3d6cd38a	0.057818927
206	0x3b2bbf65	0.002620661
207	0xbbd775fb	-0.0065753437
208	0xbe44fb77	-0.19236551
209	0xbe0c9235	-0.13727649
210	0xbde9ad0e	-0.11409961
211	0x3d893113	0.06698813
212	0xbe27180d	-0.16317768
213	0x3d195515	0.037434656
214	0xbda046f6	-0.07826035
215	0x3c2d276d	0.010568482
216	0xbd744a4f	-0.05964118
217	0x3dae73cb	0.085181795
218	0xbdc5582e	-0.096359596
219	0xbd5e50a2	-0.054276116
220	0x3d7ccd5a	0.061719276
221	0xbd145750	-0.03621608
222	0xbcdde220	-0.027085364
223	0xbb0e290a	-0.0021691942
224	0xbdcfee7e	-0.10152911
225	0x3d7d21cb	0.061799806
226	0xbb95f021	-0.0045757447
227	0xbe24fb75	-0.16111548
228	0xbd29041d	-0.04126369
229	0xbd977086	-0.07394509
230	0xbe1e3ada	-0.15452138
231	0xbe0313eb	-0.12800567
232	0x3d0b4517	0.034001436
233	0x3c9a6e50	0.01885143
234	0xbbff6f84	-0.007795276
235	0xbcdbc049	-0.026825087
236	0xbccde062	-0.025131408
237	0x3d8c3903	0.068468116
238	0x3dcfad67	0.10140496
239	0x3e04e670	0.1297853
240	0xbcab6229	-0.02092083
241	0x3da1d653	0.07902207
242	0xbd54f2e1	-0.05198944
243	0x3dd30b84	0.10304931
244	0x3ddf24dd	0.10895703
245	0x3d97de4c	0.07415447
246	0x3e297f8a	0.16552559
247	0x3d1c48a1	0.0381552
248	0x3ca3e5d6	0.020007055
249	0xbdbd984f	-0.09257566
250	0x3cad845f	0.021181284
251	0x3e22a1d4	0.15882045
252	0xbc17e892	-0.009271758
253	0xbdd75518	-0.10514277
254	0xbe11e994	-0.14249259
255	0x3daf42a0	0.085576296

freqs f4 [8]
0	0x3f6a03c0	0.9141197
1	0x400c0e5f	2.1883771
2	0x404d2a5c	3.2057104
3	0x4082bfab	4.085897
4	0x40a94881	5.2901006
5	0x40c8dd2c	6.2769985
6	0x40ebc3f4	7.36767
7	0x41082292	8.50844

weight f4 [64, 8]
0	0x3e615152	0.22003677
1	0x3d9f0629	0.07764847
2	0x3cd16ecf	0.025565533
3	0x3e63be3b	0.22240536
4	0xbe3b9038	-0.18316734
5	0x3dc88f41	0.097929485
6	0x3d530ec9	0.051527772
7	0x3c7f39c9	0.015577742
8	0xbeb4bfce	-0.35302585
9	0xbea44465	-0.3208343
10	0xbdc7f751	-0.09763969
11	0xbe7819a8	-0.24228537
12	0xbea586d2	-0.32329422
13	0xbde6aac0	-0.11263037
14	0xbcb4b1ee	-0.0220575
15	0x3da853c3	0.08219101
16	0xbde5fb7c	-0.112296075
17	0xbe0d9409	-0.13826002
18	0xbe06e944	-0.13174921
19	0x3e40111e	0.1875653
20	0x3da0ac2a	0.07845338
21	0x3ebd6d7e	0.36997598
22	0x3e07b3e2	0.13252214
23	0x3e839e05	0.25706497
24	0xbdfadad6	-0.12248771
25	0xbe664fcf	-0.22491382
26	0x3de9357b	0.11387154
27	0x3e8d1092	0.27551705
28	0xbda48610	-0.08033383
29	0x3dae471c	0.08509657
30	0xbe8f7915	-0.28022066
31	0x3e0c920e	0.1372759
32	0xbed66a6f	-0.41878077
33	0xbdb0ff4f	-0.08642446
34	0xbddbdda1	-0.10735632
35	0xbe102350	-0.1407597
36	0x3c06c271	0.008225069
37	0xbe34fcde	-0.17674586
38	0x3ebcdcc8	0.36887193
39	0xbe166ebd	-0.14690681
40	0x3e3891d3	0.18024378
41	0xbea4f01f	-0.32214448
42	0x3e4b9408	0.19880688
43	0x3e8ddc86	0.2770731
44	0xbe7fe30a	-0.24988952
45	0xbde5f9f8	-0.112293184
46	0xbdb28587	-0.087168746
47	0xbd8a70d7	-0.06759804
48	0x3d98a09d	0.074525096
49	0x3e9b0df2	0.30284077
50	0xbd97f10e	-0.074190244
51	0x3de07fb9	0.10961861
52	0xbe75e95a	-0.24014798
53	0xbe3728f6	-0.17886719
54	0xbe961266	-0.29310912
55	0x3b55f285	0.0032645774
56	0xbcd733f6	-0.026269894
57	0x3eac9df7	0.33714268
58	0x3e37a764	0.17934948
59	0x3c178add	0.009249416
60	0xbdd3c3a7	-0.10340052
61	0x3d4e1570	0.050313413
62	0xbe3be1c1	-0.18347837
63	0x3d14c852	0.036323853
64	0xbe01f6b0	-0.1269176
65	0xbe4bf1cc	-0.19916457
66	0x3cff4815	0.031162301
67	0x3d8ac49d	0.06775782
68	0xbd3be6ed	-0.045874525
69	0x3c804a0c	0.015660308
70	0xbe98c31f	-0.29836366
71	0xbdf89244	-0.12137273
72	0xbef40ebe	-0.47667497
73	0x3eaeedde	0.34165853
74	0x3eb82bf5	0.35971037
75	0xbe968371	-0.29397157
76	0xbe71e7b2	-0.23623541
77	0xbe944098	-0.2895553
78	0x3e3e6bcb	0.18595807
79	0x3d899313	0.06717505
80	0xbeea6259	-0.45778158
81	0xbdbfb666	-0.093609616
82	0x3ea91f99	0.3303192
83	0xbd2172f0	-0.039416254
84	0xbe9b15e3	-0.30290136
85	0x3e09547f	0.13411139
86	0x3eab8d95	0.33506456
87	0x3eb3bd87	0.35105535
88	0x3e497e1b	0.19677012
89	0xbe124b6a	-0.1428658
90	0xbbe2c08a	-0.006919925
91	0x3ea60359	0.3242443
92	0x3dea1617	0.114299946
93	0xbe943885	-0.2894937
94	0x3e37845e	0.17921588
95	0x3dc3c6a8	0.09559375
96	0xbedfd109	-0.4371417
97	0xbe576dd7	-0.21037994
98	0x3e981bd3	0.29708728
99	0x3e8942a4	0.26808655
100	0xbea43506	-0.32071704
101	0x3de34235	0.11096612
102	0x3e6eb381	0.23310663
103	0x3d888a2f	0.066669814
104	0x3e83b162	0.2572127
105	0x3de7e043	0.113220714
106	0x3df70bf9	0.120628305
107	0x3e2be21a	0.1678547
108	0xbd6ed0e2	-0.058304675
109	0x3d01ef79	0.03172252
110	0xbdff0c8f	-0.12453567
111	0xbdca0521	-0.098642595
112	0x3e797852	0.24362305
113	0xbe361324	-0.17780739
114	0x3dc464fe	0.09589575
115	0x3ea22e91	0.31676152
116	0x3d6c0e40	0.057630777
117	0x3e94f0e0	0.29090023
118	0xbd03b697	-0.032156553
119	0xbd527ca5	-0.0513884
120	0x3edb7f75	0.4287068
121	0xbe423088	-0.18963826
122	0x3eaac5c0	0.33353996
123	0x3ebdfd11	0.37107137
124	0xbe8da193	-0.27662334
125	0xbdfd44a4	-0.12366608
126	0x3e862d44	0.2620641
127	0xbd40ee85	-0.04710247
128	0xbecdbdde	-0.4018392
129	0x3d84fd68	0.06493646
130	0xbed9126e	-0.42396873
131	0xbce5619f	-0.02800065
132	0x3d279e38	0.040922374
133	0xbdf68adf	-0.12038206
134	0xbd631588	-0.055440456
135	0x3e166454	0.1468671
136	0x3df13e34	0.117794424
137	0xbd1ff543	-0.03905226
138	0xbe141072	-0.14459398
139	0x3c8cbef7	0.017180903
140	0xbd35cb0e	-0.0443831
141	0xbd932dcc	-0.071864694
142	0xbde2c561	-0.11072803
143	0x3da0b8c5	0.07847742
144	0xbedd74a6	-0.43253058
145	0x3e1363dd	0.14393564
146	0xbe2dd9b9	-0.16977586
147	0x3ea7da75	0.32783857
148	0x3bf030c2	0.007330031
149	0x3e340771	0.17580964
150	0x3d851f8b	0.06500157
151	0xbe014567	-0.12624131
152	0x3df126e9	0.11775
153	0xbe8c5c0e	-0.27413982
154	0x3dad8ae8	0.0847376
155	0x3e9fff27	0.31249353
156	0xbdd1dddf	-0.10247397
157	0x3eb8a96b	0.36066756
158	0xbe88c20a	-0.2671054
159	0x3e1dd647	0.15413772
160	0x3e8fa19d	0.2805299
161	0xbe1742f3	-0.14771633
162	0xbeb97190	-0.36219454
163	0xbe9225fb	-0.28544602
164	0x3e289da5	0.16466387
165	0x3eb4e08a	0.3532756
166	0xbe8e193d	-0.2775363
167	0xbe327d02	-0.17430499
168	0x3e770418	0.24122655
169	0xbd9164c0	-0.07099295
170	0xbea9db3c	-0.33175075
171	0xbd5159d4	-0.051111057
172	0x3df63819	0.120224185
173	0xbebcb498	-0.36856532
174	0xbe2f821d	-0.17139478
175	0x3e134f7e	0.14385793
176	0x3ddbc33f	0.107305996
177	0xbe20566b	-0.15657966
178	0x3eca0113	0.39453945
179	0x3da8cdeb	0.08242401
180	0x3e5eb7fc	0.21749872
181	0xbcbda32a	-0.023149092
182	0xbe1d021a	-0.15332833
183	0x3e74ad2f	0.2389419
184	0xbef3e58a	-0.47636062
185	0x3df565ec	0.11982331
186	0xbe448e20	-0.19194841
187	0xbd722756	-0.059119545
188	0x3e85d552	0.26139313
189	0xbeaa85c5	-0.33305183
190	0x3d03b445	0.03215434
191	0xbdaebb9d	-0.08531878
192	0x3ed0cc94	0.4078108
193	0xbe7988a1	-0.24368526
194	0xbdbe241f	-0.09284233
195	0xbe5381b8	-0.20654953
196	0x3e87b155	0.2650248
197	0x3e88ec63	0.2674285
198	0xbc97ac02	-0.018514637
199	0x3dc010a9	0.09378178
200	0x3f06abed	0.5260609
201	0xbe825c68	-0.25461125
202	0x3d954ee6	0.07290439
203	0x3ebf98b6	0.37421197
204	0xbe3a44d1	-0.18190314
205	0xbe85eef6	-0.26158875
206	0x3e926dd5	0.2859942
207	0x3e8fd252	0.2809015
208	0x3e7072a1	0.23481227
209	0x3e838d29	0.25693634
210	0x3e0ae540	0.13564014
211	0xbe3c9653	-0.18416719
212	0xbe9d4fd3	-0.30724964
213	0x3d0c9f8f	0.034331854
214	0xbe3bd22c	-0.18341893
215	0x3eaa5374	0.33266795
216	0xbd10f61e	-0.035390966
217	0x3e42017e	0.18945882
218	0xbcd6b856	-0.026210945
219	0xbd5eb2ac	-0.054369614
220	0xbd5d9653	-0.05409844
221	0xbe8ffc3c	-0.28122127
222	0xbeaa5562	-0.33268267
223	0xbdf2d160	-0.11856341
224	0xbee40d37	-0.44541332
225	0xbe933d15	-0.2875754
226	0x3e39a6be	0.18130013
227	0xbe24e615	-0.16103394
228	0x3cc05059	0.023475813
229	0xbc87ff40	-0.016601205
230	0xbe7fc1ca	-0.24976268
231	0xbe13dfd8	-0.14440858
232	0xbed2bfcb	-0.4116195
233	0x3d8f52b8	0.06998199
234	0x3e9837d2	0.29730088
235	0xbc56b5e4	-0.01310489
236	0x3db1b503	0.08677103
237	0x3e476c18	0.19474828
238	0x3e3e2349	0.18568148
239	0x3d67087f	0.056404587
240	0xbe32f96e	-0.17477962
241	0x3e292a5b	0.16520064
242	0x3d2c1d11	0.042019907
243	0x3e97f8ab	0.29681906
244	0xbdc42fc4	-0.09579423
245	0x3e8a3b19	0.26998213
246	0x3e3979c4	0.18112856
247	0x3ea7f134	0.3280121
248	0x3e40058f	0.1875212
249	0x3cc3326c	0.023827754
250	0xbd766e50	-0.060163796
251	0x3e56ad1d	0.20964475
252	0x3e845599	0.25846556
253	0x3e73d4bf	0.23811625
254	0xbeb480c0	-0.35254478
255	0x3c9a53fb	0.018838873

weight f4 [64, 64]
0	0x3df02bd3	0.11727109
1	0xbe05b3c5	-0.13056858
2	0xbdd99c6e	-0.1062554
3	0xbd90e42d	-0.07074771
4	0x3ce578e7	0.028011752
5	0x3d558eec	0.052138254
6	0xbdc1d52a	-0.09464486
7	0x3cd6090e	0.026127364
8	0x3ca2c68c	0.019870065
9	0xbdc3805c	-0.09545967
10	0x3c3e2999	0.011606597
11	0x3dddfcfb	0.10839268
12	0x3cc477cb	0.023982903
13	0x3bad7071	0.005292945
14	0xbd7d30c7	-0.061814096
15	0xbd3a65df	-0.045507308
16	0xbb9c9834	-0.004778886
17	0xbdbd8c3c	-0.09255263
18	0x3d31116a	0.043229498
19	0xbe01fd08	-0.1269418
20	0xbda499f8	-0.0803718
21	0x3dd9cc7e	0.10634707
22	0x3d82993e	0.06376885
23	0xbd76cfa4	-0.060256615
24	0x3b281490	0.0025647022
25	0x3c20eaa9	0.009821572
26	0xbae8b656	-0.0017754536
27	0x3c682858	0.014169775
28	0xbe4e6484	-0.20155531
29	0xbe0850a2	-0.13312009
30	0xbd91b501	-0.07114602
31	0xbb86c801	-0.004113198
32	0x3da59198	0.080844104
33	0xbda2250b	-0.07917222
34	0x3b386017	0.0028133446
35	0x3d580a63	0.05274428
36	0xbd655f38	-0.05599901
37	0xbd65730a	-0.056017913
38	0xbc0656cc	-0.008199405
39	0xbe51dad2	-0.2049363
40	0xbc874be4	-0.01651568
41	0xbba234f4	-0.00495016
42	0xbcbacd21	-0.022802891
43	0xbe03665e	-0.12832019
44	0x3e1d4f19	0.15362205
45	0x3d3ce4dc	0.046116695
46	0xbe0740c2	-0.13208297
47	0x3d330330	0.04370421
48	0xbe52f295	-0.2060035
49	0x3d2ee4d2	0.04269869
50	0x3d5501a6	0.052003525
51	0x3e174a69	0.14774479
52	0x3df8c7f1	0.12147511
53	0xbcbf92ef	-0.023385493
54	0xbdd132aa	-0.102147415
55	0xbe147ec5	-0.14501484
56	0x3c636fae	0.013881607
57	0x3deb3dc3	0.114863895
58	0xbc9308e8	-0.017948583
59	0xbd836120	-0.064150095
60	0x3d498a3e	0.049204104
61	0x3e0793e9	0.13240017
62	0x3d6b1125	0.057389397
63	0x3d23b339	0.039965842
64	0x3da283cc	0.079352945
65	0x3d4e698d	0.05039363
66	0x3e060b6b	0.13090293
67	0x3dca4b65	0.098776616
68	0x3d4d9bee	0.050197534
69	0x3da7137a	0.08158012
70	0x3b92a353	0.004475036
71	0xbe1350a2	-0.14386228
72	0x3c7f4c2d	0.015582127
73	0xbd7661df	-0.06015193
74	0xbcd7bd82	-0.026335482
75	0xbda896a3	-0.08231857
76	0xbe188c34	-0.14897233
77	0x3db7ce38	0.0897488
78	0xbd39a74b	-0.04532556
79	0xbdbbbfe0	-0.091674566
80	0xbdbf4f55	-0.09341303
81	0xbb5ada18	-0.0033394154
82	0xbd8c5df9	-0.06853861
83	0xbddd678b	-0.10810765
84	0x3b03d266	0.002011442
85	0x3dac4777	0.08412068
86	0x3df947d1	0.12171901
87	0xbe3128fc	-0.1730079
88	0xbc4e3504	-0.012585882
89	0xbd4a95cb	-0.04945926
90	0xbd3f2cde	-0.046673648
91	0x3b0cbd4f	0.0021475141
92	0x3dec2b43	0.11531689
93	0xbd1ea05b	-0.038727146
94	0x3dab732a	0.08371575
95	0xbc3244b8	-0.010880642
96	0xbdd55fa8	-0.104186356
97	0x3cddf039	0.027092086
98	0x3ddc8805	0.10768131
99	0x3e3a247d	0.18177982
100	0xbd8071cf	-0.06271707
101	0xbc85654b	-0.016283652
102	0xbe0acbf8	-0.1355437
103	0xbdc5f8bd	-0.09666584
104	0xbcc0db08	-0.023541942
105	0x3cd66738	0.026172265
106	0x3c8e1271	0.017342778
107	0x3d999599	0.074992366
108	0xbdb8193b	-0.08989187
109	0x3a2e0af7	0.0006639207
110	0xbe1066f7	-0.14101778
111	0xbc59c0c3	-0.013290587
112	0x3d9aec74	0.07564631
113	0x3d29639c	0.04135476
114	0xbda348b7	-0.07972854
115	0xbe027c5e	-0.12742755
116	0xbd7b87f6	-0.06140896
117	0xbdabe8c9	-0.083940096
118	0xbe0f829d	-0.14014669
119	0x3d44fefb	0.04809473
120	0x3cffcff2	0.031227086
121	0xbcff5b41	-0.031171443
122	0x3d64783c	0.055778727
123	0xbde793f4	-0.11307517
124	0x3d8ca7ca	0.06867941
125	0x3dd10c7b	0.102074586
126	0xbb33b4b9	-0.0027420952
127	0xbcb06bba	-0.021535743
128	0xbdd20bdc	-0.10256168
129	0xbd949609	-0.072551794
130	0x3d67e93c	0.056618914
131	0xbe0a1f71	-0.13488556
132	0xbc9e1b85	-0.019300232
133	0x3d4b0e1e	0.04957401
134	0xbcbd3080	-0.023094416
135	0x3cfbfc56	0.030759972
136	0xbd6813b1	-0.056659404
137	0x3d3a4a16	0.04548081
138	0x3c376dcf	0.011195614
139	0xbc63436b	-0.013871054
140	0x3e301f1f	0.17199372
141	0xbda354f2	-0.079751864
142	0x3d962ad9	0.07332391
143	0xbdf78cb1	-0.12087382
144	0xbdbdadf2	-0.09261693
145	0x3d48c617	0.04901704
146	0xbd0c00d1	-0.034180466
147	0x3d86545b	0.06559058
148	0xbb5d2701	-0.0033745172
149	0xbe290816	-0.16506991
150	0xbe0bd62b	-0.13655917
151	0x3de2dc9d	0.11077235
152	0xbe11e044	-0.14245707
153	0xbd1eee40	-0.03880143
154	0x3d1738f9	0.036919568
155	0xbd8388db	-0.064225875
156	0x3e2cfad9	0.16892566
157	0xbc3a3822	-0.011365922
158	0x3c7610d5	0.0150186615
159	0xbae46dd9	-0.0017427757
160	0x3df5c6bf	0.120007984
161	0xbe0421d4	-0.1290353
162	0x3d1a14e0	0.037617564
163	0xbda55174	-0.080721766
164	0x3d8b725d	0.068089224
165	0x3d244fcc	0.040115163
166	0xbd53348a	-0.051563777
167	0x3e0cb0f5	0.13739379
168	0xbd07f4e4	-0.03319253
169	0xbd2694ad	-0.040669132
170	0x3c757a0c	0.0149827115
171	0x3dace1ea	0.08441527
172	0xbcf4e7d1	-0.029895695
173	0x3d58fafa	0.052973725
174	0xbd9104bd	-0.07080982
175	0xbdb0e80c	-0.086380094
176	0x3e125b24	0.1429258
177	0xbd03b05d	-0.032150615
178	0xbd511fa5	-0.05105557
179	0x3d04964f	0.032369908
180	0xbdf832c5	-0.121190585
181	0xbd25f7b1	-0.04051942
182	0x3bb8ae08	0.0056359805
183	0xbdac31a4	-0.08407906
184	0x3d9c179f	0.07621693
185	0x3db5d591	0.08878625
186	0xbd089e5c	-0.03335415
187	0xbd2d1f15	-0.04226597
188	0xbe13d4e2	-0.14436677
189	0xbdd8d6fd	-0.10587881
190	0xbdc7485f	-0.097306006
191	0xbcfe23b9	-0.031022893
192	0x3cd19988	0.025585905
193	0xbdff8464	-0.124764234
194	0x3dbe7711	0.09300054
195	0xbd3ec48a	-0.046574153
196	0x3b7f396e	0.0038944143
197	0x3c7a1985	0.015264873
198	0xbc70f19c	-0.014706042
199	0x3cb3d52f	0.02195224
200	0xbdda2e78	-0.106533945
201	0xbdca3265	-0.09872893
202	0x3d87f561	0.06638599
203	0xbc4324f0	-0.011910662
204	0xbd7715e4	-0.06032361
205	0x3d47530f	0.048663195
206	0x3e02d6a6	0.12777194
207	0x3dda4735	0.10658113
208	0xbdfaf157	-0.12253063
209	0x3dd448d9	0.10365457
210	0xbe063a85	-0.13108261
211	0xbdcbec2a	-0.09957154
212	0x3cc30529	0.023806171
213	0x3c7f5850	0.01558502
214	0xbde09213	-0.109653614
215	0x3c3971d9	0.011318647
216	0x3d45b3a7	0.048267033
217	0x3cafa190	0.021439344
218	0x3d97adb1	0.07406176
219	0x3d8482c8	0.06470257
220	0xbdc2008b	-0.0947276
221	0x3d41a256	0.047273956
222	0x3d860d41	0.06545497
223	0xbbb6f7b9	-0.00558373
224	0xbdac8b57	-0.084250145
225	0xbda270d5	-0.07931677
226	0xbccf16cc	-0.025279425
227	0xbca9c50a	-0.020723838
228	0xbe16b739	-0.14718331
229	0xbe0ef553	-0.13960771
230	0xbdc56ac5	-0.09639505
231	0xbd463359	-0.048388813
232	0x3ae04181	0.0017109365
233	0xbe000914	-0.12503463
234	0x3b384f46	0.0028123423
235	0xbd184280	-0.037172794
236	0x3d639aeb	0.055567663
237	0x3d8cb31e	0.068701014
238	0x3d8c4293	0.068486355
239	0x3dcd5446	0.100258395
240	0x3da72646	0.08161597
241	0x3d42b70e	0.047537856
242	0xbc9d560c	-0.01920607
243	0xbba71e70	-0.005100064
244	0x3d28286e	0.04105418
245	0xbdd21ef8	-0.10259813
246	0x3d41bf84	0.047301784
247	0x3d638bee	0.05555337
248	0xbd7a2dd3	-0.061078858
249	0xbc4abe19	-0.012374424
250	0xbd368003	-0.044555675
251	0x3d9288d3	0.071550034
252	0x3c32602c	0.010887187
253	0x3e052349	0.13001741
254	0xbc9ce5ab	-0.019152483
255	0x3e14b14b	0.14520757

weight f4 [64, 64]
0	0xbd94bf8c	-0.07263097
1	0x3dd8929b	0.10574838
2	0x3e26ead7	0.16300522
3	0xbdd19606	-0.10233693
4	0x3e3c7d0d	0.18407078
5	0x3c589750	0.013219669
6	0xbdf1a069	-0.11798174
7	0x3e023992	0.12717274
8	0x3e5a542a	0.21321169
9	0xbe229796	-0.15878138
10	0x3d72400a	0.059143104
11	0xbc991e3b	-0.018691173
12	0x3dca7f18	0.098875225
13	0xbd1784ea	-0.03699199
14	0x3d6d9fa2	0.058013566
15	0x3d4161c7	0.04721239
16	0x3d136e48	0.035993844
17	0xbce1a320	-0.027543604
18	0x3dcc83dc	0.09986088
19	0x3aa7fbae	0.0012816095
20	0xbdc2b9cd	-0.09508095
21	0x3def7a36	0.11693232
22	0xbd907c19	-0.0705492
23	0xbd68ed81	-0.056867126
24	0x3e06f404	0.13179022
25	0xbe2f6ee7	-0.1713215
26	0x3cbca213	0.023026502
27	0x3dace932	0.08442916
28	0xb921dc99	-0.00015436336
29	0x3de0250e	0.109445676
30	0x3e33e811	0.17568995
31	0xbda2fdf7	-0.07958596
32	0xbe85f47b	-0.26163086
33	0x3d243971	0.040093843
34	0x3db09d93	0.08623805
35	0x3d2613be	0.04054617
36	0xbcba160d	-0.022715593
37	0x3ce00210	0.027344733
38	0xbdea8f22	-0.11453082
39	0xbc7eb048	-0.015544958
40	0xbdedd427	-0.116127305
41	0xbe2f6654	-0.17128879
42	0xbe198f1c	-0.14995998
43	0xbdae6d38	-0.085169256
44	0xbdf26117	-0.11834925
45	0xbc266971	-0.010156975
46	0xbe1108a4	-0.14163452
47	0x3ddec17c	0.10876748
48	0xbca70e60	-0.020392597
49	0xbe53050f	-0.20607398
50	0x3c051f99	0.008125209
51	0x3debbc30	0.11510503
52	0x3e043ed1	0.12914588
53	0xbda103ca	-0.07862051
54	0x3dcfbe06	0.10143666
55	0x3d99c4dd	0.07508252
56	0xbc20aaec	-0.009806376
57	0x3df9bb1c	0.121938914
58	0xbc513a7a	-0.01277029
59	0xbd8e78e3	-0.06956651
60	0xbd5f00cf	-0.05444413
61	0x3e8bbc6d	0.27292195
62	0x3bcab56d	0.0061861784
63	0x3e0758c1	0.1321745
64	0xbd6f75a7	-0.05846181
65	0x3bff19bd	0.0077850507
66	0x3d46213c	0.04837154
67	0xbc0f8b4a	-0.008761236
68	0x3d78e28c	0.060762927
69	0x3d797ad8	0.06090817
70	0xbd5eae98	-0.054365724
71	0xbcddd752	-0.027080212
72	0x3d9a4d66	0.07534294
73	0xbd9f72f1	-0.07785595
74	0xbdabe919	-0.08394069
75	0xbe5e688b	-0.21719567
76	0x3dcc93db	0.09989139
77	0xbd35f9cd	-0.04442768
78	0xbd07485d	-0.033027995
79	0x3d42e45c	0.04758106
80	0xbe348946	-0.1763049
81	0xbc37596a	-0.011190752
82	0xbd822ac3	-0.063558124
83	0xbe397d64	-0.18114239
84	0x3cdaf8e2	0.026730005
85	0x3ddfb367	0.1092289
86	0x3d40c290	0.04706055
87	0x3de6663b	0.11249968
88	0x3d81684c	0.06318721
89	0xbcc507af	-0.024051515
90	0x3d3aef69	0.045638476
91	0xbda3408c	-0.07971296
92	0xbde4db4c	-0.1117464
93	0xbdc950de	-0.09829877
94	0xbc32452b	-0.010880749
95	0x3d0bd613	0.034139704
96	0x3e145d72	0.14488772
97	0x3e154feb	0.14581268
98	0x3da3e07e	0.08001803
99	0x3e550f3d	0.20806594
100	0x3d999baa	0.07500394
101	0x3df2dcc1	0.11858512
102	0xbd9e7e60	-0.07738948
103	0xbe3ea79b	-0.18618624
104	0xbdb662dc	-0.08905575
105	0x3da3a835	0.07991067
106	0x3df812f0	0.12112987
107	0xbe0318a2	-0.12802365
108	0xbd857fb2	-0.065184966
109	0xbdd992fb	-0.106237374
110	0xbdbdd56e	-0.09269224
111	0xbd202627	-0.039098885
112	0xbc877752	-0.016536389
113	0x3d1e2174	0.038606122
114	0x3b2bcc4c	0.00262143
115	0x3ddad730	0.10685575
116	0x3cbc7a9c	0.023007683
117	0x3c405b08	0.011740454
118	0x3cf2e5c5	0.029650578
119	0xbcadc1d2	-0.021210585
120	0x3d847f55	0.06469599
121	0x3d844dc9	0.06460149
122	0x3d42386e	0.047417097
123	0xbc99cb1a	-0.018773604
124	0xbe06e901	-0.13174821
125	0x3d97c3bb	0.074103795
126	0x3dcb4954	0.099260956
127	0xbd2280a9	-0.03967348
128	0xbd2ee2ac	-0.04269664
129	0xbda9c7e9	-0.08290083
130	0x3d21b3cb	0.039478105
131	0x3d9df99e	0.07713626
132	0xbe67cbc8	-0.2263633
133	0x3cfdc341	0.030976893
134	0x3dc988ce	0.098405465
135	0x3d4ac4e1	0.049504165
136	0x3c8ca77d	0.017169708
137	0xbdc25fc6	-0.094909236
138	0x3d89dc01	0.067314155
139	0x3da709a7	0.08156138
140	0xbd93e81d	-0.072220065
141	0xbdb7fc94	-0.08983722
142	0xbe0512e0	-0.12995481
143	0x3d938537	0.07203143
144	0x3e0887b4	0.13333017
145	0xbd4ecb30	-0.050486743
146	0x3d5fe1ff	0.054658886
147	0x3cac3e1e	0.021025714
148	0x3cc69619	0.024241494
149	0xbddc093e	-0.1074395
150	0x3d145d3a	0.03622172
151	0xbd9a7d50	-0.07543433
152	0x3cc2a217	0.023758931
153	0xbd0ffe54	-0.035154656
154	0xbe28bc67	-0.1647812
155	0xbd1c67c9	-0.038184915
156	0x3dbdcf9f	0.09268116
157	0x3d9db9dc	0.077014655
158	0xbe36b462	-0.17842248
159	0x3de0a9c6	0.10969882
160	0xbc8a83e9	-0.016908603
161	0xbe3711bc	-0.17877859
162	0xbd4a4a3e	-0.04938721
163	0xbe6e64ef	-0.2328069
164	0xbdeaee17	-0.11471193
165	0xbdab825c	-0.083744735
166	0x3d93f4a2	0.072243944
167	0x3e3c4d72	0.18388918
168	0xbd89811b	-0.06714078
169	0xbe444e5f	-0.19170521
170	0x3dbb8bd8	0.091575325
171	0x3e188a28	0.14896452
172	0xbd91721f	-0.07101845
173	0xbdb4f116	-0.08835046
174	0x3d45e26d	0.04831164
175	0xbd645d7f	-0.055753227
176	0xbcdc4ecc	-0.026893042
177	0x3e1b8157	0.15186058
178	0xbc67fad3	-0.014158922
179	0xbd02d8a4	-0.031944886
180	0xbc00da78	-0.007864587
181	0x3d6056a6	0.054770134
182	0xbdbe8b19	-0.093038745
183	0x3e0a88da	0.13528767
184	0x3c55cc55	0.013049205
185	0x3d2b728b	0.041857284
186	0xbda9d381	-0.08292294
187	0x3d9c1ad5	0.07622305
188	0xbbadfcf9	-0.0053096977
189	0xbda2ce8c	-0.07949552
190	0x3e014a12	0.12625912
191	0x3d546372	0.05185265
192	0x3dd052d5	0.10172049
193	0xbdabf165	-0.08395652
194	0x3ca14ea9	0.019690828
195	0x3cc0d454	0.023538746
196	0xbcf84ca7	-0.030309988
197	0xbc3e1cfd	-0.011603591
198	0x3dc79b0b	0.09746369
199	0x3da59ed8	0.08086938
200	0xbe008880	-0.1255207
201	0x3d38cf01	0.04511929
202	0x3c7c9f06	0.0154187735
203	0x3e46188a	0.19345298
204	0xbcb831de	-0.022484716
205	0x3b1f1b60	0.0024277791
206	0xbcb56683	-0.022143608
207	0x3d7414c8	0.05959013
208	0x3def449d	0.11683009
209	0x3d546817	0.05185708
210	0x3e0fad73	0.1403101
211	0x3e5f0dec	0.21782655
212	0xbe0a6e3d	-0.13518615
213	0xbe357a55	-0.17722447
214	0xbd8bd2dd	-0.06827328
215	0x3b409579	0.0029385968
216	0x3d046724	0.032324925
217	0x3d1c8586	0.038213275
218	0xbe16b7d8	-0.14718568
219	0xbcb77bac	-0.022397839
220	0x3cc5774f	0.024104742
221	0x3ca26470	0.019823283
222	0xbe4910a4	-0.19635254
223	0xba8c3415	-0.0010696674
224	0x3c02b34b	0.007977317
225	0x3d704942	0.058663614
226	0xbdffb360	-0.12485385
227	0xbe7ed616	-0.24886355
228	0x3cb9433e	0.022615071
229	0xbbe52c77	-0.006993826
230	0x3def9ce7	0.116998486
231	0xbc3ff589	-0.011716255
232	0xbdc3dbf2	-0.095634356
233	0x3dedb52e	0.11606823
234	0x3df06f45	0.11739973
235	0x3dfaf3f9	0.12253565
236	0x3e162031	0.14660718
237	0x3deca119	0.115541644
238	0xbc2bd418	-0.010487579
239	0xbd915abe	-0.07097386
240	0xbd122f16	-0.035689436
241	0xbd3dda2f	-0.046350654
242	0xbd36933d	-0.04457401
243	0x3c9e3320	0.019311488
244	0xbb9d826a	-0.0048068063
245	0xbd3189b9	-0.043344233
246	0xbd7f6e39	-0.062360976
247	0xbd02de93	-0.031950545
248	0xbdd0f3c3	-0.10202744
249	0xbcfff03c	-0.031242482
250	0xbd97d97b	-0.07414528
251	0xbd53eb18	-0.051737875
252	0xbdd9f7db	-0.10642978
253	0xbe07051c	-0.13185543
254	0xbd665ed6	-0.056242786
255	0x3d42df1a	0.047576047
