examples/carbon/outDir/epoch=176-step=88485-val_loss=0.2148-v1.pt (torch, 745777 bytes, 92 tensors)

cutoff f8 []
00000000: 0000 0000 0000 0840
3.0

weight f4 [7, 64]
00000000: 1545 593f 8327 313f 6dcc a1be c15f 07c0
00000010: 7556 b6be a8db df3e 538c fb3e 0b00 51be
00000020: 776f f53d 936b 9e3f 8ef2 8e3f 7c36 7dbe
00000030: a799 85bf f632 acbf 110d 493f 992a 7e3f
00000040: 8b4d 193f 5b0d c7bf cac6 aebe 4e2f ed3f
00000050: 55aa ef3e 5f7f 21be dbc9 b83f a137 883e
00000060: c0d6 b13f 000d cb3f 9c40 723f 33fb 57bf
00000070: 308c 6e3f 3727 a13f 9a51 0040 3a1b 5c3d
00000080: d01f e13e d637 e63d f80a 243f 3cdf e13e
00000090: 420b 5dbe a317 3ebf 820e 103f e2ed 843e
000000a0: 2fda 053f 5557 1340 b704 bcbf 9e18 cbbf
000000b0: 3c03 9a3f 8720 ad3d 2b9e 99bf aed1 9cbb
000000c0: 10dd 6bbe 0894 c8be 5d15 0b3f 1752 cabe
000000d0: 5275 523e 9f91 e6be 2eb5 12bf f82b 0ebf
000000e0: d9fd c3bf 23f8 9dbf c2ec e83f fc30 0dbf
000000f0: 48a4 a9bf 3014 413e fb75 8dbd db66 fdbe
00000100: ce34 bdbf 8b4d 2440 c23c f2be 4fcd ab3e
00000110: e82a c13f c23e 0540 8775 da3f f157 1840
00000120: d092 88bf 57b6 8e3f 2c0c 10be de45 4e3f
00000130: 10bd a73e b5bd 42bf b8ae ccbf 5a71 973c
00000140: 5f86 573f 47d1 ccbe 170d 853f d85f b73e
00000150: ca85 58bb 1bd1 08bf 9097 953f 44fc c93e
00000160: dcc1 85bf 3ddd 74bf b458 093d 3cc8 353f
00000170: 4a84 c4bf ae4a d3be a75f 773f e5f8 cf3f
00000180: ad40 27c0 1326 d9bf 37b8 69be 4356 8f3e
00000190: 0602 963d 3881 8e3f 5585 903e d352 de3e
000001a0: 0ff4 e93e fa88 5dbf cc03 483f 1242 6dbf
000001b0: cc5e 533e aeb9 aabe 9b8f dbbe 2282 6e3e
000001c0: 9967 763f 2ec6 b23e efe4 6bbf 812c 66bd
000001d0: 0d97 33bf 27b2 843f 208a 1abf 94ae a3bf
000001e0: 95c0 fd3d a017 953f 3562 6c3f e492 b13f
000001f0: 3e01 b03f 95dd 283f 4bff f33e 5d16 82bf
00000200: db40 1c3f 5c0b ef3e 22af f93f 9d13 88bf
00000210: 03f7 913f 1714 b8bd edd3 3a3f 6a33 ecbf
00000220: f115 d1bd 504b 84bf 3212 a0be 30af 7b3e
00000230: fd1d c13e 43f5 8c3f 8b46 92bf 25f3 193d
00000240: 41c0 933e 24f0 c53e b3e3 4dbe b483 f1bd
00000250: 6351 54bf fc20 b4bf 833c d03f 6368 303e
00000260: 9c4c 34bf 1b23 a13e 9a2b 213e 434e c53e
00000270: 07db 123f 6d78 7f3f fd29 0b3f 3264 a13d
00000280: da9a 7f3f 8b57 ffbe 2ad8 423f f748 1e3f
00000290: ec48 99be e548 40be 223c f53f a4b0 303f
000002a0: 32c9 a0be 1b13 8abf 0897 763e 93b7 b2bf
000002b0: 018e e83d a767 8d3f ff94 b2bf c342 f33e
000002c0: 9660 8a3f 2fa2 063e b469 c93f cb0b 483f
000002d0: a5c8 7c3f 7a70 bebf 2631 163f 2e18 223e
000002e0: 2ab2 2a3f 5290 7ebf 143d 98bf df14 99bf
000002f0: 14ec a73f 05e0 56be 8b1f 483f 7e5c 7d3f
00000300: 92a0 2f3e 7844 603f 1ffd 92be 1ac5 823f
00000310: bbd5 02bf 6f5b dbbf 9b93 02bf 3125 f3be
00000320: cb8a 293f 1e68 9abf 2b81 1b3f 7812 0cbf
00000330: 84dc 8cbf 475a 38bf 2c78 433c b7f6 ad3e
00000340: c277 a0bf 4aa1 7c3f 6d43 fdbe c13a a4bf
00000350: a196 e03e 0960 2fbc 314f ab3f 2d0e 8fbe
00000360: dc4d 933e ffb3 08bd f6eb 87bf 4558 eabd
00000370: 1415 483e 35b3 3cbf ed9c d93f 2a43 b13e
00000380: 303b 14be ec3a 233f 4605 90be 5939 aabf
00000390: 695f 27bf 3223 dc3f 2c01 76bf 5d33 23bf
000003a0: 0510 63bf f0b9 563f 1192 933f aa6b e1bf
000003b0: 73b3 8dbf 7ed2 dbbf 7f6c c43f 4c1f 52bb
000003c0: 225d b83f 357f e2bd 1dad 133f f93b 2dbe
000003d0: a326 983f 9a49 21be ab86 3abd 5b02 263f
000003e0: 0de9 5ebf 7b37 143e cd90 f33f f5e1 c73e
000003f0: bb6d 073d 6700 83bf 67c7 3b3f 7211 8f3f
0.84871036 0.69200915 -0.31601277 -2.1152194 -0.35612836 0.43722272 0.49130496 -0.20410173
0.11984151 1.2376579 1.1167772 -0.24727815 -1.0437516 -1.3453052 0.7853556 0.9928375
0.59883946 -1.5550951 -0.3413604 1.8530061 0.4680964 -0.15771244 1.4436601 0.2660494
1.3893661 1.5863342 0.94629836 -0.84367675 0.9318266 1.2590092 2.0049806 0.053736903
0.43969584 0.112411186 0.64079237 0.44115627 -0.21586326 -0.74254817 0.5627214 0.2596274
0.52286047 2.3022053 -1.4688939 -1.5866888 1.2032237 0.0845347 -1.2001394 -0.004785738
-0.23033547 -0.3917544 0.5432947 -0.39515755 0.20552567 -0.45032975 -0.5730771 -0.5553584
-1.5311843 -1.234135 1.8197253 -0.5515287 -1.325326 0.18855357 -0.069072686 -0.49492535
-1.478174 2.5672328 -0.4731198 0.33555076 1.5091219 2.0819554 1.7067116 2.3803675
-1.0669804 1.1149396 -0.14067143 0.8057536 0.3276143 -0.7607072 -1.599082 0.018486667
0.8418941 -0.40003416 1.039462 0.3581531 -0.003303873 -0.5344407 1.1686878 0.39450276
-1.0449786 -0.9565008 0.03353186 0.7100866 -1.5352871 -0.41267914 0.9663033 1.6247832
-2.6133225 -1.6964744 -0.22824179 0.279955 0.07324605 1.1133184 0.28226724 0.43422565
0.45694014 -0.86537135 0.78130794 -0.9267894 0.20641631 -0.33344787 -0.42883 0.23291829
0.9625183 0.34916824 -0.921462 -0.056194786 -0.7015236 1.0366868 -0.6036701 -1.2787652
0.12390248 1.1647835 0.9233735 1.3872952 1.3750379 0.6596311 0.4765571 -1.0163075
0.6103646 0.46688354 1.9506571 -1.0630985 1.1403507 -0.08988207 0.72979623 -1.845319
-0.10209263 -1.0335484 -0.31263882 0.24578547 0.37718192 1.1012348 -1.1427778 0.037585396
0.28857616 0.38659775 -0.20106392 -0.117926985 -0.82936686 -1.4072566 1.6268467 0.1722732
-0.70429397 0.31472096 0.15739289 0.3853627 0.5736546 0.9979313 0.54360944 0.07880439
0.9984566 -0.49871477 0.7611109 0.61830086 -0.29938447 -0.18777807 1.9158976 0.6901953
-0.314035 -1.078708 0.24081051 -1.3962272 0.1135521 1.1047257 -1.395172 0.47511873
1.0810726 0.13147806 1.5735383 0.78142995 0.9874366 -1.4878075 0.58668745 0.15829536
0.66678107 -0.99438965 -1.189364 -1.1959494 1.311892 -0.20983894 0.7817313 0.98969257
0.17151096 0.87604475 -0.2870874 1.0216401 -0.51107377 -1.7137278 -0.5100648 -0.47489312
0.66227406 -1.2063024 0.6074397 -0.5471568 -1.1004796 -0.7201275 0.011930507 0.3397729
-1.2536547 0.9868361 -0.49465504 -1.283043 0.4386492 -0.010704049 1.3383542 -0.27940503
0.2877034 -0.033374783 -1.0618885 -0.11442617 0.1953929 -0.7371095 1.7001015 0.34621555
-0.14475703 0.6376178 -0.28129023 -1.3298751 -0.6537996 1.7198241 -0.9609554 -0.6375025
-0.8869632 0.8387747 1.1528951 -1.7610981 -1.1070389 -1.7173612 1.534561 -0.0032062111
1.4403422 -0.11059419 0.57686025 -0.16917409 1.1886791 -0.15750733 -0.045538586 0.64847344
-0.8707436 0.14474289 1.9028565 0.3903958 0.03306363 -1.0234498 0.7335114 1.1177199

weight f4 [64, 64]
00000000: 5b4f 3b3e 0a6f 0e3e e58e 4dbe aa2d 15be
00000010: b7a0 f83d 8558 38bd e625 fdbc dfba 043e
00000020: 7701 79be 0cb1 773d afe3 103e 2365 4d3e
00000030: 2b1e 4f3e 8f1e 3f3e 4e00 2abd 2799 f8bd
00000040: cbfb f13d 90a0 1b3e 7e2b e5bd 49ed ee3b
00000050: 2ba7 7cbd ba0d 18be f758 1b3e 2190 9f3d
00000060: 7895 1d3e dd5d da3d ea9a 0c3e 673d 233d
00000070: 4c3d cfbc 11db 443d 1f42 fb3c e36f 02bd
00000080: b47a 533e 8950 a4bd 3ef4 febd c585 9dbc
00000090: 302d 3abd 695e 79be 70f6 c53d 8ad2 3ebe
000000a0: 15fa cd3d 10ef 6abd 7a1f 3b3e 9d4b bd3d
000000b0: bdcf 163e 4c5f 2bbc ba63 a53c 8733 bb3d
000000c0: e742 fa3d a700 ab3d d79d d3bd 573e 10be
000000d0: ff51 0dbe f399 31be f9c2 4ebd c345 593e
000000e0: 997d 1dbe 36f9 64be aff0 2b3b 3036 503d
000000f0: 2b8d 93bd a37f 3ebe 7fb1 ea3c 903b 5abe
00000100: f1c8 c3bd 09fa e9bc 9af1 1a3e 5775 b0bc
00000110: b47f b63b b48c 1abd 32bb 363d ade7 7dbd
00000120: 09f2 cfbc f3da 03be 813d a4bd 12a1 f2bd
00000130: 83f2 4abd 20ff e2bc e312 3c3e 5afa 813b
00000140: e197 e6bd 435f b1bc 3bc0 0b3e 8330 90bc
00000150: e6ac 4a3d 453e b23d 7e3b 04be b9c8 c93d
00000160: 1c8c cfbd c845 cfbd 340d b43d d786 bdbd
00000170: 5540 aabc 13ec c3bd cfe8 d9bb 55bc 21bd
00000180: a9c9 5c3d 9c15 d6bd e5b4 cfbb 4bbb 0c3e
00000190: fec1 413d e4df 243c ce11 29be 252b d23d
000001a0: 2a78 1d3d 834c 483d e5a9 0cbe d590 2c3d
000001b0: 4b59 40be 2954 cc3c 5def f43c 5508 f5bd
000001c0: 8012 593d de79 0abd 33fe c1bb c428 1dbd
000001d0: 6d35 fdbc a61a 693d 5035 963d be66 f1bd
000001e0: ef65 9a3d 6696 ca3b 4e31 953c db6e 01be
000001f0: 0dbd b3bd 70de 073e cb0d 373d 8acb 153e
00000200: 4fe1 073c 09e5 1a3d b357 98bd a3c8 92bd
00000210: f947 b03d 04ad 41be 5227 103d 2e1a f13d
00000220: e252 44be e45c 983d 1fb9 c03d 29b5 b63d
00000230: e259 473e dc24 b4bc bffd d5bd 5a66 63bd
00000240: 77f8 b5bd c011 b73d 127f 423d 3580 1a3e
00000250: abbb f9bd 8b52 1bbe 7f8a 3bbc fdf0 d6bc
00000260: 9a9e 65b9 a822 80bd 5142 16be 602a cdbd
00000270: 9fa3 dabd b92b 613d c508 153e e576 0bbd
00000280: e726 2a3e f8ea 6fbd 0c75 9f3d 43a3 50be
00000290: dd89 47be db06 59bd 3b14 0a3e a59b 3cbe
000002a0: 4bd2 093c b7bd 30be 9174 353e 54bc c93c
000002b0: 9a5d 2c3d 8eb9 1abd 0d6f fc3d dd04 4f3e
000002c0: b1f6 8b3d b4d7 013e 5fbb a23d cb3e a8bd
000002d0: d6a4 10bd 0d9e c53c 324a 81bd 4a57 43bd
000002e0: 1ae6 a3bd aba9 673d fd5a b33d 66fa 293e
000002f0: 968f 0f3e e1e8 97bd 45f5 ff3d 7966 d6bd
00000300: 696f c23d dd82 7f3e 41df d7bd f721 9bbe
00000310: 46bf af3e c60e 4bbe fac3 52be 59bb 743e
00000320: 7c79 1ebe f1a6 e83d 5685 4b3e bf57 4a3e
00000330: c2fb cf3d 14a9 8c3d 01d2 0dbe 0ae1 0a3b
00000340: 874e 733e fe26 873e 9e91 e1bd af23 6f3d
00000350: d9b7 8b3e 16b4 94bd 7f81 483e 0916 653e
00000360: 230e af3e ba11 563e a590 743e 239b 703e
00000370: 582c 5fbe 0954 583d cea7 373e 05f2 a53d
00000380: ef3a 8b3d 59c7 3abe 4c59 c0bc 62d3 a9be
00000390: 06ef 36be a729 a6be 64f8 ec3d b770 3dbe
000003a0: a4d2 ec3c 14dd e6bd a13b a33e 4405 9e3e
000003b0: 1b1e 1c3e ceb0 a9bd 8d32 453e 9a04 a93e
000003c0: 77ea 143e 1819 af3d 00b2 e2bd 99a0 1cbe
000003d0: 80f2 af3c 038f 97be 8cd2 15be 6880 6c3e
000003e0: bb36 8abe a8c3 82be bb75 e53c e7de 803e
000003f0: 9969 f63d 285d 82bd e60b 8c3e b930 75be
0.1829199 0.13909546 -0.20074041 -0.145682 0.12140029 -0.045006294 -0.03090186 0.1296191
-0.24316965 0.06047158 0.14149354 0.20058112 0.20226352 0.18664001 -0.041504197 -0.121385865
0.11815604 0.15197968 -0.11189936 0.00729147 -0.06168286 -0.14848986 0.15170656 0.07791162
0.15389049 0.10662434 0.1373097 0.03985348 -0.025297783 0.04806048 0.030671177 -0.031844985
0.20652276 -0.08023173 -0.12448929 -0.019228825 -0.04545325 -0.24352421 0.09666145 -0.18635002
0.10057465 -0.057356894 0.18273726 0.09242938 0.14727683 -0.010459732 0.020189155 0.091406874
0.12219792 0.08349734 -0.1033284 -0.14086281 -0.1380081 -0.17343883 -0.05047891 0.21218018
-0.15379943 -0.22360691 0.0026235988 0.050832927 -0.0720466 -0.18603377 0.02864909 -0.21311784
-0.09559811 -0.028561609 0.15131226 -0.021540327 0.0055694226 -0.03773184 0.044612117 -0.06198852
-0.025383966 -0.12876491 -0.080195434 -0.11847128 -0.049547683 -0.027709544 0.1836658 0.003966612
-0.11259437 -0.02165187 0.13647549 -0.017601257 0.049481295 0.08703283 -0.1291332 0.09852738
-0.101341456 -0.101207316 0.08791581 -0.09254234 -0.020782629 -0.09566512 -0.0066500674 -0.039486248
0.053903256 -0.104533404 -0.006338703 0.13743322 0.047304146 0.010063145 -0.16510698 0.102621354
0.038444676 0.048901092 -0.13736685 0.04213031 -0.18784063 0.024942474 0.029899294 -0.1196448
0.05299616 -0.033807628 -0.0059201955 -0.038368955 -0.030909264 0.05691018 0.07334387 -0.11787175
0.075389735 0.0061824797 0.018211987 -0.12639944 -0.08776293 0.13268447 0.04469089 0.14628425
0.008293464 0.03781608 -0.07438602 -0.07167175 0.08607478 -0.18913656 0.03519375 0.117725715
-0.19172242 0.074395925 0.09410309 0.08921272 0.19467881 -0.021990232 -0.10448789 -0.055517532
-0.088852815 0.089389324 0.047484465 0.1508797 -0.12193998 -0.15168206 -0.011446594 -0.026237959
-0.00021898226 -0.0625661 -0.14673735 -0.10017848 -0.106757395 0.054973338 0.14554127 -0.034048934
0.16616403 -0.058573693 0.07785997 -0.2037478 -0.19486184 -0.052985054 0.1348428 -0.18418749
0.008411954 -0.1725987 0.17720248 0.024625935 0.042081453 -0.037774615 0.12325869 0.20216699
0.06834162 0.1267994 0.079458944 -0.08215102 -0.03531345 0.024123216 -0.0631298 -0.047690667
-0.08002873 0.056558292 0.08757589 0.16599426 0.14019617 -0.07417465 0.12497953 -0.10468764
0.09493906 0.24952264 -0.10540629 -0.3029935 0.34325618 -0.19829854 -0.20582572 0.23899592
-0.1547603 0.113599665 0.19875082 0.19760035 0.10155441 0.068681866 -0.13849641 0.0021191263
0.23760425 0.26396936 -0.110141024 0.05838364 0.27288702 -0.07260911 0.19580649 0.22371687
0.34190473 0.209052 0.23883303 0.2349668 -0.2179426 0.052814517 0.17935106 0.08102802
0.0679835 -0.18240108 -0.02348008 -0.33169085 -0.17864618 -0.32453653 0.11570814 -0.18500029
0.028909035 -0.11272636 0.3188143 0.30863392 0.1524586 -0.08285676 0.19257565 0.33011323
0.14542566 0.08549708 -0.11069107 -0.15295638 0.021477938 -0.29601297 -0.14631099 0.23095858
-0.2699488 -0.255399 0.02801024 0.2517006 0.1203186 -0.063654244 0.27352828 -0.23944367

weight f4 [64, 64]
00000000: 5a37 793d 937d 0bbe a8f4 37be e467 45be
00000010: bbdd a53d b4c5 a3bd 4d41 40be 4ce6 45bb
00000020: 3da0 f8bd 9aa0 873d 66de 61bc 7828 1d3e
00000030: c218 71be 5b1e b73c 5609 3abe 061e 0dbe
00000040: 336e 6d3e 73fc fb3d 6611 a13d bee5 7a3d
00000050: 62be 063e 8a63 8fbd 7f6c ef3c 560c 0fbd
00000060: 54b8 533d c624 a43c efdc b13d b2a8 0f3d
00000070: 4b1c 8a3d c702 073d 4692 0fbe 741e 963c
00000080: 4e92 a7bc 5d17 84bd e99b 81be fdb2 86bd
00000090: 59f5 93bd b6a6 8ebd 0078 cebc 5c2a 17be
000000a0: 0e82 d8bd f303 1bbe 93ed 573d 4676 063e
000000b0: cb94 163d ed66 59bd 6285 d53d 3132 fabd
000000c0: 07eb e13d bfe5 f03d 8182 2bbe 14bd 04be
000000d0: ce5d 01be fa6f 10be 5702 00be 092e adbc
000000e0: 040a d2bb 250a a53c 49f9 1fbe b24c 87bd
000000f0: 1bdc 723e 9dea 7bbd 4aaa 393c 15db 173d
00000100: 07b8 43bd 9202 843d 9f6e 97bd fd85 453d
00000110: 9e24 333e 139b 11bd 188a 0fbc 1eec aa3d
00000120: 1c04 0dbe e8c9 aa3c 2a62 b93c 53dc 8e3d
00000130: 90d9 d43d b86e a23d 3978 05bd d07e 363d
00000140: 890f b93c 4f09 3cbd 5f6c f53c 1275 c3bd
00000150: ee08 5a3e a9ad 1f3d ccfd 193e ea95 9fbc
00000160: 098d 4f3d 3582 f73d a16a 7ebd c44b 183e
00000170: fdce 2b3d 600f 963d c56d d63c b353 bc3d
00000180: 5b9b 7ebd 01f9 6f3d ef78 dd3d e2a6 7abd
00000190: b375 e6bd 4041 4ebd 4322 393e 70ad 8f3d
000001a0: 6b68 a4bd 72f9 5cbe 168d 50bd faf3 e3bd
000001b0: b741 083e af72 95bd b5f3 0a3e e2e0 393d
000001c0: c416 17be ab98 c63c e9f9 8a3d bfa9 f23b
000001d0: 1b53 923d 7f1b 313b 9849 24bd 02ec b6bd
000001e0: c919 0e3d 8e15 fbbd 8d35 b83d 8748 203d
000001f0: 80a8 5a3e dc5d d3bd 44e7 d33c 6091 c2bd
00000200: ecd9 85bd e0ef 58bc 2654 163e ef9e 313e
00000210: a9b3 47bc 8a54 c73d 291e 073e 4c3b e3bd
00000220: f548 163e 1ddf 2ebe 0467 0abc 0601 dcbd
00000230: a3c7 87bb 37fa f4bd 3986 893d 4314 b73d
00000240: e69d 78bd ae7b 2ebd 8922 cd3d cc37 7fbd
00000250: 40c1 24bd d987 88bd 568a 08be f5c6 30be
00000260: d45b c7bd d636 113d e6f2 bfbd b536 05bd
00000270: 8033 853c efaa 27be 6240 e8bd 4552 7f3d
00000280: 0dfd 983d 7a65 17bd c212 673d b228 953d
00000290: 1a0c 0e3c 4794 b63c 4ba3 63bb c2ea 5a3d
000002a0: 884b 35be c7f7 963d beec f4bd fd24 14be
000002b0: e26c e2bd 6051 233d da95 97bc 561a debd
000002c0: fee5 d43d e579 2b3c b587 183d 3d94 98bd
000002d0: 5839 1a3e 4f6d 813d 0d45 943d 037f 683c
000002e0: c042 29bd 7463 243d decb e93c c8dc 89bd
000002f0: 3eee 1ebe 6d13 f23d 979e 3fbe 0eba 383c
00000300: 8c78 4a3d 2b7f ef3d 4efd 453c 3ef7 88bd
00000310: b5de 2abe 4851 ba3d c5f1 e23d 04cf 5c3d
00000320: 8a36 b9bd aed3 10bd f718 a93d a5c1 5ebc
00000330: 19d4 583d 5dfb bbbc c96c 533d fbd1 7fbd
00000340: 6e17 2f3b f54e d4bd 596b cb3c 7b5b 743d
00000350: 83be a3bd a845 87bd 347d 11be 8e21 c03d
00000360: 7865 69bd a332 e73d 059e 003d 86d9 85bd
00000370: c28b 963c 9884 b2bd 142f 623d 29f8 723d
00000380: 7f8e 1aba 81fc ef3d eb49 23bb 2a0b 4cbd
00000390: f1b4 093e f0dc 243e 383a 53bd 41b7 bebd
000003a0: 9c42 c4bb cbc4 183e d5c2 1f3b 9ab4 b6bc
000003b0: ca8a 39bd e36b 2dbd 8d93 11be d6ae bfbd
000003c0: 78f8 383e d35c ddbd d9ff 643d 2ffe 2ebd
000003d0: 4e41 a13d 4e4c aa3b 6db9 933d 687b 783d
000003e0: 79ed dc3d 3fee d43d 4854 443e 03f6 e3bc
000003f0: d7ca afbd bab6 a73d c2b1 6dbd 5d95 6ebd
0.060843803 -0.13622122 -0.17964423 -0.19277912 0.08098932 -0.07996693 -0.1877491 -0.0030197082
-0.12139938 0.06622429 -0.013785934 0.15347469 -0.235446 0.022353342 -0.18167624 -0.13780984
0.23186569 0.1230401 0.078646466 0.061254255 0.13158563 -0.070014074 0.02922654 -0.034923874
0.05168946 0.020037066 0.08684718 0.03507299 0.06743678 0.032961633 -0.14020643 0.018325068
-0.020455506 -0.06449769 -0.25314263 -0.06577108 -0.07224531 -0.06965391 -0.025203705 -0.14762253
-0.10571681 -0.15138225 0.052716803 0.13131055 0.036762994 -0.053076673 0.104258314 -0.122166045
0.11031156 0.117625706 -0.16749002 -0.12962753 -0.1263344 -0.14105216 -0.12500893 -0.021140115
-0.0064098854 0.020146439 -0.15622438 -0.06606425 0.23716776 -0.06150304 0.011332104 0.037074167
-0.047782924 0.06445803 -0.07394146 0.048223484 0.17494437 -0.03554828 -0.008760951 0.08345817
-0.13771099 0.02084823 0.022629816 0.06975617 0.10393059 0.07931274 -0.032585356 0.04455453
0.022590416 -0.045907315 0.029958902 -0.09543814 0.21292469 0.038983975 0.15038222 -0.019480664
0.05067161 0.12085382 -0.062113408 0.14872652 0.041945446 0.07327151 0.026175389 0.09195652
-0.062159877 0.058587078 0.10814082 -0.061194308 -0.11252918 -0.050355196 0.18079476 0.070155025
-0.08027729 -0.21579531 -0.0509158 -0.11130519 0.13306318 -0.07297265 0.1356953 0.04538048
-0.14754778 0.02424272 0.06785948 0.007405489 0.07144757 0.0027024446 -0.040109247 -0.08931734
0.03469256 -0.122599706 0.08994589 0.039131667 0.2135334 -0.10320637 0.025867112 -0.09500384
-0.06535706 -0.013240784 0.14680538 0.17345785 -0.01218883 0.097329214 0.13195099 -0.11095294
0.14676268 -0.17077298 -0.008447412 -0.10742383 -0.0041436716 -0.11961787 0.06715054 0.089394115
-0.06069746 -0.04259842 0.10016353 -0.06230907 -0.04022336 -0.06666536 -0.13334021 -0.17263396
-0.09734312 0.035452686 -0.09372501 -0.032522876 0.016259909 -0.163738 -0.11340405 0.062334318
0.074701406 -0.03696201 0.056414373 0.07283153 0.008669877 0.022287501 -0.0034734781 0.05344654
-0.17704594 0.073714785 -0.119592175 -0.14467235 -0.11055924 0.039872527 -0.018504072 -0.10844867
0.1039543 0.010466074 0.037238795 -0.07450149 0.15060937 0.06319677 0.07239733 0.014190438
-0.041323423 0.04013391 0.028539594 -0.06731564 -0.1552057 0.118201114 -0.18712841 0.011274828
0.04943137 0.11694177 0.012084318 -0.06687783 -0.16686518 0.090975344 0.1108127 0.053908363
-0.090436056 -0.035358123 0.08256715 -0.013595973 0.052936647 -0.022947008 0.051617417 -0.062456112
0.0026716846 -0.10366622 0.02483146 0.059657555 -0.079953216 -0.06605083 -0.14207917 0.093814
-0.056981534 0.11288955 0.0314007 -0.0653563 0.018377189 -0.087166965 0.05522068 0.059318695
-0.00058958674 0.11718083 -0.0024915885 -0.049815334 0.1344793 0.16099906 -0.051569194 -0.09312297
-0.005989386 0.1491882 0.0024377604 -0.022302914 -0.045298375 -0.042339217 -0.14216442 -0.09359519
0.18063533 -0.108087204 0.055908058 -0.042722877 0.07873784 0.0051970845 0.072131015 0.060664564
0.10787482 0.10397004 0.19172776 -0.027827268 -0.085836105 0.08189149 -0.05803085 -0.058247913

weight f4 [64, 64]
00000000: c3c1 8ebd 6395 743c c0cd e5bd 2d94 aebd
00000010: be3f 1f3e 6279 14be f8cb 903c eeae e8bd
00000020: 7f8b dabd 5c98 51bd e308 84bd 72e1 4dbd
00000030: 3d93 cb3a 58ce 23bd 53d2 08be e560 99bd
00000040: 6d9a 313d 07d6 a1bd 835e 1fbd b292 093e
00000050: 837a 54bd cec2 6f3b 2526 a6bd a6ae bc3c
00000060: cbcd 87bc b450 513d 3e3a c6bd 46ab 0b3e
00000070: 7536 1bbc 51e6 5a3d b730 6c3c 3ea5 9fbd
00000080: a9a6 f83d 6f1d 173e 6fcd d43c f14f dcbd
00000090: a880 713c 760d c2bc 2a28 dc3d 9c5c 12be
000000a0: 2fed 0bbc e39f 05be 7940 acbd 091a ae3d
000000b0: 60c8 6b3d e8a1 953d 24b2 d73b d5f7 ecba
000000c0: f9cc fd3d 0103 013e 5461 7b3d 55cb 273d
000000d0: f402 0bbe e402 023d 45db 7cbd 61b8 cf3d
000000e0: 4042 92bd 748e b8bd babf 02bd 0514 e5bd
000000f0: 9c6f d639 c67e 08bd c51b 223e 137f cbbd
00000100: 6585 cbbd 7b17 053d 1087 273e b289 0a3d
00000110: 16c0 22bd ff2e 433d 3d3f e9bd e8d6 c73d
00000120: d85c 073d 7377 20bd 44ba a8bd 1855 f7bc
00000130: 5cf2 b9bd c4e4 893d 30af a73d e43f 1abe
00000140: 2527 c13d 4bca 04bd da0a acbd 1255 1abc
00000150: 05a0 24bd edce ffbc 5bcb c43d 4518 203d
00000160: 3c36 1a3e 59de 4b3d 37ff f7bd 29f7 423e
00000170: 281b eebd 2030 4d3d 10a7 0f3d 8f08 903d
00000180: e8d1 2dbd b9b3 dfbd 47c4 543d 36a0 a0bd
00000190: 3df4 373d 0460 e83a fc37 8c3d 2b58 7ebd
000001a0: b59f b53d bd93 bfbc 8823 4cbc f320 87bd
000001b0: 10f7 04bd 300b b63d 5bc9 80bd cb30 b4bd
000001c0: a510 d13c b491 3dbd 8d2c b03c 7632 ae3d
000001d0: 79db 0d3d 10ac d93d 2b66 39bd 14b3 b13c
000001e0: 8d3b a8bd 626d e3bd 8138 d33c 89ca 1f3d
000001f0: 77fd 3b3e 412e f63d 75c5 8b3d 1db1 e0bd
00000200: 7685 9dbd 00dc f13c 8e7a 10bd 1c52 843c
00000210: f605 12bb e58e a9bd 6cdc c0bd a6d4 a63d
00000220: 5205 2ebc 2ffc 11bd a61f 133d c5b4 52bd
00000230: 6226 cabd b602 8d3d b604 b6bd 2630 e1bd
00000240: db41 17bc 7726 c73d 2f6e 963d b7fa 2abc
00000250: 52f9 8d3d 6b35 43bd 90da 343d 8649 db3d
00000260: 0758 ad3c ee3a 2f3e a77e bb3d a3a0 9a3d
00000270: 7713 01bd f7f2 a23d 0d84 aa3d cff8 93bd
00000280: 559a ae3d 7440 1bbe edbc efbd 618d e03b
00000290: 475a aebc bff7 a73d c8a0 a13d f214 ff3c
000002a0: ebc6 fc3d 378f 8abd c31b d83d fbd9 6f3d
000002b0: f2ce b33c ea1e 863d 49e7 f4bd 586d 62bd
000002c0: 9070 ff3d f689 e03c b8ae 53bd 42a0 0cbe
000002d0: 4433 22be 5789 713b 3ed4 3abd 97b4 083e
000002e0: f057 95bc 6856 88bd 235d 88bd 7c91 efbd
000002f0: 5c49 0ebd 8df5 403d 95e8 9b3d 4ecb abbd
00000300: 5e56 a83d a10e 47bd 5678 bcbc 959f 12be
00000310: 9fc5 ad3d 8441 073e 0a49 2d3e 9d47 043e
00000320: 2345 71bd 6860 91bd 1c3a 333d 3b84 adbc
00000330: 18a2 7f3d 4001 6e3d 1a63 383b 96fc 4dbc
00000340: 00e3 3fbe 16bc 05be 2bde ffbd efa5 913d
00000350: 9102 25be c517 0b3d 8a60 9abd b2b9 803c
00000360: 5f17 64bd f269 b83d e6a3 bbbd 3909 5ebd
00000370: e5ea 6d3d 6e02 fabc 83c8 c5bc f2e2 083b
00000380: cfe4 b3bd 82b6 6c3d 82a2 debb c4b5 24be
00000390: dc16 2dbd eaba 9ebd 9ba2 17be be13 04be
000003a0: 8685 353d 41f9 693c dd06 32bc c44a 92bc
000003b0: d6d0 abbc 430f a53d b065 d63d ec48 0b3e
000003c0: c8b5 a7bc 23ad ab3d 490e 5abd 2638 c73d
000003d0: 6a9c d23d 1c1b 923d d45b 283e 609e 2b3d
000003e0: 06e3 993c b14d c3bd e81e cf3c 1496 253e
000003f0: 74f6 c3bb 31a2 d8bd cf88 0abe e1ee b53d
-0.06970551 0.014928195 -0.11220884 -0.08524356 0.1555166 -0.14499429 0.017675385 -0.1136149
-0.10671138 -0.05117069 -0.064470075 -0.05026383 0.0015531551 -0.039991707 -0.13361482 -0.07489184
0.043360163 -0.079021506 -0.038908493 0.13434866 -0.05187465 0.0036584619 -0.08112744 0.023032498
-0.016577622 0.051102355 -0.096790776 0.13639554 -0.009473433 0.053442303 0.014415911 -0.07795189
0.12141163 0.14757322 0.025976865 -0.10757435 0.014740147 -0.02368806 0.10749848 -0.1429314
-0.008540436 -0.13049273 -0.08410735 0.085010596 0.05756414 0.07306272 0.0065825153 -0.0018079231
0.12392611 0.12598802 0.061372116 0.040965397 -0.13575345 0.031741038 -0.06173255 0.10142589
-0.071415424 -0.09011546 -0.031921126 -0.11185459 0.00040900416 -0.033324026 0.15830906 -0.09936347
-0.09937552 0.032493096 0.16360116 0.033822723 -0.03973397 0.04765224 -0.11389015 0.09757787
0.033047527 -0.039176416 -0.08238652 -0.030191943 -0.090794295 0.06733087 0.08187711 -0.15063435
0.09431294 -0.032419484 -0.08400507 -0.009419696 -0.04019167 -0.0312266 0.096090995 0.039085645
0.15059751 0.049772594 -0.12109225 0.19039597 -0.116262734 0.050094724 0.035071433 0.070328824
-0.04243651 -0.10922951 0.051944997 -0.07843058 0.04491066 0.001772881 0.06846616 -0.062095802
0.08868352 -0.023385877 -0.012459643 -0.065980814 -0.03246218 0.088888526 -0.062884055 -0.08798369
0.025520632 -0.04628153 0.021505618 0.085057184 0.034633134 0.106285214 -0.04526345 0.021691836
-0.082144834 -0.111048475 0.02578378 0.039011512 0.18358408 0.12020541 0.06824771 -0.10971282
-0.07691471 0.02952385 -0.035273127 0.016152434 -0.0022281385 -0.08279208 -0.09417042 0.08146028
-0.010621386 -0.03564089 0.035918854 -0.051441927 -0.09870602 0.06885283 -0.08887617 -0.10995512
-0.00923201 0.097241335 0.073452346 -0.010435752 0.0693232 -0.047658365 0.04415375 0.10707383
0.021160139 0.17112324 0.091550164 0.0755017 -0.031512704 0.07956498 0.08325968 -0.07225191
0.0852553 -0.15161306 -0.117059566 0.006852791 -0.021283282 0.08201551 0.07891995 0.031137917
0.12342628 -0.06765597 0.1055217 0.05855749 0.021949265 0.06548865 -0.11958177 -0.05528006
0.124726415 0.027409535 -0.051680297 -0.13733009 -0.15839869 0.0036855543 -0.045612566 0.1335014
-0.018230408 -0.06657106 -0.066583894 -0.11697671 -0.03473793 0.047109175 0.07612721 -0.08388387
0.08219598 -0.048597936 -0.0230066 -0.14318688 0.08484959 0.13208586 0.16922393 0.12917943
-0.058903825 -0.07098466 0.04375659 -0.021181216 0.062410444 0.05810666 0.002813524 -0.012572428
-0.18738937 -0.1306003 -0.12493547 0.071117274 -0.1611426 0.033958215 -0.075379446 0.015713546
-0.05568635 0.090045825 -0.091621205 -0.054208014 0.05808534 -0.030518737 -0.024143463 0.0020887223
-0.08783876 0.05779124 -0.006794275 -0.16084963 -0.04225813 -0.07750495 -0.14808123 -0.12898156
0.04431679 0.014280618 -0.010865894 -0.017857917 -0.020973604 0.080595516 0.10468614 0.13602036
-0.020472422 0.083826326 -0.05323628 0.09727506 0.1028374 0.07134077 0.1644128 0.041899085
0.018785011 -0.09536303 0.025283292 0.16170532 -0.0059803072 -0.105778106 -0.13528751 0.08883453

freqs f4 [8]
00000000: 8155 6f3f 2a8c 0b40 1e38 4b40 600f 8240
00000010: 4ddd a840 b67b c840 a190 eb40 7ebe 0741
0.93489844 2.18043 3.1753001 4.064377 5.2770143 6.2651014 7.361405 8.484007

weight f4 [64, 8]
00000000: a263 6c3e 0854 bd3d a7ca 1f3d 1ac3 543e
00000010: 3837 4abe c76a b63d 0241 583d 23b2 d53c
00000020: 9138 b6be 85d9 aebe 03be e9bd c4b9 69be
00000030: e4a3 9ebe 56e3 d0bd efbb 9abc 4109 a33d
00000040: 2d2e edbd b6ba 21be c55a 13be e2d4 4c3e
00000050: 7952 b33d b23b c13e c136 0b3e 9230 833e
00000060: eafb e5bd b5a9 4dbe 04ca 003e 5c93 7c3e
00000070: 578e c8bd 5119 a33d d5cd 90be 2f15 183e
00000080: 1463 d6be 4947 d5bd 55ff 00be 7d1c 0cbe
00000090: babf 983c 608e 2abe 6463 be3e 201e 19be
000000a0: d82f 423e fafa 9abe c857 593e fe7f 803e
000000b0: ab24 89be 98d0 f0bd 16f0 b0bd 6e21 68bd
000000c0: f0c8 b73d 333d a33e 65ab 70bd c2e9 a53d
000000d0: e864 84be eafa 41be d7f2 94be 46ad bc3c
000000e0: f707 2dbc 6690 b33e da9e 463e bf2d ccbc
000000f0: 58d5 fbbd 4d32 283d 469e 30be dc49 853d
00000100: c669 00be 64b0 30be bd36 1a3d ef8f 433d
00000110: 0a6f 5fbd d02a 833c f5cc 9abe a2cd febd
00000120: e3f7 e9be 8ef6 aa3e cb41 ac3e cabf 9fbe
00000130: aefa 67be e0a1 8dbe 608e 553e c1bc 973d
00000140: d6d4 efbe 0402 e9bd bd5c 953e 3a9e 07bd
00000150: 0776 90be 474b 223e cb1a ad3e 7b57 ae3e
00000160: 236d 4a3e b996 f4bd 7451 4c3b 1dbc 9c3e
00000170: 44ea d13d f35c 96be 08a7 363e 69cc c33d
00000180: f0bd ddbe 67d1 68be a752 893e 9d23 8e3e
00000190: 33b6 9abe 2fcd f93d d743 6f3e 812e 863d
000001a0: b3b4 893e 15fb 033e bdbe 093e 2d93 153e
000001b0: f19f 97bd 25f2 c33c 3403 00be 0f2f aebd
000001c0: 1342 5a3e 40ac 2ebe a20b c13d bcb7 9d3e
000001d0: 3a97 803d 0429 a13e 307c 32bd b1b9 b0bd
000001e0: 1e80 df3e d4de 33be 7b4e b53e 4f3b b43e
000001f0: 10c5 97be a990 07be 6e17 883e 48f9 02bd
00000200: 8508 d1be 471e 383d b85f debe 969d 17bc
00000210: f5c8 5e3d 3be4 eabd ffb8 67bd ef96 163e
00000220: ee71 ca3d b8be 4abd 05bb 23be 9c5f 273d
00000230: 8aee 05bd 718e 83bd f792 e1bd 2aaa 803d
00000240: e766 dbbe 950f 023e 30e0 30be 7cfe ab3e
00000250: 9f51 213c 4f51 333e cb2d 893d 210d f6bd
00000260: c6f8 de3d 2d99 92be dfc6 ac3d 8b15 ac3e
00000270: c66f c3bd 54e3 b53e e4d1 88be c6ac 1d3e
00000280: 93fe 8b3e 5dce 10be d1ba b9be 9cf6 92be
00000290: 7ca7 2b3e 8bbe b63e ee6c 91be 73d7 3fbe
000002a0: e31a 7f3e df61 52bd 3633 a6be f38b 96bd
000002b0: a5e6 de3d 5cc8 bebe c3d9 30be a603 1a3e
000002c0: 9dc3 ee3d 1183 0cbe b454 cf3e 2276 5c3d
000002d0: 8132 4e3e fb69 e3bc 1185 1cbe 071a 803e
000002e0: 0b63 f3be 30e3 c93d f073 49be b6dc 29bd
000002f0: 1326 893e 0e99 abbe 9b07 0c3d 91b6 a6bd
00000300: 06fd c93e ed67 6ebe d3ec b5bd a0c4 53be
00000310: ea10 883e 2f3e 893e af51 dabc cef4 a43d
00000320: 2bb4 083f c5d9 74be 04b0 bf3d c5da b43e
00000330: 10e5 4cbe fa5b 8abe b96e 933e dcd5 953e
00000340: f905 7d3e 4c0a 8a3e bba4 203e de43 50be
00000350: f664 a6be ecbf ae3c 157a 39be 9edd b33e
00000360: 4020 bcbc c14a 553e d16d 95bc ceeb a4bd
00000370: db1e 8cbd ff56 93be 54b1 aabe 7aeb d8bd
00000380: 876a e3be 2faf 9cbe 5c7c 393e adbc 15be
00000390: 2c40 d33c fb4c b4bc 42ac 7dbe c192 0abe
000003a0: e5a5 d2be 5295 543d afef 8f3e 8432 0dbc
000003b0: 73ef c73d de47 533e 2df5 413e 1a3b 573d
000003c0: 13d6 37be 84b7 163e ce50 893c 26da 9c3e
000003d0: 29ed a6bd 3993 903e e7f0 3d3e 6ceb a43e
000003e0: a1bb 3f3e 947a 363d fbd4 6bbd d939 443e
000003f0: ca5b 823e 8e3a 773e 54d2 b6be 0d3f 983c
0.23084882 0.09244543 0.039011624 0.2077755 -0.19747627 0.08907085 0.05279637 0.026085919
-0.35590032 -0.3415033 -0.11413195 -0.2282477 -0.30984414 -0.10199611 -0.018888442 0.079607494
-0.11581073 -0.15793881 -0.14390095 0.20003083 0.08755965 0.37740856 0.13595106 0.25622994
-0.112296894 -0.2008427 0.12577063 0.24665588 -0.09792774 0.07963813 -0.28282037 0.14851831
-0.41872466 -0.10413987 -0.12597401 -0.13682742 0.01864611 -0.16655874 0.37185204 -0.14952898
0.18963563 -0.30269605 0.21224892 0.2509765 -0.26785788 -0.11758536 -0.08639543 -0.056672506
0.08973873 0.3188263 -0.058757205 0.081012264 -0.25858235 -0.18943372 -0.29091522 0.023031842
-0.010560981 0.35071105 0.19396535 -0.024924157 -0.122965515 0.041063596 -0.17247877 0.06508228
-0.1254035 -0.17254788 0.03764986 0.047744688 -0.054549254 0.016011626 -0.30234495 -0.12441565
-0.45696935 0.3339123 0.33643946 -0.3120101 -0.2265422 -0.27662563 0.20855093 0.07409049
-0.46842068 -0.113773376 0.29172316 -0.03310988 -0.28215048 0.15849029 0.33809504 0.34051117
0.19768195 -0.119428106 0.003117648 0.3061227 0.10249761 -0.2936779 0.17837155 0.095604725
-0.43308973 -0.2273613 0.2682087 0.27761546 -0.30217132 0.12197339 0.23365723 0.06551839
0.26895675 0.12888749 0.13451667 0.14606924 -0.07403553 0.023919174 -0.12501222 -0.085050695
0.21314268 -0.17057896 0.09426047 0.3080424 0.06278844 0.31476605 -0.043575466 -0.08629168
0.43652433 -0.17565471 0.35411438 0.352015 -0.29642534 -0.13238777 0.26580375 -0.031976014
-0.40826812 0.04495075 -0.43432403 -0.00925388 0.054390866 -0.11469313 -0.05657291 0.14706014
0.098850116 -0.04949829 -0.15989311 0.040862665 -0.03269819 -0.06423653 -0.110143594 0.06282456
-0.42851946 0.12701257 -0.1727302 0.33592594 0.00984612 0.17511486 0.066981874 -0.12014223
0.108872935 -0.2863249 0.08436369 0.33610186 -0.095428035 0.35525 -0.26722634 0.15397939
0.27342662 -0.14141221 -0.36275342 -0.28703773 0.16763109 0.35692248 -0.2840342 -0.18734531
0.249126 -0.05136287 -0.32460946 -0.07350912 0.10883836 -0.37262237 -0.1727057 0.15040454
0.11658404 -0.13721873 0.4049431 0.053823598 0.20136453 -0.027760496 -0.15285136 0.25019857
-0.475365 0.09857786 -0.19673133 -0.041470252 0.2678686 -0.3351521 0.03418694 -0.081402905
0.39450854 -0.23281832 -0.08883061 -0.20680475 0.26575404 0.26805255 -0.026650278 0.08054505
0.53399915 -0.23911197 0.09359744 0.35323158 -0.20009255 -0.27023298 0.28795412 0.29264724
0.2470931 0.2696098 0.1568784 -0.2033839 -0.32498902 0.02133175 -0.18112977 0.35130018
-0.022964597 0.20829298 -0.018240841 -0.08052789 -0.06841823 -0.2877731 -0.33338416 -0.105917886
-0.4441721 -0.30602404 0.18113846 -0.14622755 0.025787435 -0.022009363 -0.24772742 -0.13532545
-0.41142192 0.051900215 0.28112552 -0.008618001 0.09762468 0.20632884 0.18941183 0.052546598
-0.17952757 0.14718443 0.016762163 0.30635184 -0.081507035 0.28237322 0.18548928 0.32210863
0.18723918 0.044550493 -0.05757616 0.19162692 0.25460654 0.2414343 -0.35707343 0.018584752

weight f4 [64, 64]
00000000: 5f31 053e c527 09be 691d 05be b305 a2bd
00000010: d398 a23c dcfd 5c3d 5d45 a6bd 7565 263d
00000020: 9d02 7a3c b614 a2bd 294a 953c 4284 d33d
00000030: cae4 b33c 6b7c a13c 2a29 93bd f2ce 0bbd
00000040: b30a 7abc 8a0c c4bd 7984 0c3d cfd7 0dbe
00000050: c37a a7bd 55b1 de3d 560f 853d 05d0 93bd
00000060: 2e34 81bb fe66 a03c e458 183c e399 e33c
00000070: 4111 57be 13c4 0dbe 8244 8ebd d734 bdbb
00000080: 346d 9f3d 8487 8cbd e3ef dbbb f1fd 2c3d
00000090: 206f 8bbd 52ab 71bd 49bc 0d3b 6e63 59be
000000a0: 6f9d 0ebb b546 18bc 8657 25bc 46bd ebbd
000000b0: 41a1 283e 9f40 593d bfbd 0abe 0810 463d
000000c0: 8cc3 59be 9cf6 593d 0643 223d ee6d 223e
000000d0: 7150 de3d 5bd5 04bd fe9c e7bd bfea 25be
000000e0: e1ed 883c 7640 033e 1957 42bb 6b31 9bbd
000000f0: 5d36 753d de51 0c3e 6a1b 8b3d 6c5d 583d
00000100: 848d ce3d 0e4e 6e3d c2f0 e33d 9ac4 983d
00000110: b4cb 3a3d 111a 983d 77db 8c3c 3e28 0bbe
00000120: 27e7 2cbc abcb 0bbd 9379 e0bb 0e5f 90bd
00000130: 485f 1abe 391d b83d b910 95bd 94f0 9abd
00000140: e093 c6bd 9fe4 983a a1a2 bdbd 218d 03be
00000150: 6e10 1ebc ba25 c43d 44ce ff3d 18ab 44be
00000160: 37eb b6bc a066 cebc c1c5 d8bb 5319 e63a
00000170: 35a6 9c3d 24e5 3cbd 04b6 cb3d 6aed a3bc
00000180: 6c39 edbd 4e51 153d e51d 843d da3f 3a3e
00000190: 19a6 bbbd 9f2e d7bc 0cea dbbd 2d10 f0bd
000001a0: fc5c f63b 32a4 383c 0d83 393d 39f6 d23d
000001b0: 13ba 58bd 3b08 db3c 3101 fabd 372f efbc
000001c0: 2f0f 703d fbf0 813d bb2c d6bd 5451 d1bd
000001d0: 62e1 81bd 712f c9bd 51cd 22be 8c0a 003d
000001e0: 4947 f13b 24c0 60bc 83be 9e3d 4306 02be
000001f0: ff03 c83d 7cc9 e13d 706e 0f3d ccbd d73b
00000200: b0a7 e1bd 3223 90bd 11e6 b33d 2258 06be
00000210: 7c19 8bbc 5ee0 433d 8819 2cbd abf6 1a3c
00000220: 6fa6 70bd 980a 033d ba8e 1a3c 9564 ddbb
00000230: a5be 2f3e 40fd c7bd 3972 a73d 106c 01be
00000240: b941 b8bd 663b 5a3d 2a1b 17bd 6ebf 993d
00000250: 85d3 67bb 7c7b 28be 2638 0abe b051 e33d
00000260: 52a0 0bbe f075 27bd 117f c53c c7dd a6bd
00000270: 5591 2e3e 6a56 2dbc 54a8 8b3c 7238 d5ba
00000280: 2a23 f53d 4af6 09be 0f90 073d b4f6 96bd
00000290: b319 9b3d 127d 133d 7164 5fbd 4493 0b3e
000002a0: 4663 34bd 759f 27bd 0d40 073c 0198 9f3d
000002b0: cd2d 19bd 5183 5c3d b7b1 7fbd 929f bdbd
000002c0: 26df 0f3e d8e3 35bd 6cf5 2abd ea97 be3c
000002d0: e0b4 e1bd ab3f 24bd c7d3 e43b 06bd 9cbd
000002e0: daea 873d eedb a33d c7c6 3fbd 1b40 0abd
000002f0: 6ae2 17be 4883 e2bd 6ea1 c7bd 7282 0dbd
00000300: 87ab 403d 0208 edbd 4bf6 873d efdb 67bd
00000310: 8307 7fbc 75dc 143d 4eeb 44bb 33a4 e53c
00000320: 9bb7 00be 2159 aabd fae6 b63d ba34 8e3c
00000330: 657c 85bd 002c 833d 728e ed3d 5bdf 0a3e
00000340: 2158 0bbe 0cad e73d 4f63 24be 0d32 dfbd
00000350: b9dc 283c 590b 033d ef99 c6bd f552 2ebc
00000360: a751 2d3d 4d57 583d 80b5 b83d 4fd6 873d
00000370: a7ed edbd 785a ca3c d657 af3d fe2d 95bc
00000380: a795 cdbd 8147 9cbd 7255 73bd 2c2a 99bc
00000390: 1756 2abe 4ad0 29be 223c 96bd c0bb 9fbd
000003a0: 5960 be3c a5e4 0bbe 9fc1 b83c 89e2 95bc
000003b0: 13ff a93d aad6 bc3d d828 c43d b8a3 a63d
000003c0: 16be 653d 81c9 853d dd76 e7bc c70a 653c
000003d0: f083 6b3d 363c 06be e7f6 843c 9695 2c3d
000003e0: d886 b2bd 01d1 533b a186 fbbc 5657 843d
000003f0: 5dae 103d 26cf 093e 66af dc3a 3467 233e
0.13007115 -0.13394077 -0.129995 -0.07911243 0.019848263 0.053953037 -0.08118699 0.0406241
0.015259412 -0.079141065 0.018223839 0.103279606 0.021959681 0.019712647 -0.07185586 -0.034132905
-0.01526134 -0.09572704 0.034306023 -0.13851856 -0.08177712 0.10873667 0.06497066 -0.07217411
-0.003942988 0.01958036 0.009298537 0.02778334 -0.21002676 -0.13844328 -0.069466606 -0.0057741213
0.07784501 -0.06861785 -0.0067119463 0.042234365 -0.06808305 -0.059001274 0.002162712 -0.21229336
-0.0021761318 -0.009294202 -0.010091668 -0.115107104 0.16467763 0.053040143 -0.13548945 0.048355132
-0.21266001 0.0532137 0.0396147 0.15862247 0.10855187 -0.032430034 -0.11309241 -0.1620283
0.016714992 0.12817559 -0.0029653965 -0.07577785 0.059866298 0.13703105 0.06792338 0.05282347
0.10085586 0.058179908 0.11129905 0.07459374 0.045604423 0.07426847 0.017194493 -0.1358957
-0.010553158 -0.03412978 -0.0068504303 -0.0704938 -0.1507541 0.08989949 -0.0727858 -0.07565418
-0.09696174 0.0011664814 -0.092595346 -0.12846805 -0.009647472 0.09577508 0.12490514 -0.19205892
-0.022328956 -0.02519542 -0.006615371 0.0017555155 0.07648889 -0.046116963 0.09946826 -0.020010669
-0.11583218 0.03645449 0.064510144 0.1818842 -0.0916254 -0.026267348 -0.10738 -0.11721835
0.007518409 0.011269616 0.045290995 0.103008695 -0.05291183 0.026737323 -0.122072585 -0.029197318
0.05860823 0.063447915 -0.104577504 -0.1022059 -0.063418165 -0.09823502 -0.15898634 0.03126006
0.007363234 -0.013717685 0.07751181 -0.12697701 0.09766387 0.11024758 0.03501743 0.006583905
-0.11018312 -0.07037963 0.08784116 -0.13119557 -0.016979925 0.047821395 -0.042016536 0.009458224
-0.058752473 0.031992525 0.009433443 -0.006756375 0.17162569 -0.097651005 0.08176083 -0.12638879
-0.089969106 0.053279303 -0.03689114 0.075072154 -0.0035373878 -0.16453356 -0.13497981 0.11099565
-0.13635376 -0.04088396 0.024108442 -0.081477694 0.17047627 -0.010579685 0.017048039 -0.0016267432
0.11969598 -0.13472858 0.03309637 -0.07371274 0.07573261 0.03600795 -0.054539148 0.13630396
-0.044039987 -0.040923554 0.008255017 0.07792664 -0.037397195 0.05383617 -0.06242534 -0.09258951
0.14049968 -0.04440674 -0.04173796 0.023265798 -0.11020827 -0.04009978 0.0069832536 -0.07653241
0.06636591 0.08000933 -0.04682043 -0.033752542 -0.14832464 -0.11060196 -0.09747587 -0.03454823
0.04703858 -0.11573793 0.066387735 -0.05660623 -0.015565756 0.036343057 -0.003004748 0.028032398
-0.1257004 -0.08317781 0.08930774 0.017359126 -0.06517867 0.06404877 0.11599435 0.13561766
-0.13607837 0.11312303 -0.16053508 -0.10898218 0.010306531 0.031993244 -0.09697329 -0.010639896
0.042314198 0.05281763 0.090189934 0.06632673 -0.11617594 0.024701342 0.08561675 -0.018210407
-0.100383095 -0.07630826 -0.05940766 -0.018696867 -0.16634403 -0.16583362 -0.07335688 -0.07799482
0.023239302 -0.1366144 0.022553263 -0.018296497 0.08300605 0.092206314 0.09578103 0.081366956
0.056089483 0.065325744 -0.02825492 0.01397962 0.057498872 -0.13108906 0.016231013 0.042134844
-0.08717126 0.003232062 -0.030703845 0.064619705 0.035322536 0.13457927 0.0016836941 0.15957338

weight f4 [64, 64]
00000000: 96e3 8cbd ea68 d13d b5a4 1a3e 0ada c9bd
00000010: e383 353e 69a2 573c cd32 fcbd ab90 ff3d
00000020: dca5 573e cdc5 2ebe f3d0 593d 7687 9ebc
00000030: 6477 9d3d 93f1 0bbd 1000 393d 9256 b43c
00000040: 64be 003d 0859 3ebd bc41 9c3d d1cd 72bb
00000050: 8ba0 9cbd 52e4 eb3d c7ff aebd 007d 95bd
00000060: 9d26 eb3d 91ce 2cbe 4f37 743c e803 b53d
00000070: e3f9 4f3b 9f1d c13d 7e4d 323e 970b a8bd
00000080: afbe 89be 3e88 0b3d 7f54 a03d d1d3 cc3c
00000090: e7d9 dabc fa01 b23c b11a f0bd 780d bfbc
000000a0: 3b73 ddbd 001f 38be be30 23be 22d7 b9bd
000000b0: 56c8 f5bd 31b1 31bc bde0 12be 2a59 dc3d
000000c0: cb69 9bbc 336f 5bbe 129c 323b df41 d03d
000000d0: 4f94 fd3d cfd4 a9bd 7641 ce3d adb6 3a3d
000000e0: fdfb 72bc 35d9 ff3d f47e 9ebc 0671 53bd
000000f0: 18d4 2ebd 4168 853e 96a9 993b 2700 063e
00000100: 461e 93bd e084 fdba 1693 663d 8b50 81bc
00000110: 6164 823d 7ebf 4e3d b5f4 69bd 5ce9 27bd
00000120: 90a8 a83d bbc5 b7bd 454b c6bd b61f 6dbe
00000130: 1168 a73d 1110 3ebd 2aeb 1fbd 2c17 013d
00000140: 09bd 40be ecbe 9fbc b7cd 9fbd 58c5 44be
00000150: bbbc bb3c cd8e e83d d851 403d e983 d33d
00000160: 9a0a 643d 086a aabc c2e1 403d 8c0a 9dbd
00000170: c94b fabd c9a8 d6bd 234b 08bc de9a 8a3c
00000180: 933a 1a3e f4d5 173e bd9b aa3d 2bec 563e
00000190: 5a21 a63d 4d46 023e 66fb bebd 6db2 4fbe
000001a0: 09ce b7bd f855 8b3d e830 f13d d9d8 12be
000001b0: 912d 88bd e331 d5bd 66d7 cabd c8e2 15bd
000001c0: d4e6 f5bb d9d6 183d e7f7 72bc 4907 df3d
000001d0: 8c7f e43c 24e7 8eba 7da2 023d e225 1cbd
000001e0: da49 5f3d be1c 4c3d cd74 013d a72a acbc
000001f0: 07c3 06be a249 993d 0ab6 c83d 729f 1dbd
00000200: c025 0ebd 325d 95bd 8bca 243d 02f7 9f3d
00000210: d101 68be 86fe 1d3d 02af d33d b8a0 6a3d
00000220: a3bf 693c 01fa aabd a152 a23d 2689 ba3d
00000230: c8e4 67bd 7eea b3bd f2cf fdbd e463 a83d
00000240: b4c8 0e3e 7436 2dbd 0eb8 973d e351 d43c
00000250: ded5 8c3c 5867 e1bd 7c0b 1f3d 60a8 83bd
00000260: b383 073d dbe4 20bd e50c 28be 38ed 2cbd
00000270: 157a c73d 0f92 b13d 549e 38be c421 f93d
00000280: ac17 4ebc 87a7 39be 4099 4dbd 755b 6bbe
00000290: b6c9 eabd 71c1 b0bd 0c72 a83d 0f64 483e
000002a0: 060c 93bd c346 3cbe c2b6 cc3d d501 223e
000002b0: d1c2 8abd 093e b7bd 22c4 613d 5f05 67bd
000002c0: 7d1a 05bd 88c2 223e efad 93bb 49e9 efbc
000002d0: 03fd 28bc 2351 773d c8a5 c1bd 084d 193e
000002e0: bc48 ce3c 057c 4f3d d5b6 97bd d980 913d
000002f0: 6e89 51bc b350 a0bd e13e 053e 751a 573d
00000300: 4cc9 e83d 0640 9bbd 1740 7f3c 4769 fd3c
00000310: c2c9 09bd bb97 22b9 26c8 d63d 8414 ad3d
00000320: de10 08be 583d 813d 7843 fc3c 11ff 533e
00000330: b400 a3bb c554 403c 480a 59bc 2577 9a3d
00000340: 356c 013e e971 863d b494 1c3e 141b 6d3e
00000350: da0c 07be 7661 3cbe 6fcf 8cbd 198d 1e3c
00000360: 6e69 313d 1d77 213d e57b 19be f209 d3bc
00000370: 3b4d 0b3d 0940 d63c e1a4 4cbe 994a 843c
00000380: 114d 6b3c fe52 673d 58d5 03be ff28 80be
00000390: af64 903c 9eef 56bc 542a 073e ecce 6a3b
000003a0: 51a8 b8bd 4b59 083e 6a91 023e 6a5a 0c3e
000003b0: bde3 1a3e 88fc e63d ecee 2cbb f89c 95bd
000003c0: 653e 34bd a6b3 1bbd ad92 e5bc 9b78 8d3c
000003d0: b85c 1fbc 8c72 eebc 9833 86bd e5a0 e6bb
000003e0: c3bd bcbd 4b93 90bc d8dd 77bd c046 43bd
000003f0: a257 d0bd cb5f 07be afc1 56bd bf5e 323d
-0.06879346 0.10225089 0.15101893 -0.09856041 0.17726092 0.01316128 -0.12314377 0.12478765
0.21059364 -0.17067643 0.053177785 -0.019351702 0.076887876 -0.03416593 0.045166075 0.022013936
0.03143157 -0.046471626 0.07629725 -0.0037048946 -0.07647809 0.11518158 -0.085448794 -0.072992325
0.11481974 -0.16875674 0.014905765 0.08838636 0.0031734637 0.09429478 0.17412373 -0.082053356
-0.26903293 0.034065478 0.07828616 0.025003346 -0.026715232 0.021729458 -0.11723841 -0.023321852
-0.10812994 -0.17980576 -0.15936562 -0.090742365 -0.12001102 -0.010845468 -0.14343543 0.10759194
-0.018971344 -0.21429138 0.002725367 0.10168814 0.12381803 -0.08292543 0.100710794 0.04558437
-0.0148305865 0.12492601 -0.019347645 -0.05162146 -0.042682737 0.26056102 0.0046894057 0.13085996
-0.071835086 -0.0019341968 0.056292616 -0.015785476 0.06366802 0.05047559 -0.057118136 -0.040994033
0.08235276 -0.08973261 -0.09682325 -0.23156628 0.08174146 -0.04640204 -0.03904263 0.03151624
-0.18822111 -0.019500218 -0.07802909 -0.19215906 0.022917142 0.11355362 0.046953052 0.10327894
0.055674173 -0.020802513 0.0470903 -0.07668027 -0.12221486 -0.10481412 -0.008318695 0.01691955
0.15061407 0.1482771 0.08330486 0.20988528 0.0811183 0.1272213 -0.09325294 -0.20282908
-0.08974845 0.068035066 0.11776906 -0.14340533 -0.06649316 -0.10409906 -0.09904365 -0.03659323
-0.0075043235 0.03731427 -0.014829612 0.108900614 0.02789285 -0.0010902626 0.031893242 -0.038122065
0.05451379 0.0498321 0.03160553 -0.021016432 -0.13160335 0.074847475 0.09800346 -0.038482137
-0.03470397 -0.07293166 0.040232223 0.07810785 -0.22656943 0.03857281 0.103361145 0.05728218
0.014266881 -0.08348466 0.079259165 0.0910819 -0.056614667 -0.0878496 -0.12393178 0.082221776
0.1394375 -0.04228826 0.074081525 0.025917953 0.017191824 -0.110060394 0.03882931 -0.06428599
0.033084583 -0.039280754 -0.16411169 -0.042218417 0.09740082 0.086704366 -0.18029147 0.121646434
-0.012578886 -0.18130313 -0.05019498 -0.22984107 -0.114642546 -0.08630646 0.08224878 0.1956942
-0.07180028 -0.18386368 0.09995796 0.15821011 -0.067754395 -0.08947379 0.055118687 -0.056401607
-0.032495964 0.1589452 -0.0045068185 -0.029286044 -0.010314229 0.060380112 -0.094554484 0.14970791
0.025181167 0.050655384 -0.07407919 0.07104654 -0.012789113 -0.07827892 0.13012268 0.052515466
0.11366519 -0.07580571 0.015579245 0.03093399 -0.033639677 -0.00015506048 0.10487394 0.08451179
-0.13287684 0.063105285 0.03079389 0.20702769 -0.004974449 0.011738961 -0.01324708 0.07542256
0.12638934 0.065646954 0.152911 0.2315486 -0.13188496 -0.18396553 -0.06875502 0.009677195
0.043313436 0.039420236 -0.14988668 -0.025761578 0.0340092 0.026153581 -0.19984771 0.016148852
0.014361636 0.056475632 -0.12874353 -0.25031278 0.017626135 -0.013118653 0.1319974 0.0035828901
-0.09016479 0.13315313 0.12750784 0.13706365 0.15125938 0.11278635 -0.0026387526 -0.0730533
-0.044004817 -0.038013123 -0.028024042 0.017269423 -0.009726696 -0.029107355 -0.065528095 -0.007038223
-0.09215882 -0.01764836 -0.0605143 -0.047674894 -0.10172965 -0.13220136 -0.052430805 0.04354739

weight f4 [64, 64]
00000000: a8fa 6cbd 664e 30bd a4d4 503c 45ce 96bd
00000010: a475 9ebb b1a2 50bd d90c 51bc 7f23 a9bd
00000020: 3efd f23d 7502 a73c 22ca 19be c2d4 19bc
00000030: f257 843b 1981 46bc 4354 debb 1ae1 cfbb
00000040: 383c e0bc 4b34 013e 5ce2 ba3d c252 033e
00000050: dbc7 1ebd 2451 173e cc71 a3bd 579b 6e3d
00000060: a48b 483c cdcc 003e decc afbc a46d f83c
00000070: 0a16 87bd 6775 403d 89e8 74bd f514 063d
00000080: a512 80bc b2c4 a23d 824a 0f3c 0412 4a3d
00000090: b745 26be e98f 0d3c 7141 253c 82a3 e43d
000000a0: 5e58 a93d 89ff 6fbc d7e4 603c bd13 92bd
000000b0: 9d23 e83d 56d2 c4bb 5635 8c3c 522d 893c
000000c0: 512c 0dbe bfa8 8bbd 52e3 6fbd ba28 153e
000000d0: b573 ba3c 4907 0fbe 456f b0bd 2e81 053d
000000e0: ab8c 1fbe 5b3e 073e 1893 9b3d 57a2 253c
000000f0: 9df7 ce3d ace9 ee3b 33c6 c33c d5da d93d
00000100: 563e 443d 7b34 c03d 1285 b6bb 2928 5abd
00000110: 1d7f 05be f56e 5bbd a75d 94bd 83ef 9f3d
00000120: 81e1 443d 3834 d4bd 3fcb 5d3c 0742 6f3d
00000130: 8e3d 933b 53b9 703c e39b a33d b8c1 953d
00000140: 97a3 9dbd d08f 783d 9add cdbd a202 f93d
00000150: 7281 90bc 9aa1 e63d 490d 7f3d 941f 8b3d
00000160: 02d8 9fbd a283 70bd c67f 02bd 9fc0 66bd
00000170: ac18 b8bc 604b b4bd 5302 55bd 9661 a63d
00000180: 0a67 c4bc abf4 913c 5ce7 fabd 7106 cfbd
00000190: d82e b03d 4a98 c2bc a6e0 4b3d 9f79 523d
000001a0: 8411 953d 1b9e 0a3d 3aa5 b73d 18ba ffbc
000001b0: 7632 323d feb3 583d 5986 8ebd ccd8 763d
000001c0: 70fe e3bc 0b81 38bd ecf4 4dbb 8a2a cbbd
000001d0: 5b39 d1bb 0234 f5bd 53f6 fbbd 1510 e8bb
000001e0: 4850 8abd c752 07bd 49e6 f1bc 5401 043e
000001f0: 16c7 8a3c c286 ad3d dced 903d de31 d53d
00000200: 19dd c23d 8ad0 c83d 2ae2 a9bd a4e5 59bd
00000210: e587 0dbe bbcb 823b e592 08bd 5522 c33c
00000220: bf65 c3bd c4c6 9dbd 4ef3 e03c e1ff b13d
00000230: fe3b d03d 5dfb 1d3c e826 2ebd 413d c9bd
00000240: 17c8 39bd cf0e a73d fb50 a73d cc20 dd3c
00000250: 7307 dabd be75 ef3d c81c 9fbd c75b 803d
00000260: d948 de3c ecd6 043e b968 3b3d 1e2b f0bd
00000270: ed68 93bd 68dd e33d c204 183b fae2 ba3d
00000280: d33c 063e d7e1 b23c 4ed0 853d f6f5 9dbd
00000290: b4d1 9fbd 91eb be3d c2a8 f9bd 3b5c 143e
000002a0: 511f c43d 7713 dbbd ea18 17bc 0062 423c
000002b0: e5f3 91bd dca6 5abd 10b6 813d 09ff 273b
000002c0: 2ed2 b5bd 2734 d83d d525 a13d a637 90bd
000002d0: b495 d73c bff3 c3bd 92a4 f4bd fd33 2a3d
000002e0: 32ab 1ebd a488 a03d 229f 0bbe f684 90bd
000002f0: 58b8 85bb 8f6b 9a3d 3913 d1bc 2f02 973d
00000300: 4c7b 60bd 78bd 173d ee7f 17b9 ac18 86bd
00000310: 665a fabd efa5 e8bc 51b4 abbd 7d78 10be
00000320: ac85 d23d 3b18 1ebe 8ca0 d13d b21b 653d
00000330: 3985 893d a938 c23c c384 f6bd 0dd5 883d
00000340: 8e31 a4bb 4711 5f3d 7713 a03d 34d1 ddbc
00000350: 0146 3dbd 54d3 0a3e dd16 4abc bc2b 08be
00000360: 4064 7dbd 4129 8f3d 089b ce3d 27ff 06be
00000370: b20e 2f3b e34e be3d cff9 183e b320 873d
00000380: 5dba 7ebd 1d56 163e 7307 6bbd 967a 60bd
00000390: 944a 3abd 0eb6 823c 4b97 1cbd 2f44 323e
000003a0: 777c 963d d64a 173e 1fb7 98bd d17f de3d
000003b0: f344 c539 e7b5 e73c 0ff0 14be 3585 e6bd
000003c0: a32b 6ebc 8999 c5bd be6d b8bd 9b5b 62bd
000003d0: e3b4 013e 1f69 acbd c8ec 943d 0348 653d
000003e0: 71e1 2abe 9981 ee3d ca1a 0f3d 797f 713d
000003f0: afbc f53d 1a31 bebd 8e6f 143e 69cf c1bb
-0.057856232 -0.043043517 0.01274601 -0.073635615 -0.004835801 -0.050936405 -0.012759411 -0.082587235
0.11864708 0.020386914 -0.15018514 -0.009389104 0.004038804 -0.01211574 -0.006784947 -0.006343973
-0.027372465 0.12617604 0.09125206 0.12824538 -0.038764816 0.14777046 -0.079806894 0.058253612
0.012240324 0.12578125 -0.021459993 0.030325718 -0.065960005 0.046986964 -0.059792075 0.03273483
-0.01563389 0.07947673 0.008745791 0.049333587 -0.16237532 0.008640268 0.010086403 0.11163999
0.08268808 -0.014648327 0.013726435 -0.07132671 0.11334918 -0.0060065193 0.017115276 0.016745243
-0.13786437 -0.06819295 -0.0585664 0.14566317 0.022760252 -0.13967623 -0.08614973 0.0325939
-0.15581004 0.1320738 0.07596415 0.010109506 0.10105822 0.0072910395 0.02389822 0.10637442
0.04791101 0.0938501 -0.0055700624 -0.053260956 -0.13036771 -0.053572614 -0.07244425 0.07809355
0.04806662 -0.103615224 0.013537227 0.058412578 0.004493422 0.014692622 0.079887174 0.073123395
-0.07697218 0.060684025 -0.10052033 0.12158705 -0.01763985 0.11261292 0.06226853 0.067931324
-0.07804872 -0.058719285 -0.031860135 -0.05633604 -0.022472702 -0.08803439 -0.05200417 0.08124082
-0.023974914 0.017816862 -0.122511595 -0.101086505 0.08602685 -0.023754258 0.04977479 0.05138552
0.072787315 0.033842187 0.08967061 -0.031216666 0.043505155 0.05290603 -0.069592185 0.060265347
-0.027831286 -0.04504494 -0.0031426502 -0.09920223 -0.006385011 -0.1197281 -0.12302842 -0.0070819953
-0.06753594 -0.033037927 -0.029528754 0.12891132 0.016940635 0.08472969 0.07076618 0.10409902
0.09514827 0.09805401 -0.082950905 -0.053197518 -0.13821371 0.0039915717 -0.033343215 0.023820082
-0.09540891 -0.07703927 0.027459767 0.08691383 0.101676926 0.009642449 -0.042517573 -0.098261364
-0.045356836 0.081571214 0.08169743 0.026993178 -0.10645952 0.116923794 -0.077691615 0.06267505
0.027134346 0.12972611 0.04575417 -0.11726974 -0.071977474 0.11126214 0.0023196195 0.091253236
0.1310914 0.021836204 0.065338716 -0.07712929 -0.078036696 0.093222745 -0.12190391 0.14488308
0.09576286 -0.10697072 -0.009222249 0.011864185 -0.07126597 -0.053381786 0.06333554 0.002563419
-0.08877979 0.10556822 0.07868544 -0.07041864 0.026316501 -0.09567975 -0.11945452 0.041553486
-0.038737483 0.07838562 -0.13634923 -0.0705661 -0.0040808134 0.075400464 -0.025521861 0.07373463
-0.054805085 0.037045926 -0.0001444814 -0.065476745 -0.122242734 -0.028399436 -0.08384002 -0.14108463
0.10279402 -0.1543893 0.102357 0.055934615 0.06714863 0.023708658 -0.12037041 0.06681261
-0.00501079 0.054459836 0.078162126 -0.027077295 -0.04620934 0.13557178 -0.012334553 -0.13297933
-0.061863184 0.069902904 0.100881636 -0.1318327 0.002671164 0.0929239 0.14939044 0.06598034
-0.06218945 0.14681287 -0.05738015 -0.054804407 -0.04548128 0.015955951 -0.03823022 0.17408822
0.073479585 0.14774641 -0.074568026 0.10864223 0.0003762614 0.02828498 -0.145447 -0.11255876
-0.014536771 -0.09648425 -0.09005307 -0.055263143 0.12666659 -0.08418488 0.07271725 0.05597688
-0.16687562 0.116458125 0.034937657 0.058959458 0.11998879 -0.09286709 0.1449568 -0.005914618
