examples/carbon/outDir/epoch=177-step=88740-val_loss=0.2126.pt (torch, 745777 bytes, 92 tensors)

cutoff f8 []
3.0
00000000: 0000 0000 0000 0840

weight f4 [7, 64]
0.84871036 0.69200915 -0.31601277 -2.1152194 -0.35612836 0.43722272 0.49130496 -0.20410173
0.11984151 1.2376579 1.1167772 -0.24727815 -1.0437516 -1.3453052 0.7853556 0.9928375
0.59883946 -1.5550951 -0.3413604 1.8530061 0.4680964 -0.15771244 1.4436601 0.2660494
1.3893661 1.5863342 0.94629836 -0.84367675 0.9318266 1.2590092 2.0049806 0.053736903
0.43969584 0.112411186 0.64079237 0.44115627 -0.21586326 -0.74254817 0.5627214 0.2596274
0.52286047 2.3022053 -1.4688939 -1.5866888 1.2032237 0.0845347 -1.2001394 -0.004785738
-0.23033547 -0.3917544 0.5432947 -0.39515755 0.20552567 -0.45032975 -0.5730771 -0.5553584
-1.5311843 -1.234135 1.8197253 -0.5515287 -1.325326 0.18855357 -0.069072686 -0.49492535
-1.478174 2.5672328 -0.4731198 0.33555076 1.5091219 2.0819554 1.7067116 2.3803675
-1.0669804 1.1149396 -0.14067143 0.8057536 0.3276143 -0.7607072 -1.599082 0.018486667
0.8418941 -0.40003416 1.039462 0.3581531 -0.003303873 -0.5344407 1.1686878 0.39450276
-1.0449786 -0.9565008 0.03353186 0.7100866 -1.5352871 -0.41267914 0.9663033 1.6247832
-2.6133225 -1.6964744 -0.22824179 0.279955 0.07324605 1.1133184 0.28226724 0.43422565
0.45694014 -0.86537135 0.78130794 -0.9267894 0.20641631 -0.33344787 -0.42883 0.23291829
0.9625183 0.34916824 -0.921462 -0.056194786 -0.7015236 1.0366868 -0.6036701 -1.2787652
0.12390248 1.1647835 0.9233735 1.3872952 1.3750379 0.6596311 0.4765571 -1.0163075
0.6103646 0.46688354 1.9506571 -1.0630985 1.1403507 -0.08988207 0.72979623 -1.845319
-0.10209263 -1.0335484 -0.31263882 0.24578547 0.37718192 1.1012348 -1.1427778 0.037585396
0.28857616 0.38659775 -0.20106392 -0.117926985 -0.82936686 -1.4072566 1.6268467 0.1722732
-0.70429397 0.31472096 0.15739289 0.3853627 0.5736546 0.9979313 0.54360944 0.07880439
0.9984566 -0.49871477 0.7611109 0.61830086 -0.29938447 -0.18777807 1.9158976 0.6901953
-0.314035 -1.078708 0.24081051 -1.3962272 0.1135521 1.1047257 -1.395172 0.47511873
1.0810726 0.13147806 1.5735383 0.78142995 0.9874366 -1.4878075 0.58668745 0.15829536
0.66678107 -0.99438965 -1.189364 -1.1959494 1.311892 -0.20983894 0.7817313 0.98969257
0.17151096 0.87604475 -0.2870874 1.0216401 -0.51107377 -1.7137278 -0.5100648 -0.47489312
0.66227406 -1.2063024 0.6074397 -0.5471568 -1.1004796 -0.7201275 0.011930507 0.3397729
-1.2536547 0.9868361 -0.49465504 -1.283043 0.4386492 -0.010704049 1.3383542 -0.27940503
0.2877034 -0.033374783 -1.0618885 -0.11442617 0.1953929 -0.7371095 1.7001015 0.34621555
-0.14475703 0.6376178 -0.28129023 -1.3298751 -0.6537996 1.7198241 -0.9609554 -0.6375025
-0.8869632 0.8387747 1.1528951 -1.7610981 -1.1070389 -1.7173612 1.534561 -0.0032062111
1.4403422 -0.11059419 0.57686025 -0.16917409 1.1886791 -0.15750733 -0.045538586 0.64847344
-0.8707436 0.14474289 1.9028565 0.3903958 0.03306363 -1.0234498 0.7335114 1.1177199
00000000: 1545 593f 8327 313f 6dcc a1be c15f 07c0
00000010: 7556 b6be a8db df3e 538c fb3e 0b00 51be
00000020: 776f f53d 936b 9e3f 8ef2 8e3f 7c36 7dbe
00000030: a799 85bf f632 acbf 110d 493f 992a 7e3f
00000040: 8b4d 193f 5b0d c7bf cac6 aebe 4e2f ed3f
00000050: 55aa ef3e 5f7f 21be dbc9 b83f a137 883e
00000060: c0d6 b13f 000d cb3f 9c40 723f 33fb 57bf
00000070: 308c 6e3f 3727 a13f 9a51 0040 3a1b 5c3d
00000080: d01f e13e d637 e63d f80a 243f 3cdf e13e
00000090: 420b 5dbe a317 3ebf 820e 103f e2ed 843e
000000a0: 2fda 053f 5557 1340 b704 bcbf 9e18 cbbf
000000b0: 3c03 9a3f 8720 ad3d 2b9e 99bf aed1 9cbb
000000c0: 10dd 6bbe 0894 c8be 5d15 0b3f 1752 cabe
000000d0: 5275 523e 9f91 e6be 2eb5 12bf f82b 0ebf
000000e0: d9fd c3bf 23f8 9dbf c2ec e83f fc30 0dbf
000000f0: 48a4 a9bf 3014 413e fb75 8dbd db66 fdbe
00000100: ce34 bdbf 8b4d 2440 c23c f2be 4fcd ab3e
00000110: e82a c13f c23e 0540 8775 da3f f157 1840
00000120: d092 88bf 57b6 8e3f 2c0c 10be de45 4e3f
00000130: 10bd a73e b5bd 42bf b8ae ccbf 5a71 973c
00000140: 5f86 573f 47d1 ccbe 170d 853f d85f b73e
00000150: ca85 58bb 1bd1 08bf 9097 953f 44fc c93e
00000160: dcc1 85bf 3ddd 74bf b458 093d 3cc8 353f
00000170: 4a84 c4bf ae4a d3be a75f 773f e5f8 cf3f
00000180: ad40 27c0 1326 d9bf 37b8 69be 4356 8f3e
00000190: 0602 963d 3881 8e3f 5585 903e d352 de3e
000001a0: 0ff4 e93e fa88 5dbf cc03 483f 1242 6dbf
000001b0: cc5e 533e aeb9 aabe 9b8f dbbe 2282 6e3e
000001c0: 9967 763f 2ec6 b23e efe4 6bbf 812c 66bd
000001d0: 0d97 33bf 27b2 843f 208a 1abf 94ae a3bf
000001e0: 95c0 fd3d a017 953f 3562 6c3f e492 b13f
000001f0: 3e01 b03f 95dd 283f 4bff f33e 5d16 82bf
00000200: db40 1c3f 5c0b ef3e 22af f93f 9d13 88bf
00000210: 03f7 913f 1714 b8bd edd3 3a3f 6a33 ecbf
00000220: f115 d1bd 504b 84bf 3212 a0be 30af 7b3e
00000230: fd1d c13e 43f5 8c3f 8b46 92bf 25f3 193d
00000240: 41c0 933e 24f0 c53e b3e3 4dbe b483 f1bd
00000250: 6351 54bf fc20 b4bf 833c d03f 6368 303e
00000260: 9c4c 34bf 1b23 a13e 9a2b 213e 434e c53e
00000270: 07db 123f 6d78 7f3f fd29 0b3f 3264 a13d
00000280: da9a 7f3f 8b57 ffbe 2ad8 423f f748 1e3f
00000290: ec48 99be e548 40be 223c f53f a4b0 303f
000002a0: 32c9 a0be 1b13 8abf 0897 763e 93b7 b2bf
000002b0: 018e e83d a767 8d3f ff94 b2bf c342 f33e
000002c0: 9660 8a3f 2fa2 063e b469 c93f cb0b 483f
000002d0: a5c8 7c3f 7a70 bebf 2631 163f 2e18 223e
000002e0: 2ab2 2a3f 5290 7ebf 143d 98bf df14 99bf
000002f0: 14ec a73f 05e0 56be 8b1f 483f 7e5c 7d3f
00000300: 92a0 2f3e 7844 603f 1ffd 92be 1ac5 823f
00000310: bbd5 02bf 6f5b dbbf 9b93 02bf 3125 f3be
00000320: cb8a 293f 1e68 9abf 2b81 1b3f 7812 0cbf
00000330: 84dc 8cbf 475a 38bf 2c78 433c b7f6 ad3e
00000340: c277 a0bf 4aa1 7c3f 6d43 fdbe c13a a4bf
00000350: a196 e03e 0960 2fbc 314f ab3f 2d0e 8fbe
00000360: dc4d 933e ffb3 08bd f6eb 87bf 4558 eabd
00000370: 1415 483e 35b3 3cbf ed9c d93f 2a43 b13e
00000380: 303b 14be ec3a 233f 4605 90be 5939 aabf
00000390: 695f 27bf 3223 dc3f 2c01 76bf 5d33 23bf
000003a0: 0510 63bf f0b9 563f 1192 933f aa6b e1bf
000003b0: 73b3 8dbf 7ed2 dbbf 7f6c c43f 4c1f 52bb
000003c0: 225d b83f 357f e2bd 1dad 133f f93b 2dbe
000003d0: a326 983f 9a49 21be ab86 3abd 5b02 263f
000003e0: 0de9 5ebf 7b37 143e cd90 f33f f5e1 c73e
000003f0: bb6d 073d 6700 83bf 67c7 3b3f 7211 8f3f

weight f4 [64, 64]
0.18296112 0.13918145 -0.20073344 -0.14573166 0.121403374 -0.045000184 -0.030905453 0.12966716
-0.24327922 0.060478367 0.14152691 0.20080394 0.20225313 0.1867962 -0.041525234 -0.12140542
0.11815123 0.1519982 -0.11191472 0.0073239375 -0.061689347 -0.14851451 0.15169652 0.077984065
0.15389246 0.10662097 0.13731353 0.039855376 -0.025300002 0.048087046 0.030726017 -0.031812243
0.20652679 -0.08043122 -0.12455428 -0.019277642 -0.045470465 -0.24358648 0.09665882 -0.18637422
0.100531295 -0.05735287 0.18281537 0.09242538 0.14729495 -0.010464477 0.020212097 0.09140176
0.12227816 0.083507344 -0.10341048 -0.14087151 -0.13806565 -0.17345595 -0.050478738 0.21227756
-0.1538381 -0.22401239 0.0026538563 0.05090444 -0.07204473 -0.18606846 0.028577717 -0.21361679
-0.095611416 -0.02841284 0.15125933 -0.021537824 0.0055879867 -0.037743103 0.04461307 -0.06200242
-0.025335288 -0.12875742 -0.08020911 -0.118470475 -0.04954372 -0.02765324 0.18366744 0.0039217556
-0.112586685 -0.021571383 0.13647448 -0.017588617 0.049487896 0.08701623 -0.12911926 0.09860328
-0.10133611 -0.10114542 0.08802402 -0.09253851 -0.020797817 -0.09563274 -0.0066170837 -0.039482664
0.053918444 -0.10457169 -0.0063248477 0.13743845 0.047305338 0.0100239385 -0.16508693 0.102629095
0.03850568 0.048885502 -0.13740323 0.042174064 -0.18782619 0.024953812 0.029913273 -0.11960597
0.05297828 -0.03378884 -0.0059295692 -0.038398355 -0.030925697 0.05690386 0.073341854 -0.117854446
0.07539343 0.0061602304 0.018213226 -0.12641376 -0.087758794 0.13268358 0.044807047 0.14639983
0.0083337305 0.038047332 -0.0744337 -0.07175482 0.086098686 -0.18914065 0.035190366 0.1177829
-0.19185434 0.07441562 0.09413251 0.08959575 0.19467211 -0.021841565 -0.104518704 -0.055564187
-0.08885297 0.089443825 0.047467127 0.15092248 -0.12194307 -0.15172496 -0.011446514 -0.025989365
-0.00021225614 -0.062528744 -0.14654443 -0.10017236 -0.106776774 0.055018913 0.14579454 -0.034011025
0.16617788 -0.058718294 0.0778004 -0.20382252 -0.19488601 -0.05321376 0.13485788 -0.18421164
0.008408305 -0.17260677 0.17728522 0.024648719 0.04212353 -0.037771404 0.12332223 0.2021961
0.068416096 0.12683569 0.0793718 -0.08217966 -0.035371974 0.024091726 -0.06313187 -0.04759878
-0.08008583 0.056339547 0.087608434 0.1661103 0.14020182 -0.07422871 0.124992445 -0.10536469
0.09497659 0.24934049 -0.10542736 -0.30299157 0.3432488 -0.1982925 -0.20583534 0.2390369
-0.15482044 0.11359488 0.19877888 0.19758566 0.10154549 0.068727925 -0.13851337 0.002181917
0.23759787 0.26390684 -0.11014401 0.058378503 0.2728888 -0.072609805 0.19581507 0.22368708
0.3418975 0.20901576 0.23876277 0.23496643 -0.21793291 0.052783232 0.17932397 0.08103565
0.067953005 -0.18251663 -0.023555005 -0.33172864 -0.17865948 -0.32458636 0.11568116 -0.18501663
0.028812747 -0.11272226 0.3188578 0.3085855 0.15244174 -0.08287031 0.19261399 0.33009422
0.14547259 0.08547161 -0.11075323 -0.15293747 0.021472814 -0.2960029 -0.14631525 0.23097293
-0.26996008 -0.255481 0.028001886 0.25176287 0.12032239 -0.06366556 0.27342215 -0.23961721
00000000: 295a 3b3e 9585 0e3e 118d 4dbe ae3a 15be
00000010: 55a2 f83d 1d52 38bd 6f2d fdbc 78c7 043e
00000020: 301e 79be 2ab8 773d 6eec 103e 8c9f 4d3e
00000030: 721b 4f3e 8147 3f3e 5d16 2abd 68a3 f8bd
00000040: 46f9 f13d 6ba5 1b3e 8b33 e5bd a4fd ef3b
00000050: f8ad 7cbd 3014 18be 5556 1b3e 1cb6 9f3d
00000060: fc95 1d3e 185c da3d eb9b 0c3e 643f 233d
00000070: f341 cfbc ecf6 443d 21b5 fb3c 8e4d 02bd
00000080: c27b 533e 20b9 a4bd 5016 ffbd 25ec 9dbc
00000090: 3d3f 3abd bc6e 79be 0ff5 c53d e2d8 3ebe
000000a0: 5ae3 cd3d d8ea 6abd f433 3b3e 8549 bd3d
000000b0: 7dd4 163e 3373 2bbc d793 a53c d930 bb3d
000000c0: f96c fa3d e605 ab3d e0c8 d3bd 9f40 10be
000000d0: 1561 0dbe 709e 31be cbc2 4ebd 4a5f 593e
000000e0: bc87 1dbe 8163 65be 52ec 2d3b 2d81 503d
000000f0: 308c 93bd bb88 3ebe d11b ea3c 5cbe 5abe
00000100: ebcf c3bd 0bc2 e8bc bae3 1a3e 1770 b0bc
00000110: 6e1b b73b 8398 1abd 32bc 363d 40f6 7dbd
00000120: f38b cfbc fcd8 03be ad44 a4bd a6a0 f2bd
00000130: 5bee 4abd 0c89 e2bc 5113 3c3e 1282 803b
00000140: d993 e6bd 78b6 b0bc f7bf 0b3e 0116 90bc
00000150: d2b3 4a3d 9135 b23d d737 04be 84f0 c93d
00000160: 4e89 cfbd 5425 cfbd f045 b43d d584 bdbd
00000170: 2f60 aabc 19db c3bd 1fd4 d8bb 93b8 21bd
00000180: 96d9 5c3d af29 d6bd ab40 cfbb aabc 0c3e
00000190: 3ec3 413d 723b 243c 8c0c 29be 342f d23d
000001a0: 22b8 1d3d 2a3c 483d 6fb3 0cbe b6be 2c3d
000001b0: 8255 40be f06b cc3c ae0c f53c faf3 f4bd
000001c0: c1ff 583d 2b66 0abd d54c c2bb 9847 1dbd
000001d0: e357 fdbc 0614 693d 4134 963d ac5d f1bd
000001e0: df67 9a3d c2db c93b e733 953c 9c72 01be
000001f0: e2ba b3bd 34de 073e 9887 373d d6e9 153e
00000200: 338a 083c 85d7 1b3d b270 98bd 31f4 92bd
00000210: 8254 b03d 16ae 41be c623 103d 2938 f13d
00000220: 7775 44be 3767 983d 8cc8 c03d fa7d b73d
00000230: 2058 473e 15ed b2bc e70d d6bd 4697 63bd
00000240: 8cf8 b5bd 532e b73d e46c 423d 6c8b 1a3e
00000250: 4abd f9bd ca5d 1bbe 298a 3bbc a6e7 d4bc
00000260: 1391 5eb9 120f 80bd be0f 16be 2b27 cdbd
00000270: c8ad dabd 835b 613d 2a4b 153e 254f 0bbd
00000280: 892a 2a3e 9882 70bd d155 9f3d dab6 50be
00000290: 3390 47be acf6 59bd 2f18 0a3e faa1 3cbe
000002a0: fdc2 093c d4bf 30be 428a 353e 1cec c93c
000002b0: b989 2c3d 30b6 1abd 5e90 fc3d 7f0c 4f3e
000002c0: bd1d 8c3d 37e1 013e af8d a23d cf4d a8bd
000002d0: 34e2 10bd 035c c53c 484b 81bd f0f6 42bd
000002e0: 0a04 a4bd 4cc4 663d 0d6c b33d d218 2a3e
000002f0: 1191 0f3e 3905 98bd 0afc ff3d 71c9 d7bd
00000300: 1683 c23d 1d53 7f3e 4dea d7bd b621 9bbe
00000310: 4fbe af3e 300d 4bbe 80c6 52be 17c6 743e
00000320: 4089 1ebe 6fa4 e83d b18c 4b3e e553 4a3e
00000330: 15f7 cf3d 3ac1 8c3d 73d6 0dbe 7efe 0e3b
00000340: db4c 733e cc1e 873e 2f93 e1bd 4c1e 6f3d
00000350: 15b8 8b3e 73b4 94bd bf83 483e 3a0e 653e
00000360: 300d af3e 3a08 563e 3a7e 743e 0a9b 703e
00000370: ce29 5fbe 3b33 583d b4a0 373e 05f6 a53d
00000380: f22a 8b3d a4e5 3abe 6df6 c0bc 56d8 a9be
00000390: 83f2 36be 2f30 a6be 3eea ec3d 0075 3dbe
000003a0: b608 ec3c eeda e6bd 5441 a33e ebfe 9d3e
000003b0: b019 1c3e e9b7 a9bd 9a3c 453e 1c02 a93e
000003c0: c4f6 143e bd0b af3d 97d2 e2bd a49b 1cbe
000003d0: c1e7 af3c b18d 97be aad3 15be 2b84 6c3e
000003e0: 3538 8abe 68ce 82be 3664 e53c 10e7 803e
000003f0: 966b f63d 1763 82bd fdfd 8b3e 375e 75be

weight f4 [64, 64]
0.061172422 -0.13629891 -0.17946233 -0.19302481 0.08094713 -0.07998509 -0.18775897 -0.0027481245
-0.12181159 0.06635819 -0.013501049 0.15360095 -0.235526 0.022514073 -0.18185154 -0.13784264
0.2316746 0.12292989 0.07864015 0.061366156 0.13139746 -0.07021454 0.029056195 -0.034970894
0.05165072 0.019996444 0.08682216 0.03510992 0.06736984 0.032937106 -0.1400547 0.018397931
-0.020580767 -0.06445186 -0.25340393 -0.06604026 -0.072392225 -0.06965544 -0.0252351 -0.14794949
-0.10595522 -0.15127563 0.053187814 0.13111615 0.036787834 -0.053141583 0.10422089 -0.12236677
0.11060711 0.11759633 -0.16762003 -0.12961657 -0.12638955 -0.1411613 -0.12498898 -0.020990076
-0.006593974 0.020107305 -0.15615867 -0.06588458 0.23716617 -0.061719466 0.011207634 0.03650825
-0.047804173 0.064533845 -0.07398467 0.04823408 0.17496422 -0.03556039 -0.008759072 0.08343788
-0.13766874 0.020858323 0.022610042 0.069763176 0.10393947 0.07934353 -0.032577053 0.044450488
0.022598077 -0.04576035 0.02994854 -0.09541041 0.21292894 0.03898099 0.15039936 -0.019432679
0.050676893 0.12098802 -0.062064093 0.14872953 0.041932337 0.07334057 0.026193796 0.09197715
-0.062115088 0.058562443 0.10820614 -0.061182767 -0.11252464 -0.050381497 0.18081816 0.070174165
-0.080109775 -0.21581343 -0.0509475 -0.111150265 0.13308822 -0.0729527 0.13570584 0.04541932
-0.14762129 0.024263069 0.06788668 0.0072937966 0.07138379 0.0027019156 -0.0401096 -0.08929402
0.034697223 -0.12262279 0.08996724 0.039118074 0.2135372 -0.10320778 0.026053376 -0.09491379
-0.06548863 -0.013376162 0.14677925 0.17359304 -0.012204803 0.09730298 0.13195308 -0.11105817
0.14698015 -0.17079909 -0.008573144 -0.10764105 -0.0041037686 -0.11966284 0.06718753 0.08952385
-0.060690936 -0.042718507 0.10025674 -0.06249039 -0.040193636 -0.06657295 -0.13328518 -0.17272295
-0.09736924 0.03542509 -0.09375314 -0.032529213 0.016277475 -0.16385128 -0.11347108 0.062174957
0.07457375 -0.036914527 0.056585148 0.07289733 0.008712605 0.022350445 -0.0035027526 0.053533476
-0.17707975 0.07370231 -0.11978229 -0.14475578 -0.110646166 0.0398707 -0.018521942 -0.10847001
0.10377958 0.010404452 0.037328787 -0.0744363 0.1507476 0.06327012 0.072390355 0.014030684
-0.041214745 0.040252987 0.028322576 -0.06741813 -0.1552064 0.118281186 -0.18709385 0.011598691
0.04950661 0.116784796 0.012145817 -0.06693396 -0.16688965 0.0909881 0.11080361 0.0539728
-0.09056509 -0.035358343 0.08262148 -0.0135611 0.05291493 -0.022874277 0.05157851 -0.062376607
0.002656496 -0.10381223 0.024843613 0.059650972 -0.07995925 -0.066110656 -0.14209598 0.09373839
-0.056988873 0.11279191 0.03133067 -0.06535797 0.018388836 -0.0872235 0.05522372 0.05933007
-0.0006584339 0.117173895 -0.0026635295 -0.049890976 0.1344524 0.16100098 -0.05160599 -0.09317597
-0.006185184 0.14921542 0.00253394 -0.022455331 -0.0453257 -0.04236807 -0.14216554 -0.093676545
0.18078628 -0.10812488 0.0557822 -0.0426563 0.07876286 0.0051835813 0.07212639 0.060705
0.107847326 0.10394732 0.19170006 -0.027760213 -0.08583596 0.0818646 -0.058190346 -0.058565833
00000000: ef8f 7a3d f191 0bbe f9c4 37be 4ca8 45be
00000010: 9cc7 a53d 39cf a3bd e343 40be e119 34bb
00000020: 5b78 f9bd cde6 873d 8133 5dbc 9149 1d3e
00000030: ba2d 71be 6f6f b83c 4a37 3abe 9f26 0dbe
00000040: 1b3c 6d3e abc2 fb3d 160e a13d 145b 7b3d
00000050: 0e8d 063e a4cc 8fbd 4207 ee3c a43d 0fbd
00000060: b58f 533d 95cf a33c d1cf b13d 6bcf 0f3d
00000070: 33f9 893d 0fe9 063d 806a 0fbe 42b7 963c
00000080: ff98 a8bc 56ff 83bd 29be 81be 1e40 87bd
00000090: 6042 94bd 83a7 8ebd d7b9 cebc 1280 17be
000000a0: 0dff d8bd 00e8 1abe 77db 593d 5043 063e
000000b0: d7ae 163d fdaa 59bd c371 d53d 6e9b fabd
000000c0: fb85 e23d 58d6 f03d 96a4 2bbe 35ba 04be
000000d0: 436c 01be 968c 10be 39fa ffbd 61f3 abbc
000000e0: 4312 d8bb 13b8 a43c 0fe8 1fbe 7fee 86bd
000000f0: b0db 723e 8dcd 7cbd 39a0 373c ad89 153d
00000100: 4fce 43bd 522a 843d 4685 97bd 1991 453d
00000110: d229 333e c6a7 11bd 3682 0fbc 7be1 aa3d
00000120: 09f9 0cbe 13df aa3c b238 b93c ffdf 8e3d
00000130: 38de d43d dc7e a23d 846f 05bd b711 363d
00000140: 9a1f b93c 346f 3bbd a456 f53c 8866 c3bd
00000150: 0b0a 5a3e 88aa 1f3d 4a02 1a3e 4831 9fbc
00000160: 9392 4f3d 91c8 f73d eb36 7ebd 8e4c 183e
00000170: 3ec1 2b3d 9533 963d 5f94 d63c 845e bc3d
00000180: 646c 7ebd 2cdf 6f3d 2e9b dd3d c89a 7abd
00000190: 5273 e6bd d45c 4ebd 6528 393e 79b7 8f3d
000001a0: 9810 a4bd 32fe 5cbe 53ae 50bd c0a2 e3bd
000001b0: 4748 083e 3a68 95bd 79f6 0a3e 9c09 3a3d
000001c0: 092a 17be 58c3 c63c 2c08 8b3d cd00 ef3b
000001d0: aa31 923d 9f12 313b f749 24bd c8df b6bd
000001e0: ad1e 0e3d a821 fbbd bf40 b83d 463a 203d
000001f0: 7fa9 5a3e 9a5e d3bd e46d d53c 2962 c2bd
00000200: e71e 86bd b127 5bbc 4d4d 163e 60c2 313e
00000210: a7f6 47bc c946 c73d b51e 073e 7772 e3bd
00000220: f781 163e f5e5 2ebe 5f76 0cbc e972 dcbd
00000230: e878 86bb cb11 f5bd 9e99 893d 4858 b73d
00000240: 0f97 78bd 9af9 2ebd 6853 cd3d ecf5 7fbd
00000250: 15a2 24bd 6657 88bd e97b 08be 49de 30be
00000260: 8669 c7bd e619 113d a501 c0bd 5a3d 05bd
00000270: 5758 853c a1c8 27be 8763 e8bd 2bab 7e3d
00000280: 1fba 983d b033 17bd d4c5 673d 324b 953d
00000290: 50bf 0e3c 4818 b73c 708e 65bb eb45 5b3d
000002a0: 6554 35be 3df1 963d 6b50 f5bd dc3a 14be
000002b0: 759a e2bd 764f 233d 54bb 97bc 8625 debd
000002c0: 638a d43d 6f77 2a3c 12e6 183d 0f72 98bd
000002d0: 945d 1a3e c493 813d 6541 943d f4e0 653c
000002e0: cbd0 28bd 51e0 243d bf04 e83c 8412 8abd
000002f0: 6dee 1ebe 683d f23d 8895 3fbe 7008 3e3c
00000300: 71c7 4a3d de2c ef3d 40ff 463c ac14 89bd
00000310: 1fe5 2abe f857 ba3d 01ed e23d 9512 5d3d
00000320: 317a b9bd e9d3 10bd 7335 a93d 602f 5ebc
00000330: 53bd 583d d662 bbbc fd43 533d 9d7e 7fbd
00000340: 9b18 2e3b 829b d4bd d584 cb3c 9454 743d
00000350: adc1 a3bd 0665 87bd 9c81 11be eaf9 bf3d
00000360: 2a6d 69bd 72ff e63d 9754 003d 66da 85bd
00000370: 2fa4 963c 3ca2 b2bd 4432 623d 1604 733d
00000380: c09a 2cba def8 ef3d 9c8e 2ebb 7b5a 4cbd
00000390: e4ad 093e 71dd 243e cd60 53bd 0bd3 bebd
000003a0: 15ad cabb edcb 183e 7510 263b 3ef4 b7bc
000003b0: 71a7 39bd 248a 2dbd d893 11be 7dd9 bfbd
000003c0: 0a20 393e 9470 ddbd e07b 643d 5fb8 2ebd
000003d0: 6c4e a13d 08db a93b 00b7 933d cea5 783d
000003e0: 0fdf dc3d 55e2 d43d 054d 443e 6369 e3bc
000003f0: c4ca afbd a1a8 a73d 0059 6ebd bae2 6fbd

weight f4 [64, 64]
-0.069700085 0.015232785 -0.112169355 -0.085276 0.1555207 -0.14499047 0.017679695 -0.11360749
-0.10676084 -0.051162302 -0.0644636 -0.049996626 0.001552209 -0.039994426 -0.13361113 -0.0749416
0.043358263 -0.07897851 -0.038922403 0.1343788 -0.0518848 0.0036528467 -0.081143305 0.023158666
-0.01657276 0.051113963 -0.096752256 0.13639581 -0.00948054 0.053474613 0.014507737 -0.07793265
0.1214395 0.147671 0.025990233 -0.10757835 0.01474085 -0.023676427 0.107516974 -0.1429378
-0.008509108 -0.13049148 -0.08407017 0.0850406 0.057597462 0.07307047 0.0065499 -0.0018005779
0.12394185 0.1260152 0.06137837 0.0409488 -0.13578959 0.03172642 -0.06172607 0.10146957
-0.07144054 -0.09015911 -0.0318858 -0.11184433 0.00040648825 -0.033343934 0.1583217 -0.099665225
-0.09937511 0.03241088 0.16368604 0.033812847 -0.03974313 0.047648594 -0.11388809 0.09757098
0.03305413 -0.039175183 -0.08239045 -0.030239964 -0.09079083 0.0673519 0.08187233 -0.15062682
0.09431011 -0.03245098 -0.08399471 -0.009430025 -0.040191475 -0.03123786 0.096088335 0.039015222
0.15059443 0.049765043 -0.1211166 0.1903955 -0.11626361 0.050078455 0.03509557 0.07032019
-0.042449772 -0.10919584 0.051943474 -0.0784439 0.04491002 0.0018347002 0.06846111 -0.0620995
0.08867351 -0.023378933 -0.012464748 -0.066003874 -0.032477923 0.08888668 -0.062934466 -0.088053465
0.0255259 -0.04629893 0.0215035 0.0850651 0.034648124 0.10628619 -0.045264095 0.02168268
-0.082137085 -0.111011796 0.025766434 0.038995147 0.18358292 0.120207034 0.06823734 -0.10975978
-0.0769559 0.029598607 -0.035245422 0.016202997 -0.00223153 -0.08279795 -0.09416351 0.08140079
-0.010500372 -0.03564395 0.03588604 -0.05169794 -0.09869544 0.06877195 -0.0888474 -0.10996061
-0.00922855 0.09724751 0.073462725 -0.010452646 0.0693232 -0.04763689 0.044154078 0.106955975
0.021160167 0.17112967 0.09152809 0.075500116 -0.03151182 0.079550296 0.08318829 -0.07227558
0.085263975 -0.15144809 -0.11699 0.006912962 -0.021261038 0.08218864 0.07893325 0.031161755
0.1234784 -0.0676599 0.10544529 0.058572393 0.02194298 0.065497495 -0.11964797 -0.055273097
0.12465923 0.027409246 -0.051597927 -0.13732836 -0.15836921 0.0037002377 -0.045608606 0.13345045
-0.018192783 -0.06640434 -0.06659297 -0.11708811 -0.034741905 0.04714073 0.07617546 -0.08325181
0.08220894 -0.048732005 -0.02302844 -0.14317365 0.08484438 0.13208663 0.16921979 0.12919466
-0.058922667 -0.07098963 0.043762997 -0.021259403 0.06241051 0.058130123 0.002801639 -0.012545694
-0.18739268 -0.13063817 -0.124930084 0.0711053 -0.16113843 0.033957303 -0.07537075 0.015658539
-0.05569244 0.0900323 -0.09166088 -0.054208603 0.058090705 -0.03053926 -0.024179313 0.0020859921
-0.08785956 0.05775979 -0.006813402 -0.16087666 -0.042265557 -0.077548556 -0.14810117 -0.12898722
0.044276357 0.014284339 -0.010852262 -0.017885609 -0.020993976 0.0805884 0.10473109 0.13598794
-0.02046034 0.08380078 -0.05326178 0.09728482 0.10284665 0.071349874 0.16440901 0.0418885
0.018789085 -0.09536799 0.025264272 0.16174881 -0.005978412 -0.10577913 -0.1353139 0.088764824
00000000: ebbe 8ebd ee92 793c 0cb9 e5bd 2fa5 aebd
00000010: d240 1f3e 6278 14be 02d5 903c 0bab e8bd
00000020: 6da5 dabd 908f 51bd 7e05 84bd 43c9 4cbd
00000030: 7e73 cb3a 32d1 23bd 5bd1 08be fb7a 99bd
00000040: 6f98 313d 7cbf a1bd 196d 1fbd 999a 093e
00000050: 2885 54bd 9964 6f3b 762e a6bd 3eb7 bd3c
00000060: 99c3 87bc e05c 513d 0c26 c6bd 58ab 0b3e
00000070: 4454 1bbc 3208 5b3d dcb1 6d3c 279b 9fbd
00000080: 46b5 f83d 1137 173e 78e9 d43c 0a52 dcbd
00000090: 9b83 713c 11f5 c1bc dc31 dc3d 495e 12be
000000a0: c969 0bbc 8f9f 05be fb2c acbd c429 ae3d
000000b0: 51eb 6b3d f8a5 953d 8ba0 d63b 5e01 ecba
000000c0: 3ad5 fd3d 210a 013e e367 7b3d eeb9 273d
000000d0: 6d0c 0bbe 90f3 013d 7ad4 7cbd 47cf cf3d
000000e0: 6b4f 92bd 57a5 b8bd af9a 02bd a40e e5bd
000000f0: ee1d d539 a693 08bd 151f 223e 481d ccbd
00000100: 2d85 cbbd 45c1 043d 509d 273e 577f 0a3d
00000110: b1c9 22bd 2c2b 433d 293e e9bd 4bd3 c73d
00000120: c463 073d 2876 20bd 53bc a8bd cdb9 f7bc
00000130: 8bf0 b9bd cbef 893d aeac a73d eb3d 1abe
00000140: a925 c13d 52eb 04bd 6b05 acbd 6480 1abc
00000150: d19f 24bd 8ae6 ffbc f6c9 c43d 6dce 1f3d
00000160: 6d35 1a3e 6ed6 4b3d fb0b f8bd 0af7 423e
00000170: 9e1b eebd 111f 4d3d 5fc0 0f3d 0804 903d
00000180: d0df 2dbd 12a2 dfbd aec2 543d 32a7 a0bd
00000190: 92f3 373d 537a f03a 5735 8c3d 0c5c 7ebd
000001a0: 759a b53d 2d85 bfbc f138 4cbc 0a2d 87bd
000001b0: 9207 05bd 380a b63d c9e3 80bd 6055 b4bd
000001c0: b11b d13c f2a3 3dbd 1c28 b03c 9c36 ae3d
000001d0: 31eb 0d3d 93ac d93d d866 39bd e09f b13c
000001e0: 7d37 a8bd 275a e3bd 2114 d33c 60b9 1f3d
000001f0: 29fd 3b3e 1b2f f63d 05c0 8b3d bcc9 e0bd
00000200: 0e9b 9dbd c778 f23c 815d 10bd 26bc 843c
00000210: dc3e 12bb f991 a9bd ccd8 c0bd 75b5 a63d
00000220: c109 2cbc 64ff 11bd 3efd 123d 38c1 53bd
00000230: d620 cabd 4fd8 8c3d a0f5 b5bd 0733 e1bd
00000240: 5833 17bc b429 c73d a073 963d 9341 2bbc
00000250: 52f9 8d3d e61e 43bd e8da 343d bc0b db3d
00000260: 1658 ad3c 9e3c 2f3e 1473 bb3d ce9f 9a3d
00000270: 8a12 01bd 44eb a23d 9f5e aa3d 3805 94bd
00000280: e19e ae3d 3515 1bbe 7498 efbd 2186 e23b
00000290: a12b aebc 8552 a83d c1a7 a13d f046 ff3c
000002a0: 3ee2 fc3d 4691 8abd b3f3 d73d 9be9 6f3d
000002b0: c4c1 b33c 8d23 863d ff09 f5bd 0b66 62bd
000002c0: 574d ff3d 5b89 e03c 5958 53bd ce9f 0cbe
000002d0: 8a2b 22be b07f 723b 17d0 3abd 3ca7 083e
000002e0: 0809 95bc 00ff 87bd e561 88bd e4cb efbd
000002f0: 874d 0ebd a316 413d e101 9c3d ed7f aabd
00000300: 295d a83d 369b 47bd 24a6 bcbc 1d9c 12be
00000310: e4c2 ad3d b841 073e f447 2d3e 9b4b 043e
00000320: e558 71bd 0363 91bd d440 333d 3328 aebc
00000330: 2aa2 7f3d da19 6e3d b49b 373b 748c 4dbc
00000340: dee3 3fbe 03c6 05be 58db ffbd a89f 913d
00000350: 7901 25be d016 0b3d fb5b 9abd 5646 803c
00000360: c21d 64bd db62 b83d b3b8 bbbd d709 5ebd
00000370: 85f0 6d3d 782d fabc b213 c6bc 24b5 083b
00000380: b7ef b3bd 8895 6c3d f542 dfbb dabc 24be
00000390: a61e 2dbd c7d1 9ebd d5a7 17be 3a15 04be
000003a0: 205b 353d dc08 6a3c b0cd 31bc d784 92bc
000003b0: 8ffb abbc 880b a53d 417d d63d 6c40 0b3e
000003c0: 719c a7bc be9f ab3d 0629 5abd 443d c73d
000003d0: 44a1 d23d e21f 923d d65a 283e 4793 2b3d
000003e0: 91eb 993c 4b50 c3bd 05f7 ce3c 7ba1 253e
000003f0: 8ee6 c3bb baa2 d8bd ba8f 0abe 55ca b53d

freqs f4 [8]
0.9348545 2.180523 3.175301 4.064372 5.277035 6.264879 7.361435 8.483932
00000000: a052 6f3f b08d 0b40 2238 4b40 560f 8240
00000010: 79dd a840 e479 c840 e090 eb40 2fbe 0741

weight f4 [64, 8]
0.23085545 0.09244271 0.039013717 0.20774858 -0.19748619 0.089073 0.05280086 0.026195884
-0.35592854 -0.3415035 -0.11414307 -0.22815141 -0.30982393 -0.101995826 -0.018868523 0.07949924
-0.11586626 -0.15794285 -0.14410964 0.20003484 0.08760012 0.37744436 0.13601893 0.25617623
-0.112296015 -0.20084885 0.12577333 0.24668433 -0.097938396 0.0796385 -0.2828092 0.14863564
-0.4187601 -0.10414047 -0.12599178 -0.13681933 0.018674353 -0.16653134 0.37184098 -0.14958423
0.18964572 -0.3027212 0.2122451 0.25099644 -0.26787677 -0.117588446 -0.08634885 -0.056530636
0.08974101 0.31882367 -0.058757648 0.08100175 -0.25859037 -0.18943368 -0.2909091 0.02309231
-0.010561142 0.35071054 0.19396445 -0.024933677 -0.12296676 0.041063882 -0.17247644 0.06515276
-0.12540475 -0.17255184 0.03765125 0.047756795 -0.054551795 0.016010204 -0.30234027 -0.124334015
-0.45697019 0.3339127 0.3364397 -0.31200683 -0.22654156 -0.2766263 0.2085514 0.07408391
-0.46846592 -0.113781534 0.2917082 -0.032990936 -0.28212944 0.15849236 0.33815992 0.34046817
0.19768426 -0.11943416 0.0031204172 0.3061837 0.10248657 -0.29368526 0.17838405 0.09573145
-0.43311974 -0.22736262 0.26820153 0.27797815 -0.3021743 0.121957414 0.23371418 0.06538408
0.2689639 0.12887734 0.13451414 0.14604278 -0.074068815 0.02392596 -0.12499771 -0.084981255
0.21313933 -0.17058349 0.09426287 0.30810997 0.062788926 0.3147599 -0.043576736 -0.08627071
0.4365332 -0.17566003 0.35411087 0.3519417 -0.2964328 -0.13238882 0.26581153 -0.03188052
-0.4085403 0.04498552 -0.43443963 -0.009224959 0.054673567 -0.1146305 -0.05661893 0.1468549
0.09884664 -0.0495005 -0.15988773 0.040939692 -0.032701954 -0.06423994 -0.11014268 0.06270943
-0.4286587 0.1271127 -0.1728879 0.33599976 0.009964441 0.17503288 0.06697425 -0.12026804
0.10887078 -0.28632396 0.0843632 0.33613047 -0.09542919 0.35524896 -0.26722375 0.15376925
0.2734478 -0.14141421 -0.36273462 -0.28709435 0.16759942 0.35693336 -0.28401172 -0.1872159
0.24912946 -0.051367827 -0.3246072 -0.07347578 0.10882783 -0.37262687 -0.17269374 0.15049565
0.11659313 -0.13722816 0.40494385 0.05381761 0.20134637 -0.027759975 -0.1528456 0.25031182
-0.47537047 0.09858198 -0.19673243 -0.041464012 0.2678779 -0.33515072 0.03417674 -0.08147282
0.39453766 -0.23281677 -0.08882365 -0.2068672 0.2657383 0.2680636 -0.026661862 0.08066387
0.5340095 -0.23911755 0.09359668 0.353276 -0.20010124 -0.27024177 0.2879579 0.2927408
0.24715841 0.26958215 0.156894 -0.20340393 -0.32504356 0.021339398 -0.18113014 0.3513517
-0.022963706 0.20829037 -0.018240076 -0.080535434 -0.06842519 -0.28777182 -0.3333786 -0.105837815
-0.44417572 -0.30601755 0.18113369 -0.14620389 0.025796935 -0.022014908 -0.24773173 -0.13539778
-0.41144186 0.051906686 0.281112 -0.008593732 0.09764338 0.20632558 0.18942387 0.05250472
-0.1797457 0.14721052 0.016722053 0.3063722 -0.081432864 0.28239855 0.18553014 0.32206097
0.18721423 0.044513308 -0.057570204 0.19170082 0.2546079 0.2414036 -0.3570532 0.018654233
00000000: 5f65 6c3e 9b52 bd3d d9cc 1f3d 0bbc 543e
00000010: d239 4abe e86b b63d b745 583d c098 d63c
00000020: 443c b6be 8cd9 aebe d8c3 e9bd 86a0 69be
00000030: 3ea1 9ebe 30e3 d0bd 2992 9abc 7fd0 a23d
00000040: 4a4b edbd c5bb 21be 7a91 13be efd5 4c3e
00000050: b167 b33d 6340 c13e 8c48 0b3e 8829 833e
00000060: 74fb e5bd 52ab 4dbe b9ca 003e d19a 7c3e
00000070: ed93 c8bd 8319 a33d 5ecc 90be f133 183e
00000080: b967 d6be 9947 d5bd fd03 01be 5e1a 0cbe
00000090: f5fa 983c 3187 2abe f161 be3e 9c2c 19be
000000a0: 7d32 423e 46fe 9abe c856 593e 9b82 803e
000000b0: 2527 89be 36d2 f0bd aad7 b0bd ab8c 67bd
000000c0: 22ca b73d db3c a33e dcab 70bd 3fe4 a53d
000000d0: f565 84be e7fa 41be 0af2 94be 162c bd3c
000000e0: a408 2dbc 5590 b33e 9e9e 463e b641 ccbc
000000f0: ffd5 fbbd 9a32 283d aa9d 30be cf6e 853d
00000100: 1a6a 00be 6eb1 30be 3238 1a3d a19c 433d
00000110: b471 5fbd d527 833c 58cc 9abe d5a2 febd
00000120: fff7 e9be 9bf6 aa3e d341 ac3e 5cbf 9fbe
00000130: 83fa 67be f6a1 8dbe 808e 553e 4eb9 973d
00000140: c4da efbe 4b06 e9bd c75a 953e 8121 07bd
00000150: 4573 90be d24b 223e 4c23 ad3e d851 ae3e
00000160: be6d 4a3e e699 f4bd ea7f 4c3b 1cc4 9c3e
00000170: 7be4 d13d ea5d 96be 4faa 363e da0e c43d
00000180: dfc1 ddbe bfd1 68be b651 893e 2753 8e3e
00000190: 97b6 9abe cfc4 f93d c552 6f3e 17e8 853d
000001a0: a3b5 893e 6cf8 033e 13be 093e 3d8c 153e
000001b0: 64b1 97bd 6000 c43c cdfe ffbd a70a aebd
000001c0: 3241 5a3e 70ad 2ebe e40c c13d 97c0 9d3e
000001d0: 7b97 803d 3628 a13e 857d 32bd b3ae b0bd
000001e0: 4881 df3e 39e0 33be 054e b53e b431 b43e
000001f0: 0ac6 97be ef90 07be 7318 883e 2695 02bd
00000200: 322c d1be bd42 383d df6e debe 4824 17bc
00000210: 64f1 5f3d 65c3 eabd 40e9 67bd 2261 163e
00000220: 1b70 ca3d 09c1 4abd 9cb9 23be 61b0 273d
00000230: 7cf2 05bd 3b90 83bd 7c92 e1bd cd6d 803d
00000240: 2779 dbbe d529 023e 8709 31be 2908 ac3e
00000250: e541 233c d23b 333e cc29 893d 174f f6bd
00000260: a5f7 de3d 0e99 92be 9dc6 ac3d 4b19 ac3e
00000270: 6170 c3bd 31e3 b53e 8dd1 88be b075 1d3e
00000280: 5a01 8c3e e3ce 10be 5ab8 b9be 08fe 92be
00000290: 2f9f 2b3e f8bf b63e fc69 91be 86b5 3fbe
000002a0: cb1b 7f3e 1267 52bd ea32 a6be 787a 96bd
000002b0: 20e1 de3d f3c8 bebe a1d6 30be 881b 1a3e
000002c0: 61c8 ee3d 8a85 0cbe cd54 cf3e db6f 5c3d
000002d0: be2d 4e3e e368 e3bc 8f83 1cbe df28 803e
000002e0: c263 f3be 59e5 c93d 3a74 49be 2bd6 29bd
000002f0: 4b27 893e e098 abbe e9fc 0b3d 39db a6bd
00000300: d700 ca3e 8567 6ebe 2ce9 b5bd ffd4 53be
00000310: da0e 883e a23f 893e fa69 dabc 1933 a53d
00000320: d9b4 083f 3bdb 74be 9eaf bf3d 98e0 b43e
00000330: 57e7 4cbe 215d 8abe 386f 933e 1fe2 953e
00000340: 1817 7d3e ac06 8a3e d2a8 203e 1f49 50be
00000350: 1c6c a6be f6cf ae3c 2e7a 39be 5fe4 b33e
00000360: 621e bcbc 124a 553e 366c 95bc c3ef a4bd
00000370: 8222 8cbd d456 93be 9ab0 aabe 7fc1 d8bd
00000380: 006b e3be 55ae 9cbe 1c7b 393e 79b6 15be
00000390: 1854 d33c 9c58 b4bc 63ad 7dbe b7a5 0abe
000003a0: 82a8 d2be 1b9c 543d e9ed 8f3e b9cc 0cbc
000003b0: 41f9 c73d 0347 533e 55f8 413e 300f 573d
000003c0: 420f 38be 5bbe 163e b0fc 883c d1dc 9c3e
000003d0: 46c6 a6bd 8b96 903e 9dfb 3d3e 2de5 a43e
000003e0: 16b5 3f3e 9653 363d bcce 6bbd 384d 443e
000003f0: f75b 823e 8132 773e adcf b6be c3d0 983c

weight f4 [64, 64]
0.13007571 -0.13392825 -0.12999381 -0.079109974 0.019848853 0.053948138 -0.081187926 0.04062354
0.0152396355 -0.07913898 0.018230129 0.10331758 0.021958143 0.019709622 -0.071860954 -0.03413242
-0.015258989 -0.095717706 0.03430155 -0.13851453 -0.08179064 0.10874703 0.064973645 -0.07218994
-0.003944756 0.019600004 0.009303225 0.027779812 -0.21004052 -0.13844389 -0.069460705 -0.0057916646
0.07783481 -0.06861857 -0.0067471885 0.04225588 -0.06808171 -0.059018448 0.0021803826 -0.21229865
-0.00216707 -0.009305411 -0.010082645 -0.115099154 0.16468927 0.053056598 -0.13548352 0.04834743
-0.21266529 0.05321407 0.039609466 0.15862773 0.10855354 -0.032433767 -0.1130934 -0.162025
0.016707532 0.12817952 -0.0029611532 -0.07577695 0.05987264 0.13702647 0.06796707 0.052832842
0.10082551 0.058187548 0.111297294 0.07460564 0.045600615 0.0742491 0.017196627 -0.13589415
-0.010562642 -0.034121994 -0.006847378 -0.070440196 -0.15077856 0.089895055 -0.07281684 -0.07567065
-0.09693837 0.0012183612 -0.09260915 -0.12847728 -0.00969023 0.09590267 0.12492781 -0.19190432
-0.022334622 -0.025187224 -0.0066030594 0.0017576029 0.07648548 -0.04611923 0.099471584 -0.020000603
-0.11584143 0.036443632 0.06447617 0.18217406 -0.09162197 -0.026279401 -0.10737256 -0.11723492
0.0075389044 0.011263326 0.045317587 0.103029504 -0.05290597 0.026774764 -0.12205635 -0.029202072
0.058584962 0.063439116 -0.104606606 -0.10216914 -0.0634346 -0.09824284 -0.15898481 0.03129052
0.0073533207 -0.01368616 0.077531286 -0.12699378 0.09765332 0.11024174 0.035012547 0.006419209
-0.110197075 -0.07038842 0.08784063 -0.13120103 -0.016981542 0.04781125 -0.042016674 0.009457599
-0.058747385 0.031990584 0.009426669 -0.0067954524 0.1716148 -0.09765095 0.081761315 -0.12639774
-0.08996403 0.053285405 -0.036888696 0.075064085 -0.00351786 -0.16452059 -0.13498084 0.11103756
-0.1363467 -0.040904246 0.024105348 -0.08147614 0.17048217 -0.010581851 0.017043741 -0.001605516
0.11971132 -0.13473125 0.033102103 -0.07370723 0.07573126 0.036005467 -0.05454857 0.13630508
-0.04404612 -0.040910427 0.008248419 0.077920765 -0.037407033 0.05383795 -0.062425908 -0.092586435
0.14049883 -0.044411253 -0.0417382 0.02326716 -0.11021342 -0.040096056 0.0069863815 -0.07652953
0.06636934 0.080009975 -0.04682051 -0.033759832 -0.14833376 -0.11060027 -0.097508624 -0.034540765
0.04705225 -0.11573808 0.066387884 -0.05661087 -0.015565334 0.03633975 -0.0030047605 0.028033681
-0.12570432 -0.08317575 0.08931232 0.01730495 -0.065176114 0.06404927 0.11599494 0.13561922
-0.13608457 0.11310667 -0.16053577 -0.10898268 0.01031248 0.031959575 -0.09697785 -0.010717095
0.04231607 0.05280827 0.09019271 0.06632579 -0.1161894 0.024704775 0.085619055 -0.018221067
-0.10038624 -0.07630252 -0.05940239 -0.018774878 -0.16634622 -0.1658359 -0.07335113 -0.077991076
0.02324373 -0.13662334 0.022560954 -0.018291129 0.0830109 0.09220419 0.09577828 0.08136601
0.056090713 0.06532976 -0.028255388 0.013972476 0.057496645 -0.13108802 0.016229957 0.042126685
-0.08717091 0.003228188 -0.030706333 0.06462181 0.035328615 0.13457943 0.0017038881 0.159695
00000000: 9132 053e 7d24 09be 191d 05be 6904 a2bd
00000010: 109a a23c b9f8 5c3d db45 a6bd de64 263d
00000020: aaaf 793c 9e13 a2bd 5a57 953c 2b98 d33d
00000030: 90e1 b33c 1376 a13c d62b 93bd 70ce 0bbd
00000040: d700 7abc a507 c4bd c87f 0c3d c1d6 0dbe
00000050: da81 a7bd c3b6 de3d e710 853d 52d8 93bd
00000060: 0343 81bb 3090 a03c 8e6c 183c 7d92 e33c
00000070: dd14 57be 3cc4 0dbe 6a41 8ebd 01c8 bdbb
00000080: db67 9f3d e587 8cbd 8517 ddbb 8014 2d3d
00000090: 6c6e 8bbd 54bd 71bd c0e4 0e3b d164 59be
000000a0: 6705 0ebb b975 18bc ae31 25bc 1bb9 ebbd
000000b0: 4ea4 283e e051 593d 31bc 0abe f407 463d
000000c0: eec4 59be fff6 593d 893d 223d 4f6f 223e
000000d0: 5251 de3d 45d9 04bd 839d e7bd e2e9 25be
000000e0: 3cde 883c 7e41 033e e80f 42bb f230 9bbd
000000f0: 033d 753d ab50 0c3e 5232 8b3d 4067 583d
00000100: 9b7d ce3d 1156 6e3d d6ef e33d d7ca 983d
00000110: b6c7 3a3d ea0f 983d f1df 8c3c d627 0bbe
00000120: ee0e 2dbc 81c3 0bbd f85f e0bb f342 90bd
00000130: b265 1abe e61a b83d ff20 95bd 37f9 9abd
00000140: a087 c6bd 6bb1 9f3a dea9 bdbd 8c8f 03be
00000150: c5c3 1ebc 9e68 c43d 27da ff3d 9182 44be
00000160: 19f7 b6bc 7055 cebc 7a5e d8bb 5e5f e63a
00000170: 6ba4 9c3d 85e7 3cbd c2b7 cb3d 4ed8 a3bc
00000180: 463e edbd eb45 153d 150c 843d d68b 3a3e
00000190: 4da4 bbbd e647 d7bc 25e6 dbbd dd18 f0bd
000001a0: ea08 f73b d089 383c ef9e 393d 2201 d33d
000001b0: eeb3 58bd c056 db3c aef8 f9bd 2f39 efbc
000001c0: c9f6 6f3d 5eec 813d fd3b d6bd 0e3e d1bd
000001d0: 00ea 81bd 8b33 c9bd eacc 22be 7d2a 003d
000001e0: 20f4 f03b ea3b 60bc b9c8 9e3d a80a 02be
000001f0: 77fe c73d 6cc6 e13d 5169 0f3d 3a58 d23b
00000200: 01af e1bd ce27 90bd cae5 b33d 9059 06be
00000210: e01c 8bbc bbd5 433d ad19 2cbd 0cf4 1a3c
00000220: 19a1 70bd 8f08 033d 5172 1a3c 63ac debb
00000230: cabb 2f3e 39fd c7bd 7a72 a73d 696e 01be
00000240: 103f b8bd cc41 5a3d 9a18 17bd 33bb 993d
00000250: e68b 66bb 1678 28be 6b38 0abe a967 e33d
00000260: 789e 0bbe 368b 27bd 9478 c53c f6dc a6bd
00000270: e192 2e3e 805f 2dbc 519f 8b3c 2d70 d2ba
00000280: 352b f53d fdf6 09be 1296 073d d1f3 96bd
00000290: fe18 9b3d 787a 133d 526e 5fbd 8f93 0b3e
000002a0: b469 34bd b191 27bd 6024 073c ec94 9f3d
000002b0: 1e38 19bd 2f85 5c3d 4fb2 7fbd f59d bdbd
000002c0: edde 0f3e 93e8 35bd adf5 2abd c59a be3c
000002d0: 93b7 e1bd c33b 24bd 04ee e43b 84bb 9cbd
000002e0: a6ec 873d 45dc a33d ddc6 3fbd c047 0abd
000002f0: cee4 17be 6582 e2bd 9ab2 c7bd 9e7a 0dbd
00000300: dcb9 403d 1608 edbd 5ff6 873d cde0 67bd
00000310: be05 7fbc fdd8 143d 84eb 44bb e4a6 e53c
00000320: a2b8 00be 0c58 aabd 61e9 b63d 1cc3 8d3c
00000330: 0e7b 85bd 432c 833d c18e ed3d c4df 0a3e
00000340: c159 0bbe 78a4 e73d 7d63 24be 5032 dfbd
00000350: adf5 283c 0be8 023d 539c c6bd c196 2fbc
00000360: 9e53 2d3d 7c4d 583d f5b6 b83d d1d5 873d
00000370: b5f4 edbd ab61 ca3c 0b59 af3d 5944 95bc
00000380: 4d97 cdbd 7f44 9cbd ec4f 73bd c6cd 99bc
00000390: aa56 2abe e3d0 29be 1e39 96bd c9b9 9fbd
000003a0: a369 be3c fde6 0bbe c0d1 b83c 47d7 95bc
000003b0: 9e01 aa3d 8dd5 bc3d 6727 c43d 39a3 a63d
000003c0: 60bf 653d 9ccb 853d d877 e7bc d0ec 643c
000003d0: 9a81 6b3d f03b 06be b0f4 843c 088d 2c3d
000003e0: a986 b2bd 0290 533b d98b fbbc 7158 843d
000003f0: bdb4 103d 31cf 093e ff54 df3a 1687 233e

weight f4 [64, 64]
-0.068828136 0.10224321 0.15103471 -0.09856449 0.17726807 0.013112151 -0.123177476 0.12487954
0.21060577 -0.17084396 0.05315457 -0.019359332 0.07688813 -0.03417181 0.045132335 0.022021249
0.031435978 -0.046473507 0.07629551 -0.0037046066 -0.07646624 0.11519432 -0.08544602 -0.07299473
0.11482026 -0.16888914 0.014917438 0.08839491 0.003168758 0.094294704 0.17413573 -0.082064934
-0.26940775 0.03408846 0.07830671 0.025027806 -0.02672251 0.021780154 -0.117245056 -0.023323601
-0.10812502 -0.17987609 -0.15944697 -0.09074351 -0.120049864 -0.010841438 -0.14344698 0.10759313
-0.018969271 -0.21449316 0.0027238033 0.10169457 0.12384162 -0.08292918 0.1007159 0.045584727
-0.014832642 0.12489931 -0.019373048 -0.051624026 -0.0426783 0.26058283 0.0046501243 0.13086574
-0.07183428 -0.0019380702 0.05636519 -0.015836332 0.06367164 0.050470863 -0.05700601 -0.041030057
0.08236757 -0.08963935 -0.096803136 -0.23156641 0.08174573 -0.046412297 -0.03895764 0.031501066
-0.18824504 -0.019489348 -0.07802335 -0.19216537 0.022866085 0.11354318 0.046947528 0.10328766
0.0556562 -0.02077274 0.0470912 -0.07669285 -0.122243814 -0.10480797 -0.008325659 0.016929451
0.15100472 0.14825235 0.0832696 0.20989822 0.0811518 0.12730703 -0.09325909 -0.20282967
-0.08978696 0.06809058 0.11791074 -0.14340977 -0.06639906 -0.10410663 -0.09904907 -0.036587343
-0.007502728 0.03758291 -0.014829156 0.108913094 0.027858749 -0.0010941072 0.031890865 -0.038121235
0.0545248 0.049747344 0.031526517 -0.021023821 -0.13163699 0.074846216 0.09812793 -0.03847638
-0.03465258 -0.07290425 0.04016429 0.078224935 -0.22662166 0.038650975 0.10327226 0.057376806
0.014221915 -0.08349056 0.07924611 0.09110024 -0.05662697 -0.08782779 -0.123976715 0.08224094
0.13946657 -0.0422965 0.074067764 0.02592999 0.017382663 -0.11009988 0.038825046 -0.064297
0.03311123 -0.03942378 -0.16414927 -0.04224329 0.09753888 0.08668929 -0.18034172 0.12165374
-0.012611403 -0.18137835 -0.050247088 -0.22988936 -0.11470672 -0.08642338 0.08226311 0.19570874
-0.07170712 -0.18402898 0.1000513 0.1582264 -0.06778088 -0.08949132 0.05517326 -0.056455515
-0.032513827 0.15899427 -0.0045031696 -0.029319067 -0.010358253 0.06039145 -0.09460162 0.14970236
0.025155617 0.05072738 -0.07400545 0.071106315 -0.0126890745 -0.07834204 0.13012788 0.052527316
0.11361763 -0.075775966 0.015627142 0.030947963 -0.03365289 -0.00013166387 0.104858026 0.08423767
-0.13290454 0.06313606 0.030812195 0.20701154 -0.0049781105 0.011755749 -0.013367458 0.075411506
0.12639177 0.06564395 0.15290965 0.2315484 -0.13189614 -0.18397309 -0.06875459 0.009676372
0.04329709 0.039596412 -0.14989057 -0.025774527 0.034011282 0.026154377 -0.19986606 0.01614673
0.014380384 0.05646508 -0.12869169 -0.25029668 0.017621538 -0.013108909 0.13200067 0.003579607
-0.09015951 0.13309461 0.1275534 0.13706599 0.1512413 0.11279804 -0.0026083342 -0.07304685
-0.043994408 -0.038093388 -0.028021412 0.017269418 -0.009684816 -0.029101552 -0.06552991 -0.0070384643
-0.09215636 -0.017571652 -0.060496803 -0.04765558 -0.10173479 -0.13220802 -0.052480936 0.043588907
00000000: c4f5 8cbd e364 d13d d8a8 1a3e 2edc c9bd
00000010: c385 353e 59d4 563c 7944 fcbd d8c0 ff3d
00000020: 0aa9 573e b8f1 2ebe 9bb8 593d 7697 9ebc
00000030: 8677 9d3d bdf7 0bbd afdc 383d e865 b43c
00000040: 03c3 003d 015b 3ebd d240 9c3d fcc8 72bb
00000050: 559a 9cbd 00eb eb3d 53fe aebd 437e 95bd
00000060: e226 eb3d 46f1 2cbe 4568 743c 6408 b53d
00000070: f0aa 4f3b 951d c13d a350 323e a911 a8bd
00000080: d0ef 89be 57a0 0b3d 455f a03d 1d07 cd3c
00000090: 2ae9 dabc 4b6c b23c 2d1e f0bd 2311 bfbc
000000a0: a770 ddbd 7031 38be 1146 23be bcd7 b9bd
000000b0: b4dc f5bd 49a0 31bc c4e3 12be c959 dc3d
000000c0: 7265 9bbc 18a4 5bbe d681 323b 3e45 d03d
000000d0: ada0 fd3d c6d6 a9bd 2344 ce3d 0db7 3a3d
000000e0: 9c04 73bc 36cb ff3d 3ab4 9ebc b773 53bd
000000f0: 71cf 2ebd 1d6b 853e 1260 983b ab01 063e
00000100: da1d 93bd d806 feba 2fdf 663d 32bb 81bc
00000110: 4766 823d 89ba 4e3d 227f 69bd 220f 28bd
00000120: 54b0 a83d d694 b7bd b940 c6bd bf1f 6dbe
00000130: 4e6a a73d d21a 3ebd 0c92 1fbd 4307 013d
00000140: 4fc3 40be 20a8 9fbc b5ca 9fbd 00c7 44be
00000150: a851 bb3c 5489 e83d 0d4c 403d 7b88 d33d
00000160: c1f7 633d 982b aabc b4e2 403d 2411 9dbd
00000170: f75a fabd 90a5 d6bd 5868 08bc a2af 8a3c
00000180: fba0 1a3e 77cf 173e 4189 aa3d 8fef 563e
00000190: ea32 a63d c65c 023e 9ffe bebd 95b2 4fbe
000001a0: 3ae2 b7bd 1373 8b3d 307b f13d 03da 12be
000001b0: 3bfc 87bd db35 d5bd 3dda cabd 9cdc 15bd
000001c0: 72d9 f5bb 8af0 193d fdf5 72bc d40d df3d
000001d0: 0838 e43c 2568 8fba ff9f 023d 0325 1cbd
000001e0: 6655 5f3d dfc3 4b3d f321 013d 263a acbc
000001f0: d9cb 06be f948 993d 4cf7 c83d 6999 1dbd
00000200: ddef 0dbd d34e 95bd 5083 243d 6534 a03d
00000210: 820f 68be 7c50 1e3d 6880 d33d f103 6b3d
00000220: 0903 693c 19fd aabd c94b a23d c392 ba3d
00000230: aff1 67bd 0edf b3bd 81e7 fdbd f06d a83d
00000240: 53d0 0e3e 183f 2dbd d7b0 973d 216b d43c
00000250: 1666 8e3c 0c7c e1bd 0307 1f3d 25ae 83bd
00000260: a49f 073d d47a 21bd bf16 28be 4d07 2dbd
00000270: 77c2 c73d 288a b13d 80ab 38be 9925 f93d
00000280: 0fa0 4ebc 3fbb 39be e4cf 4dbd 1e68 6bbe
00000290: 5beb eabd befe b0bd 9079 a83d df67 483e
000002a0: 2fdb 92bd 1872 3cbe b2e7 cc3d 1a06 223e
000002b0: b4d0 8abd 3a47 b7bd 5bfd 613d e63d 67bd
000002c0: 382d 05bd 65cf 223e 538f 93bb 8a2e f0bc
000002d0: a9b5 29bc 065d 773d 7fbe c1bd 934b 193e
000002e0: 2713 ce3c 83c7 4f3d 2b90 97bd 30a0 913d
000002f0: d6e5 4fbc cb71 a0bd 3e40 053e e226 573d
00000300: 5cb0 e83d 6e30 9bbd 7e04 803c 9586 fd3c
00000310: 9dd7 09bd 400f 0ab9 cebf d63d cd84 ac3d
00000320: 2118 08be 7b4d 813d db69 fc3c d5fa 533e
00000330: 6b1f a3bb 2f9b 403c 2f03 5bbc 5971 9a3d
00000340: d86c 013e 5670 863d 5994 1c3e 061b 6d3e
00000350: c80f 07be 7163 3cbe 35cf 8cbd a589 1e3c
00000360: 4a58 313d d92f 223d ea7c 19be 1a25 d3bc
00000370: 6a4f 0b3d b441 d63c b0a9 4cbe 2646 843c
00000380: b49b 6b3c ed47 673d c1c7 03be e326 80be
00000390: 0b5b 903c c0c6 56bc 2f2b 073e d797 6a3b
000003a0: 8da5 b8bd f449 083e 5c9d 023e 075b 0c3e
000003b0: 00df 1a3e a902 e73d 96f0 2abb 9699 95bd
000003c0: 7b33 34bd d007 1cbd 298d e5bc 9878 8d3c
000003d0: 10ad 1ebc 6166 eebc 8c34 86bd eba2 e6bb
000003e0: 79bc bcbd 6df2 8fbc 7fcb 77bd 7f32 43bd
000003f0: 545a d0bd 8a61 07be 40f6 56bd 488a 323d

weight f4 [64, 64]
-0.057856485 -0.043040965 0.012745251 -0.073635146 -0.004837448 -0.050934076 -0.012757952 -0.08258833
0.11864707 0.02038537 -0.15018578 -0.009387251 0.004039575 -0.012114713 -0.006784871 -0.006343634
-0.027372956 0.1261781 0.09125203 0.1282475 -0.03876421 0.147771 -0.07980641 0.058252543
0.012241044 0.12579294 -0.02145976 0.030326433 -0.0659611 0.046987 -0.059791435 0.0327358
-0.015632683 0.07947897 0.008743452 0.04933533 -0.16237669 0.008640127 0.01008622 0.11164162
0.082686536 -0.0146477055 0.013725629 -0.07132628 0.11335182 -0.0060067135 0.01711366 0.016742721
-0.1378649 -0.06819455 -0.058565885 0.14566392 0.022761034 -0.13967684 -0.086150825 0.0325929
-0.15581201 0.1320737 0.07596224 0.010109826 0.10111667 0.00728918 0.023900097 0.10637623
0.04785722 0.093854874 -0.005607942 -0.05335359 -0.13039282 -0.053578015 -0.07241163 0.07806697
0.048121125 -0.103655264 0.013477839 0.058426064 0.0045094886 0.014725188 0.07981328 0.07318696
-0.077020355 0.060725637 -0.10058041 0.12159269 -0.017590938 0.11265842 0.062329117 0.06790512
-0.07802251 -0.058829296 -0.031937517 -0.056389768 -0.022511326 -0.088105395 -0.051963817 0.081273444
-0.023923157 0.017831083 -0.1225038 -0.1010567 0.08597532 -0.02366723 0.049703896 0.051399816
0.07273539 0.033896055 0.089609735 -0.031159451 0.043486193 0.052978005 -0.06960396 0.060271032
-0.02787933 -0.04506674 -0.0030733345 -0.09915694 -0.006336074 -0.11976102 -0.1230623 -0.0071204077
-0.06757172 -0.032965273 -0.029560031 0.12896012 0.01699906 0.08472698 0.070768535 0.10411514
0.09514895 0.098054826 -0.08295062 -0.053196114 -0.13821395 0.0039924914 -0.033343446 0.023820102
-0.09540967 -0.07703916 0.02746044 0.08691423 0.101677 0.009642364 -0.042516556 -0.09826205
-0.04535636 0.08157137 0.081698254 0.026993867 -0.10645998 0.11692333 -0.07769228 0.062675014
0.027134215 0.12973323 0.04575534 -0.11726874 -0.07197725 0.111263126 0.0023192842 0.0912531
0.1310911 0.021836756 0.06533778 -0.07712912 -0.078036405 0.09322144 -0.12190298 0.14488344
0.09576302 -0.106971286 -0.009221681 0.011863512 -0.07126473 -0.053382866 0.063335106 0.0025624286
-0.08877935 0.105568 0.07868458 -0.07041901 0.026316108 -0.095679484 -0.119454436 0.04155366
-0.038737647 0.07838459 -0.13634944 -0.0705667 -0.004076942 0.07539984 -0.02552122 0.07373503
-0.054807164 0.037046228 -0.00014583959 -0.065480195 -0.12224354 -0.02839977 -0.083838105 -0.14108539
0.1027961 -0.15439098 0.10235467 0.05593497 0.06714854 0.023709876 -0.120373234 0.06681483
-0.005012538 0.054461267 0.078159966 -0.027077181 -0.04620761 0.13557339 -0.012332517 -0.13297996
-0.06186236 0.06989325 0.100878544 -0.13183424 0.0026697293 0.09292132 0.14939186 0.06598155
-0.062187243 0.14681369 -0.057379685 -0.054803144 -0.0454835 0.015959553 -0.038232934 0.17408863
0.073477775 0.1477483 -0.07457052 0.10864451 0.00037535164 0.028287461 -0.14544705 -0.11255829
-0.014538653 -0.09648506 -0.090050146 -0.05526146 0.12666832 -0.08418623 0.07271606 0.055975564
-0.16687685 0.1164608 0.03493662 0.05896134 0.120009884 -0.09286654 0.14495677 -0.0059142406
00000000: ecfa 6cbd b94b 30bd 75d1 503c 06ce 96bd
00000010: 7483 9ebb 40a0 50bd bb06 51bc 1224 a9bd
00000020: 3cfd f23d 38ff a63c 4dca 19be fccc 19bc
00000030: 695e 843b ca7c 46bc a053 debb 42de cfbb
00000040: 403d e0bc d534 013e 58e2 ba3d 5053 033e
00000050: 38c7 1ebd 4851 173e 8b71 a3bd 389a 6e3d
00000060: a98e 483c ddcf 003e 61cc afbc 246f f83c
00000070: 9d16 87bd 7175 403d dde7 74bd f915 063d
00000080: 1d10 80bc dfc5 a23d b240 0f3c d813 4a3d
00000090: 1346 26be 528f 0d3c ac40 253c 5da4 e43d
000000a0: 8f57 a93d eefc 6fbc 76e1 603c 8313 92bd
000000b0: 0025 e83d f7d3 c4bb f231 8c3c 0828 893c
000000c0: 752c 0dbe 96a9 8bbd c8e2 6fbd ec28 153e
000000d0: 5975 ba3c 7207 0fbe d86f b0bd 2280 053d
000000e0: 2f8d 1fbe 543e 073e 1792 9b3d afa3 253c
000000f0: 4216 cf3d 13da ee3b 23ca c33c c8db d93d
00000100: ef05 443d fc36 c03d d4c2 b7bb 4b89 5abd
00000110: b285 05be 9f74 5bbd 8c4c 94bd 93e1 9f3d
00000120: a81a 453d 3649 d4bd 27d2 5c3c 2b50 6f3d
00000130: 55c4 933b ea41 713c 2575 a33d 0be3 953d
00000140: d9bc 9dbd 72bb 783d 1afd cdbd 9705 f93d
00000150: df1a 90bc 75b9 e63d d14c 7f3d d711 8b3d
00000160: 44ca 9fbd fdf6 70bd ead0 02bd f5f8 66bd
00000170: ac69 b8bc 9a70 b4bd 03d8 54bd b172 a63d
00000180: 7ffa c3bc 7e12 923c 46e3 fabd d1f6 cebd
00000190: d413 b03d c7e1 c1bc 5096 4b3d 9d88 523d
000001a0: 4bf6 943d 97d6 0a3d 4f85 b73d 1b42 ffbc
000001b0: 941e 323d 77ff 583d 858c 8ebd c2de 763d
000001c0: 3163 e4bc e797 38bd ff69 49bb cb12 cbbd
000001d0: d79e cfbb 4445 f5bd 1608 fcbd 4f52 e9bb
000001e0: 0b63 8abd 9806 07bd e127 f2bc 1f0e 043e
000001f0: 9d41 8b3c 5785 ad3d 18ef 903d 523a d53d
00000200: 74dd c23d f8d0 c83d 04e2 a9bd 2be4 59bd
00000210: f587 0dbe 72d3 823b 2393 08bd 6022 c33c
00000220: 2566 c3bd b5c6 9dbd b7f4 e03c 1600 b23d
00000230: 083c d03d 02fb 1d3c d725 2ebd 9d3d c9bd
00000240: 97c7 39bd e40e a73d 6a51 a73d 3e22 dd3c
00000250: b107 dabd 8075 ef3d 211d 9fbd c25b 803d
00000260: 9348 de3c cad8 043e f469 3b3d 982a f0bd
00000270: cf68 93bd ecdd e33d 22ff 173b e8e2 ba3d
00000280: bf3c 063e ffe2 b23c d0cf 853d dff5 9dbd
00000290: 8dd1 9fbd e2ea be3d 45a8 f9bd 535c 143e
000002a0: 671f c43d c313 dbbd 8916 17bc 2d5f 423c
000002b0: 3ef3 91bd fea7 5abd d6b5 813d 6bee 273b
000002c0: f3d1 b5bd 0934 d83d 6225 a13d d837 90bd
000002d0: e194 d73c 9bf3 c3bd 87a4 f4bd 2c34 2a3d
000002e0: 5eab 1ebd 1a88 a03d 309f 0bbe 4685 90bd
000002f0: de97 85bb 3b6b 9a3d e111 d1bc 6402 973d
00000300: 7a7d 60bd c9bd 173d 84ec 18b9 7b1a 86bd
00000310: d25a fabd a2a6 e8bc 50b3 abbd b078 10be
00000320: c386 d23d ab18 1ebe 539f d13d 111c 653d
00000330: 2c85 893d 373b c23c 3e86 f6bd 37d6 883d
00000340: 3740 a4bb c712 5f3d 5512 a03d f7d0 ddbc
00000350: 3144 3dbd c0d3 0a3e 530e 4abc e62b 08be
00000360: 6363 7dbd 3124 8f3d 6999 ce3d 8eff 06be
00000370: a0f6 2e3b 884d be3d 2efa 183e 5621 873d
00000380: 0db8 7ebd 5456 163e f606 6bbd 4379 60bd
00000390: e84c 3abd 9cbd 823c 239a 1cbd 4a44 323e
000003a0: 847b 963d 554b 173e 6eb8 98bd 0381 de3d
000003b0: d8ca c439 1bbb e73c 12f0 14be f684 e6bd
000003c0: 8833 6ebc f699 c5bd 366c b8bd d759 62bd
000003d0: 57b5 013e d569 acbd 28ec 943d a246 653d
000003e0: c4e1 2abe 0083 ee3d b419 0f3d 7281 713d
000003f0: bec7 f53d d030 bebd 8c6f 143e 3fcc c1bb
