examples/carbon/outDir/epoch=171-step=87210-val_loss=0.2148.pt (torch, 745777 bytes, 92 tensors)

cutoff f8 []
0	0x4008000000000000	3.0

weight f4 [7, 64]
0	0x3f594515	0.84871036
1	0x3f312783	0.69200915
2	0xbea1cc6d	-0.31601277
3	0xc0075fc1	-2.1152194
4	0xbeb65675	-0.35612836
5	0x3edfdba8	0.43722272
6	0x3efb8c53	0.49130496
7	0xbe51000b	-0.20410173
8	0x3df56f77	0.11984151
9	0x3f9e6b93	1.2376579
10	0x3f8ef28e	1.1167772
11	0xbe7d367c	-0.24727815
12	0xbf8599a7	-1.0437516
13	0xbfac32f6	-1.3453052
14	0x3f490d11	0.7853556
15	0x3f7e2a99	0.9928375
16	0x3f194d8b	0.59883946
17	0xbfc70d5b	-1.5550951
18	0xbeaec6ca	-0.3413604
19	0x3fed2f4e	1.8530061
20	0x3eefaa55	0.4680964
21	0xbe217f5f	-0.15771244
22	0x3fb8c9db	1.4436601
23	0x3e8837a1	0.2660494
24	0x3fb1d6c0	1.3893661
25	0x3fcb0d00	1.5863342
26	0x3f72409c	0.94629836
27	0xbf57fb33	-0.84367675
28	0x3f6e8c30	0.9318266
29	0x3fa12737	1.2590092
30	0x4000519a	2.0049806
31	0x3d5c1b3a	0.053736903
32	0x3ee11fd0	0.43969584
33	0x3de637d6	0.112411186
34	0x3f240af8	0.64079237
35	0x3ee1df3c	0.44115627
36	0xbe5d0b42	-0.21586326
37	0xbf3e17a3	-0.74254817
38	0x3f100e82	0.5627214
39	0x3e84ede2	0.2596274
40	0x3f05da2f	0.52286047
41	0x40135755	2.3022053
42	0xbfbc04b7	-1.4688939
43	0xbfcb189e	-1.5866888
44	0x3f9a033c	1.2032237
45	0x3dad2087	0.0845347
46	0xbf999e2b	-1.2001394
47	0xbb9cd1ae	-0.004785738
48	0xbe6bdd10	-0.23033547
49	0xbec89408	-0.3917544
50	0x3f0b155d	0.5432947
51	0xbeca5217	-0.39515755
52	0x3e527552	0.20552567
53	0xbee6919f	-0.45032975
54	0xbf12b52e	-0.5730771
55	0xbf0e2bf8	-0.5553584
56	0xbfc3fdd9	-1.5311843
57	0xbf9df823	-1.234135
58	0x3fe8ecc2	1.8197253
59	0xbf0d30fc	-0.5515287
60	0xbfa9a448	-1.325326
61	0x3e411430	0.18855357
62	0xbd8d75fb	-0.069072686
63	0xbefd66db	-0.49492535
64	0xbfbd34ce	-1.478174
65	0x40244d8b	2.5672328
66	0xbef23cc2	-0.4731198
67	0x3eabcd4f	0.33555076
68	0x3fc12ae8	1.5091219
69	0x40053ec2	2.0819554
70	0x3fda7587	1.7067116
71	0x401857f1	2.3803675
72	0xbf8892d0	-1.0669804
73	0x3f8eb657	1.1149396
74	0xbe100c2c	-0.14067143
75	0x3f4e45de	0.8057536
76	0x3ea7bd10	0.3276143
77	0xbf42bdb5	-0.7607072
78	0xbfccaeb8	-1.599082
79	0x3c97715a	0.018486667
80	0x3f57865f	0.8418941
81	0xbeccd147	-0.40003416
82	0x3f850d17	1.039462
83	0x3eb75fd8	0.3581531
84	0xbb5885ca	-0.003303873
85	0xbf08d11b	-0.5344407
86	0x3f959790	1.1686878
87	0x3ec9fc44	0.39450276
88	0xbf85c1dc	-1.0449786
89	0xbf74dd3d	-0.9565008
90	0x3d0958b4	0.03353186
91	0x3f35c83c	0.7100866
92	0xbfc4844a	-1.5352871
93	0xbed34aae	-0.41267914
94	0x3f775fa7	0.9663033
95	0x3fcff8e5	1.6247832
96	0xc02740ad	-2.6133225
97	0xbfd92613	-1.6964744
98	0xbe69b837	-0.22824179
99	0x3e8f5643	0.279955
100	0x3d960206	0.07324605
101	0x3f8e8138	1.1133184
102	0x3e908555	0.28226724
103	0x3ede52d3	0.43422565
104	0x3ee9f40f	0.45694014
105	0xbf5d88fa	-0.86537135
106	0x3f4803cc	0.78130794
107	0xbf6d4212	-0.9267894
108	0x3e535ecc	0.20641631
109	0xbeaab9ae	-0.33344787
110	0xbedb8f9b	-0.42883
111	0x3e6e8222	0.23291829
112	0x3f766799	0.9625183
113	0x3eb2c62e	0.34916824
114	0xbf6be4ef	-0.921462
115	0xbd662c81	-0.056194786
116	0xbf33970d	-0.7015236
117	0x3f84b227	1.0366868
118	0xbf1a8a20	-0.6036701
119	0xbfa3ae94	-1.2787652
120	0x3dfdc095	0.12390248
121	0x3f9517a0	1.1647835
122	0x3f6c6235	0.9233735
123	0x3fb192e4	1.3872952
124	0x3fb0013e	1.3750379
125	0x3f28dd95	0.6596311
126	0x3ef3ff4b	0.4765571
127	0xbf82165d	-1.0163075
128	0x3f1c40db	0.6103646
129	0x3eef0b5c	0.46688354
130	0x3ff9af22	1.9506571
131	0xbf88139d	-1.0630985
132	0x3f91f703	1.1403507
133	0xbdb81417	-0.08988207
134	0x3f3ad3ed	0.72979623
135	0xbfec336a	-1.845319
136	0xbdd115f1	-0.10209263
137	0xbf844b50	-1.0335484
138	0xbea01232	-0.31263882
139	0x3e7baf30	0.24578547
140	0x3ec11dfd	0.37718192
141	0x3f8cf543	1.1012348
142	0xbf92468b	-1.1427778
143	0x3d19f325	0.037585396
144	0x3e93c041	0.28857616
145	0x3ec5f024	0.38659775
146	0xbe4de3b3	-0.20106392
147	0xbdf183b4	-0.117926985
148	0xbf545163	-0.82936686
149	0xbfb420fc	-1.4072566
150	0x3fd03c83	1.6268467
151	0x3e306863	0.1722732
152	0xbf344c9c	-0.70429397
153	0x3ea1231b	0.31472096
154	0x3e212b9a	0.15739289
155	0x3ec54e43	0.3853627
156	0x3f12db07	0.5736546
157	0x3f7f786d	0.9979313
158	0x3f0b29fd	0.54360944
159	0x3da16432	0.07880439
160	0x3f7f9ada	0.9984566
161	0xbeff578b	-0.49871477
162	0x3f42d82a	0.7611109
163	0x3f1e48f7	0.61830086
164	0xbe9948ec	-0.29938447
165	0xbe4048e5	-0.18777807
166	0x3ff53c22	1.9158976
167	0x3f30b0a4	0.6901953
168	0xbea0c932	-0.314035
169	0xbf8a131b	-1.078708
170	0x3e769708	0.24081051
171	0xbfb2b793	-1.3962272
172	0x3de88e01	0.1135521
173	0x3f8d67a7	1.1047257
174	0xbfb294ff	-1.395172
175	0x3ef342c3	0.47511873
176	0x3f8a6096	1.0810726
177	0x3e06a22f	0.13147806
178	0x3fc969b4	1.5735383
179	0x3f480bcb	0.78142995
180	0x3f7cc8a5	0.9874366
181	0xbfbe707a	-1.4878075
182	0x3f163126	0.58668745
183	0x3e22182e	0.15829536
184	0x3f2ab22a	0.66678107
185	0xbf7e9052	-0.99438965
186	0xbf983d14	-1.189364
187	0xbf9914df	-1.1959494
188	0x3fa7ec14	1.311892
189	0xbe56e005	-0.20983894
190	0x3f481f8b	0.7817313
191	0x3f7d5c7e	0.98969257
192	0x3e2fa092	0.17151096
193	0x3f604478	0.87604475
194	0xbe92fd1f	-0.2870874
195	0x3f82c51a	1.0216401
196	0xbf02d5bb	-0.51107377
197	0xbfdb5b6f	-1.7137278
198	0xbf02939b	-0.5100648
199	0xbef32531	-0.47489312
200	0x3f298acb	0.66227406
201	0xbf9a681e	-1.2063024
202	0x3f1b812b	0.6074397
203	0xbf0c1278	-0.5471568
204	0xbf8cdc84	-1.1004796
205	0xbf385a47	-0.7201275
206	0x3c43782c	0.011930507
207	0x3eadf6b7	0.3397729
208	0xbfa077c2	-1.2536547
209	0x3f7ca14a	0.9868361
210	0xbefd436d	-0.49465504
211	0xbfa43ac1	-1.283043
212	0x3ee096a1	0.4386492
213	0xbc2f6009	-0.010704049
214	0x3fab4f31	1.3383542
215	0xbe8f0e2d	-0.27940503
216	0x3e934ddc	0.2877034
217	0xbd08b3ff	-0.033374783
218	0xbf87ebf6	-1.0618885
219	0xbdea5845	-0.11442617
220	0x3e481514	0.1953929
221	0xbf3cb335	-0.7371095
222	0x3fd99ced	1.7001015
223	0x3eb1432a	0.34621555
224	0xbe143b30	-0.14475703
225	0x3f233aec	0.6376178
226	0xbe900546	-0.28129023
227	0xbfaa3959	-1.3298751
228	0xbf275f69	-0.6537996
229	0x3fdc2332	1.7198241
230	0xbf76012c	-0.9609554
231	0xbf23335d	-0.6375025
232	0xbf631005	-0.8869632
233	0x3f56b9f0	0.8387747
234	0x3f939211	1.1528951
235	0xbfe16baa	-1.7610981
236	0xbf8db373	-1.1070389
237	0xbfdbd27e	-1.7173612
238	0x3fc46c7f	1.534561
239	0xbb521f4c	-0.0032062111
240	0x3fb85d22	1.4403422
241	0xbde27f35	-0.11059419
242	0x3f13ad1d	0.57686025
243	0xbe2d3bf9	-0.16917409
244	0x3f9826a3	1.1886791
245	0xbe21499a	-0.15750733
246	0xbd3a86ab	-0.045538586
247	0x3f26025b	0.64847344
248	0xbf5ee90d	-0.8707436
249	0x3e14377b	0.14474289
250	0x3ff390cd	1.9028565
251	0x3ec7e1f5	0.3903958
252	0x3d076dbb	0.03306363
253	0xbf830067	-1.0234498
254	0x3f3bc767	0.7335114
255	0x3f8f1172	1.1177199

weight f4 [64, 64]
0	0x3e3b19b8	0.1827153
1	0x3e0df0de	0.13861415
2	0xbe4d8177	-0.20068918
3	0xbe14ec1b	-0.14543192
4	0x3df88e06	0.12136464
5	0xbd38645f	-0.045017596
6	0xbcfcfd70	-0.030882567
7	0x3e047f96	0.12939295
8	0xbe78843a	-0.2426919
9	0x3d777f6f	0.060424265
10	0x3e10ba34	0.14133531
11	0x3e4c53bc	0.19953817
12	0x3e4f29ff	0.20230864
13	0x3e3e2667	0.18569337
14	0xbd298b6e	-0.041392736
15	0xbdf8587f	-0.12126254
16	0x3df202f5	0.1181697
17	0x3e1b75c8	0.15181649
18	0xbde50689	-0.11182887
19	0x3be9b4da	0.007132155
20	0xbd7c9338	-0.061663836
21	0xbe17e37c	-0.14832872
22	0x3e1b5ee1	0.15172912
23	0x3d9e9d75	0.07744876
24	0x3e1d91c3	0.15387635
25	0x3dda3a59	0.1065566
26	0x3e0c5544	0.13704401
27	0x3d23300d	0.039840747
28	0xbccf0519	-0.025270985
29	0x3d442d42	0.047894724
30	0x3cf8d270	0.030373782
31	0xbd031c64	-0.032009497
32	0x3e5374d6	0.20650038
33	0xbda16dea	-0.078822926
34	0xbdfe3b1b	-0.12413617
35	0xbc9b830c	-0.018983386
36	0xbd39cf4b	-0.045363706
37	0xbe78f8bb	-0.24313633
38	0x3dc5f53f	0.096659176
39	0xbe3eb463	-0.186235
40	0x3dce4e6a	0.1007355
41	0xbd6af1f4	-0.05735965
42	0x3e3ac8b6	0.18240628
43	0x3dbd443b	0.092415296
44	0x3e16b63f	0.14717959
45	0xbc2b2432	-0.010445641
46	0x3ca42043	0.020034915
47	0x3dbb303d	0.0914006
48	0x3df9709a	0.1217968
49	0x3daae256	0.083439514
50	0xbdd2ade9	-0.10287077
51	0xbe102a51	-0.14078642
52	0xbe0d03cc	-0.1377098
53	0xbe318210	-0.17334771
54	0xbd4ebbc6	-0.050472043
55	0x3e58bf5d	0.2116675
56	0xbe1d4fc7	-0.15362464
57	0xbe62c1e8	-0.22144282
58	0x3b239afa	0.00249642
59	0x3d4ec8b2	0.050484367
60	0xbd9395bb	-0.07206293
61	0xbe3e5386	-0.18586549
62	0x3cec479c	0.02884274
63	0xbe57f0de	-0.21087977
64	0xbdc41a6d	-0.09575353
65	0xbcedeb37	-0.029042823
66	0x3e1b56e7	0.1516987
67	0xbcae15dd	-0.02125066
68	0x3bb28d7a	0.005448994
69	0xbd1a4535	-0.037663657
70	0x3d36d286	0.044634365
71	0xbd7e87ca	-0.062141217
72	0xbccef7aa	-0.02526458
73	0xbe03f2b6	-0.12885556
74	0xbda47345	-0.080297984
75	0xbdf3ba13	-0.11900725
76	0xbd4acc92	-0.0495115
77	0xbcea24a8	-0.028581932
78	0x3e3c368c	0.18380183
79	0x3b8a7e0e	0.0042264527
80	0xbde6ad1a	-0.11263485
81	0xbcb56dfb	-0.02214717
82	0x3e0bc973	0.13651066
83	0xbc915e67	-0.01774521
84	0x3d4a7b35	0.049433906
85	0x3db2f3ba	0.087378934
86	0xbe0451e5	-0.12921865
87	0x3dc874d5	0.09787909
88	0xbdcfa37e	-0.101386055
89	0xbdd0202d	-0.10162387
90	0x3db2419e	0.08703922
91	0xbdbd9501	-0.09256936
92	0xbca96c28	-0.020681456
93	0xbdc49352	-0.095984116
94	0xbbe4e876	-0.0069857193
95	0xbd225875	-0.03963514
96	0x3d5c991a	0.053856947
97	0xbdd42999	-0.103594966
98	0xbbc08c2c	-0.005876085
99	0x3e0cf40c	0.13764971
100	0x3d42307f	0.04740953
101	0x3c2f2390	0.010689631
102	0xbe29274a	-0.16518894
103	0x3dd259e7	0.10271054
104	0x3d1cd321	0.038287286
105	0x3d4892be	0.04896807
106	0xbe0cb2ba	-0.13740054
107	0x3d2be575	0.041966874
108	0xbe40788b	-0.18795983
109	0x3ccc15b2	0.024912689
110	0x3cf2838c	0.029603742
111	0xbdf552db	-0.11978694
112	0x3d57a226	0.05264487
113	0xbd0adfc5	-0.03390481
114	0xbbaf4d1f	-0.0053497697
115	0xbd1c529e	-0.038164727
116	0xbcfae577	-0.030626995
117	0x3d69b01e	0.057052724
118	0x3d964b0a	0.07338531
119	0xbdf2801a	-0.1184084
120	0x3d9a9a5b	0.07548972
121	0x3be1a8be	0.0068865707
122	0x3c952337	0.018205268
123	0xbe01b21b	-0.12665598
124	0xbdb3d5fd	-0.087810494
125	0x3e07fe12	0.13280514
126	0x3d3512d9	0.044207428
127	0x3e167390	0.14692521
128	0x3c07493b	0.008257206
129	0x3d1a8740	0.03772664
130	0xbd98c12b	-0.07458719
131	0xbd929951	-0.07158149
132	0x3db04fff	0.08609008
133	0xbe41b122	-0.18915227
134	0x3d1023bc	0.03519033
135	0x3df0f6f9	0.11765856
136	0xbe4413b7	-0.19148146
137	0x3d985d72	0.07439698
138	0x3dc0a88f	0.0940715
139	0x3db5d878	0.08879179
140	0x3e475af6	0.19468293
141	0xbcb4be2d	-0.02206334
142	0xbdd5f049	-0.104462214
143	0xbd635a7b	-0.05550621
144	0xbdb5ef64	-0.08883551
145	0x3db72c73	0.08944025
146	0x3d428d37	0.047497954
147	0x3e1a791d	0.15085264
148	0xbdf9b08a	-0.12191875
149	0xbe1b502f	-0.15167306
150	0xbc3abeff	-0.011398076
151	0xbcd666bb	-0.026172033
152	0xb9630853	-0.00021651508
153	0xbd80069e	-0.06251262
154	0xbe15fbb2	-0.14646795
155	0xbdcd2c7f	-0.100182526
156	0xbddaa5b9	-0.1067614
157	0x3d613450	0.05498153
158	0x3e14d01b	0.14532511
159	0xbd0b8c31	-0.034069244
160	0x3e2a2747	0.16616546
161	0xbd7085f8	-0.058721513
162	0x3d9f7b98	0.077872455
163	0xbe508f29	-0.20367111
164	0xbe478588	-0.19484532
165	0xbd593e4b	-0.053037923
166	0x3e0a17bf	0.13485621
167	0xbe3c93ec	-0.18415803
168	0x3c0afe3f	0.008483469
169	0xbe30c31b	-0.17261927
170	0x3e354b17	0.17704426
171	0x3cca0d88	0.024664655
172	0x3d2c5136	0.042069636
173	0xbd1aacd0	-0.037762463
174	0x3dfc7e3a	0.12328763
175	0x3e4f15f3	0.20223217
176	0x3d8bd33a	0.06827398
177	0x3e01d298	0.12677991
178	0x3da2c195	0.07947079
179	0xbda844ad	-0.08216224
180	0xbd108497	-0.035282698
181	0x3cc5be12	0.024138484
182	0xbd814e7e	-0.06313799
183	0xbd4387c9	-0.047736917
184	0xbda3ba0d	-0.07994471
185	0x3d67f6a1	0.056631688
186	0x3db3432d	0.08753047
187	0x3e29da51	0.16587187
188	0x3e0f9163	0.14020304
189	0xbd97c77f	-0.07411098
190	0x3e0018cc	0.1250946
191	0xbdd436c2	-0.10362007
192	0x3dc26bc7	0.09493213
193	0x3e802b54	0.25033057
194	0xbdd7e229	-0.105411835
195	0xbe9b3e8e	-0.30321163
196	0x3eafc78d	0.34331933
197	0xbe4b14a8	-0.19832098
198	0xbe52be6f	-0.20580457
199	0x3e74bb13	0.23899488
200	0xbe1e88ea	-0.15481916
201	0x3de8c512	0.11365713
202	0x3e4b855a	0.19875088
203	0x3e4af0fe	0.19818494
204	0x3dcff98c	0.10155019
205	0x3d8d271a	0.06892224
206	0xbe0dd8bd	-0.1385221
207	0x3ae68b2c	0.0017589084
208	0x3e73554b	0.23763005
209	0x3e8759d0	0.2643571
210	0xbde1a012	-0.11016859
211	0x3d6fa450	0.05850631
212	0x3e8bb755	0.2728831
213	0xbd950cae	-0.07277809
214	0x3e487926	0.19577464
215	0x3e6580a5	0.22412355
216	0x3eaf1454	0.34195197
217	0x3e564faf	0.20928834
218	0x3e752256	0.2393888
219	0x3e709e1f	0.23497818
220	0xbe5f402a	-0.2180182
221	0x3d597a58	0.05309519
222	0x3e37ff1f	0.17968415
223	0x3da61cc2	0.08110954
224	0x3d8b7ff2	0.06811513
225	0xbe3aed36	-0.18254551
226	0xbcc093b1	-0.023507925
227	0xbea9d595	-0.33170763
228	0xbe36f4e7	-0.1786686
229	0xbea639f8	-0.32466102
230	0x3ded34b6	0.115823194
231	0xbe3d77d2	-0.18502739
232	0x3cef7a8b	0.029233238
233	0xbde6e4fb	-0.11274143
234	0x3ea33e38	0.31883407
235	0x3e9e1f5f	0.3088331
236	0x3e1c4086	0.15258989
237	0xbda99988	-0.08281237
238	0x3e452e60	0.19255972
239	0x3ea90fd7	0.33019897
240	0x3e1508ea	0.14554182
241	0x3daf62bc	0.08563754
242	0xbde2fee4	-0.11083773
243	0xbe1cc522	-0.15309575
244	0x3cae926a	0.02131005
245	0xbe979ff3	-0.2961422
246	0xbe15d224	-0.14630944
247	0x3e6ccc77	0.23124872
248	0xbe8a4096	-0.270024
249	0xbe82dfe9	-0.25561455
250	0x3ce62429	0.028093414
251	0x3e80df24	0.25170243
252	0x3df66a72	0.120320216
253	0xbd827b90	-0.06371224
254	0x3e8c3bc7	0.27389356
255	0xbe758dcd	-0.23979874

weight f4 [64, 64]
0	0x3d7af10c	0.061265036
1	0xbe0ba4bc	-0.1363706
2	0xbe384fc0	-0.17999172
3	0xbe456b99	-0.19279326
4	0x3da5b2e0	0.08090758
5	0xbda2490c	-0.07924089
6	0xbe40a82e	-0.18814155
7	0xbb186044	-0.0023250738
8	0xbdf9a169	-0.1218899
9	0x3d868063	0.065674566
10	0xbc56ff63	-0.013122412
11	0x3e1d42ba	0.15357485
12	0xbe71af45	-0.23602016
13	0x3cb46e4c	0.02202525
14	0xbe3a4183	-0.18189053
15	0xbe0cd156	-0.1375173
16	0x3e6d97cd	0.23202439
17	0x3dfbee38	0.12301296
18	0x3da03561	0.07822681
19	0x3d7ab208	0.06120494
20	0x3e072d86	0.1320096
21	0xbd8ebeb0	-0.069699645
22	0x3ceeeb96	0.02916507
23	0xbd0e4136	-0.03473016
24	0x3d540273	0.05176015
25	0x3ca18a91	0.019719394
26	0x3db1a7e6	0.08674602
27	0x3d0f1267	0.03492966
28	0x3d8aec43	0.067833446
29	0x3d0822db	0.033236366
30	0xbe100321	-0.14063694
31	0x3c9823dd	0.018571788
32	0xbca74a6c	-0.02042123
33	0xbd8557b9	-0.065108724
34	0xbe81cd45	-0.2535192
35	0xbd8679b8	-0.06566185
36	0xbd947f9c	-0.07250902
37	0xbd8f3265	-0.06992034
38	0xbcd3f287	-0.025872482
39	0xbe17662d	-0.1478507
40	0xbdd9f26c	-0.106419414
41	0xbe1ad641	-0.15120794
42	0x3d59fdb5	0.05322047
43	0x3e0682af	0.1313579
44	0x3d15e4de	0.036595218
45	0xbd5be895	-0.053688604
46	0x3dd65f77	0.10467427
47	0xbdf9a017	-0.12188738
48	0x3de2685b	0.110550605
49	0x3df0daeb	0.11760505
50	0xbe2be9e1	-0.16788436
51	0xbe049bf1	-0.12950112
52	0xbe017aa9	-0.12644447
53	0xbe107d3a	-0.1411027
54	0xbe00487b	-0.12527649
55	0xbcad8412	-0.02118114
56	0xbbd4e2e3	-0.0064967736
57	0x3ca27f42	0.019836072
58	0xbe1ff6f8	-0.15621555
59	0xbd866812	-0.065628186
60	0x3e72eed0	0.23723912
61	0xbd7b7720	-0.061392903
62	0x3c32c39a	0.010910893
63	0x3d182aae	0.037150078
64	0xbd42b7e5	-0.047538657
65	0x3d83ba5e	0.06432031
66	0xbd97adf9	-0.074062295
67	0x3d4502c9	0.04809836
68	0x3e332b73	0.17497043
69	0xbd11b85d	-0.035576213
70	0xbc1010b7	-0.008793048
71	0x3dab3cf5	0.08361236
72	0xbe0d2d27	-0.13786756
73	0x3cab110c	0.020882152
74	0x3cba9e56	0.022780579
75	0x3d8efa41	0.06981326
76	0x3dd4c8bf	0.10389852
77	0x3da346e6	0.07972507
78	0xbd05f4ce	-0.032704167
79	0x3d36ea5d	0.0446571
80	0x3cb925c4	0.022601016
81	0xbd3c2551	-0.045934025
82	0x3cf57933	0.029965019
83	0xbdc36362	-0.0954044
84	0x3e5a1327	0.21296369
85	0x3d1e2014	0.03860481
86	0x3e1a0be7	0.15043603
87	0xbc9f136d	-0.019418443
88	0x3d4f9080	0.050674915
89	0x3df7c91e	0.12098907
90	0xbd7dd088	-0.06196645
91	0x3e184fb5	0.14874156
92	0x3d2bb080	0.04191637
93	0x3d9666e5	0.07343844
94	0x3cd6db4e	0.02622762
95	0x3dbc871b	0.09205457
96	0xbd7f3304	-0.06230451
97	0x3d6ea15a	0.058259346
98	0x3ddbafd0	0.10726893
99	0xbd7b48df	-0.061348792
100	0xbde6a27c	-0.1126146
101	0xbd4ef1d0	-0.05052358
102	0x3e391880	0.18075752
103	0x3d8f71d3	0.07004132
104	0xbda536cb	-0.080670916
105	0xbe5cfbfa	-0.21580496
106	0xbd50335e	-0.050830238
107	0xbde463f5	-0.11151878
108	0x3e08398c	0.13303202
109	0xbd9588d8	-0.073014915
110	0x3e0b1a1e	0.13584182
111	0x3d39d341	0.045367483
112	0xbe1660b9	-0.14685334
113	0x3cc6694e	0.024220135
114	0x3d8977e6	0.06712322
115	0x3bf07af8	0.007338878
116	0x3d920722	0.07130267
117	0x3b2d3ff6	0.0026435829
118	0xbd24743f	-0.040149923
119	0xbdb621d1	-0.08893169
120	0x3d0de468	0.034641653
121	0xbdfb91f4	-0.12283698
122	0x3db803eb	0.08985122
123	0x3d2108c3	0.039314996
124	0x3e5ab0a3	0.21356444
125	0xbdd3827c	-0.10327622
126	0x3cd34153	0.025787985
127	0xbdc3532c	-0.09537348
128	0xbd86577d	-0.06559656
129	0xbc58eef3	-0.013240564
130	0x3e16b9cc	0.14719313
131	0x3e317d5b	0.17332976
132	0xbc4a2bf7	-0.012339584
133	0x3dc7a5f5	0.09748451
134	0x3e07272f	0.13198541
135	0xbde35adc	-0.111013144
136	0x3e163548	0.14668763
137	0xbe2ef382	-0.17085078
138	0xbc09d9a8	-0.00841371
139	0xbddba555	-0.10724894
140	0xbb8c75b5	-0.0042864927
141	0xbdf5c65e	-0.12000726
142	0x3d89c78f	0.06727516
143	0x3db6feea	0.0893534
144	0xbd78af53	-0.060714077
145	0xbd2e4ab9	-0.04255173
146	0x3dcd1397	0.10013502
147	0xbd7f42c6	-0.06231954
148	0xbd25226d	-0.040316034
149	0xbd886819	-0.0666048
150	0xbe08d0b3	-0.13360862
151	0xbe30faa4	-0.17283112
152	0xbdc73df4	-0.097286135
153	0x3d101bb6	0.035182677
154	0xbdc088e3	-0.09401109
155	0xbd05693f	-0.032571074
156	0x3c8632b8	0.016381606
157	0xbe27ad0c	-0.16374606
158	0xbde8bdb6	-0.113643095
159	0x3d7f0f6b	0.062270563
160	0x3d9979a1	0.07493902
161	0xbd162f7b	-0.036666375
162	0x3d66edaa	0.056378998
163	0x3d9598d0	0.07304537
164	0x3c0ee520	0.00872162
165	0x3cb8b3e5	0.022546718
166	0xbb63cde6	-0.0034760176
167	0x3d5adc19	0.053432558
168	0xbe35067e	-0.17678258
169	0x3d974c8c	0.07387647
170	0xbdf4be88	-0.119504035
171	0xbe143097	-0.1447166
172	0xbde26404	-0.11054233
173	0x3d232057	0.039825764
174	0xbc997588	-0.018732801
175	0xbdde6983	-0.108599685
176	0x3dd4b0ae	0.103852615
177	0x3c2b5e4a	0.010459492
178	0x3d19da61	0.037561778
179	0xbd982639	-0.074291654
180	0x3e1a4c10	0.15068078
181	0x3d8143ec	0.06311783
182	0x3d946091	0.07244981
183	0x3c687977	0.014189116
184	0xbd2963f7	-0.0413551
185	0x3d250bbc	0.040294394
186	0x3cebb808	0.028774276
187	0xbd8a43fe	-0.0675125
188	0xbe1eff09	-0.15526976
189	0x3df26d21	0.11837221
190	0xbe3fe3e6	-0.1873928
191	0x3c374202	0.011185171
192	0x3d48d952	0.049035378
193	0x3defa857	0.1170203
194	0x3c4569bb	0.012049134
195	0xbd8862f9	-0.066595025
196	0xbe2ae7a3	-0.16689925
197	0x3dba53d3	0.090980195
198	0x3de30228	0.11084396
199	0x3d5b83bd	0.053592432
200	0xbdb7e54b	-0.08979281
201	0xbd112ab8	-0.03544113
202	0x3da896e2	0.082319036
203	0xbc65f019	-0.0140342945
204	0x3d58faf4	0.052973703
205	0xbcc073d8	-0.023492739
206	0x3d54379d	0.05181085
207	0xbd7f9686	-0.06239941
208	0x3b3230c1	0.0027189704
209	0xbdd4059b	-0.10352632
210	0x3ccbe399	0.0248888
211	0x3d7379e1	0.059442405
212	0xbda3ad3d	-0.07992027
213	0xbd86a831	-0.06575049
214	0xbe117965	-0.14206465
215	0x3dbfee35	0.09371606
216	0xbd695adc	-0.056971416
217	0x3de72dba	0.112880185
218	0x3d006e33	0.031355094
219	0xbd85e6e2	-0.06538178
220	0x3c96f4a7	0.018427206
221	0xbdb29b7e	-0.08721064
222	0x3d60e3da	0.054904796
223	0x3d7201eb	0.05908386
224	0xb9fcd2e2	-0.00048222305
225	0x3df067f7	0.1173858
226	0xbaf76a4c	-0.0018876283
227	0xbd4a5fc4	-0.049407735
228	0x3e09d949	0.13461794
229	0x3e251cf8	0.16124332
230	0xbd53153f	-0.051533934
231	0xbdbe45a0	-0.09290624
232	0xbbb2613e	-0.005443721
233	0x3e18c15a	0.14917508
234	0x3afd952a	0.0019346823
235	0xbcb4da36	-0.022076707
236	0xbd39d7dd	-0.04537188
237	0xbd2d3f0c	-0.042296454
238	0xbe11b1ab	-0.14227931
239	0xbdbf7a26	-0.0934947
240	0x3e383d94	0.1799224
241	0xbddd6372	-0.10809983
242	0x3d67a647	0.05655506
243	0xbd2ec22a	-0.042665638
244	0x3da1c6a8	0.07899219
245	0x3bad6e3f	0.0052926834
246	0x3d93c169	0.072146244
247	0x3d76c766	0.060248755
248	0x3ddd614b	0.10809573
249	0x3dd5b8d9	0.104356475
250	0x3e44352c	0.19160908
251	0xbce7642d	-0.02824601
252	0xbdafd687	-0.0858584
253	0x3da8473f	0.08216714
254	0xbd6c7894	-0.05773218
255	0xbd6875e2	-0.056753047

weight f4 [64, 64]
0	0xbd8ed0cd	-0.06973419
1	0x3c545fa2	0.012962254
2	0xbde5d1f0	-0.11221683
3	0xbdae381b	-0.08506795
4	0x3e1f2c03	0.15544133
5	0xbe1476f1	-0.14498498
6	0x3c90a4e5	0.017656753
7	0xbde8bf1a	-0.11364575
8	0xbdda2871	-0.10652245
9	0xbd51e3f4	-0.051242784
10	0xbd841425	-0.06449155
11	0xbd53e297	-0.051729765
12	0x3acb15dc	0.0015494185
13	0xbd24a311	-0.040194575
14	0xbe08d3a7	-0.13361989
15	0xbd98b678	-0.07456678
16	0x3d31959d	0.043355573
17	0xbda28d47	-0.07937103
18	0xbd1f0fd8	-0.03883347
19	0x3e0962a1	0.1341653
20	0xbd5452f9	-0.05183694
21	0x3b74b765	0.0037340757
22	0xbda61357	-0.081091575
23	0x3cb40af9	0.021977888
24	0xbc88164b	-0.016612193
25	0x3d5090e5	0.050919432
26	0xbdc7c9eb	-0.0975531
27	0x3e0ba862	0.13638452
28	0xbc19fd45	-0.009398763
29	0x3d59ff11	0.053221766
30	0x3c618c64	0.013766382
31	0xbd9fe456	-0.078072235
32	0x3df8523f	0.12125062
33	0x3e16efa1	0.14739849
34	0x3cd464d2	0.025926981
35	0xbddc34a8	-0.10752231
36	0x3c719d9f	0.014747052
37	0xbcc08df3	-0.023505187
38	0x3ddbe165	0.1073635
39	0xbe1255b5	-0.14290507
40	0xbc0fe14d	-0.008781743
41	0xbe059776	-0.13046059
42	0xbdac8c30	-0.08425176
43	0x3dada383	0.08478453
44	0x3d6ae8f6	0.057351075
45	0x3d958276	0.07300274
46	0x3bda7fc0	0.006668061
47	0xbaff3235	-0.0019469919
48	0x3dfda0cd	0.12384186
49	0x3e00d355	0.12580617
50	0x3d7b8b94	0.06141241
51	0x3d2861ae	0.04110878
52	0xbe0ac678	-0.13552272
53	0x3d026493	0.031834196
54	0xbd7cf501	-0.06175709
55	0x3dcf2390	0.10114205
56	0xbd91fdde	-0.071284994
57	0xbdb79216	-0.089634106
58	0xbd037fd1	-0.032104317
59	0xbde5384f	-0.11192381
60	0x39d6c050	0.00040960545
61	0xbd07fc7d	-0.033199776
62	0x3e21dbfe	0.15806577
63	0xbdc8c34b	-0.09802874
64	0xbdcb93d3	-0.099403046
65	0x3d06ffd1	0.03295881
66	0x3e26de06	0.16295633
67	0x3d0aaefb	0.03385828
68	0xbd2263b0	-0.03964585
69	0x3d431d8d	0.047635604
70	0xbde942ee	-0.11389719
71	0x3dc7cbc5	0.09755663
72	0x3d08200c	0.033233687
73	0xbd2064e8	-0.03915873
74	0xbda8bf5d	-0.08239625
75	0xbcf62232	-0.030045602
76	0xbdb9f45a	-0.090798095
77	0x3d89d0e6	0.06729297
78	0x3da7ba28	0.08189803
79	0xbe1a5396	-0.15070948
80	0x3dc1392a	0.09434731
81	0xbd03e933	-0.032204818
82	0xbdac1d3e	-0.08404015
83	0xbc19a334	-0.00937729
84	0xbd248b45	-0.04017188
85	0xbcffba03	-0.031216627
86	0x3dc4e6d4	0.096143395
87	0x3d21dd5a	0.039517738
88	0x3e1a3d71	0.150625
89	0x3d4c5240	0.049883127
90	0xbdf74c17	-0.1207506
91	0x3e42f935	0.19040377
92	0xbdee2b69	-0.116293736
93	0x3d4da4d7	0.05020603
94	0x3d0f83f1	0.03503794
95	0x3d901975	0.070361055
96	0xbd2d849e	-0.0423628
97	0xbde03043	-0.10946705
98	0x3d54c7ad	0.05194824
99	0xbda06ed8	-0.07833642
100	0x3d37f81f	0.04491436
101	0x3ab23b7d	0.0013598051
102	0x3d8c5b70	0.06853378
103	0xbd7e3436	-0.06206151
104	0x3db5ea09	0.08882529
105	0xbcc0174c	-0.023448609
106	0xbc4e2f39	-0.012584501
107	0xbd86d111	-0.06582845
108	0xbd049a8c	-0.03237395
109	0x3db61873	0.08891382
110	0xbd801e8a	-0.06255825
111	0xbdb34c02	-0.08754732
112	0x3cd0b205	0.025475511
113	0xbd3d16c1	-0.046164278
114	0x3cb020dc	0.021500044
115	0x3dae0eb7	0.084989004
116	0x3d0d931e	0.03456413
117	0x3dd99eb1	0.10625971
118	0xbd396e58	-0.045271248
119	0x3cb21c61	0.021742048
120	0xbda83740	-0.08213663
121	0xbde3cbed	-0.1112288
122	0x3cd3abd3	0.025838768
123	0x3d1fad26	0.038983487
124	0x3e3c014b	0.18359868
125	0x3df6361c	0.12022039
126	0x3d8c1dc9	0.068416186
127	0xbddf580b	-0.10905465
128	0xbd9d51b7	-0.076816015
129	0x3cf0b7d6	0.029384535
130	0xbd1128cc	-0.035439298
131	0x3c839418	0.016061828
132	0xbb11075f	-0.0022129638
133	0xbda98607	-0.08277517
134	0xbdc0e760	-0.09419131
135	0x3da72191	0.08160699
136	0xbc325644	-0.010884825
137	0xbd11fe79	-0.035643075
138	0x3d1374d2	0.03600008
139	0xbd50808d	-0.050903846
140	0xbdca340b	-0.09873208
141	0x3d8d5286	0.06900506
142	0xbdb62842	-0.08894397
143	0xbde1209b	-0.10992547
144	0xbc1750ec	-0.009235602
145	0x3dc72852	0.09724487
146	0x3d965d90	0.073420644
147	0xbc2a678f	-0.010400667
148	0x3d8dfd45	0.06933073
149	0xbd4353fe	-0.047687523
150	0x3d34e6f6	0.044165574
151	0x3ddc2d90	0.10750878
152	0x3cad5858	0.02116029
153	0x3e2f3792	0.17111042
154	0x3dbbbc62	0.091667905
155	0x3d9aa24c	0.07550487
156	0xbd010eba	-0.031508185
157	0x3da30b1b	0.079611026
158	0x3daa9dcf	0.08330881
159	0xbd93d901	-0.072191246
160	0x3dae9146	0.085238025
161	0xbe1bd2b8	-0.15217102
162	0xbdf014a5	-0.11722688
163	0x3bdc65bd	0.0067259953
164	0xbcaecaaf	-0.021336881
165	0x3da6e133	0.08148422
166	0x3da18ba0	0.078879595
167	0x3cfeae3b	0.031088939
168	0x3dfc8250	0.12329543
169	0xbd8a8df9	-0.067653604
170	0x3dd8724e	0.10568677
171	0x3d6fc6cb	0.058539193
172	0x3cb3e94c	0.02196183
173	0x3d8612a1	0.06546522
174	0xbdf46f80	-0.119353294
175	0xbd62473e	-0.055243723
176	0x3dffbdac	0.12487349
177	0x3ce08f2e	0.027412023
178	0xbd548802	-0.05188752
179	0xbe0ca274	-0.13733846
180	0xbe2247d5	-0.15847714
181	0x3b6fce74	0.0036591562
182	0xbd3ae1d3	-0.04562552
183	0x3e08d158	0.13361108
184	0xbc95fd0d	-0.01830914
185	0xbd894a46	-0.0670362
186	0xbd885312	-0.066564694
187	0xbdeefe70	-0.11669624
188	0xbd0e3c4e	-0.03472548
189	0x3d40b21a	0.04704485
190	0x3d9bb253	0.07602372
191	0xbdae3140	-0.085054874
192	0x3da855df	0.082195036
193	0xbd46d8bf	-0.04854655
194	0xbcb96b55	-0.022634188
195	0xbe12c4cc	-0.14332885
196	0x3dada8b0	0.0847944
197	0x3e0748ee	0.13211414
198	0x3e2d4a9e	0.16922995
199	0x3e045136	0.12921605
200	0xbd71e391	-0.059054915
201	0xbd9165db	-0.070995055
202	0x3d3357d1	0.04378492
203	0xbcab5f28	-0.020919397
204	0x3d7f7fd1	0.062377755
205	0x3d6d84db	0.05798803
206	0x3b38aa84	0.0028177807
207	0xbc4e2007	-0.012580878
208	0xbe3fe3ba	-0.18739215
209	0xbe05b8be	-0.13058755
210	0xbdffe2b8	-0.12494415
211	0x3d91ab88	0.07112795
212	0xbe250766	-0.16116104
213	0x3d0b0982	0.033944614
214	0xbd9a8677	-0.075451784
215	0x3c7fab90	0.0156048685
216	0xbd6409c6	-0.055673383
217	0x3db84eaf	0.08999383
218	0xbdbbe844	-0.091751605
219	0xbd5e0fdc	-0.054214343
220	0x3d6e06d9	0.058112
221	0xbcf9b8d6	-0.030483644
222	0xbcc81da3	-0.024428194
223	0x3b08e095	0.0020885814
224	0xbdb3d9ea	-0.08781798
225	0x3d6d11ca	0.057878293
226	0xbbe046eb	-0.0068443916
227	0xbe24ab8a	-0.16081062
228	0xbd2d16c1	-0.042258028
229	0xbd9e1bf0	-0.077201724
230	0xbe17a50c	-0.14809054
231	0xbe04190c	-0.1290018
232	0x3d358d59	0.044324253
233	0x3c6aa8bc	0.014322456
234	0xbc310726	-0.010804927
235	0xbc925d3c	-0.017866723
236	0xbcabf43d	-0.020990485
237	0x3da507fa	0.08058162
238	0x3dd61744	0.10453656
239	0x3e0b28bc	0.13589758
240	0xbca75c3c	-0.020429723
241	0x3dabaa17	0.083820514
242	0xbd59eca0	-0.05320418
243	0x3dc7463e	0.097301945
244	0x3dd29e2f	0.102840774
245	0x3d920619	0.07130069
246	0x3e285df1	0.16442086
247	0x3d2bc7e7	0.04193869
248	0x3c999336	0.018746953
249	0xbdc33bbb	-0.09532877
250	0x3ccf6b90	0.025319844
251	0x3e259295	0.16169198
252	0xbbc4547d	-0.005991517
253	0xbdd89b4a	-0.10576494
254	0xbe0a9e99	-0.13537063
255	0x3db4fead	0.08837638

freqs f4 [8]
0	0x3f6f660f	0.93515104
1	0x400b835c	2.1798925
2	0x404b37eb	3.175288
3	0x40820f62	4.064378
4	0x40a8dbf9	5.276852
5	0x40c87fdb	6.2656074
6	0x40eb8f1c	7.3612194
7	0x4107bf70	8.484238

weight f4 [64, 8]
0	0x3e6c5f2e	0.23083183
1	0x3dbd6418	0.09247607
2	0x3d1fdc8f	0.0390287
3	0x3e54ba46	0.20774183
4	0xbe4a4244	-0.19751841
5	0x3db66845	0.089066066
6	0x3d584bad	0.052806545
7	0x3cd767ba	0.026294578
8	0xbeb62fd4	-0.35583365
9	0xbeaee1f3	-0.3415676
10	0xbde9d0c1	-0.1141677
11	0xbe69e594	-0.22841483
12	0xbe9e966e	-0.30974144
13	0xbdd0e254	-0.10199419
14	0xbc9b51da	-0.018959928
15	0x3da2bd06	0.079462096
16	0xbdecc943	-0.11561825
17	0xbe21f1d7	-0.15814911
18	0xbe13a69a	-0.14419022
19	0x3e4ccbb4	0.19999582
20	0x3db3b594	0.08774868
21	0x3ec1480a	0.37750274
22	0x3e0af66a	0.13570562
23	0x3e8323d1	0.25613263
24	0xbde603a7	-0.112311654
25	0xbe4da2db	-0.20081656
26	0x3e00ca82	0.1257725
27	0x3e7c7074	0.24652272
28	0xbdc8937d	-0.09793756
29	0x3da312f2	0.07962598
30	0xbe90cb41	-0.2828007
31	0x3e187f86	0.14892396
32	0xbed654df	-0.41861627
33	0xbdd58b21	-0.10426927
34	0xbe013a39	-0.12619866
35	0xbe0c1e47	-0.13683425
36	0x3c9adfee	0.018905606
37	0xbe2aa1d7	-0.166633
38	0x3ebe6121	0.37183478
39	0xbe197351	-0.14985396
40	0x3e422426	0.18959102
41	0xbe9aec8a	-0.3025859
42	0x3e5964af	0.21229814
43	0x3e80525a	0.2506283
44	0xbe89346a	-0.267978
45	0xbdf0bc4f	-0.11754667
46	0xbdb0ba0d	-0.08629236
47	0xbd681b14	-0.05666645
48	0x3db7c98c	0.08973989
49	0x3ea33fdc	0.31884658
50	0xbd70a712	-0.05875308
51	0x3da5dce6	0.08098774
52	0xbe8467e9	-0.25860527
53	0xbe41fb3c	-0.18943495
54	0xbe94f254	-0.29091132
55	0x3cbce85f	0.023060022
56	0xbc2cf7d9	-0.010557138
57	0x3eb39119	0.35071638
58	0x3e469f6a	0.19396749
59	0xbccc40f7	-0.024933321
60	0xbdfbd94d	-0.12297306
61	0x3d283071	0.041061822
62	0xbe309d30	-0.17247462
63	0x3d853aee	0.065053806
64	0xbe006e80	-0.12542152
65	0xbe30acf9	-0.17253484
66	0x3d1a4470	0.037662923
67	0x3d43a2d9	0.047762726
68	0xbd5f92b0	-0.05458325
69	0x3c833321	0.016015591
70	0xbe9acaf8	-0.30232978
71	0xbdfde693	-0.12397494
72	0xbee9f7d8	-0.45696902
73	0x3eaaf60d	0.33390847
74	0x3eac4187	0.33643743
75	0xbe9fbe7f	-0.31200024
76	0xbe67f8d0	-0.22653508
77	0xbe8da1ab	-0.27662405
78	0x3e558cf6	0.20854554
79	0x3d975077	0.07388394
80	0xbeefd3da	-0.46841317
81	0xbde94780	-0.11390591
82	0x3e9555e9	0.29167107
83	0xbd062b23	-0.032755982
84	0xbe905836	-0.281923
85	0x3e22525d	0.15851732
86	0x3eaceb59	0.33773306
87	0x3eae02cd	0.33986512
88	0x3e4a6a88	0.19767201
89	0xbdf48702	-0.11939813
90	0x3b4ca76c	0.003122772
91	0x3e9c9db0	0.30589056
92	0x3dd1e394	0.10248485
93	0xbe965a5b	-0.2936581
94	0x3e36a47f	0.17836188
95	0x3dc599f9	0.096485086
96	0xbeddb321	-0.43300727
97	0xbe68dda5	-0.227408
98	0x3e8949ff	0.26814267
99	0x3e8d8287	0.27638647
100	0xbe9a9739	-0.301935
101	0x3df9cb9e	0.1219704
102	0x3e6f0b00	0.2334404
103	0x3d863237	0.065525465
104	0x3e89b254	0.26893866
105	0x3e040dd1	0.12895896
106	0x3e09c6a6	0.13454685
107	0x3e15974f	0.14608501
108	0xbd97f7ad	-0.07420287
109	0x3cc3c384	0.02389694
110	0xbe0001bb	-0.1250066
111	0xbdae241f	-0.08502983
112	0x3e5a434e	0.21314737
113	0xbe2ea76c	-0.17056054
114	0x3dc10f7f	0.09426784
115	0x3e9d9dd4	0.30784476
116	0x3d808264	0.0627487
117	0x3ea12b2d	0.31478253
118	0xbd324410	-0.04352194
119	0xbdb04fa8	-0.08608943
120	0x3edf8007	0.43652365
121	0xbe33d023	-0.17559867
122	0x3eb552ec	0.35414827
123	0x3eb412fe	0.3517074
124	0xbe97d083	-0.2965127
125	0xbe078b77	-0.13236795
126	0x3e881fa4	0.2658664
127	0xbd02c452	-0.031925507
128	0xbed0a176	-0.40748185
129	0x3d32c890	0.043648303
130	0xbede8640	-0.434618
131	0xbc145cf8	-0.009055369
132	0x3d600107	0.05468848
133	0xbdeb3f5e	-0.11486696
134	0xbd666a62	-0.0562538
135	0x3e161e6d	0.14660044
136	0x3dca72f2	0.09885205
137	0xbd4aba31	-0.049493972
138	0xbe23bd6a	-0.15990224
139	0x3d26c5f7	0.040716138
140	0xbd05eae7	-0.032694723
141	0xbd838ca5	-0.0642331
142	0xbde18257	-0.110111885
143	0x3d819136	0.06326525
144	0xbedae393	-0.4275175
145	0x3e01c26a	0.1267182
146	0xbe316222	-0.17322591
147	0x3eab9e1f	0.33519074
148	0x3c2a6399	0.0103997225
149	0x3e336ccd	0.17521973
150	0x3d89b46d	0.067238666
151	0xbdf61cf6	-0.120172426
152	0x3ddefcb4	0.10888043
153	0xbe929948	-0.2863257
154	0x3daccf0a	0.08437927
155	0x3eac0a98	0.33601832
156	0xbdc378eb	-0.09544548
157	0x3eb5e19e	0.35523695
158	0xbe88cc47	-0.2671835
159	0x3e1ea4c5	0.15492542
160	0x3e8be9cb	0.27326807
161	0xbe10d67b	-0.14144318
162	0xbeb9b9d1	-0.3627458
163	0xbe92a45a	-0.28641015
164	0x3e2bba90	0.16770387
165	0x3eb6afa5	0.3568088
166	0xbe91995d	-0.2843732
167	0xbe4000c3	-0.1875029
168	0x3e7f1843	0.24911599
169	0xbd523ce5	-0.051327605
170	0xbea631b7	-0.32459804
171	0xbd9737dc	-0.07383701
172	0x3dded9ef	0.10881411
173	0xbebec69b	-0.372609
174	0xbe30dbdc	-0.1727137
175	0x3e1a2b23	0.15055518
176	0x3deeb574	0.11655703
177	0xbe0c73ea	-0.13716093
178	0x3ecf55d0	0.40495157
179	0x3d5c17e3	0.053733718
180	0x3e4e2656	0.20131811
181	0xbce364bd	-0.027757997
182	0xbe1c7cce	-0.15281984
183	0x3e8019f5	0.25019804
184	0xbef35e92	-0.4753309
185	0x3dc9d8a3	0.09855773
186	0xbe497788	-0.19674504
187	0xbd2a01b3	-0.041505527
188	0x3e89275e	0.26787847
189	0xbeab9b6a	-0.3351701
190	0x3d0c40a7	0.034241345
191	0xbda6e604	-0.08149341
192	0x3ec9ed8a	0.3943904
193	0xbe6e66ac	-0.23281354
194	0xbdb5de5d	-0.08880303
195	0xbe53574e	-0.20638773
196	0x3e880dd0	0.26573038
197	0x3e8933f2	0.26797444
198	0xbcdb05d1	-0.026736172
199	0x3da4e658	0.08051747
200	0x3f08b42a	0.5339991
201	0xbe74ca9a	-0.23905411
202	0x3dbfb9ef	0.09361636
203	0x3eb486f6	0.35259217
204	0xbe4cf4fb	-0.20015328
205	0xbe8a57d8	-0.27020144
206	0x3e9374b9	0.2879999
207	0x3e95efb8	0.29284453
208	0x3e7d183d	0.24716277
209	0x3e8a56a6	0.27019233
210	0x3e20b564	0.15694195
211	0xbe506b4c	-0.2035343
212	0xbea68480	-0.32522964
213	0x3cad86b0	0.021182388
214	0xbe393f7b	-0.18090622
215	0x3eb3edf2	0.35142475
216	0xbcbc2f59	-0.022971796
217	0x3e554e14	0.20830566
218	0xbc956bae	-0.018239822
219	0xbda4ef07	-0.08053403
220	0xbd8c21ad	-0.06842361
221	0xbe9356ff	-0.2877731
222	0xbeaab1e6	-0.3333885
223	0xbdd8ed21	-0.10592104
224	0xbee365da	-0.44413644
225	0xbe9cb0a2	-0.3060351
226	0x3e397e42	0.1811457
227	0xbe162713	-0.14663343
228	0x3cd333d0	0.025781542
229	0xbcb44e2e	-0.022009935
230	0xbe7da2e5	-0.2476917
231	0xbe0a6abb	-0.13517277
232	0xbed29d96	-0.41135854
233	0x3d544a2c	0.05182855
234	0x3e8fe9bd	0.28108016
235	0xbc0f2701	-0.008737327
236	0x3dc829fe	0.097736344
237	0x3e534ee2	0.2063556
238	0x3e41da39	0.18930902
239	0x3d562b31	0.052287284
240	0xbe37770c	-0.17916507
241	0x3e15a5d4	0.1461404
242	0x3c8807c0	0.016605258
243	0x3e9ce1e9	0.30641106
244	0xbda590ab	-0.08084234
245	0x3e909d7f	0.2824516
246	0x3e3daef3	0.18523769
247	0x3ea4cfa7	0.32189676
248	0x3e3fabba	0.18717852
249	0x3d36eef7	0.04466149
250	0xbd6b4c7e	-0.057445996
251	0x3e442126	0.1915327
252	0x3e824072	0.25439793
253	0x3e773f3e	0.24145219
254	0xbeb6a645	-0.3567373
255	0x3c994eb7	0.018714292

weight f4 [64, 64]
0	0x3e053b80	0.13010979
1	0xbe09231a	-0.13392296
2	0xbe051e7b	-0.12999909
3	0xbda202f4	-0.079107195
4	0x3ca25756	0.019817036
5	0x3d5d008e	0.053955607
6	0xbda640ce	-0.08117829
7	0x3d2674b7	0.04063865
8	0x3c7a7830	0.015287444
9	0xbda20531	-0.079111464
10	0x3c964845	0.018345008
11	0x3dd3094f	0.1030451
12	0x3cb45819	0.022014664
13	0x3ca188b2	0.019718502
14	0xbd933038	-0.07186931
15	0xbd0bbd48	-0.03411606
16	0xbc7a292a	-0.015268603
17	0xbdc41ae3	-0.09575441
18	0x3d0c8083	0.034302246
19	0xbe0dd918	-0.13852346
20	0xbda78891	-0.08180345
21	0x3ddea051	0.10870422
22	0x3d851005	0.06497196
23	0xbd93f265	-0.072239675
24	0xbb822a83	-0.003972353
25	0x3ca07416	0.019586604
26	0x3c18ca2e	0.009325547
27	0x3ce3a87b	0.027790299
28	0xbe5709b5	-0.20999797
29	0xbe0dbe8a	-0.13842216
30	0xbd8e2f9a	-0.06942673
31	0xbbbcb3b3	-0.0057587265
32	0x3d9f68da	0.07783671
33	0xbd8c8396	-0.068610355
34	0xbbd90429	-0.0066228104
35	0x3d2d0725	0.04224314
36	0xbd8b6a79	-0.068074174
37	0xbd71934b	-0.05897836
38	0x3b14551b	0.0022633735
39	0xbe5962fd	-0.21229167
40	0xbb0b98aa	-0.0021300712
41	0xbc18638c	-0.009301078
42	0xbc245289	-0.010029444
43	0xbdeba364	-0.11505774
44	0x3e28a52f	0.16469263
45	0x3d595937	0.053063598
46	0xbe0ab9a5	-0.1354738
47	0x3d4613f4	0.048358873
48	0xbe59c03a	-0.21264735
49	0x3d5a0d4b	0.053235333
50	0x3d2217cd	0.03957348
51	0x3e22708a	0.15863243
52	0x3dde32bf	0.10849523
53	0xbd04faa8	-0.032465607
54	0xbde79b7e	-0.11308955
55	0xbe25e9c9	-0.16202463
56	0x3c88bade	0.016690668
57	0x3e0344ad	0.12819166
58	0xbb41261e	-0.0029472183
59	0xbd9b2eb9	-0.07577271
60	0x3d75247f	0.05984926
61	0x3e0c45a5	0.13698442
62	0x3d8b4e54	0.06802049
63	0x3d58674f	0.052832898
64	0x3dce8626	0.100841805
65	0x3d6dfff4	0.058105424
66	0x3de3e096	0.11126821
67	0x3d98a3ef	0.07453143
68	0x3d3aaba4	0.045573846
69	0x3d981237	0.07425349
70	0x3c8cd998	0.0171936
71	0xbe0b27fa	-0.13589469
72	0xbc2b72a2	-0.010464342
73	0xbd0bdce4	-0.034146205
74	0xbbe2483b	-0.006905583
75	0xbd91b5f9	-0.07114787
76	0xbe1a662f	-0.15078042
77	0x3db82632	0.0899166
78	0xbd94dbd9	-0.07268495
79	0xbd9afb74	-0.07567492
80	0xbdc6b285	-0.09702019
81	0x3a8ea1a8	0.0010881918
82	0xbdbd963f	-0.09257173
83	0xbe038549	-0.12843813
84	0xbc18f229	-0.009335079
85	0x3dc39e63	0.09551694
86	0x3dffa557	0.12482708
87	0xbe44e9d3	-0.19229822
88	0xbcb6439e	-0.02224904
89	0xbcd15ceb	-0.025557002
90	0xbbd9c287	-0.006645504
91	0x3ae72846	0.0017635904
92	0x3d9d0317	0.07666605
93	0xbd3d056c	-0.04614775
94	0x3dcb93bf	0.0994029
95	0xbca1cbb6	-0.019750457
96	0xbdece024	-0.11566189
97	0x3d15642b	0.03647248
98	0x3d847c96	0.064690754
99	0x3e3918af	0.18075822
100	0xbdbbb7d2	-0.0916592
101	0xbcd7576b	-0.026286801
102	0xbddc0f39	-0.10745091
103	0xbdeffc84	-0.117180854
104	0x3bf3be37	0.007438447
105	0x3c3a77d3	0.011381107
106	0x3d3913b6	0.045184813
107	0x3dd2ca98	0.10292548
108	0xbd5932aa	-0.053026833
109	0x3cda658c	0.02665975
110	0xbdfa323e	-0.12216614
111	0xbceee6d9	-0.029162811
112	0x3d701d6e	0.058621816
113	0x3d81f9fa	0.06346507
114	0xbdd6202d	-0.10455356
115	0xbdd19213	-0.102329396
116	0xbd81f393	-0.06345286
117	0xbdc9334b	-0.098242365
118	0xbe22d1ca	-0.1590034
119	0x3cfedbe2	0.031110708
120	0x3bf262ae	0.0073970174
121	0xbc621b80	-0.013800502
122	0x3d9e99fc	0.07744214
123	0xbe020943	-0.12698846
124	0x3dc7f660	0.09763789
125	0x3de1c8a5	0.11024598
126	0x3d0f35fc	0.034963593
127	0x3be7f62d	0.007078907
128	0xbde1a28d	-0.11017332
129	0xbd902776	-0.070387766
130	0x3db3e301	0.08783532
131	0xbe065d3c	-0.13121504
132	0xbc8ad714	-0.01694826
133	0x3d43f12b	0.047837418
134	0xbd2c1dea	-0.042020716
135	0x3c1adc67	0.009451962
136	0xbd70c0aa	-0.05877749
137	0x3d02fef5	0.031981427
138	0x3c19bb6a	0.009383062
139	0xbbd68cce	-0.006547547
140	0x3e2fba86	0.17160997
141	0xbdc7fd3e	-0.09765099
142	0x3da7757f	0.081767075
143	0xbe016816	-0.12637362
144	0xbdb84b8d	-0.08998785
145	0x3d5a1bd8	0.05324921
146	0xbd171fd5	-0.03689559
147	0x3d99bcdc	0.07506725
148	0xbb685076	-0.003544835
149	0xbe288438	-0.16456687
150	0xbe0a3b90	-0.13499284
151	0x3de33efa	0.11095996
152	0xbe0b9ecd	-0.13634796
153	0xbd276622	-0.040868886
154	0x3cc56414	0.024095573
155	0xbda6e04d	-0.08148251
156	0x3e2e8541	0.1704302
157	0xbc2d8091	-0.010589735
158	0x3c8b75c9	0.017023938
159	0xbadd06d2	-0.0016862995
160	0x3df51709	0.11967284
161	0xbe09f38b	-0.1347181
162	0x3d075ffc	0.033050522
163	0xbd974e57	-0.07387989
164	0x3d9b0e52	0.07571091
165	0x3d1384a8	0.036015183
166	0xbd5f89cd	-0.054574776
167	0x3e0b92ab	0.13630168
168	0xbd34784f	-0.044060048
169	0xbd27b12f	-0.04094046
170	0x3c06b0b4	0.00822084
171	0x3d9f88c7	0.0778976
172	0xbd19218b	-0.037385505
173	0x3d5c5fa4	0.053802148
174	0xbd7fc284	-0.062441364
175	0xbdbda081	-0.09259129
176	0x3e0fdd48	0.14049256
177	0xbd35e493	-0.04440744
178	0xbd2ad01d	-0.04170238
179	0x3cbe6a4f	0.023244051
180	0xbde19858	-0.110153854
181	0xbd2424bf	-0.040074106
182	0x3be45b2e	0.0069688773
183	0xbd9cd01b	-0.076568805
184	0x3d87f787	0.06639009
185	0x3da3cee9	0.07998449
186	0xbd3fdc8e	-0.046841197
187	0xbd0a39af	-0.033746418
188	0xbe17d46d	-0.14827128
189	0xbde26bd2	-0.11055721
190	0xbdc78aed	-0.09743295
191	0xbd0d1a8c	-0.034449145
192	0x3d4078ea	0.046990313
193	0xbded0c30	-0.1157459
194	0x3d87f4bb	0.066384755
195	0xbd67c621	-0.056585435
196	0xbc7f5b3b	-0.015585716
197	0x3d14e482	0.036350735
198	0xbb44d1dd	-0.0030032315
199	0x3ce5a073	0.02803061
200	0xbe00af05	-0.12566765
201	0xbdaa5d30	-0.08318555
202	0x3db6ddbd	0.08929012
203	0x3c8e5c39	0.01737796
204	0xbd8583d8	-0.06519288
205	0x3d832ca8	0.06405002
206	0x3ded957a	0.11600776
207	0x3e0adbaa	0.13560358
208	0xbe0b53f8	-0.1360625
209	0x3de7cf4b	0.11318835
210	0xbe2462d6	-0.16053328
211	0xbddf275b	-0.10896178
212	0x3c29412e	0.010330481
213	0x3d037cf6	0.032101594
214	0xbdc69199	-0.09695739
215	0xbc2baf9b	-0.010478879
216	0x3d2d5af9	0.042323086
217	0x3d5821e2	0.05276669
218	0x3db8b2f3	0.09018507
219	0x3d87d93b	0.0663323
220	0xbdedbc28	-0.116081536
221	0x3cca36bd	0.024684304
222	0x3daf50f5	0.08560363
223	0xbc944c89	-0.018102901
224	0xbdcd8119	-0.10034389
225	0xbd9c50ce	-0.076326
226	0xbd734727	-0.059394028
227	0xbc9794af	-0.018503515
228	0xbe2a539b	-0.16633455
229	0xbe29cfb3	-0.16583137
230	0xbd96481d	-0.07337973
231	0xbd9fc10a	-0.07800491
232	0x3cbe3377	0.0232179
233	0xbe0bd812	-0.13656643
234	0x3cb889ac	0.022526585
235	0xbc95ff08	-0.018310085
236	0x3da9e9bf	0.08296537
237	0x3dbcdcf1	0.09221829
238	0x3dc426fa	0.09577747
239	0x3da6a806	0.08137517
240	0x3d65bc8b	0.05608801
241	0x3d85c514	0.0653173
242	0xbce77f93	-0.028259074
243	0x3c654a7e	0.013994811
244	0x3d6b7559	0.05748496
245	0xbe0641aa	-0.13110986
246	0x3c84f5b2	0.016230438
247	0x3d2ca807	0.04215243
248	0xbdb2885c	-0.08717415
249	0x3b54e161	0.003248297
250	0xbcfb8053	-0.030700838
251	0x3d845296	0.064610645
252	0x3d1082ed	0.03528111
253	0x3e09ca8e	0.13456175
254	0x3ad2c15d	0.0016079355
255	0x3e230111	0.15918376

weight f4 [64, 64]
0	0xbd8c9d6d	-0.06865964
1	0x3dd1718e	0.10226737
2	0x3e1a9d66	0.15099105
3	0xbdc9ef4e	-0.09860097
4	0x3e3585a8	0.17726767
5	0x3c51674d	0.0127809765
6	0xbdfbe667	-0.12299805
7	0x3dff2373	0.12457933
8	0x3e57adf4	0.21062452
9	0xbe2e5b75	-0.17027076
10	0x3d5a2420	0.053257108
11	0xbc9e684c	-0.019336842
12	0x3d9d7740	0.07688761
13	0xbd0befb9	-0.034164164
14	0x3d399a98	0.045313448
15	0x3cb3ca18	0.021946952
16	0x3d007657	0.031362858
17	0xbd3e4e8f	-0.046461638
18	0x3d9c4800	0.076309204
19	0xbb742f11	-0.00372595
20	0xbd9cbd8b	-0.0765334
21	0x3debd26d	0.11514745
22	0xbdaf0902	-0.0854664
23	0xbd9574a0	-0.07297635
24	0x3deb14d2	0.114785805
25	0xbe2c332d	-0.16816397
26	0x3c74078a	0.014894376
27	0x3db4f886	0.088364646
28	0x3b4e4eec	0.0031480147
29	0x3dc11f80	0.09429836
30	0x3e3247d3	0.17410211
31	0xbda7fa72	-0.082020655
32	0xbe890438	-0.2676103
33	0x3d0b1baf	0.033961948
34	0x3da03045	0.07821707
35	0x3ccc3802	0.02492905
36	0xbcd9b862	-0.026577178
37	0x3cb280a8	0.021789864
38	0xbdf02052	-0.117249146
39	0xbcbf405b	-0.023346117
40	0xbddd9037	-0.108185224
41	0xbe37c827	-0.17947446
42	0xbe2311f7	-0.15924822
43	0xbdb9e2ac	-0.09076437
44	0xbdf568da	-0.119828895
45	0xbc31ff72	-0.010864126
46	0xbe12de1a	-0.14342538
47	0x3ddc5fe9	0.10760481
48	0xbc9b7490	-0.01897648
49	0xbe5b44c2	-0.21412948
50	0x3b32c046	0.0027275248
51	0x3dd040f5	0.101686396
52	0x3dfd5df6	0.12371437
53	0xbda9d9d8	-0.082935035
54	0x3dce4041	0.10070849
55	0x3d3ab514	0.045582846
56	0xbc72a813	-0.01481058
57	0x3dff6fe8	0.12472516
58	0xbc9f6316	-0.019456428
59	0xbd537f23	-0.05163492
60	0xbd2f03fd	-0.042728413
61	0x3e8560d9	0.2605045
62	0x3b9eb43d	0.0048432634
63	0x3e05f431	0.13081433
64	0xbd928725	-0.07154683
65	0xbaff021d	-0.0019455586
66	0x3d644aa1	0.055735234
67	0xbc7eb5d3	-0.01554628
68	0x3d824a61	0.06361843
69	0x3d4ec309	0.05047897
70	0xbd6b3f21	-0.05743325
71	0xbd25276c	-0.0403208
72	0x3da87323	0.082250856
73	0xbdb7728e	-0.089573964
74	0xbdc65005	-0.09683231
75	0xbe6d0df0	-0.23149848
76	0x3da76034	0.08172646
77	0xbd3dcc06	-0.04633715
78	0xbd1f8970	-0.03894943
79	0x3d0168f2	0.031594224
80	0xbe40a39d	-0.18812414
81	0xbca00d9f	-0.019537745
82	0xbd9fd764	-0.078047544
83	0xbe44bd90	-0.19212937
84	0x3cbcb1eb	0.023034057
85	0x3de88bab	0.113547646
86	0x3d40693a	0.046975352
87	0x3dd3743a	0.10324903
88	0x3d64bdb1	0.055844966
89	0xbca58f72	-0.020210002
90	0x3d4088aa	0.047005333
91	0xbd9cf3e6	-0.076637074
92	0xbdf9f2e1	-0.122045286
93	0xbdd6bedb	-0.104856215
94	0xbc087ef7	-0.008331052
95	0x3c8a66d3	0.016894734
96	0x3e1947f6	0.14968857
97	0x3e17dc2b	0.14830081
98	0x3daa7d49	0.083246775
99	0x3e56b1ae	0.20966217
100	0x3da5bda5	0.080928124
101	0x3e01394c	0.12619513
102	0xbdbee599	-0.09321136
103	0xbe4fab04	-0.20280081
104	0xbdb77a26	-0.08958845
105	0x3d8bedfd	0.06832502
106	0x3df0a4eb	0.117502056
107	0xbe12d31c	-0.14338344
108	0xbd88acbf	-0.06673574
109	0xbdd534aa	-0.104104355
110	0xbdcab138	-0.09897083
111	0xbd162a20	-0.036661267
112	0xbbf7918d	-0.007555193
113	0x3d17c46d	0.03705256
114	0xbc7319cd	-0.014837694
115	0x3ddeca76	0.1087846
116	0x3ce43883	0.027858978
117	0xba8dde0f	-0.0010823625
118	0x3d027b87	0.031856086
119	0xbd1c2ea3	-0.038130414
120	0x3d5f0570	0.054448545
121	0x3d4c8af0	0.04993719
122	0x3d044926	0.032296322
123	0xbcac1be7	-0.021009399
124	0xbe069c6a	-0.13145605
125	0x3d991620	0.07474923
126	0x3dc82466	0.097725675
127	0xbd1e1716	-0.038596235
128	0xbd0e8c39	-0.034801695
129	0xbd955005	-0.07290653
130	0x3d2402f2	0.04004187
131	0x3da140b4	0.07873669
132	0xbe67d5c8	-0.22640145
133	0x3d1d25d8	0.03836617
134	0x3dd20abe	0.10255955
135	0x3d67ae86	0.056562923
136	0x3c6a1907	0.014288194
137	0xbdab612f	-0.08368146
138	0x3da2440d	0.07923136
139	0x3dba66e9	0.0910166
140	0xbd67f4ff	-0.05663013
141	0xbdb3ac82	-0.08773138
142	0xbdff6df4	-0.12472144
143	0x3da87dac	0.08227095
144	0x3e0ee58b	0.13954751
145	0xbd2d9910	-0.0423823
146	0x3d97a9e1	0.07405449
147	0x3cd4b0e3	0.025963252
148	0x3c91738f	0.017755298
149	0xbde0dff2	-0.10980214
150	0x3d1f4486	0.03888371
151	0xbd83cfe4	-0.06436136
152	0x3d0783bd	0.03308462
153	0xbd1f30ed	-0.03886502
154	0xbe27e6a1	-0.16396572
155	0xbd2c10ba	-0.04200814
156	0x3dc7755e	0.09739183
157	0x3db19d8b	0.08672627
158	0xbe3853d0	-0.18000722
159	0x3df90e9c	0.1216099
160	0xbc59293e	-0.013254462
161	0xbe390c5d	-0.18071122
162	0xbd4ca035	-0.049957473
163	0xbe6b3793	-0.22970419
164	0xbdeabfcd	-0.11462364
165	0xbdb022bf	-0.08600377
166	0x3da8878a	0.08228977
167	0x3e485cb0	0.19566607
168	0xbd9294a0	-0.07157254
169	0xbe3c45aa	-0.1838595
170	0x3dcae180	0.09906292
171	0x3e220559	0.15822352
172	0xbd8c173a	-0.068403676
173	0xbdb6f407	-0.08933263
174	0x3d6167b6	0.055030547
175	0xbd66357b	-0.056203347
176	0xbd04b9ca	-0.032403745
177	0x3e21eb74	0.15812474
178	0xbb933d19	-0.0044933674
179	0xbcef9344	-0.029245026
180	0xbc220261	-0.0098882625
181	0x3d777ea9	0.060423527
182	0xbdc128ab	-0.09431585
183	0x3e195308	0.1497308
184	0x3cce5dcc	0.02519121
185	0x3d501cef	0.050808843
186	0xbd979725	-0.074018754
187	0x3d91a6af	0.071118705
188	0xbc4f4238	-0.012650065
189	0xbd9fc4e0	-0.07801223
190	0x3e045fb9	0.1292714
191	0x3d569ba4	0.052394524
192	0x3de8f567	0.11374932
193	0xbd9b72e7	-0.07590275
194	0x3c7fcc0e	0.015612615
195	0x3cfd77cd	0.030940915
196	0xbd0980fd	-0.03357028
197	0xb96bea77	-0.00022498691
198	0x3dd68ee9	0.10476477
199	0x3dadcd64	0.08486441
200	0xbe07f427	-0.1327673
201	0x3d80a3dd	0.062812544
202	0x3cfb687d	0.030689472
203	0x3e54056d	0.20705195
204	0xbba2c89f	-0.0049677636
205	0x3c3f68dc	0.011682715
206	0xbc5749fd	-0.013140199
207	0x3d9a89c7	0.0754581
208	0x3e016f35	0.12640078
209	0x3d8673e0	0.0656507
210	0x3e1c93b5	0.15290721
211	0x3e6d1e57	0.23156105
212	0xbe06dab8	-0.13169372
213	0xbe3c52c8	-0.18390954
214	0xbd8cd216	-0.06876008
215	0x3c1e6991	0.009668724
216	0x3d31659c	0.043309793
217	0x3d1c2b9d	0.03812753
218	0xbe196ddb	-0.14983313
219	0xbcd27de7	-0.0256948
220	0x3d0b548f	0.03401619
221	0x3cd659ca	0.026165862
222	0xbe4c8ab2	-0.19974783
223	0x3c846765	0.016162584
224	0x3c6487ca	0.01394839
225	0x3d67d798	0.05660209
226	0xbe03f1cd	-0.12885208
227	0xbe8025c2	-0.25028807
228	0x3c90aa95	0.017659465
229	0xbc551e14	-0.013007659
230	0x3e072a02	0.13199618
231	0x3b6ad50c	0.0035832552
232	0xbdb89b94	-0.09014049
233	0x3e082b52	0.13297775
234	0x3e021e21	0.12706806
235	0x3e0c5a63	0.13706355
236	0x3e1adfd6	0.15124449
237	0x3de6f169	0.11276514
238	0xbb3643f0	-0.002781149
239	0xbd959963	-0.07304647
240	0xbd344358	-0.044009537
241	0xbd1beeec	-0.03806965
242	0xbce58db9	-0.02802168
243	0x3c8dc8ac	0.017307602
244	0xbc1fdc45	-0.009757106
245	0xbcee6eda	-0.029105593
246	0xbd862111	-0.06549276
247	0xbbe672a6	-0.00703271
248	0xbdbcbac2	-0.09215309
249	0xbc913061	-0.017723264
250	0xbd783d10	-0.06060511
251	0xbd435c0c	-0.047695205
252	0xbdd03c96	-0.10167806
253	0xbe0749e4	-0.13211781
254	0xbd570bef	-0.052501615
255	0x3d31fceb	0.043454092
