examples/carbon/outDir/epoch=171-step=87210-val_loss=0.2148-v1.pt (torch, 745777 bytes, 92 tensors)

cutoff f8 []
3.0
00000000: 0000 0000 0000 0840

weight f4 [7, 64]
0.84871036 0.69200915 -0.31601277 -2.1152194 -0.35612836 0.43722272 0.49130496 -0.20410173
0.11984151 1.2376579 1.1167772 -0.24727815 -1.0437516 -1.3453052 0.7853556 0.9928375
0.59883946 -1.5550951 -0.3413604 1.8530061 0.4680964 -0.15771244 1.4436601 0.2660494
1.3893661 1.5863342 0.94629836 -0.84367675 0.9318266 1.2590092 2.0049806 0.053736903
0.43969584 0.112411186 0.64079237 0.44115627 -0.21586326 -0.74254817 0.5627214 0.2596274
0.52286047 2.3022053 -1.4688939 -1.5866888 1.2032237 0.0845347 -1.2001394 -0.004785738
-0.23033547 -0.3917544 0.5432947 -0.39515755 0.20552567 -0.45032975 -0.5730771 -0.5553584
-1.5311843 -1.234135 1.8197253 -0.5515287 -1.325326 0.18855357 -0.069072686 -0.49492535
-1.478174 2.5672328 -0.4731198 0.33555076 1.5091219 2.0819554 1.7067116 2.3803675
-1.0669804 1.1149396 -0.14067143 0.8057536 0.3276143 -0.7607072 -1.599082 0.018486667
0.8418941 -0.40003416 1.039462 0.3581531 -0.003303873 -0.5344407 1.1686878 0.39450276
-1.0449786 -0.9565008 0.03353186 0.7100866 -1.5352871 -0.41267914 0.9663033 1.6247832
-2.6133225 -1.6964744 -0.22824179 0.279955 0.07324605 1.1133184 0.28226724 0.43422565
0.45694014 -0.86537135 0.78130794 -0.9267894 0.20641631 -0.33344787 -0.42883 0.23291829
0.9625183 0.34916824 -0.921462 -0.056194786 -0.7015236 1.0366868 -0.6036701 -1.2787652
0.12390248 1.1647835 0.9233735 1.3872952 1.3750379 0.6596311 0.4765571 -1.0163075
0.6103646 0.46688354 1.9506571 -1.0630985 1.1403507 -0.08988207 0.72979623 -1.845319
-0.10209263 -1.0335484 -0.31263882 0.24578547 0.37718192 1.1012348 -1.1427778 0.037585396
0.28857616 0.38659775 -0.20106392 -0.117926985 -0.82936686 -1.4072566 1.6268467 0.1722732
-0.70429397 0.31472096 0.15739289 0.3853627 0.5736546 0.9979313 0.54360944 0.07880439
0.9984566 -0.49871477 0.7611109 0.61830086 -0.29938447 -0.18777807 1.9158976 0.6901953
-0.314035 -1.078708 0.24081051 -1.3962272 0.1135521 1.1047257 -1.395172 0.47511873
1.0810726 0.13147806 1.5735383 0.78142995 0.9874366 -1.4878075 0.58668745 0.15829536
0.66678107 -0.99438965 -1.189364 -1.1959494 1.311892 -0.20983894 0.7817313 0.98969257
0.17151096 0.87604475 -0.2870874 1.0216401 -0.51107377 -1.7137278 -0.5100648 -0.47489312
0.66227406 -1.2063024 0.6074397 -0.5471568 -1.1004796 -0.7201275 0.011930507 0.3397729
-1.2536547 0.9868361 -0.49465504 -1.283043 0.4386492 -0.010704049 1.3383542 -0.27940503
0.2877034 -0.033374783 -1.0618885 -0.11442617 0.1953929 -0.7371095 1.7001015 0.34621555
-0.14475703 0.6376178 -0.28129023 -1.3298751 -0.6537996 1.7198241 -0.9609554 -0.6375025
-0.8869632 0.8387747 1.1528951 -1.7610981 -1.1070389 -1.7173612 1.534561 -0.0032062111
1.4403422 -0.11059419 0.57686025 -0.16917409 1.1886791 -0.15750733 -0.045538586 0.64847344
-0.8707436 0.14474289 1.9028565 0.3903958 0.03306363 -1.0234498 0.7335114 1.1177199
00000000: 1545 593f 8327 313f 6dcc a1be c15f 07c0
00000010: 7556 b6be a8db df3e 538c fb3e 0b00 51be
00000020: 776f f53d 936b 9e3f 8ef2 8e3f 7c36 7dbe
00000030: a799 85bf f632 acbf 110d 493f 992a 7e3f
00000040: 8b4d 193f 5b0d c7bf cac6 aebe 4e2f ed3f
00000050: 55aa ef3e 5f7f 21be dbc9 b83f a137 883e
00000060: c0d6 b13f 000d cb3f 9c40 723f 33fb 57bf
00000070: 308c 6e3f 3727 a13f 9a51 0040 3a1b 5c3d
00000080: d01f e13e d637 e63d f80a 243f 3cdf e13e
00000090: 420b 5dbe a317 3ebf 820e 103f e2ed 843e
000000a0: 2fda 053f 5557 1340 b704 bcbf 9e18 cbbf
000000b0: 3c03 9a3f 8720 ad3d 2b9e 99bf aed1 9cbb
000000c0: 10dd 6bbe 0894 c8be 5d15 0b3f 1752 cabe
000000d0: 5275 523e 9f91 e6be 2eb5 12bf f82b 0ebf
000000e0: d9fd c3bf 23f8 9dbf c2ec e83f fc30 0dbf
000000f0: 48a4 a9bf 3014 413e fb75 8dbd db66 fdbe
00000100: ce34 bdbf 8b4d 2440 c23c f2be 4fcd ab3e
00000110: e82a c13f c23e 0540 8775 da3f f157 1840
00000120: d092 88bf 57b6 8e3f 2c0c 10be de45 4e3f
00000130: 10bd a73e b5bd 42bf b8ae ccbf 5a71 973c
00000140: 5f86 573f 47d1 ccbe 170d 853f d85f b73e
00000150: ca85 58bb 1bd1 08bf 9097 953f 44fc c93e
00000160: dcc1 85bf 3ddd 74bf b458 093d 3cc8 353f
00000170: 4a84 c4bf ae4a d3be a75f 773f e5f8 cf3f
00000180: ad40 27c0 1326 d9bf 37b8 69be 4356 8f3e
00000190: 0602 963d 3881 8e3f 5585 903e d352 de3e
000001a0: 0ff4 e93e fa88 5dbf cc03 483f 1242 6dbf
000001b0: cc5e 533e aeb9 aabe 9b8f dbbe 2282 6e3e
000001c0: 9967 763f 2ec6 b23e efe4 6bbf 812c 66bd
000001d0: 0d97 33bf 27b2 843f 208a 1abf 94ae a3bf
000001e0: 95c0 fd3d a017 953f 3562 6c3f e492 b13f
000001f0: 3e01 b03f 95dd 283f 4bff f33e 5d16 82bf
00000200: db40 1c3f 5c0b ef3e 22af f93f 9d13 88bf
00000210: 03f7 913f 1714 b8bd edd3 3a3f 6a33 ecbf
00000220: f115 d1bd 504b 84bf 3212 a0be 30af 7b3e
00000230: fd1d c13e 43f5 8c3f 8b46 92bf 25f3 193d
00000240: 41c0 933e 24f0 c53e b3e3 4dbe b483 f1bd
00000250: 6351 54bf fc20 b4bf 833c d03f 6368 303e
00000260: 9c4c 34bf 1b23 a13e 9a2b 213e 434e c53e
00000270: 07db 123f 6d78 7f3f fd29 0b3f 3264 a13d
00000280: da9a 7f3f 8b57 ffbe 2ad8 423f f748 1e3f
00000290: ec48 99be e548 40be 223c f53f a4b0 303f
000002a0: 32c9 a0be 1b13 8abf 0897 763e 93b7 b2bf
000002b0: 018e e83d a767 8d3f ff94 b2bf c342 f33e
000002c0: 9660 8a3f 2fa2 063e b469 c93f cb0b 483f
000002d0: a5c8 7c3f 7a70 bebf 2631 163f 2e18 223e
000002e0: 2ab2 2a3f 5290 7ebf 143d 98bf df14 99bf
000002f0: 14ec a73f 05e0 56be 8b1f 483f 7e5c 7d3f
00000300: 92a0 2f3e 7844 603f 1ffd 92be 1ac5 823f
00000310: bbd5 02bf 6f5b dbbf 9b93 02bf 3125 f3be
00000320: cb8a 293f 1e68 9abf 2b81 1b3f 7812 0cbf
00000330: 84dc 8cbf 475a 38bf 2c78 433c b7f6 ad3e
00000340: c277 a0bf 4aa1 7c3f 6d43 fdbe c13a a4bf
00000350: a196 e03e 0960 2fbc 314f ab3f 2d0e 8fbe
00000360: dc4d 933e ffb3 08bd f6eb 87bf 4558 eabd
00000370: 1415 483e 35b3 3cbf ed9c d93f 2a43 b13e
00000380: 303b 14be ec3a 233f 4605 90be 5939 aabf
00000390: 695f 27bf 3223 dc3f 2c01 76bf 5d33 23bf
000003a0: 0510 63bf f0b9 563f 1192 933f aa6b e1bf
000003b0: 73b3 8dbf 7ed2 dbbf 7f6c c43f 4c1f 52bb
000003c0: 225d b83f 357f e2bd 1dad 133f f93b 2dbe
000003d0: a326 983f 9a49 21be ab86 3abd 5b02 263f
000003e0: 0de9 5ebf 7b37 143e cd90 f33f f5e1 c73e
000003f0: bb6d 073d 6700 83bf 67c7 3b3f 7211 8f3f

weight f4 [64, 64]
0.18271534 0.13861409 -0.20068917 -0.14543192 0.12136463 -0.045017593 -0.030882565 0.12939294
-0.24269189 0.060424257 0.14133531 0.19953814 0.20230864 0.18569335 -0.04139274 -0.121262535
0.1181697 0.15181655 -0.11182888 0.007132152 -0.061663836 -0.14832875 0.15172912 0.07744878
0.15387635 0.1065566 0.13704401 0.039840747 -0.025270991 0.047894716 0.030373778 -0.032009497
0.20650038 -0.078822926 -0.12413617 -0.018983379 -0.045363702 -0.24313638 0.09665918 -0.18623501
0.100735486 -0.057359647 0.1824063 0.092415296 0.1471796 -0.01044564 0.020034924 0.09140058
0.1217968 0.08343951 -0.10287074 -0.14078644 -0.13770984 -0.1733477 -0.050472047 0.21166746
-0.15362462 -0.22144274 0.0024964204 0.050484385 -0.07206293 -0.1858655 0.028842729 -0.21087977
-0.09575359 -0.029042808 0.15169874 -0.021250693 0.0054490007 -0.03766364 0.044634376 -0.062141206
-0.025264593 -0.12885548 -0.08029799 -0.119007155 -0.049511503 -0.02858191 0.18380179 0.0042264536
-0.11263485 -0.022147173 0.13651063 -0.017745208 0.049433917 0.08737895 -0.12921865 0.09787909
-0.10138603 -0.10162396 0.08703925 -0.09256937 -0.020681463 -0.09598415 -0.0069857254 -0.039635118
0.05385696 -0.10359487 -0.0058760964 0.13764974 0.047409505 0.010689621 -0.1651889 0.10271055
0.038287327 0.048968047 -0.13740058 0.041966844 -0.18795979 0.02491269 0.029603768 -0.11978689
0.052644882 -0.033904787 -0.0053497697 -0.038164712 -0.03062698 0.057052728 0.073385336 -0.118408345
0.07548972 0.006886571 0.018205276 -0.12665612 -0.087810524 0.13280524 0.044207405 0.14692529
0.0082572065 0.03772663 -0.07458718 -0.071581475 0.08609008 -0.18915227 0.035190333 0.11765856
-0.19148144 0.07439699 0.0940715 0.088791825 0.19468297 -0.022063348 -0.1044622 -0.0555062
-0.08883551 0.08944028 0.047497954 0.1508526 -0.12191875 -0.15167306 -0.01139808 -0.02617204
-0.00021651496 -0.062512614 -0.14646794 -0.10018253 -0.10676141 0.054981533 0.1453251 -0.034069236
0.16616547 -0.058721524 0.07787239 -0.20367117 -0.19484529 -0.05303792 0.13485622 -0.18415803
0.0084834695 -0.17261928 0.17704424 0.024664657 0.042069633 -0.037762474 0.12328764 0.20223215
0.068273984 0.1267799 0.07947081 -0.08216226 -0.035282686 0.024138486 -0.063137986 -0.047736917
-0.07994471 0.05663169 0.08753048 0.16587189 0.14020304 -0.07411098 0.12509462 -0.103620194
0.094932064 0.25033057 -0.10541187 -0.30321172 0.34331933 -0.19832097 -0.20580459 0.23899488
-0.15481913 0.11365717 0.1987509 0.19818503 0.101550184 0.068922274 -0.13852209 0.0017589102
0.23763004 0.26435712 -0.110168576 0.058506273 0.2728831 -0.072778046 0.19577466 0.22412357
0.34195197 0.20928833 0.23938876 0.23497818 -0.2180182 0.05309518 0.17968419 0.08110954
0.06811511 -0.18254554 -0.023507917 -0.3317078 -0.17866857 -0.32466087 0.11582317 -0.18502745
0.02923324 -0.11274145 0.31883425 0.30883318 0.15258986 -0.08281238 0.19255975 0.33019897
0.14554168 0.08563755 -0.11083768 -0.15309569 0.021310048 -0.29614213 -0.14630944 0.23124881
-0.27002403 -0.25561467 0.028093422 0.25170243 0.12032022 -0.063712254 0.27389354 -0.23979867
00000000: bb19 3b3e daf0 0d3e 7681 4dbe 1bec 14be
00000010: 058e f83d 5e64 38bd 6ffd fcbc 957f 043e
00000020: 3984 78be 6d7f 773d 34ba 103e ba53 4c3e
00000030: ff29 4f3e 6626 3e3e 6f8b 29bd 7e58 f8bd
00000040: f502 f23d cc75 1b3e 8a06 e5bd d4b4 e93b
00000050: 3893 7cbd 7ee3 17be e15e 1b3e 779d 9e3d
00000060: c391 1d3e 593a da3d 4455 0c3e 0d30 233d
00000070: 1c05 cfbc 402d 443d 6ed2 f83c 641c 03bd
00000080: d674 533e ea6d a1bd 1b3b febd 0883 9bbc
00000090: 4acf 39bd bef8 78be 40f5 c53d 64b4 3ebe
000000a0: 684e ce3d f3f1 6abd b8c8 3a3e 3b44 bd3d
000000b0: 40b6 163e 3124 2bbc 4820 a43c 3a30 bb3d
000000c0: 9a70 f93d 55e2 aa3d e5ad d2bd 522a 10be
000000d0: cf03 0dbe 0f82 31be c7bb 4ebd 5bbf 583e
000000e0: c64f 1dbe e3c1 62be fc9a 233b b7c8 4e3d
000000f0: bb95 93bd 8753 3ebe 9647 ec3c def0 57be
00000100: 751a c4bd 2feb edbc ea56 1b3e ef15 aebc
00000110: 888d b23b 3045 1abd 89d2 363d c787 7ebd
00000120: b1f7 cebc b1f2 03be 4673 a4bd 06ba f3bd
00000130: 93cc 4abd 9c24 eabc 8936 3c3e 107e 8a3b
00000140: 1aad e6bd fd6d b5bc 71c9 0b3e 665e 91bc
00000150: 387b 4a3d bcf3 b23d e551 04be d574 c83d
00000160: 7ba3 cfbd 3920 d0bd a241 b23d 0395 bdbd
00000170: 2c6c a9bc 5793 c4bd 83e8 e4bb 6f58 22bd
00000180: 1e99 5c3d 8c29 d4bd 458c c0bb 0ef4 0c3e
00000190: 7830 423d 8523 2f3c 4727 29be e959 d23d
000001a0: 2cd3 1c3d b892 483d bdb2 0cbe 6de5 2b3d
000001b0: 8878 40be b315 cc3c 9a83 f23c d452 f5bd
000001c0: 29a2 573d bfdf 0abd 1f4d afbb 9a52 1cbd
000001d0: 6fe5 fabc 1fb0 693d 0d4b 963d 1380 f2bd
000001e0: 5b9a 9a3d bfa8 e13b 3b23 953c 24b2 01be
000001f0: 01d6 b3bd 19fe 073e d312 353d 9573 163e
00000200: 3c49 073c 3d87 1a3d 2ac1 98bd 4f99 92bd
00000210: ff4f b03d 22b1 41be bd23 103d f9f6 f03d
00000220: b613 44be 735d 983d 8fa8 c03d 7dd8 b53d
00000230: f95a 473e 32be b4bc 47f0 d5bd 785a 63bd
00000240: 64ef b5bd 772c b73d 378d 423d 1b79 1a3e
00000250: 8ab0 f9bd 2f50 1bbe 03bf 3abc bf66 d6bc
00000260: 4b08 63b9 9d06 80bd b1fb 15be 802c cdbd
00000270: baa5 dabd 5134 613d 1ad0 143e 2f8c 0bbd
00000280: 4827 2a3e fb85 70bd 8f7b 9f3d 2d8f 50be
00000290: 8685 47be 4a3e 59bd c017 0a3e ec93 3cbe
000002a0: 40fe 0a3c 1cc3 30be 164b 353e 890d ca3c
000002b0: 3551 2c3d d3ac 1abd 3b7e fc3d f215 4f3e
000002c0: 3bd3 8b3d 97d2 013e 98c1 a23d b044 a8bd
000002d0: 9484 10bd 13be c53c 7d4e 81bd c987 43bd
000002e0: 0dba a3bd a2f6 673d 2e43 b33d 52da 293e
000002f0: 6391 0f3e 7fc7 97bd ce18 003e d336 d4bd
00000300: be6b c23d 542b 803e 2ee2 d7bd 913e 9bbe
00000310: 8dc7 af3e a714 4bbe 70be 52be 13bb 743e
00000320: e888 1ebe 17c5 e83d 5b85 4b3e 04f1 4a3e
00000330: 8bf9 cf3d 1f27 8d3d bcd8 0dbe 3c8b e63a
00000340: 4a55 733e d159 873e 10a0 e1bd 46a4 6f3d
00000350: 55b7 8b3e a80c 95bd 2779 483e a680 653e
00000360: 5414 af3e ae4f 563e 5422 753e 1f9e 703e
00000370: 2a40 5fbe 557a 593d 22ff 373e c21c a63d
00000380: ef7f 8b3d 38ed 3abe ad93 c0bc 9bd5 a9be
00000390: e5f4 36be f339 a6be b334 ed3d d677 3dbe
000003a0: 8c7a ef3c fde4 e6bd 3e3e a33e 621f 9e3e
000003b0: 8440 1c3e 8999 a9bd 622e 453e d70f a93e
000003c0: e108 153e bd62 af3d defe e2bd 1ec5 1cbe
000003d0: 6992 ae3c f19f 97be 24d2 15be 7dcc 6c3e
000003e0: 9740 8abe eddf 82be 2d24 e63c 24df 803e
000003f0: 736a f63d 927b 82bd c63b 8c3e c88d 75be

weight f4 [64, 64]
0.061265033 -0.1363706 -0.17999168 -0.19279326 0.08090758 -0.07924083 -0.18814152 -0.0023250657
-0.121889845 0.06567455 -0.0131224 0.15357484 -0.23602016 0.02202524 -0.18189053 -0.13751729
0.2320244 0.12301293 0.07822677 0.061204948 0.13200961 -0.06969964 0.02916508 -0.034730162
0.051760122 0.019719386 0.08674604 0.034929663 0.06783342 0.03323639 -0.14063695 0.018571796
-0.020421209 -0.06510871 -0.25351918 -0.06566189 -0.07250901 -0.06992033 -0.025872475 -0.14785063
-0.106419444 -0.15120794 0.05322049 0.13135782 0.03659523 -0.053688604 0.10467431 -0.121887356
0.11055056 0.11760505 -0.16788436 -0.12950109 -0.12644444 -0.1411027 -0.1252765 -0.021181133
-0.0064967773 0.019836076 -0.15621552 -0.06562817 0.23723918 -0.0613929 0.010910885 0.037150063
-0.047538634 0.06432033 -0.074062295 0.048098344 0.17497045 -0.035576213 -0.008793048 0.083612345
-0.13786756 0.020882156 0.022780564 0.069813244 0.10389852 0.079725035 -0.03270417 0.04465706
0.022601025 -0.045934018 0.029965019 -0.09540441 0.21296369 0.038604822 0.15043604 -0.019418444
0.050674934 0.12098907 -0.06196643 0.14874156 0.041916378 0.07343844 0.026227621 0.092054605
-0.0623045 0.058259327 0.10726903 -0.06134881 -0.11261462 -0.050523594 0.18075751 0.07004133
-0.080670945 -0.21580496 -0.050830238 -0.11151878 0.13303202 -0.07301492 0.1358418 0.04536749
-0.1468534 0.024220135 0.067123234 0.00733887 0.071302734 0.0026435873 -0.04014993 -0.08893168
0.034641657 -0.122837 0.089851215 0.039314993 0.21356444 -0.10327622 0.025787994 -0.09537344
-0.06559656 -0.013240563 0.14719315 0.17332973 -0.012339574 0.09748453 0.1319854 -0.11101308
0.1466876 -0.17085081 -0.008413707 -0.10724891 -0.004286488 -0.120007284 0.06727517 0.08935339
-0.060714066 -0.042551715 0.100135036 -0.06231956 -0.040316038 -0.0666048 -0.13360862 -0.17283113
-0.09728617 0.03518269 -0.094011135 -0.032571085 0.01638162 -0.16374615 -0.11364308 0.062270563
0.074939 -0.036666375 0.056378964 0.073045395 0.008721615 0.022546737 -0.003476018 0.053432513
-0.1767827 0.073876455 -0.11950406 -0.14471664 -0.110542305 0.03982575 -0.018732795 -0.10859965
0.10385264 0.010459485 0.03756178 -0.074291654 0.15068084 0.06311785 0.07244981 0.014189105
-0.041355126 0.040294383 0.028774265 -0.067512505 -0.15526973 0.1183722 -0.18739279 0.011185169
0.04903539 0.117020294 0.012049129 -0.066594996 -0.16689922 0.0909802 0.110843986 0.053592455
-0.08979278 -0.03544114 0.08231902 -0.014034287 0.0529737 -0.023492731 0.05181084 -0.06239944
0.0027189718 -0.1035263 0.024888799 0.05944237 -0.07992028 -0.06575046 -0.14206466 0.093716055
-0.056971416 0.112880185 0.03135512 -0.06538178 0.018427202 -0.0872106 0.05490478 0.059083864
-0.00048222166 0.11738578 -0.0018876365 -0.04940774 0.13461791 0.16124325 -0.05153392 -0.09290625
-0.005443727 0.1491751 0.0019346862 -0.022076715 -0.04537188 -0.04229646 -0.14227934 -0.093494706
0.1799224 -0.10809982 0.056555036 -0.042665668 0.07899217 0.005292682 0.07214622 0.060248785
0.10809574 0.10435644 0.19160908 -0.028246019 -0.0858584 0.08216709 -0.05773222 -0.05675306
00000000: 0bf1 7a3d bca4 0bbe bd4f 38be 996b 45be
00000010: e0b2 a53d 0449 a2bd 2ca8 40be 2160 18bb
00000020: 62a1 f9bd 6180 863d 56ff 56bc b942 1d3e
00000030: 45af 71be 476e b43c 8341 3abe 55d1 0cbe
00000040: ce97 6d3e 34ee fb3d 5b35 a03d 0ab2 7a3d
00000050: 872d 073e afbe 8ebd 9beb ee3c 3741 0ebd
00000060: 6c02 543d 8d8a a13c e8a7 b13d 6812 0f3d
00000070: 40ec 8a3d e222 083d 2203 10be e123 983c
00000080: 614a a7bc b757 85bd 44cd 81be be79 86bd
00000090: 9b7f 94bd 6432 8fbd 83f2 d3bc 2866 17be
000000a0: 70f2 d9bd 41d6 1abe bbfd 593d aa82 063e
000000b0: e1e4 153d 95e8 5bbd 7c5f d63d 14a0 f9bd
000000c0: 5568 e23d ebda f03d e1e9 2bbe ef9b 04be
000000d0: a77a 01be 3a7d 10be 7c48 00be 0e84 adbc
000000e0: ebe2 d4bb 447f a23c f6f6 1fbe 1068 86bd
000000f0: d4ee 723e 1f77 7bbd 92c3 323c aa2a 183d
00000100: dfb7 42bd 61ba 833d f9ad 97bd c502 453d
00000110: 742b 333e 5db8 11bd b710 10bc f33c ab3d
00000120: 272d 0dbe 0e11 ab3c 4e9e ba3c 3ffa 8e3d
00000130: bfc8 d43d e146 a33d cff4 05bd 52ea 363d
00000140: c925 b93c 4f25 3cbd 3379 f53c 6363 c3bd
00000150: 2713 5a3e 1720 1e3d e80b 1a3e 6e13 9fbc
00000160: 8590 4f3d 1ec9 f73d 83d0 7dbd b54f 183e
00000170: 82b0 2b3d e566 963d 4fdb d63c 2087 bc3d
00000180: 0133 7fbd 55a1 6e3d ddaf db3d e448 7bbd
00000190: 7ea2 e6bd d4f1 4ebd 7f18 393e d471 8f3d
000001a0: cf36 a5bd fafb 5cbe 5e33 50bd f563 e4bd
000001b0: 8c39 083e d988 95bd 1d1a 0b3e 43d3 393d
000001c0: bd60 16be 4e69 c63c e877 893d e77a f03b
000001d0: 2b07 923d 0940 2d3b 4174 24bd d021 b6bd
000001e0: 69e4 0d3d f791 fbbd ea03 b83d c208 213d
000001f0: a3b0 5a3e 7c82 d3bd 5841 d33c 2653 c3bd
00000200: 7d57 86bd f2ee 58bc cdb9 163e 597d 313e
00000210: ed2b 4abc f8a5 c73d 2e27 073e d35a e3bd
00000220: 4635 163e 84f3 2ebe a5d9 09bc 51a5 dbbd
00000230: ab75 8cbb 61c6 f5bd 90c7 893d e9fe b63d
00000240: 50af 78bd b54a 2ebd 9913 cd3d cc42 7fbd
00000250: 6e22 25bd 1968 88bd b3d0 08be a5fa 30be
00000260: f93d c7bd b91b 103d e988 c0bd 4269 05bd
00000270: bf32 863c 12ad 27be b4bd e8bd 6b0f 7f3d
00000280: 9e79 993d 7b2f 16bd a1ed 663d d398 953d
00000290: 1be5 0e3c efb3 b83c e8cd 63bb 0ddc 5a3d
000002a0: 8606 35be 8a4c 973d 8bbe f4bd 9930 14be
000002b0: 0164 e2bd 5320 233d 8575 99bc 7e69 debd
000002c0: b1b0 d43d 435e 2b3c 62da 193d 3926 98bd
000002d0: 144c 1a3e ee43 813d 9160 943d 6b79 683c
000002e0: fe63 29bd b90b 253d 02b8 eb3c ff43 8abd
000002f0: 07ff 1ebe 206d f23d e5e3 3fbe 0042 373c
00000300: 55d9 483d 56a8 ef3d b669 453c f562 88bd
00000310: a1e7 2abe d453 ba3d 2c02 e33d c383 5b3d
00000320: 47e5 b7bd bb2a 11bd e096 a83d 11f0 65bc
00000330: f3fa 583d d473 c0bc 9a37 543d 8e96 7fbd
00000340: c730 323b 9905 d4bd 98e3 cb3c d879 733d
00000350: 3ead a3bd 2da8 86bd 6679 11be 34ee bf3d
00000360: dc5a 69bd ba2d e73d 3a6e 003d e2e6 85bd
00000370: a5f4 963c 799b b2bd d6e3 603d ec01 723d
00000380: b2d2 fcb9 f567 f03d 926a f7ba c55f 4abd
00000390: 47d9 093e f31c 253e 3b15 53bd a245 bebd
000003a0: 4b61 b2bb 5bc1 183e 4c95 fd3a 3ada b4bc
000003b0: ddd7 39bd 0e3f 2dbd adb1 11be 277a bfbd
000003c0: 943d 383e 7063 ddbd 41a6 673d 32c2 2ebd
000003d0: a6c6 a13d 3c6e ad3b 66c1 933d 6ec7 763d
000003e0: 4d61 dd3d d4b8 d53d 2c35 443e 3264 e7bc
000003f0: 87d6 afbd 3847 a83d 9f78 6cbd e675 68bd

weight f4 [64, 64]
-0.06973419 0.012962274 -0.11221682 -0.08506796 0.15544134 -0.14498499 0.017656747 -0.113645755
-0.10652244 -0.05124276 -0.06449154 -0.05172978 0.0015494183 -0.040194537 -0.13361987 -0.07456675
0.043355573 -0.07937101 -0.038833473 0.13416533 -0.05183695 0.003734078 -0.08109157 0.021977888
-0.016612189 0.05091944 -0.097553074 0.13638452 -0.009398764 0.05322178 0.013766379 -0.07807226
0.12125062 0.14739844 0.025926974 -0.10752233 0.014747051 -0.02350516 0.107363485 -0.14290507
-0.008781742 -0.1304606 -0.084251754 0.084784545 0.05735107 0.07300275 0.0066680596 -0.001946992
0.12384187 0.12580617 0.061412368 0.041108772 -0.13552268 0.0318342 -0.061757084 0.10114205
-0.07128498 -0.08963413 -0.03210431 -0.111923814 0.00040960524 -0.033199754 0.15806578 -0.09802878
-0.09940306 0.032958824 0.16295628 0.033858284 -0.039645884 0.047635604 -0.11389719 0.09755663
0.033233695 -0.039158743 -0.08239623 -0.030045588 -0.090798095 0.06729298 0.08189805 -0.1507094
0.094347306 -0.032204825 -0.08404016 -0.009377287 -0.040171884 -0.031216653 0.09614339 0.039517716
0.15062499 0.049883146 -0.120750606 0.19040377 -0.11629373 0.05020604 0.035037927 0.07036102
-0.04236281 -0.10946705 0.051948264 -0.07833644 0.04491437 0.0013598147 0.06853376 -0.062061507
0.08882531 -0.023448622 -0.012584493 -0.065828435 -0.032373965 0.088913836 -0.062558234 -0.0875473
0.02547552 -0.04616429 0.02150006 0.084989 0.034564134 0.10625969 -0.04527124 0.021742078
-0.0821366 -0.11122888 0.025838763 0.038983457 0.18359868 0.1202204 0.068416245 -0.109054685
-0.07681601 0.029384518 -0.035439316 0.016061816 -0.0022129642 -0.08277516 -0.09419132 0.08160698
-0.010884824 -0.035643082 0.036000103 -0.05090385 -0.09873208 0.06900502 -0.08894397 -0.109925486
-0.0092356 0.09724487 0.07342064 -0.010400668 0.06933072 -0.04768752 0.044165578 0.10750881
0.02116029 0.17111038 0.091667935 0.07550487 -0.031508192 0.079611 0.08330876 -0.07219125
0.08523801 -0.15217099 -0.11722686 0.0067259995 -0.021336889 0.08148416 0.078879595 0.031088937
0.12329542 -0.067653604 0.105686784 0.05853919 0.021961818 0.06546523 -0.11935327 -0.05524372
0.12487353 0.027412014 -0.051887516 -0.13733852 -0.15847708 0.0036591592 -0.04562552 0.1336111
-0.018309142 -0.06703621 -0.06656469 -0.11669619 -0.034725484 0.04704485 0.0760237 -0.085054934
0.08219505 -0.048546582 -0.022634165 -0.14332889 0.08479438 0.13211414 0.16922994 0.12921609
-0.059054926 -0.070995025 0.04378494 -0.020919383 0.06237775 0.057988036 0.002817785 -0.012580881
-0.18739213 -0.13058756 -0.12494412 0.07112797 -0.16116104 0.033944603 -0.07545177 0.0156048825
-0.05567337 0.089993805 -0.09175163 -0.054214332 0.058112 -0.030483654 -0.024428198 0.002088582
-0.087818004 0.057878308 -0.0068443874 -0.16081056 -0.042258028 -0.0772017 -0.14809053 -0.12900181
0.04432427 0.014322456 -0.010804931 -0.017866733 -0.020990478 0.080581635 0.1045366 0.13589755
-0.020429699 0.0838205 -0.053204168 0.09730194 0.10284078 0.07130071 0.16442084 0.041938726
0.01874697 -0.09532876 0.025319848 0.16169201 -0.005991519 -0.1057649 -0.13537063 0.08837637
00000000: cdd0 8ebd b85f 543c efd1 e5bd 1c38 aebd
00000010: 042c 1f3e f276 14be e2a4 903c 1bbf e8bd
00000020: 7028 dabd eee3 51bd 2414 84bd 9be2 53bd
00000030: da15 cb3a 07a3 24bd a6d3 08be 74b6 98bd
00000040: 9d95 313d 458d a2bd d90f 1fbd a362 093e
00000050: fb52 54bd 6fb7 743b 5613 a6bd f90a b43c
00000060: 4916 88bc e790 503d e8c9 c7bd 62a8 0b3e
00000070: 46fd 19bc 15ff 593d 618c 613c 59e4 9fbd
00000080: 3f52 f83d 9eef 163e ce64 d43c ab34 dcbd
00000090: 9d9d 713c e58d c0bc 63e1 db3d b555 12be
000000a0: 4ce1 0fbc 7797 05be 2f8c acbd 85a3 ad3d
000000b0: f5e8 6a3d 7782 953d bd7f da3b 3632 ffba
000000c0: cea0 fd3d 55d3 003e 898b 7b3d ac61 283d
000000d0: 75c6 0abe 9464 023d fff4 7cbd 9023 cf3d
000000e0: dcfd 91bd 1992 b7bd cf7f 03bd 5038 e5bd
000000f0: 49c0 d639 77fc 07bd ffdb 213e 50c3 c8bd
00000100: d593 cbbd d5ff 063d 03de 263e fcae 0a3d
00000110: b963 22bd 8d1d 433d ee42 e9bd c5cb c73d
00000120: 0e20 083d eb64 20bd 5bbf a8bd 2a22 f6bc
00000130: 5af4 b9bd e7d0 893d 2aba a73d 9153 1abe
00000140: 2939 c13d 35e9 03bd 3f1d acbd 31a3 19bc
00000150: 468b 24bd 11ba ffbc d3e6 c43d 54dd 213d
00000160: 703d 1a3e 4552 4c3d 184c f7bd 35f9 423e
00000170: 682b eebd d9a4 4d3d ee83 0f3d 7019 903d
00000180: a084 2dbd 4330 e0bd b4c7 543d db6e a0bd
00000190: 21f8 373d cf3b b23a 6e5b 8c3d 3534 7ebd
000001a0: 0bea b53d 5317 c0bc 302f 4ebc 0fd1 86bd
000001b0: 909a 04bd 7518 b63d 881e 80bd 004c b3bd
000001c0: 0ab2 d03c c416 3dbd e520 b03c b60e ae3d
000001d0: 1f93 0d3d ae9e d93d 566e 39bd 711c b23c
000001e0: 3c37 a8bd f8cb e3bd d0ab d33c 1ead 1f3d
000001f0: 4b01 3c3e 1d36 f63d d11d 8c3d 1058 dfbd
00000200: b651 9dbd cdb7 f03c d128 11bd 1294 833c
00000210: 6107 11bb 0686 a9bd 61e7 c0bd 8f21 a73d
00000220: 4356 32bc 7bfe 11bd d874 133d 8e80 50bd
00000230: 0b34 cabd 8152 8d3d 4228 b6bd 9d20 e1bd
00000240: ea50 17bc 5228 c73d 8f5d 963d 9067 2abc
00000250: 44fd 8d3d fd53 43bd f7e6 343d 942d dc3d
00000260: 5858 ad3c 8f37 2f3e 66bc bb3d 4ca2 9a3d
00000270: bc0e 01bd 180b a33d c89d aa3d 02d9 93bd
00000280: 4491 ae3d b6d2 1bbe a314 f0bd c665 dc3b
00000290: b3ca aebc 2be1 a63d a08b a13d 3aae fe3c
000002a0: 4f82 fc3d f98d 8abd 5072 d83d cac6 6f3d
000002b0: 45e9 b33c a212 863d 7d6f f4bd 3d47 62bd
000002c0: b1bd ff3d 298f e03c 0188 54bd 78a2 0cbe
000002d0: d147 22be 81ce 6f3b d3e1 3abd 59d1 083e
000002e0: 0efd 95bc 484a 89bd 1153 88bd 69fe eebd
000002f0: 4f3c 0ebd 1ab2 403d 50b2 9b3d 4831 aebd
00000300: e155 a83d c8d8 46bd 496b b9bc cfc4 12be
00000310: ada8 ad3d ee48 073e 9d4a 2d3e 3951 043e
00000320: 94e3 71bd d765 91bd d657 333d 205f abbc
00000330: d07f 7f3d dd84 6d3d 96aa 383b 0a20 4ebc
00000340: b9e3 3fbe bfb8 05be b4e2 ffbd 8bab 913d
00000350: 6607 25be 7f09 0b3d 7586 9abd 9fab 7f3c
00000360: c209 64bd ac4e b83d 47e8 bbbd d90f 5ebd
00000370: d906 6e3d dbb8 f9bc a51d c8bc 97e0 083b
00000380: edd9 b3bd ce11 6d3d e246 e0bb 86ab 24be
00000390: c116 2dbd ed1b 9ebd 0ba5 17be 0d19 04be
000003a0: 5e8d 353d bca8 6a3c 2a07 31bc 415d 92bc
000003b0: 39f4 abbc fc07 a53d 4917 d63d ba28 0b3e
000003c0: 2f5c a7bc 15aa ab3d 9dec 59bd 3d46 c73d
000003d0: 309e d23d 1b06 923d f05d 283e f1c7 2b3d
000003e0: 3f93 993c ba3b c3bd 926b cf3c 9792 253e
000003f0: 8154 c4bb 459b d8bd 999e 0abe acfe b43d

freqs f4 [8]
0.93515104 2.1798925 3.175288 4.064378 5.276852 6.2656074 7.3612194 8.484238
00000000: 0f66 6f3f 5c83 0b40 eb37 4b40 620f 8240
00000010: f9db a840 db7f c840 1c8f eb40 70bf 0741

weight f4 [64, 8]
0.23083183 0.092476055 0.039028708 0.20774181 -0.19751847 0.08906608 0.05280656 0.026294602
-0.35583365 -0.3415676 -0.11416772 -0.22841488 -0.30974144 -0.10199419 -0.018959934 0.07946204
-0.11561828 -0.15814911 -0.14419004 0.19999588 0.08774865 0.37750274 0.13570562 0.2561326
-0.11231166 -0.20081656 0.12577254 0.24652275 -0.09793756 0.07962601 -0.2828007 0.14892396
-0.41861627 -0.10426923 -0.12619865 -0.13683423 0.018905586 -0.16663295 0.37183484 -0.14985399
0.18959107 -0.3025859 0.21229815 0.25062832 -0.26797798 -0.117546655 -0.08629237 -0.05666646
0.08973988 0.31884658 -0.058753084 0.08098775 -0.25860527 -0.18943495 -0.2909113 0.023060022
-0.0105571365 0.35071638 0.19396749 -0.024933329 -0.12297306 0.041061822 -0.17247464 0.065053806
-0.12542154 -0.17253484 0.037662916 0.047762737 -0.05458326 0.016015595 -0.30232978 -0.123974994
-0.45696902 0.33390847 0.33643743 -0.31200024 -0.22653508 -0.27662405 0.20854555 0.07388394
-0.46841317 -0.11390592 0.2916711 -0.032756038 -0.281923 0.1585173 0.3377331 0.33986515
0.197672 -0.119398125 0.003122773 0.30589065 0.10248485 -0.2936581 0.17836188 0.096485145
-0.43300727 -0.22740802 0.26814267 0.27638644 -0.30193502 0.121970415 0.23344041 0.065525405
0.2689387 0.12895893 0.13454683 0.146085 -0.07420285 0.023896953 -0.12500662 -0.08502987
0.21314737 -0.17056054 0.09426784 0.30784482 0.06274869 0.31478253 -0.043521933 -0.08608946
0.43652365 -0.17559867 0.35414827 0.35170743 -0.29651263 -0.13236801 0.26586637 -0.03192552
-0.40748182 0.043648314 -0.434618 -0.009055382 0.05468849 -0.114867024 -0.056253765 0.14660047
0.09885205 -0.04949397 -0.15990224 0.04071615 -0.032694712 -0.06423311 -0.11011188 0.06326521
-0.4275176 0.12671816 -0.17322594 0.33519083 0.010399733 0.17521973 0.06723862 -0.120172404
0.10888043 -0.2863257 0.08437926 0.33601835 -0.09544546 0.35523695 -0.26718354 0.15492553
0.273268 -0.14144321 -0.3627457 -0.28641027 0.16770387 0.35680893 -0.2843732 -0.18750295
0.24911596 -0.051327612 -0.32459804 -0.07383696 0.108814135 -0.37260902 -0.17271371 0.15055521
0.11655705 -0.13716093 0.40495154 0.053733718 0.20131813 -0.027757991 -0.15281978 0.25019798
-0.4753309 0.09855773 -0.19674504 -0.041505516 0.26787847 -0.33517006 0.034241337 -0.08149345
0.39439043 -0.23281355 -0.088803 -0.2063877 0.26573044 0.2679745 -0.02673616 0.08051742
0.53399915 -0.23905413 0.09361636 0.35259205 -0.20015328 -0.27020144 0.2879999 0.2928445
0.24716277 0.27019227 0.15694197 -0.20353426 -0.32522976 0.021182382 -0.18090631 0.35142475
-0.022971785 0.20830564 -0.018239817 -0.080534026 -0.06842361 -0.2877731 -0.3333885 -0.10592102
-0.44413644 -0.30603513 0.1811457 -0.14663343 0.025781551 -0.022009939 -0.24769175 -0.1351728
-0.4113585 0.051828545 0.2810801 -0.0087373275 0.09773635 0.20635559 0.18930905 0.052287273
-0.17916496 0.1461404 0.01660525 0.306411 -0.08084224 0.28245157 0.18523762 0.32189685
0.18717849 0.044661496 -0.057446007 0.19153278 0.25439793 0.24145219 -0.35673738 0.018714283
00000000: 2e5f 6c3e 1664 bd3d 91dc 1f3d 45ba 543e
00000010: 4842 4abe 4768 b63d b14b 583d c767 d73c
00000020: d42f b6be f3e1 aebe c4d0 e9bd 97e5 69be
00000030: 6e96 9ebe 54e2 d0bd dd51 9bbc febc a23d
00000040: 47c9 ecbd d7f1 21be 8ea6 13be b8cb 4c3e
00000050: 90b5 b33d 0a48 c13e 6af6 0a3e d023 833e
00000060: a803 e6bd dba2 4dbe 84ca 003e 7670 7c3e
00000070: 7d93 c8bd f612 a33d 41cb 90be 867f 183e
00000080: df54 d6be 1b8b d5bd 383a 01be 461e 0cbe
00000090: e3df 9a3c d4a1 2abe 2361 be3e 5373 19be
000000a0: 2924 423e 8aec 9abe b064 593e 5b52 803e
000000b0: 6934 89be 4dbc f0bd 0eba b0bd 171b 68bd
000000c0: 8bc9 b73d dc3f a33e 13a7 70bd e8dc a53d
000000d0: e967 84be 3cfb 41be 53f2 94be 5fe8 bc3c
000000e0: d7f7 2cbc 1991 b33e 6a9f 463e fb40 ccbc
000000f0: 4dd9 fbbd 7130 283d 319d 30be ee3a 853d
00000100: 816e 00be f9ac 30be 6e44 1a3d dca2 433d
00000110: b292 5fbd 2333 833c f8ca 9abe 9ae6 fdbd
00000120: d8f7 e9be 0df6 aa3e 8741 ac3e 7fbe 9fbe
00000130: d0f8 67be aba1 8dbe f78c 553e 7750 973d
00000140: dad3 efbe 8247 e9bd ea55 953e 322b 06bd
00000150: 3658 90be 5c52 223e 5aeb ac3e ce02 ae3e
00000160: 876a 4a3e 0187 f4bd 70a7 4c3b b39d 9c3e
00000170: 94e3 d13d 5b5a 96be 7fa4 363e 019a c53d
00000180: 21b3 ddbe a6dd 68be ff49 893e 8682 8d3e
00000190: 3a97 9abe a0cb f93d 010b 6f3e 2f32 863d
000001a0: 55b2 893e cf0d 043e a5c6 093e 4e97 153e
000001b0: aaf7 97bd 8bc3 c33c bc01 00be 2424 aebd
000001c0: 4e43 5a3e 6ca7 2ebe 7f0f c13d d69d 9d3e
000001d0: 6382 803d 2d2b a13e 0e44 32bd ac4f b0bd
000001e0: 0780 df3e 23d0 33be ec52 b53e ff12 b43e
000001f0: 81d0 97be 7b8b 07be a31f 883e 56c4 02bd
00000200: 75a1 d0be 93c8 323d 4086 debe 065d 14bc
00000210: 0a01 603d 673f ebbd 596a 66bd 6f1e 163e
00000220: f272 ca3d 30ba 4abd 6abd 23be fac5 263d
00000230: e4ea 05bd a68c 83bd 5682 e1bd 3191 813d
00000240: 96e3 dabe 68c2 013e 2462 31be 229e ab3e
00000250: a463 2a3c cd6c 333e 67b4 893d f31c f6bd
00000260: b4fc de3d 4899 92be 09cf ac3d 990a ac3e
00000270: e978 c3bd 9ee1 b53e 48cc 88be cca4 1e3e
00000280: c9e9 8b3e 7dd6 10be ceb9 b9be 5ea4 92be
00000290: 90ba 2b3e a9af b63e 5d99 91be c600 40be
000002a0: 4118 7f3e e73c 52bd b731 a6be d537 97bd
000002b0: f2d9 de3d 9cc6 bebe dddb 30be 252b 1a3e
000002c0: 76b5 ee3d ea73 0cbe cf55 cf3e e317 5c3d
000002d0: 5726 4e3e ba64 e3bc ca7c 1cbe f319 803e
000002e0: 925e f3be a3d8 c93d 8877 49be b001 2abd
000002f0: 5e27 893e 699b abbe a540 0c3d 0ae6 a6bd
00000300: 8bed c93e ad66 6ebe 59de b5bd 4c57 53be
00000310: d20d 883e f433 893e cb05 dbbc 51e6 a43d
00000320: 2bb4 083f 9bca 74be efb9 bf3d f286 b43e
00000330: fbf4 4cbe d857 8abe b974 933e b7ef 953e
00000340: 3d18 7d3e a456 8a3e 65b5 203e 496b 50be
00000350: 8484 a6be ad86 ad3c 813f 39be f2ed b33e
00000360: 532f bcbc 134e 553e ab6b 95bc 06ef a4bd
00000370: ad21 8cbd ff56 93be e6b1 aabe 1fed d8bd
00000380: da65 e3be a3b0 9cbe 427e 393e 1327 16be
00000390: d533 d33c 304e b4bc e8a2 7dbe bd6a 0abe
000003a0: 959d d2be 2b4a 543d bbe9 8f3e 0227 0fbc
000003b0: ff29 c83d e14e 533e 3bda 413e 2e2b 563d
000003c0: 0577 37be d4a5 153e bc07 883c e7e1 9c3e
000003d0: 9e90 a5bd 7e9d 903e eeae 3d3e aacf a43e
000003e0: b8ab 3f3e f9ee 363d 814c 6bbd 2b21 443e
000003f0: 7240 823e 3e3f 773e 48a6 b6be b24e 993c

weight f4 [64, 64]
0.13010977 -0.13392293 -0.12999909 -0.07910721 0.019817028 0.053955603 -0.08117829 0.040638648
0.015287437 -0.079111464 0.018344989 0.10304508 0.022014659 0.019718502 -0.07186932 -0.034116056
-0.0152686015 -0.09575441 0.034302242 -0.13852341 -0.081803456 0.108704224 0.064971946 -0.07223971
-0.003972356 0.0195866 0.009325545 0.0277903 -0.20999795 -0.13842215 -0.06942674 -0.005758723
0.0778367 -0.06861035 -0.0066228146 0.042243104 -0.068074174 -0.058978345 0.0022633718 -0.21229169
-0.0021300728 -0.0093010785 -0.010029451 -0.115057744 0.1646926 0.05306358 -0.1354738 0.04835887
-0.21264735 0.053235333 0.039573472 0.15863246 0.10849521 -0.0324656 -0.113089554 -0.16202465
0.016690671 0.12819166 -0.0029472187 -0.075772725 0.059849266 0.13698442 0.068020515 0.052832913
0.100841776 0.05810541 0.11126821 0.07453143 0.045573864 0.074253514 0.017193599 -0.13589469
-0.010464339 -0.0341462 -0.006905577 -0.07114783 -0.15078041 0.0899166 -0.07268494 -0.075674914
-0.09702019 0.0010881915 -0.09257171 -0.12843814 -0.009335075 0.095516905 0.124827094 -0.19229832
-0.022249047 -0.025557 -0.006645504 0.0017635898 0.07666603 -0.046147745 0.099402875 -0.019750463
-0.11566188 0.03647249 0.06469075 0.18075825 -0.0916592 -0.02628678 -0.10745091 -0.117180824
0.0074384506 0.011381108 0.04518481 0.10292547 -0.053026825 0.026659738 -0.12216616 -0.029162811
0.05862182 0.06346507 -0.104553565 -0.102329396 -0.06345284 -0.098242365 -0.1590034 0.031110704
0.0073970174 -0.013800498 0.07744212 -0.12698846 0.09763788 0.110245965 0.034963638 0.007078898
-0.11017331 -0.07038776 0.08783532 -0.13121511 -0.01694826 0.04783742 -0.042020716 0.009451962
-0.058777492 0.031981423 0.009383066 -0.0065475516 0.17160994 -0.09765099 0.081767075 -0.12637362
-0.08998786 0.053249232 -0.036895584 0.07506726 -0.003544831 -0.16456687 -0.13499284 0.11095995
-0.13634796 -0.040868882 0.024095569 -0.08148251 0.17043021 -0.0105897365 0.017023938 -0.001686298
0.11967281 -0.13471812 0.033050522 -0.07387995 0.075710915 0.03601518 -0.054574788 0.13630171
-0.044060044 -0.040940475 0.008220834 0.07789759 -0.03738551 0.05380213 -0.062441364 -0.09259129
0.14049256 -0.04440744 -0.041702375 0.023244062 -0.11015384 -0.04007413 0.0069688777 -0.07656883
0.06639009 0.079984486 -0.04684119 -0.03374642 -0.14827125 -0.11055721 -0.097432956 -0.034449175
0.046990313 -0.1157459 0.066384755 -0.056585435 -0.015585717 0.036350735 -0.0030032312 0.02803061
-0.12566765 -0.08318555 0.08929013 0.017377958 -0.06519288 0.06405002 0.11600776 0.13560358
-0.1360625 0.11318835 -0.16053328 -0.10896177 0.010330485 0.032101583 -0.09695741 -0.01047889
0.042323098 0.052766696 0.09018507 0.0663323 -0.11608154 0.02468431 0.08560363 -0.018102905
-0.10034388 -0.076326 -0.059394024 -0.018503508 -0.16633455 -0.16583136 -0.07337974 -0.07800492
0.0232179 -0.13656643 0.02252659 -0.018310089 0.08296537 0.09221831 0.09577747 0.08137517
0.056088008 0.0653173 -0.028259082 0.013994811 0.057484955 -0.13110986 0.016230438 0.042152427
-0.08717415 0.0032482967 -0.030700844 0.06461065 0.03528111 0.13456175 0.001607935 0.15918371
00000000: 7f3b 053e 1823 09be 7b1e 05be f602 a2bd
00000010: 5257 a23c 8d00 5d3d ce40 a6bd b674 263d
00000020: 2878 7a3c 3105 a2bd 3b48 963c 4d09 d33d
00000030: 1658 b43c b288 a13c 3930 93bd 47bd 0bbd
00000040: 2829 7abc e31a c4bd 8280 0c3d 15d9 0dbe
00000050: 9288 a7bd 52a0 de3d 0310 853d 6af2 93bd
00000060: 8a2a 82bb 1474 a03c 2cca 183c 7ca8 e33c
00000070: b409 57be 89be 0dbe 9b2f 8ebd abb3 bcbb
00000080: d968 9f3d 9583 8cbd 3204 d9bb 1b07 2d3d
00000090: 796a 8bbd 4793 71bd 1455 143b fe62 59be
000000a0: b198 0bbb 8d63 18bc 9152 24bc 65a3 ebbd
000000b0: 2da5 283e 3259 593d a5b9 0abe f313 463d
000000c0: 3ac0 59be 4b0d 5a3d cb17 223d 8c70 223e
000000d0: bd32 de3d a6fa 04bd 7f9b e7bd cae9 25be
000000e0: e0ba 883c ad44 033e 2026 41bb bb2e 9bbd
000000f0: 8124 753d a545 0c3e 574e 8b3d 5367 583d
00000100: 2286 ce3d f0ff 6d3d 96e0 e33d efa3 983d
00000110: a9ab 3a3d 3a12 983d 97d9 8c3c fa27 0bbe
00000120: 9e72 2bbc e3dc 0bbd 2e48 e2bb f4b5 91bd
00000130: 2e66 1abe 3226 b83d d8db 94bd 73fb 9abd
00000140: 85b2 c6bd a6a1 8e3a 3d96 bdbd 4a85 03be
00000150: 24f2 18bc 5e9e c33d 59a5 ff3d dae9 44be
00000160: a243 b6bc ea5c d1bc 87c2 d9bb 4128 e73a
00000170: 1403 9d3d 6b05 3dbd bc93 cb3d b9cb a1bc
00000180: 23e0 ecbd 2d64 153d 957c 843d b118 393e
00000190: d2b7 bbbd 6057 d7bc 390f dcbd 80fc efbd
000001a0: 3fbe f33b d477 3a3c b513 393d 97ca d23d
000001b0: a832 59bd 8665 da3c 4032 fabd d9e6 eebc
000001c0: 6f1d 703d faf9 813d 2e20 d6bd 1392 d1bd
000001d0: 90f3 81bd 4b33 c9bd cad1 22be e0db fe3c
000001e0: ae62 f23b 7c1b 62bc f999 9e3d 4309 02be
000001f0: 5ef6 c73d a3c8 e13d 0836 0f3d 1af6 e73b
00000200: 8ba2 e1bd 7527 90bd 01e3 b33d 415d 06be
00000210: 14d7 8abc 2cf1 433d ea1d 2cbd 67dc 1a3c
00000220: abc0 70bd f4fe 023d 6ebb 193c d88c d6bb
00000230: 84ba 2f3e 3efd c7bd 7f75 a73d 1668 01be
00000240: 8e4b b8bd de1b 5a3d d31f 17bd ddbc 993d
00000250: 6550 68bb 3884 28be 903b 0abe f83e e33d
00000260: cd9e 0bbe 2166 27bd 1264 c53c 4de0 a6bd
00000270: 4285 2e3e 9380 2dbc c975 8b3c c606 ddba
00000280: 0517 f53d 8cf3 09be fc5f 073d 5f4e 97bd
00000290: 530e 9b3d a784 133d d089 5fbd ad92 0b3e
000002a0: 4e78 34bd 33b1 27bd adb0 063c c688 9f3d
000002b0: 8c21 19bd 9f5f 5c3d 84c2 7fbd 81a0 bdbd
000002c0: 48dd 0f3e 93e4 35bd 1cd0 2abd 556a be3c
000002d0: 5698 e1bd c524 24bd 2f5b e43b 1ed0 9cbd
000002e0: 87f7 873d e8ce a33d 8cdc 3fbd b039 0abd
000002f0: 6bd4 17be d26b e2bd ee8a c7bd 941a 0dbd
00000300: ea78 403d 300c edbd bbf4 873d 21c6 67bd
00000310: 3c5b 7fbc 82e4 143d dcd1 44bb 73a0 e53c
00000320: 05af 00be 305d aabd bedd b63d 385c 8e3c
00000330: d883 85bd a82c 833d 7a95 ed3d aadb 0a3e
00000340: f853 0bbe 4bcf e73d d662 24be 5927 dfbd
00000350: 3241 293c f37c 033d 9b91 c6bd a6af 2bbc
00000360: fc5a 2d3d e421 583d f3b2 b83d 3bd9 873d
00000370: 29bc edbd c036 ca3c f550 af3d 8b4c 94bc
00000380: 1881 cdbd ce50 9cbd 2647 73bd ab94 97bc
00000390: 9b53 2abe b2cf 29be 1e48 96bd 0bc1 9fbd
000003a0: 7733 be3c 12d8 0bbe af89 b83c 0aff 95bc
000003b0: bfe9 a93d f4dc bc3d fa26 c43d 06a8 a63d
000003c0: 8abc 653d 14c5 853d 977f e7bc 7e4a 653c
000003d0: 5875 6b3d aa41 06be b2f5 843c 06a8 2c3d
000003e0: 5c88 b2bd 60e1 543b 5680 fbbc 9752 843d
000003f0: ed82 103d 8eca 093e 58c1 d23a 0e01 233e

weight f4 [64, 64]
-0.06865967 0.10226737 0.15099107 -0.098600976 0.17726766 0.012780974 -0.122998066 0.124579266
0.21062455 -0.17027076 0.053257097 -0.01933684 0.07688761 -0.034164168 0.045313444 0.021946952
0.031362858 -0.046461634 0.076309204 -0.0037259504 -0.0765334 0.115147434 -0.0854664 -0.07297635
0.1147858 -0.16816394 0.0148943765 0.088364646 0.0031480128 0.09429836 0.17410214 -0.08202065
-0.26761028 0.033961944 0.07821706 0.024929063 -0.02657718 0.02178986 -0.11724915 -0.023346115
-0.108185224 -0.17947446 -0.15924817 -0.09076437 -0.11982886 -0.010864129 -0.14342538 0.107604794
-0.018976474 -0.21412961 0.0027275258 0.101686396 0.12371436 -0.082935035 0.10070849 0.04558285
-0.014810579 0.12472517 -0.019456437 -0.051634915 -0.042728413 0.26050448 0.004843267 0.13081433
-0.07154684 -0.0019455589 0.055735268 -0.015546276 0.063618444 0.050479002 -0.057433248 -0.040320862
0.08225088 -0.08957394 -0.096832305 -0.23149845 0.08172647 -0.046337154 -0.038949437 0.031594228
-0.18812412 -0.019537745 -0.078047544 -0.19212937 0.023034055 0.11354764 0.046975356 0.103249036
0.055844966 -0.020209998 0.047005326 -0.076637074 -0.1220453 -0.10485621 -0.008331052 0.016894743
0.1496886 0.1483008 0.08324677 0.20966217 0.080928154 0.12619516 -0.09321137 -0.20280081
-0.08958845 0.068325005 0.11750203 -0.14338346 -0.0667357 -0.10410434 -0.098970845 -0.036661256
-0.007555191 0.037052482 -0.014837694 0.1087846 0.027858993 -0.0010823632 0.03185609 -0.038130414
0.05444855 0.049937163 0.032296292 -0.021009399 -0.13145605 0.074749224 0.0977256 -0.038596235
-0.034801707 -0.07290651 0.040041856 0.07873672 -0.22640145 0.038366172 0.10255952 0.056562927
0.0142882075 -0.08368152 0.07923138 0.091016605 -0.05663012 -0.08773143 -0.12472138 0.08227093
0.13954753 -0.042382292 0.07405447 0.025963258 0.017755318 -0.10980213 0.038883734 -0.064361356
0.033084624 -0.03886497 -0.1639657 -0.042008143 0.097391844 0.086726256 -0.18000719 0.121609926
-0.01325446 -0.18071122 -0.049957477 -0.22970429 -0.114623636 -0.086003795 0.08228979 0.1956661
-0.07157251 -0.18385936 0.09906295 0.15822358 -0.068403624 -0.08933267 0.055030536 -0.056203384
-0.03240374 0.15812488 -0.0044933683 -0.02924501 -0.009888271 0.060423527 -0.094315924 0.1497308
0.025191203 0.050808817 -0.07401877 0.07111878 -0.012650078 -0.0780122 0.12927142 0.052394513
0.11374931 -0.07590276 0.015612608 0.030940922 -0.03357029 -0.00022498728 0.10476478 0.0848644
-0.13276732 0.06281258 0.030689469 0.20705193 -0.004967764 0.011682717 -0.013140199 0.0754581
0.1264008 0.0656507 0.15290722 0.23156105 -0.1316937 -0.18390955 -0.06876008 0.009668725
0.04330979 0.03812752 -0.1498331 -0.0256948 0.034016185 0.026165858 -0.19974782 0.016162599
0.013948395 0.056602098 -0.12885228 -0.25028816 0.017659465 -0.013007644 0.1319962 0.0035832536
-0.090140484 0.13297771 0.12706806 0.13706355 0.15124446 0.112765156 -0.002781149 -0.0730465
-0.044009544 -0.038069665 -0.02802168 0.0173076 -0.00975709 -0.0291056 -0.065492734 -0.0070327073
-0.09215309 -0.01772325 -0.06060515 -0.047695205 -0.10167804 -0.1321178 -0.05250163 0.04345408
00000000: 719d 8cbd 8e71 d13d 679d 1a3e 4fef c9bd
00000010: a785 353e 4a67 513c 69e6 fbbd 6a23 ff3d
00000020: f6ad 573e 755b 2ebe 1d24 5a3d 4b68 9ebc
00000030: 4077 9d3d baef 0bbd 979a 393d 18ca b33c
00000040: 5776 003d 8e4e 3ebd 0048 9c3d 132f 74bb
00000050: 8bbd 9cbd 6bd2 eb3d 0209 afbd a074 95bd
00000060: d114 eb3d 2b33 2cbe 8b07 743c 86f8 b43d
00000070: e44e 4e3b 801f c13d d547 323e 71fa a7bd
00000080: 3704 89be ae1b 0b3d 4430 a03d 0938 cc3c
00000090: 63b8 d9bc a680 b23c 5320 f0bd 5a40 bfbc
000000a0: 3790 ddbd 27c8 37be f411 23be ace2 b9bd
000000b0: d568 f5bd 76ff 31bc 1ade 12be e75f dc3d
000000c0: 8d74 9bbc cb44 5bbe 4ac0 323b f540 d03d
000000d0: f45d fd3d d8d9 a9bd 4140 ce3d 15b5 3a3d
000000e0: 12a8 72bc e96f ff3d 1b63 9fbc 227f 53bd
000000f0: fd03 2fbd d860 853e 45b4 9e3b 31f4 053e
00000100: 2687 92bd 2002 ffba aa4a 643d cfb5 7ebc
00000110: 634a 823d 12c3 4e3d 203f 6bbd 7d27 25bd
00000120: 2673 a83d 8b72 b7bd 0450 c6bd ee0d 6dbe
00000130: 3560 a73d 07cc 3dbd 7289 1fbd f368 013d
00000140: 9ca3 40be 9f0d a0bc 64d7 9fbd 90bd 44be
00000150: eab1 bc3c aa8b e83d 3b69 403d 3b74 d33d
00000160: b1bd 643d 708f a5bc a888 403d e6f3 9cbd
00000170: e3f2 f9bd dabe d6bd f77e 08bc d866 8a3c
00000180: f847 193e 2adc 173e 487d aa3d aeb1 563e
00000190: a9bd a53d 4e39 013e 9ae5 bebd 04ab 4fbe
000001a0: 267a b7bd fbed 8b3d e8a4 f03d 1dd3 12be
000001b0: baac 88bd a834 d5bd 3ab1 cabd 1d2a 16bd
000001c0: 8991 f7bb 58c4 173d cd19 73bc 76ca de3d
000001d0: 8b38 e43c 15de 8dba 887b 023d a32e 1cbd
000001e0: 7105 5f3d e98a 4c3d 1e49 043d e71b acbc
000001f0: 6a9c 06be 1f16 993d 5c24 c83d 1617 1ebd
00000200: 3c8c 0ebd 0250 95bd ee02 243d b840 a13d
00000210: c8d5 67be d925 1d3d ba0a d23d 87ae 673d
00000220: 1619 6a3c 3761 abbd 1044 a23d ea66 ba3d
00000230: fcf4 67bd 89ac b3bd ec6d ffbd a97d a83d
00000240: 8ce5 0e3e 0e99 2dbd dfa9 973d e6b0 d43c
00000250: 9a73 913c f0df e0bd 8d44 1f3d e3cf 83bd
00000260: be83 073d e030 1fbd a0e6 27be bb10 2cbd
00000270: 6075 c73d 899d b13d ce53 38be a00e f93d
00000280: 3c29 59bc 5d0c 39be 36a0 4cbd 9a37 6bbe
00000290: ccbf eabd c222 b0bd 8d87 a83d b25c 483e
000002a0: 9c94 92bd a145 3cbe 84e1 ca3d 5d05 223e
000002b0: 3317 8cbd 0cf4 b6bd b367 613d 8535 66bd
000002c0: c9b9 04bd 7deb 213e 1b3d 93bb 3b93 efbc
000002d0: 6a02 22bc a97e 773d b528 c1bd 0853 193e
000002e0: c85d ce3c e81c 503d 2797 97bd b9a6 913d
000002f0: 4642 4fbc dcc4 9fbd ba5f 043e a19b 563d
00000300: 66f5 e83d e872 9bbd 06cc 7f3c d177 fd3c
00000310: 0081 09bd 90ea 6bb9 eb8e d63d 63cd ad3d
00000320: 28f4 07be e2a3 803d 7b68 fb3c 6c05 543e
00000330: a0c8 a2bb de68 3f3c fd49 57bc c789 9a3d
00000340: 366f 013e e073 863d b693 1c3e 571e 6d3e
00000350: b7da 06be c952 3cbe 16d2 8cbd 9269 1e3c
00000360: 9b65 313d 9a2b 1c3d d96d 19be e77d d2bc
00000370: 8e54 0b3d c859 d63c b18a 4cbe 6d67 843c
00000380: cf87 643c 9ad7 673d daf1 03be c525 80be
00000390: 95aa 903c 031e 55bc 032a 073e 05d5 6a3b
000003a0: 939b b8bd 4f2b 083e 211e 023e 635a 0c3e
000003b0: d4df 1a3e 6bf1 e63d f043 36bb 6799 95bd
000003c0: 5a43 34bd f0ee 1bbd b98d e5bc abc8 8d3c
000003d0: 34dc 1fbc de6e eebc 0e21 86bd a072 e6bb
000003e0: c2ba bcbd 5930 91bc 1b3d 78bd 0c5c 43bd
000003f0: 943c d0bd e349 07be f30b 57bd e8fc 313d

weight f4 [64, 64]
-0.057860773 -0.043062363 0.012748178 -0.073652655 -0.004826569 -0.050957683 -0.012766267 -0.08258086
0.11865355 0.02039135 -0.15018901 -0.009402878 0.004033897 -0.012118046 -0.006795933 -0.0063379807
-0.027374735 0.12616864 0.091244735 0.1282296 -0.038763277 0.14777134 -0.07980213 0.058258466
0.012235888 0.12564655 -0.021472292 0.030316519 -0.06595707 0.046977267 -0.05979279 0.032731265
-0.015636759 0.079462655 0.008767136 0.049323555 -0.16237397 0.008654157 0.0100773685 0.11162892
0.082691185 -0.014646238 0.013723543 -0.07132214 0.11332228 -0.005997102 0.017127795 0.016767533
-0.13786553 -0.06818268 -0.05856031 0.14566445 0.02276131 -0.13967498 -0.08614466 0.03259716
-0.15580004 0.13208516 0.07597298 0.01011353 0.10079425 0.0073098945 0.02388302 0.1063616
0.048004247 0.09402469 -0.0055646403 -0.05300875 -0.13044186 -0.053398296 -0.07242988 0.07803859
0.047952596 -0.10361979 0.013622146 0.05853749 0.0045617693 0.014693376 0.0800625 0.073011965
-0.0769129 0.060751867 -0.10039228 0.12176243 -0.017693214 0.11256927 0.06217863 0.06790304
-0.078016266 -0.057830546 -0.031666834 -0.05621506 -0.022473622 -0.08787639 -0.052028596 0.08125195
-0.023991464 0.017965475 -0.122713804 -0.101008266 0.086048424 -0.023976978 0.049927216 0.051490106
0.07279166 0.03376844 0.08975056 -0.031311892 0.043746654 0.05275189 -0.069709726 0.060070023
-0.027781924 -0.045136243 -0.003264819 -0.099248506 -0.00643018 -0.11970645 -0.12306011 -0.007094903
-0.06760617 -0.033206053 -0.029616758 0.12883739 0.017016485 0.084616296 0.070912026 0.104220115
0.09514855 0.09805292 -0.08295048 -0.053197015 -0.13821231 0.0039908346 -0.033343922 0.023820575
-0.095409416 -0.0770386 0.027460117 0.0869131 0.10167577 0.009641708 -0.04251715 -0.09826185
-0.045356356 0.081569724 0.0816978 0.02699198 -0.10646009 0.11692336 -0.07769243 0.06267604
0.027133895 0.1297237 0.045754425 -0.117269516 -0.07197663 0.11126231 0.0023193108 0.09125281
0.13109069 0.021835195 0.0653396 -0.07712995 -0.07803584 0.09322267 -0.121903434 0.1448826
0.09576424 -0.106971264 -0.009221803 0.01186387 -0.071266524 -0.053382106 0.06333614 0.0025643138
-0.08877955 0.10556883 0.07868525 -0.0704193 0.026315907 -0.09567949 -0.11945416 0.041554086
-0.038736332 0.07838507 -0.136348 -0.070566446 -0.004095618 0.0754015 -0.025522642 0.07373366
-0.054800548 0.037054647 -0.00014404136 -0.065467365 -0.12224808 -0.028390512 -0.08383967 -0.14108677
0.102789186 -0.15439133 0.10236077 0.055941116 0.06715371 0.023710093 -0.12036385 0.0668093
-0.0050085196 0.054465327 0.07816729 -0.027068973 -0.0462109 0.13557 -0.01233603 -0.13298364
-0.06186245 0.0699718 0.10089054 -0.13182792 0.0026704392 0.09292994 0.14938906 0.06598068
-0.06219113 0.14681904 -0.057389423 -0.054801263 -0.04548065 0.015946304 -0.038224813 0.17409305
0.07347679 0.14774412 -0.074564524 0.108638205 0.00038737402 0.028278932 -0.14545299 -0.11256893
-0.014533883 -0.096487604 -0.09005871 -0.055264268 0.12666552 -0.08418342 0.07271578 0.055975866
-0.16688047 0.116452396 0.034931894 0.058956254 0.119993135 -0.09287651 0.14496419 -0.0059079807
00000000: 6bff 6cbd 2962 30bd bcdd 503c 34d7 96bd
00000010: 3228 9ebb 01b9 50bd 9b29 51bc 2720 a9bd
00000020: a200 f33d c30b a73c 26cb 19be 870e 1abc
00000030: c82e 843b c58a 46bc 6bb0 debb d6ae cfbb
00000040: fb40 e0bc 5a32 013e 85de ba3d 9f4e 033e
00000050: 3ec6 1ebd 5f51 173e 4d6f a3bd 6ea0 6e3d
00000060: 0979 483c 7da9 003e a9e6 afbc 595a f83c
00000070: 8014 87bd 3c6b 403d 49e9 74bd 3811 063d
00000080: a918 80bc 51bd a23d 09a4 0f3c 7f07 4a3d
00000090: 5d45 26be 2aca 0d3c 8c1b 253c b49d e43d
000000a0: ff59 a93d c6f6 6fbc b6d8 603c 5811 92bd
000000b0: 8315 e83d 5683 c4bb 974f 8c3c 115c 893c
000000c0: 9f2c 0dbe 5ca3 8bbd f0dc 6fbd 1029 153e
000000d0: ed75 ba3c f506 0fbe 9d6c b0bd 9a84 053d
000000e0: 0c8a 1fbe 5541 073e b997 9b3d 38b3 253c
000000f0: 376d ce3d d787 ef3b 53a6 c33c 1cd4 d93d
00000100: 1aa0 443d 0490 c03d 9657 b6bb b41f 59bd
00000110: 8d92 05be 2cb8 5abd 1e56 94bd b2d2 9f3d
00000120: f169 443d 9d36 d4bd 6c2f 5f3c 02c5 6f3d
00000130: e57a 953b 7cbc 703c cff7 a33d 4c87 953d
00000140: 8384 9dbd f3d6 783d 789a cdbd 955e f93d
00000150: 5cf1 90bc b88a e63d 05af 7e3d c010 8b3d
00000160: fec6 9fbd b9df 6cbd 15b5 01bd c341 66bd
00000170: 9a1a b8bc 89f8 b3bd f01b 55bd 6c67 a63d
00000180: bf89 c4bc 552c 933c 6051 fbbd 6cdd cebd
00000190: 283a b03d 5e6b c4bc 7b80 4c3d 4ae7 523d
000001a0: cb13 953d c750 0a3d 24cf b73d e640 00bd
000001b0: b12f 333d 5e12 583d f9c3 8ebd fc0b 763d
000001c0: eb96 e3bc c8e0 38bd 93f6 55bb cd42 cbbd
000001d0: 42b4 d2bb a828 f5bd f006 fcbd 5c7c e8bb
000001e0: 1b75 8abd 1203 08bd d89e f2bc f3ed 033e
000001f0: 2866 8b3c 4f4b ad3d 533a 913d 5b71 d53d
00000200: 3edd c23d f8cf c83d f1e1 a9bd 1de5 59bd
00000210: 8787 0dbe 8cc5 823b a393 08bd 5e23 c33c
00000220: 0366 c3bd 6ac6 9dbd 0af4 e03c 7fff b13d
00000230: 633b d03d 41f8 1d3c 7726 2ebd 823d c9bd
00000240: 96c7 39bd 070e a73d 2d51 a73d 491e dd3c
00000250: bf07 dabd 8475 ef3d 351d 9fbd 4c5c 803d
00000260: e747 de3c 4ad6 043e fe68 3b3d 002b f0bd
00000270: 7c68 93bd 7edd e33d 94ff 173b c1e2 ba3d
00000280: a33c 063e b9df b23c c5d0 853d 4ff6 9dbd
00000290: 41d1 9fbd 87eb be3d 82a8 f9bd 1b5c 143e
000002a0: 0b20 c43d c013 dbbd 0c17 17bc ad60 423c
000002b0: 2ff4 91bd 32a7 5abd 61b6 813d 0c0e 283b
000002c0: 0dd2 b5bd 7934 d83d bb25 a13d fe37 90bd
000002d0: 7594 d73c 9cf3 c3bd 62a4 f4bd 9e34 2a3d
000002e0: fda9 1ebd 5a88 a03d cf9e 0bbe 2485 90bd
000002f0: 8934 86bb 1a6c 9a3d dc14 d1bc ac01 973d
00000300: 8a76 60bd 9dc6 173d cf09 17b9 c113 86bd
00000310: 345d fabd 3893 e8bc 22b4 abbd 0d79 10be
00000320: 2383 d23d c318 1ebe 86a2 d13d 8322 653d
00000330: e287 893d ab3b c23c 5281 f6bd 50d3 883d
00000340: 821e a4bb 0917 5f3d 2c16 a03d c0bf ddbc
00000350: a447 3dbd ddd2 0a3e 0f1d 4abc dd2c 08be
00000360: 7b63 7dbd 604d 8f3d b39f ce3d e6fd 06be
00000370: 8902 2f3b 0d52 be3d 72f9 183e e120 873d
00000380: 20bc 7ebd bb57 163e 2c11 6bbd 4a77 60bd
00000390: eb49 3abd d3a1 823c 9f91 1cbd 7345 323e
000003a0: 007b 963d 3c4a 173e 49b5 98bd b57d de3d
000003b0: 7618 cb39 38a9 e73c a1f1 14be 8a8a e6bd
000003c0: 861f 6ebc 4b9b c5bd b370 b8bd c95c 62bd
000003d0: 9bb4 013e 5b68 acbd 03ec 943d f346 653d
000003e0: b7e2 2abe 987e ee3d bf14 0f3d 1d7c 713d
000003f0: f6be f53d 0a36 bebd 7e71 143e bc97 c1bb
