examples/carbon/outDir/epoch=1-step=510-val_loss=0.2299.pt (torch, 752753 bytes, 92 tensors)

cutoff f8 []
3.0
00000000: 0000 0000 0000 0840

weight f4 [7, 64]
0.84871036 0.69200915 -0.31601277 -2.1152194 -0.35612836 0.43722272 0.49130496 -0.20410173
0.11984151 1.2376579 1.1167772 -0.24727815 -1.0437516 -1.3453052 0.7853556 0.9928375
0.59883946 -1.5550951 -0.3413604 1.8530061 0.4680964 -0.15771244 1.4436601 0.2660494
1.3893661 1.5863342 0.94629836 -0.84367675 0.9318266 1.2590092 2.0049806 0.053736903
0.43969584 0.112411186 0.64079237 0.44115627 -0.21586326 -0.74254817 0.5627214 0.2596274
0.52286047 2.3022053 -1.4688939 -1.5866888 1.2032237 0.0845347 -1.2001394 -0.004785738
-0.23033547 -0.3917544 0.5432947 -0.39515755 0.20552567 -0.45032975 -0.5730771 -0.5553584
-1.5311843 -1.234135 1.8197253 -0.5515287 -1.325326 0.18855357 -0.069072686 -0.49492535
-1.478174 2.5672328 -0.4731198 0.33555076 1.5091219 2.0819554 1.7067116 2.3803675
-1.0669804 1.1149396 -0.14067143 0.8057536 0.3276143 -0.7607072 -1.599082 0.018486667
0.8418941 -0.40003416 1.039462 0.3581531 -0.003303873 -0.5344407 1.1686878 0.39450276
-1.0449786 -0.9565008 0.03353186 0.7100866 -1.5352871 -0.41267914 0.9663033 1.6247832
-2.6133225 -1.6964744 -0.22824179 0.279955 0.07324605 1.1133184 0.28226724 0.43422565
0.45694014 -0.86537135 0.78130794 -0.9267894 0.20641631 -0.33344787 -0.42883 0.23291829
0.9625183 0.34916824 -0.921462 -0.056194786 -0.7015236 1.0366868 -0.6036701 -1.2787652
0.12390248 1.1647835 0.9233735 1.3872952 1.3750379 0.6596311 0.4765571 -1.0163075
0.6103646 0.46688354 1.9506571 -1.0630985 1.1403507 -0.08988207 0.72979623 -1.845319
-0.10209263 -1.0335484 -0.31263882 0.24578547 0.37718192 1.1012348 -1.1427778 0.037585396
0.28857616 0.38659775 -0.20106392 -0.117926985 -0.82936686 -1.4072566 1.6268467 0.1722732
-0.70429397 0.31472096 0.15739289 0.3853627 0.5736546 0.9979313 0.54360944 0.07880439
0.9984566 -0.49871477 0.7611109 0.61830086 -0.29938447 -0.18777807 1.9158976 0.6901953
-0.314035 -1.078708 0.24081051 -1.3962272 0.1135521 1.1047257 -1.395172 0.47511873
1.0810726 0.13147806 1.5735383 0.78142995 0.9874366 -1.4878075 0.58668745 0.15829536
0.66678107 -0.99438965 -1.189364 -1.1959494 1.311892 -0.20983894 0.7817313 0.98969257
0.17151096 0.87604475 -0.2870874 1.0216401 -0.51107377 -1.7137278 -0.5100648 -0.47489312
0.66227406 -1.2063024 0.6074397 -0.5471568 -1.1004796 -0.7201275 0.011930507 0.3397729
-1.2536547 0.9868361 -0.49465504 -1.283043 0.4386492 -0.010704049 1.3383542 -0.27940503
0.2877034 -0.033374783 -1.0618885 -0.11442617 0.1953929 -0.7371095 1.7001015 0.34621555
-0.14475703 0.6376178 -0.28129023 -1.3298751 -0.6537996 1.7198241 -0.9609554 -0.6375025
-0.8869632 0.8387747 1.1528951 -1.7610981 -1.1070389 -1.7173612 1.534561 -0.0032062111
1.4403422 -0.11059419 0.57686025 -0.16917409 1.1886791 -0.15750733 -0.045538586 0.64847344
-0.8707436 0.14474289 1.9028565 0.3903958 0.03306363 -1.0234498 0.7335114 1.1177199
00000000: 1545 593f 8327 313f 6dcc a1be c15f 07c0
00000010: 7556 b6be a8db df3e 538c fb3e 0b00 51be
00000020: 776f f53d 936b 9e3f 8ef2 8e3f 7c36 7dbe
00000030: a799 85bf f632 acbf 110d 493f 992a 7e3f
00000040: 8b4d 193f 5b0d c7bf cac6 aebe 4e2f ed3f
00000050: 55aa ef3e 5f7f 21be dbc9 b83f a137 883e
00000060: c0d6 b13f 000d cb3f 9c40 723f 33fb 57bf
00000070: 308c 6e3f 3727 a13f 9a51 0040 3a1b 5c3d
00000080: d01f e13e d637 e63d f80a 243f 3cdf e13e
00000090: 420b 5dbe a317 3ebf 820e 103f e2ed 843e
000000a0: 2fda 053f 5557 1340 b704 bcbf 9e18 cbbf
000000b0: 3c03 9a3f 8720 ad3d 2b9e 99bf aed1 9cbb
000000c0: 10dd 6bbe 0894 c8be 5d15 0b3f 1752 cabe
000000d0: 5275 523e 9f91 e6be 2eb5 12bf f82b 0ebf
000000e0: d9fd c3bf 23f8 9dbf c2ec e83f fc30 0dbf
000000f0: 48a4 a9bf 3014 413e fb75 8dbd db66 fdbe
00000100: ce34 bdbf 8b4d 2440 c23c f2be 4fcd ab3e
00000110: e82a c13f c23e 0540 8775 da3f f157 1840
00000120: d092 88bf 57b6 8e3f 2c0c 10be de45 4e3f
00000130: 10bd a73e b5bd 42bf b8ae ccbf 5a71 973c
00000140: 5f86 573f 47d1 ccbe 170d 853f d85f b73e
00000150: ca85 58bb 1bd1 08bf 9097 953f 44fc c93e
00000160: dcc1 85bf 3ddd 74bf b458 093d 3cc8 353f
00000170: 4a84 c4bf ae4a d3be a75f 773f e5f8 cf3f
00000180: ad40 27c0 1326 d9bf 37b8 69be 4356 8f3e
00000190: 0602 963d 3881 8e3f 5585 903e d352 de3e
000001a0: 0ff4 e93e fa88 5dbf cc03 483f 1242 6dbf
000001b0: cc5e 533e aeb9 aabe 9b8f dbbe 2282 6e3e
000001c0: 9967 763f 2ec6 b23e efe4 6bbf 812c 66bd
000001d0: 0d97 33bf 27b2 843f 208a 1abf 94ae a3bf
000001e0: 95c0 fd3d a017 953f 3562 6c3f e492 b13f
000001f0: 3e01 b03f 95dd 283f 4bff f33e 5d16 82bf
00000200: db40 1c3f 5c0b ef3e 22af f93f 9d13 88bf
00000210: 03f7 913f 1714 b8bd edd3 3a3f 6a33 ecbf
00000220: f115 d1bd 504b 84bf 3212 a0be 30af 7b3e
00000230: fd1d c13e 43f5 8c3f 8b46 92bf 25f3 193d
00000240: 41c0 933e 24f0 c53e b3e3 4dbe b483 f1bd
00000250: 6351 54bf fc20 b4bf 833c d03f 6368 303e
00000260: 9c4c 34bf 1b23 a13e 9a2b 213e 434e c53e
00000270: 07db 123f 6d78 7f3f fd29 0b3f 3264 a13d
00000280: da9a 7f3f 8b57 ffbe 2ad8 423f f748 1e3f
00000290: ec48 99be e548 40be 223c f53f a4b0 303f
000002a0: 32c9 a0be 1b13 8abf 0897 763e 93b7 b2bf
000002b0: 018e e83d a767 8d3f ff94 b2bf c342 f33e
000002c0: 9660 8a3f 2fa2 063e b469 c93f cb0b 483f
000002d0: a5c8 7c3f 7a70 bebf 2631 163f 2e18 223e
000002e0: 2ab2 2a3f 5290 7ebf 143d 98bf df14 99bf
000002f0: 14ec a73f 05e0 56be 8b1f 483f 7e5c 7d3f
00000300: 92a0 2f3e 7844 603f 1ffd 92be 1ac5 823f
00000310: bbd5 02bf 6f5b dbbf 9b93 02bf 3125 f3be
00000320: cb8a 293f 1e68 9abf 2b81 1b3f 7812 0cbf
00000330: 84dc 8cbf 475a 38bf 2c78 433c b7f6 ad3e
00000340: c277 a0bf 4aa1 7c3f 6d43 fdbe c13a a4bf
00000350: a196 e03e 0960 2fbc 314f ab3f 2d0e 8fbe
00000360: dc4d 933e ffb3 08bd f6eb 87bf 4558 eabd
00000370: 1415 483e 35b3 3cbf ed9c d93f 2a43 b13e
00000380: 303b 14be ec3a 233f 4605 90be 5939 aabf
00000390: 695f 27bf 3223 dc3f 2c01 76bf 5d33 23bf
000003a0: 0510 63bf f0b9 563f 1192 933f aa6b e1bf
000003b0: 73b3 8dbf 7ed2 dbbf 7f6c c43f 4c1f 52bb
000003c0: 225d b83f 357f e2bd 1dad 133f f93b 2dbe
000003d0: a326 983f 9a49 21be ab86 3abd 5b02 263f
000003e0: 0de9 5ebf 7b37 143e cd90 f33f f5e1 c73e
000003f0: bb6d 073d 6700 83bf 67c7 3b3f 7211 8f3f

weight f4 [64, 64]
0.18373288 0.13974684 -0.20160705 -0.14565162 0.121955745 -0.046123605 -0.03225884 0.13003439
-0.24262096 0.061481528 0.14266026 0.19705789 0.20170358 0.1839362 -0.042243075 -0.1213462
0.11767967 0.15207866 -0.11282769 0.0075767534 -0.061572842 -0.148964 0.15292016 0.07720095
0.15375008 0.10733707 0.13770938 0.0405281 -0.025858102 0.048039876 0.030637246 -0.031359434
0.2078779 -0.07630602 -0.12444189 -0.019583885 -0.04624907 -0.24320586 0.09684681 -0.18734902
0.09938814 -0.05812977 0.18505953 0.0925333 0.14783438 -0.0101246 0.020751325 0.0915157
0.12186041 0.08341763 -0.10254177 -0.14151695 -0.13795695 -0.17361042 -0.051328026 0.2112888
-0.15414976 -0.21584645 0.0045233467 0.050761588 -0.07099842 -0.18673277 0.030288389 -0.20437202
-0.096821226 -0.033484068 0.154177 -0.019558737 0.0044009024 -0.03700171 0.045164943 -0.0631918
-0.024552304 -0.12970413 -0.08105739 -0.122157365 -0.048925884 -0.0332634 0.18477225 0.006320534
-0.113155626 -0.025692264 0.13703705 -0.019030131 0.04895121 0.08941666 -0.12998009 0.09344756
-0.102000676 -0.104524486 0.08154775 -0.093151085 -0.019754866 -0.0983035 -0.009268499 -0.040833205
0.053185962 -0.09857033 -0.003531059 0.13897027 0.048248358 0.014355118 -0.16607657 0.103466764
0.036846165 0.049712915 -0.13794364 0.04033662 -0.18911546 0.024469417 0.027844159 -0.12115395
0.050708182 -0.034927085 -0.0022957174 -0.036545068 -0.028531237 0.058137983 0.07391118 -0.12163804
0.07639391 0.010974248 0.0174445 -0.12816924 -0.0883892 0.13381615 0.040625405 0.14952481
0.0075852857 0.036583714 -0.07462881 -0.070519686 0.08559592 -0.18917727 0.035662442 0.116494134
-0.18910034 0.07413815 0.09356093 0.08584014 0.19514711 -0.02358718 -0.10364769 -0.054908026
-0.08903263 0.08914477 0.04812214 0.15012527 -0.12206485 -0.15117079 -0.011309759 -0.027207643
-0.0007388932 -0.06276056 -0.1469211 -0.10099412 -0.10626824 0.054440368 0.14331327 -0.03473472
0.16584493 -0.058012396 0.07849102 -0.20252739 -0.19413145 -0.051649217 0.13465193 -0.18350334
0.008838213 -0.17238136 0.174562 0.024450622 0.041588843 -0.037494067 0.122555345 0.20175342
0.06730413 0.12584177 0.080412775 -0.081796184 -0.03458386 0.024823617 -0.06277623 -0.048569158
-0.07846054 0.058287036 0.086016655 0.16434216 0.13995634 -0.07309641 0.12528925 -0.09741099
0.09196884 0.25124767 -0.104030475 -0.30099702 0.34093824 -0.19759433 -0.20436597 0.23556119
-0.15212595 0.11176484 0.19551806 0.19911927 0.10351992 0.06777765 -0.13559237 0.0037183997
0.23701882 0.26362506 -0.106961146 0.05588269 0.27274278 -0.07160846 0.19555722 0.22337416
0.33901495 0.20824865 0.23955926 0.2312173 -0.21558534 0.05099645 0.17769463 0.07827262
0.06538972 -0.18168363 -0.022240965 -0.3289182 -0.17573233 -0.32304603 0.113635376 -0.18178618
0.02892025 -0.11112763 0.31784007 0.30666566 0.14982842 -0.08403135 0.18995322 0.32700193
0.14348601 0.08212049 -0.10962984 -0.15062658 0.02364147 -0.29358402 -0.14524499 0.230368
-0.266308 -0.25472948 0.027620452 0.24843498 0.118936524 -0.060189642 0.27347088 -0.241524
00000000: 7924 3c3e cc19 0f3e 1472 4ebe b325 15be
00000010: efc3 f93d 1bec 3cbd d821 04bd bc27 053e
00000020: a171 78be 0ed4 7b3d 8815 123e 8bc9 493e
00000030: 628b 4e3e c559 3c3e 1307 2dbd 5b84 f8bd
00000040: 0a02 f13d 82ba 1b3e 3412 e7bd 6a46 f83b
00000050: ce33 7cbd 058a 18be 1a97 1c3e 881b 9e3d
00000060: a970 1d3e 8ad3 db3d b003 0d3e cb00 263d
00000070: 5fd4 d3bc 76c5 443d f6fa fa3c c072 00bd
00000080: f2dd 543e 5546 9cbd 64db febd 626e a0bc
00000090: aa6f 3dbd f50a 79be 9f57 c63d 6cd8 3fbe
000000a0: 028c cb3d 7b19 6ebd 3f80 3d3e 1982 bd3d
000000b0: e561 173e a6e1 25bc affe a93c 956c bb3d
000000c0: f391 f93d ddd6 aa3d 6b01 d2bd d2e9 10be
000000d0: 9644 0dbe eec6 31be 563d 52bd 175c 583e
000000e0: 6fd9 1dbe da06 5dbe 9538 943b 62eb 4f3d
000000f0: 9f67 91bd e036 3fbe 5b1f f83c e646 51be
00000100: 354a c6bd 9726 09bd 93e0 1d3e a539 a0bc
00000110: 7235 903b 1b8f 17bd e0fe 383d b46a 81bd
00000120: ea21 c9bc 29d1 04be 6b01 a6bd a42d fabd
00000130: 8266 48bd 343f 08bd f034 3d3e 7b1c cf3b
00000140: 23be e7bd 9578 d2bc 7153 0c3e 14e5 9bbc
00000150: 1081 483d 1520 b73d 8019 05be 6f61 bf3d
00000160: bbe5 d0bd ef10 d6bd 8202 a73d ffc5 bebd
00000170: f5d4 a1bc 5853 c9bd e7da 17bc b840 27bd
00000180: 86d9 593d 3edf c9bd 5769 67bb 394e 0e3e
00000190: 12a0 453d bb31 6b3c fa0f 2abe 62e6 d33d
000001a0: 01ec 163d c59f 4b3d 1941 0dbe 0338 253d
000001b0: 7ca7 41be 1674 c83c 6f19 e43c 901f f8bd
000001c0: 62b3 4f3d b40f 0fbd bf73 16bb 48b0 15bd
000001d0: 57ba e9bc 1822 6e3d bf5e 973d 5d1d f9bd
000001e0: 6974 9c3d 55cd 333c c5e7 8e3c cc3e 03be
000001f0: 6605 b5bd 1a07 093e d366 263d 081d 193e
00000200: fd8d f83b ced8 153d fdd6 98bd a06c 90bd
00000210: ea4c af3d b0b7 41be c812 123d 7a94 ee3d
00000220: 85a3 41be bed5 973d df9c bf3d f5cc af3d
00000230: a5d4 473e e739 c1bc 3d45 d4bd 3de7 60bd
00000240: bd56 b6bd 8891 b63d b91b 453d 70ba 193e
00000250: 23fd f9bd 84cc 1abe 914c 39bc 90e2 debc
00000260: 49b2 41ba 9c88 80bd 7c72 16be 01d6 cebd
00000270: 2aa3 d9bd ddfc 5e3d b7c0 123e fe45 0ebd
00000280: 41d3 293e 689e 6dbd e6bf a03d 5763 4fbe
00000290: 65ca 46be 218e 53bd 32e2 093e 4de8 3bbe
000002a0: 27ce 103c bd84 30be 62c0 323e ac4c c83c
000002b0: 1059 2a3d 6193 19bd 4cfe fa3d 7398 4e3e
000002c0: bfd6 893d aadc 003e 74af a43d c284 a7bd
000002d0: cea7 0dbd e65a cb3c d390 80bd 74f0 46bd
000002e0: ebaf a0bd 63be 6e3d 8029 b03d 5049 283e
000002f0: b750 0f3e 92b3 95bd d34b 003e 6a7f c7bd
00000300: 295a bc3d 89a3 803e ee0d d5bd 481c 9abe
00000310: 758f ae3e 2b56 4abe 5045 51be f436 713e
00000320: e8c6 1bbe f7e4 e43d e335 483e ece5 4b3e
00000330: 4002 d43d 02cf 8a3d bad8 0abe 65b0 733b
00000340: 10b5 723e ddf9 863e 720e dbbd 3fe5 643d
00000350: f1a4 8b3e 75a7 92bd 2740 483e 32bc 643e
00000360: 5e93 ad3e 223f 553e 064f 753e 3ac4 6c3e
00000370: 67c2 5cbe a7e1 503d 95f5 353e 654d a03d
00000380: 0ceb 853d 460b 3abe af32 b6bc f767 a8be
00000390: 2df3 33be 4a66 a5be aab9 e83d 2826 3abe
000003a0: 29ea ec3c e296 e3bd efbb a23e 4803 9d3e
000003b0: 9f6c 193e a118 acbd 1983 423e cc6c a73e
000003c0: ffed 123e ca2e a83d 9c85 e0bd db3d 1abe
000003d0: c2ab c13c a550 96be 1abb 14be 97e5 6b3e
000003e0: 8659 88be e76b 82be 4944 e23c bd65 7e3e
000003f0: fe94 f33d 6a89 76bd 6004 8c3e 1152 77be

weight f4 [64, 64]
0.05844065 -0.13885136 -0.17895724 -0.18924919 0.07887198 -0.07585929 -0.18489717 -0.004338187
-0.11976313 0.061980266 -0.015999503 0.15099339 -0.23439893 0.018558161 -0.17867763 -0.13483049
0.23173907 0.12172068 0.081082575 0.059399273 0.13052118 -0.06572372 0.027717184 -0.03663653
0.049798146 0.01744638 0.084431805 0.031831488 0.07079897 0.031243952 -0.14492254 0.016410109
-0.022614216 -0.06329503 -0.24996072 -0.062104594 -0.06943966 -0.067522176 -0.028174676 -0.14423539
-0.10725388 -0.14927836 0.0521 0.13071644 0.034122534 -0.055579413 0.10187515 -0.12327392
0.10732058 0.11517651 -0.16591805 -0.1267235 -0.123250425 -0.13870916 -0.12331357 -0.024238434
-0.0026164958 0.02201098 -0.15893362 -0.06867818 0.23471376 -0.057959527 0.008972072 0.040401287
-0.047044877 0.06301527 -0.07295311 0.048161466 0.17406993 -0.0325126 -0.0078896135 0.08385213
-0.13847697 0.01995727 0.02292139 0.0697043 0.10385562 0.080478646 -0.03249886 0.046265144
0.020025449 -0.04763089 0.030292312 -0.09578 0.20915277 0.038047418 0.14743058 -0.020171814
0.050095145 0.119576156 -0.06281003 0.14771245 0.042922635 0.07282989 0.025532098 0.09184362
-0.06304143 0.058100462 0.10432719 -0.06151003 -0.11230568 -0.050171915 0.17949489 0.06997116
-0.083588876 -0.21399273 -0.050413195 -0.1138951 0.13222714 -0.07503905 0.13531297 0.044252254
-0.14436033 0.023720881 0.06479014 0.008710193 0.07171755 0.002966366 -0.038640533 -0.08816898
0.034818094 -0.12300268 0.08937703 0.039529637 0.21254632 -0.10302687 0.021653773 -0.09705311
-0.06632778 -0.011311526 0.14754829 0.17231989 -0.011864569 0.0965429 0.13127713 -0.11112061
0.14642124 -0.17047074 -0.008050573 -0.10591943 -0.0033069265 -0.12060888 0.06732799 0.08775763
-0.060737476 -0.04101917 0.09919964 -0.06154095 -0.039574545 -0.06724007 -0.13301161 -0.17221162
-0.09699662 0.035622053 -0.09389884 -0.031284545 0.015947048 -0.16246805 -0.11314709 0.062798
0.077250585 -0.036456376 0.0558825 0.07362902 0.008572688 0.02242565 -0.002549075 0.053472046
-0.17207785 0.07277937 -0.11931351 -0.14315651 -0.109261416 0.040793974 -0.018363193 -0.10684078
0.10386724 0.011653614 0.03842462 -0.075266175 0.14980462 0.06275197 0.071868636 0.014888401
-0.042202577 0.04004712 0.030579953 -0.067700066 -0.15507714 0.11809248 -0.18630628 0.011078145
0.04772339 0.119859815 0.0101361815 -0.065723106 -0.16548057 0.08940916 0.11073015 0.052286938
-0.08636433 -0.0346315 0.081258036 -0.015698323 0.055188805 -0.024304489 0.052044377 -0.06423817
0.0036793074 -0.100841194 0.02398308 0.059471227 -0.079413846 -0.06551101 -0.14058676 0.09513983
-0.05635357 0.115756765 0.03341156 -0.064005315 0.017255485 -0.085970104 0.05544298 0.058942325
0.0020644164 0.11718813 0.00095463713 -0.04818846 0.13466062 0.16094223 -0.049794067 -0.09202792
-0.00014402496 0.14726192 -0.00053034944 -0.018647438 -0.044199105 -0.040327378 -0.14163469 -0.09060984
0.17679387 -0.10639977 0.058777522 -0.044615645 0.078797095 0.0051976615 0.07172951 0.059221543
0.10831007 0.10521469 0.19218245 -0.029611187 -0.085114606 0.0822629 -0.05306384 -0.04861196
00000000: 775f 6f3d 0d2f 0ebe 9140 37be 8aca 41be
00000010: a287 a13d 1e5c 9bbd af55 3dbe 5a27 8ebb
00000020: 5f46 f5bd 05df 7d3d 6411 83bc 039e 1a3e
00000030: 4606 70be 4907 983c 45f7 36be 0111 0abe
00000040: 024d 6d3e b148 f93d 9f0e a63d a74c 733d
00000050: 58a7 053e 289a 86bd 260f e33c 3010 16bd
00000060: 24f9 4b3d b6eb 8e3c 95ea ac3d bc61 023d
00000070: 0dff 903d 51f3 ff3c 9366 14be 7e6e 863c
00000080: 7341 b9bc d3a0 81bd b4f5 7fbe 6361 7ebd
00000090: 6136 8ebd 1149 8abd 94ce e6bc 71b2 13be
000000a0: eca7 dbbd 6ddc 18be cf66 553d 88da 053e
000000b0: 12c4 0b3d 3da7 63bd eba3 d03d 0977 fcbd
000000c0: e4ca db3d a9e1 eb3d 6ce6 29be cec3 01be
000000d0: b86a fcbd c609 0ebe d38b fcbd ae8f c6bc
000000e0: 8479 2bbb 5f50 b43c 7fbf 22be 25a7 8cbd
000000f0: ce58 703e f866 6dbd 99ff 123c d27b 253d
00000100: 21b2 40bd 260e 813d 7168 95bd f544 453d
00000110: 633f 323e ef2b 05bd 7043 01bc aaba ab3d
00000120: e8cc 0dbe 6e7d a33c a4c5 bb3c 21c1 8e3d
00000130: 41b2 d43d fdd1 a43d 861d 05bd 8580 3d3d
00000140: 690c a43c 9c18 43bd 9527 f83c 4e28 c4bd
00000150: 252c 563e 9cd7 1b3d 0bf8 163e 5c3f a5bc
00000160: 9130 4d3d 58e4 f43d 8ca2 80bd ef41 173e
00000170: a5cf 2f3d d627 953d b128 d13c 8218 bc3d
00000180: de1b 81bd c0fa 6d3d 7ea9 d53d f1f1 7bbd
00000190: 8500 e6bd 1181 4dbd 82cd 373e 0a4d 8f3d
000001a0: a530 abbd e920 5bbe 117e 4ebd d641 e9bd
000001b0: 8d66 073e 13ae 99bd 7c8f 0a3e da41 353d
000001c0: 32d3 13be 4b52 c23c b1b0 843d 33b5 0e3c
000001d0: a7e0 923d 5d67 423b 8945 1ebd f091 b4bd
000001e0: 6b9d 0e3d d4e8 fbbd 4e0b b73d d4e9 213d
000001f0: bea5 593e c0ff d2bd 4163 b13c c8c3 c6bd
00000200: dcd6 87bd fb53 39bc e616 173e a074 303e
00000210: 9c63 42bc 49b8 c53d 836d 063e 3493 e3bd
00000220: 73ef 153e e28f 2ebe 8de6 03bc 49ec d8bd
00000230: 05b9 58bb ca01 f7bd 42e3 893d 46ba b33d
00000240: dcc7 78bd b803 28bd 2e29 cb3d 5d12 7cbd
00000250: eb18 22bd 29b5 89bd 3234 08be 3e58 30be
00000260: 2aa6 c6bd 6ee8 113d 094e c0bd 3924 00bd
00000270: 62a3 823c 065e 26be a9b9 e7bd 3d9c 803d
00000280: 8e35 9e3d 4853 15bd 0ce5 643d d0ca 963d
00000290: 7674 0c3c ffb5 b73c 620e 27bb 8105 5b3d
000002a0: 2d35 30be 5a0d 953d a45a f4bd 9f97 12be
000002b0: 73c4 dfbd 9517 273d 686e 96bc 57cf dabd
000002c0: 59b8 d43d cdee 3e3c 2263 1d3d 2725 9abd
000002d0: 6266 193e 1b84 803d dd2f 933d 7bee 733c
000002e0: 9cdc 2cbd 7308 243d cf82 fa3c 55a6 8abd
000002f0: 8bcc 1ebe 78da f13d 13c7 3ebe 1c81 353c
00000300: 9a79 433d 1079 f53d 3a12 263c d699 86bd
00000310: bd73 29be 261c b73d 7dc6 e23d d42a 563d
00000320: c8df b0bd c2d9 0dbd 9d6a a63d c599 80bc
00000330: a80d 623d 351a c7bc 7c2c 553d 4d8f 83bd
00000340: 8920 713b d485 cebd 2a78 c43c 1a98 733d
00000350: baa3 a2bd a32a 86bd faf5 0fbe acd8 c23d
00000360: 00d3 66bd e211 ed3d 8fda 083d 3815 83bd
00000370: 605b 8d3c 1811 b0bd 2e18 633d 826d 713d
00000380: 294b 073b 5500 f03d 9d40 7a3a 4361 45bd
00000390: 79e4 093e 0ace 243e ddf4 4bbd 2279 bcbd
000003a0: 6805 17b9 d4cb 163e 2607 0bba 83c2 98bc
000003b0: 1f0a 35bd 522e 25bd af08 11be a791 b9bd
000003c0: 7409 353e 1fe8 d9bd b3c0 703d e5be 36bd
000003d0: 5f60 a13d 2551 aa3b ece6 923d 4a92 723d
000003e0: acd1 dd3d cd7a d73d 7acb 443e 2993 f2bc
000003f0: 9150 aebd 7479 a83d 7859 59bd 561d 47bd

weight f4 [64, 64]
-0.06864938 0.009089442 -0.114842474 -0.08665386 0.15812255 -0.14542995 0.016337382 -0.11239009
-0.10707115 -0.04891402 -0.06369328 -0.05496126 0.00021273337 -0.038441487 -0.13557182 -0.07666986
0.044262137 -0.07758675 -0.040376905 0.13599236 -0.05192975 0.0017183683 -0.080849156 0.020828234
-0.013310186 0.053024393 -0.09768456 0.13944013 -0.012232296 0.055131905 0.013832903 -0.07635677
0.12458731 0.14396776 0.024051132 -0.10919125 0.012794568 -0.025323221 0.1105358 -0.14418812
-0.007530243 -0.13119501 -0.08360153 0.08737132 0.05932011 0.07420733 0.009043276 0.0008941635
0.12517095 0.12867509 0.05949517 0.038954265 -0.13686883 0.029333657 -0.061769094 0.102255076
-0.072888084 -0.09046229 -0.030267552 -0.11060079 0.0025615708 -0.034833148 0.15817161 -0.09415077
-0.0991184 0.034739 0.15983367 0.03376547 -0.03974893 0.048729524 -0.11405015 0.097941495
0.033367846 -0.039244585 -0.081901394 -0.028985688 -0.09198174 0.06742151 0.081843965 -0.15073705
0.0925454 -0.03152826 -0.084365785 -0.0090619465 -0.04550105 -0.031126412 0.09507223 0.041640297
0.15028645 0.04995023 -0.119279124 0.18991531 -0.11594924 0.05044118 0.03505622 0.07064494
-0.04252965 -0.11068051 0.051610295 -0.0783375 0.04480907 -0.0013078088 0.06817544 -0.062450655
0.086635835 -0.022731325 -0.0122091565 -0.06582233 -0.032008562 0.0878235 -0.060806297 -0.08631057
0.025639186 -0.046013415 0.021241786 0.08508812 0.034235425 0.10618519 -0.044427905 0.022162927
-0.08244078 -0.11235878 0.026367594 0.03933584 0.18325065 0.12005299 0.067925654 -0.106640555
-0.07663835 0.029630177 -0.036589842 0.014922232 -0.0008521373 -0.08363354 -0.094188415 0.08218146
-0.0106113255 -0.034902338 0.035803873 -0.048466444 -0.09830114 0.0699398 -0.08986709 -0.11137439
-0.00785937 0.09835091 0.0744199 -0.009781392 0.070262775 -0.04847419 0.04477326 0.10925092
0.022870174 0.17186888 0.0916735 0.07738381 -0.032870103 0.08087777 0.08424307 -0.07167359
0.08523937 -0.15430616 -0.11802844 0.005877904 -0.02224875 0.07946981 0.0803734 0.030725528
0.12524036 -0.06887528 0.104128055 0.05990201 0.02255455 0.06677541 -0.11786916 -0.053232282
0.12566774 0.029292183 -0.053049464 -0.13834257 -0.15919057 0.0023466407 -0.04650417 0.13442813
-0.01877461 -0.0691695 -0.06797107 -0.1153997 -0.03400577 0.04625243 0.07662267 -0.08945739
0.08171904 -0.049569424 -0.021739118 -0.14343299 0.083835915 0.13285357 0.16953835 0.12877774
-0.058812767 -0.07159863 0.043234702 -0.02011322 0.062759355 0.05750089 0.0033618805 -0.011730933
-0.18859653 -0.13123147 -0.123304464 0.07040525 -0.16197231 0.034295492 -0.076217644 0.015768081
-0.056838095 0.08936821 -0.09144999 -0.055096254 0.058917873 -0.031199558 -0.02494413 0.0014010712
-0.090462126 0.05821933 -0.0066420026 -0.16030566 -0.04166455 -0.07739995 -0.1491168 -0.12855357
0.042787183 0.015404983 -0.011079468 -0.019407678 -0.021778459 0.07928878 0.10389327 0.13423707
-0.020696627 0.08241827 -0.052827902 0.09819226 0.10365436 0.07183914 0.16509666 0.041684013
0.019388214 -0.09504804 0.025110524 0.16122818 -0.0066836923 -0.10510453 -0.13619532 0.08765153
00000000: 0c98 8cbd e2eb 143c 8832 ebbd 9477 b1bd
00000010: e1ea 213e 97eb 14be f9d5 853c c72c e6bd
00000020: 1e48 dbbd 115a 48bd 9f71 82bd 0f1f 61bd
00000030: 2e11 5f39 d274 1dbd 57d3 0abe 1605 9dbd
00000040: 374c 353d cde5 9ebd 4162 25bd 9541 0b3e
00000050: 4ab4 54bd df3a e13a 3e94 a5bd f99f aa3c
00000060: f712 5abc 1b30 593d d80e c8bd 65c9 0e3e
00000070: f869 48bc fed1 613d 66a3 623c f060 9cbd
00000080: a227 ff3d 496c 133e e106 c53c a99f dfbd
00000090: 4fa0 513c a572 cfbc 9860 e23d 0da6 13be
000000a0: 42c0 f6bb fc57 06be 4737 abbd bcef b23d
000000b0: a5f9 723d 03fa 973d 402a 143c 4c66 6a3a
000000c0: d02c 003e 67c3 033e 35b1 733d 828e 1f3d
000000d0: 5827 0cbe 234d f03c 9701 7dbd 1c6b d13d
000000e0: 5946 95bd 4b44 b9bd a8f3 f7bc ab82 e2bd
000000f0: 07e0 273b 34ad 0ebd bdf7 213e 1ed2 c0bd
00000100: 96fe cabd 7b4a 0e3d 70ab 233e a94d 0a3d
00000110: c6cf 22bd 9c98 473d 2093 e9bd 8d95 c83d
00000120: b9ac 083d eebe 20bd ebbb a7bd 6573 edbc
00000130: ec60 bcbd 4a14 8a3d cf9d a73d d05a 1abe
00000140: 7188 bd3d c723 01bd f8c7 acbd 8f78 14bc
00000150: 4f5f 3abd d1fc febc 3bb5 c23d 048f 2a3d
00000160: b1e4 193e 9d98 4c3d 9d48 f4bd 2979 423e
00000170: cc76 edbd 699b 4e3d 1c97 0f3d 4bae 903d
00000180: 9233 2ebd 77ac e2bd 5165 533d 696f a0bd
00000190: b789 373d c86a abba 919f 8b3d 42cc 7fbd
000001a0: 216e b13d 0b37 babc ea08 48bc dccd 86bd
000001b0: 691b 03bd cfdc b33d 0610 79bd 99c3 b0bd
000001c0: 4509 d23c 9078 3cbd 4103 ae3c ae42 ae3d
000001d0: 723a 0c3d 9f77 d93d 09fa 35bd 078f b53c
000001e0: b6d6 a8bd 5c1c e6bd da00 d83c 9e1e 213d
000001f0: 0fa6 3b3e 58de f53d 9b1c 8b3d 5d66 dabd
00000200: 91f4 9cbd fcba f23c 3bdf 15bd 617c 743c
00000210: f761 5fba 1048 abbd dbe5 c0bd c14e a83d
00000220: 20db 2dbc c1f5 0ebd 15a7 123d c084 46bd
00000230: 1c52 c9bd 993c 8f3d 3d0c b8bd 4218 e4bd
00000240: 96c4 00bc 346c c93d 7669 983d 2242 20bc
00000250: eee5 8f3d df8c 46bd 2a64 373d f2be df3d
00000260: 3b5a bb3c 65fe 2f3e 51bf bb3d 677b 9e3d
00000270: cda2 06bd 3fa3 a53d a187 ac3d 9ac9 92bd
00000280: fb91 ae3d 6f02 1ebe e5b8 f1bd 6f9b c03b
00000290: 0343 b6bc 11c1 a23d cf9a a43d 1ab4 fb3c
000002a0: 023f 003e 7c0e 8dbd 1741 d53d cf5b 753d
000002b0: 52c4 b83c 8cc1 883d 6365 f1bd 180a 5abd
000002c0: 0baf 003e 29f6 ef3c 654a 59bd ada9 0dbe
000002d0: da02 23be 19ca 193b 287b 3ebd 87a7 093e
000002e0: 36cd 99bc bda8 8dbd 6b34 8bbd ae56 ecbd
000002f0: a249 0bbd 3073 3d3d 59ec 9c3d 7035 b7bd
00000300: 505c a73d 4f09 4bbd 3c16 b2bc 19e0 12be
00000310: 2ab2 ab3d c40a 083e 769b 2d3e 50de 033e
00000320: a8e5 70bd 4da2 92bd df16 313d 7bc4 a4bc
00000330: fa87 803d 0e86 6b3d ff52 5c3b 1933 40bc
00000340: 731f 41be 8b61 06be 0d87 fcbd a130 903d
00000350: 12dc 25be 6e79 0c3d ff17 9cbd 102c 813c
00000360: 10cf 68bd ae06 b73d 224a bbbd 9cac 61bd
00000370: de53 713d 3796 ffbc a257 ccbc 26a4 b73a
00000380: 3544 b9bd 6477 6e3d 28a5 d9bb 2b27 24be
00000390: 72a8 2abd dd83 9ebd 13b2 18be 8ca3 03be
000003a0: 9d41 2f3d 2f65 7c3c a886 35bc dafc 9ebc
000003b0: bd68 b2bc 2862 a23d ffc5 d43d 7175 093e
000003c0: f98b a9bc e9ca a83d 1262 58bd 0619 c93d
000003d0: bd48 d43d 6620 933d 190f 293e dbbc 2a3d
000003e0: 08d4 9e3c 8ca8 c2bd 96b4 cd3c 0019 253e
000003f0: e002 dbbb 0b41 d7bd c976 0bbe a582 b33d

freqs f4 [8]
0.9326993 2.178152 3.179112 4.064377 5.2799516 6.269493 7.363297 8.485826
00000000: 62c5 6e3f d866 0b40 9276 4b40 600f 8240
00000010: 5df5 a840 b09f c840 21a0 eb40 f1c5 0741

weight f4 [64, 8]
0.23046112 0.09241296 0.039315462 0.20895997 -0.19714639 0.08790385 0.052522317 0.025667015
-0.35497934 -0.34041765 -0.11378446 -0.23228055 -0.31022796 -0.1028113 -0.019122705 0.07979522
-0.1149225 -0.15762262 -0.14177352 0.19846845 0.087608844 0.37762603 0.13466851 0.25430638
-0.11238994 -0.19963701 0.12658659 0.24981157 -0.09786788 0.07889135 -0.28342566 0.14687972
-0.41827375 -0.10404662 -0.12578206 -0.13655093 0.019007873 -0.16866608 0.3720449 -0.14942029
0.18966588 -0.30097434 0.21307592 0.2538529 -0.26784402 -0.1188484 -0.08708754 -0.059717894
0.08927118 0.31898975 -0.05787301 0.08618501 -0.25815722 -0.19054572 -0.29154506 0.018987058
-0.011230632 0.35134542 0.19554538 -0.018614823 -0.122295715 0.037650477 -0.17358498 0.05968498
-0.12525575 -0.17072988 0.03836953 0.049315907 -0.054894608 0.015010869 -0.30268213 -0.123263985
-0.4564262 0.33370507 0.33546847 -0.31294557 -0.2272716 -0.27782434 0.20920995 0.07682877
-0.46452048 -0.11082556 0.2990158 -0.032929603 -0.28428566 0.15304717 0.33648872 0.34215873
0.1976276 -0.11921069 0.0034357957 0.30740154 0.102586955 -0.29358342 0.17803484 0.09777705
-0.4322969 -0.22696134 0.26960525 0.27053782 -0.30229136 0.12169627 0.2329518 0.06784773
0.26889825 0.12988818 0.13549349 0.1502438 -0.07398506 0.021503074 -0.12555778 -0.08682661
0.21332175 -0.16888832 0.09507241 0.30926895 0.062467325 0.31190282 -0.04425224 -0.08501171
0.4363529 -0.17532514 0.3550603 0.35380805 -0.29581743 -0.13429382 0.2651117 -0.035084724
-0.40543264 0.04382173 -0.43291873 -0.011508407 0.051396776 -0.115630254 -0.053650934 0.14492935
0.10331462 -0.05074724 -0.1638038 0.036820017 -0.034140643 -0.06245927 -0.108990654 0.0698186
-0.4257588 0.1268396 -0.17341985 0.33073887 0.011125996 0.17748402 0.06775089 -0.1213888
0.10938372 -0.28803748 0.08338035 0.33368084 -0.09506861 0.35762307 -0.26713547 0.15627684
0.27299723 -0.14096771 -0.36258 -0.28455 0.16774799 0.35477018 -0.2850378 -0.18580793
0.24883263 -0.05124144 -0.32416075 -0.07189315 0.10897759 -0.3726358 -0.17303218 0.14901185
0.1163129 -0.13643835 0.40562147 0.057382386 0.20161487 -0.028536145 -0.15333198 0.24742532
-0.47529384 0.097838625 -0.19714254 -0.043755103 0.2679273 -0.33443382 0.03460829 -0.08145891
0.3940973 -0.23275106 -0.088803254 -0.20529476 0.26570767 0.26679662 -0.026547622 0.08245237
0.53343636 -0.24007598 0.09380189 0.35535252 -0.19947135 -0.26991162 0.2875844 0.29029134
0.24622485 0.2703572 0.15637136 -0.20162944 -0.32410392 0.02057744 -0.1810011 0.3482167
-0.023120584 0.20919935 -0.017475989 -0.07728165 -0.068414 -0.28877026 -0.33381778 -0.10822892
-0.4442594 -0.30782068 0.18057558 -0.1494956 0.026031552 -0.02095917 -0.24734917 -0.13485315
-0.41115505 0.05176762 0.28130725 -0.009225256 0.09764342 0.20499055 0.18901485 0.052905355
-0.17734389 0.14595824 0.017685352 0.30602568 -0.08123772 0.2816387 0.18457754 0.3238609
0.18747352 0.04727844 -0.05674693 0.19252686 0.25370228 0.23985615 -0.35632727 0.018170998
00000000: 00fe 6b3e 0243 bd3d 4009 213d 9af9 553e
00000010: bee0 49be ef06 b43d a421 573d a243 d23c
00000020: dabf b5be 394b aebe d407 e9bd f4da 6dbe
00000030: 33d6 9ebe bb8e d2bd 38a7 9cbc ad6b a33d
00000040: 7d5c ebbd d367 21be 142d 11be 503b 4b3e
00000050: 446c b33d 3358 c13e 8be6 093e 7234 823e
00000060: b22c e6bd a56d 4cbe ea9f 013e 9bce 7f3e
00000070: f46e c8bd ca91 a13d 2b1d 91be a367 163e
00000080: fa27 d6be 6516 d5bd 03cd 00be 02d4 0bbe
00000090: 66b6 9b3c cdb6 2cbe ab7c be3e a201 19be
000000a0: c637 423e 4f19 9abe 9330 5a3e 02f9 813e
000000b0: da22 89be ca66 f3bd f45a b2bd c09a 74bd
000000c0: cfd3 b63d a052 a33e 400c 6dbd c481 b03d
000000d0: 2f2d 84be 6b1e 43be 6545 95be bf8a 9b3c
000000e0: af00 38bc 8ce3 b33e 0c3d 483e 1d7e 98bc
000000f0: 2d76 fabd 6337 1a3d 43c0 31be 3d78 743d
00000100: 0b43 00be d0d3 2ebe 5e29 1d3d 7aff 493d
00000110: 2bd9 60bd 26f0 753c 27f9 9abe d471 fcbd
00000120: b2b0 e9be 64db aa3e 86c2 ab3e 673a a0be
00000130: e3b9 68be fe3e 8ebe 223b 563e 6758 9d3d
00000140: a1d5 edbe 83f8 e2bd 9918 993e 31e1 06bd
00000150: e48d 91be 66b8 1c3e 4048 ac3e 6e2f af3e
00000160: e45e 4a3e bc24 f4bd 162b 613b bc63 9d3e
00000170: 1c19 d23d 9150 96be c44e 363e 563f c83d
00000180: 0556 ddbe 8e68 68be b309 8a3e ef83 8a3e
00000190: efc5 9abe e53b f93d eb8a 6e3e c0f3 8a3d
000001a0: 08ad 893e 6801 053e cebe 0a3e 83d9 193e
000001b0: 7b85 97bd 3727 b03c 3892 00be 26d2 b1bd
000001c0: 0471 5a3e 0ff1 2cbe 53b5 c23d 8058 9e3e
000001d0: bddd 7f3d bab1 9f3e d641 35bd 9f1a aebd
000001e0: a669 df3e 6f88 33be 77ca b53e 5426 b53e
000001f0: 6275 97be 5284 09be b9bc 873e 00b5 0fbd
00000200: de94 cfbe 6a7e 333d 86a7 ddbe c28d 3cbc
00000210: 6d85 523d 8ecf ecbd 15c1 5bbd 5c68 143e
00000220: 9e96 d33d 57dc 4fbd 2fbc 27be 96d0 163d
00000230: 0fd7 0bbd 4bd5 7fbd 7e36 dfbd 0efd 8e3d
00000240: 0ffd d9be 3de2 013e f994 31be 9b56 a93e
00000250: cf49 363c 5fbe 353e fbc0 8a3d b19a f8bd
00000260: 9204 e03d a679 93be 51c3 aa3d 37d8 aa3e
00000270: 55b3 c2bd 5f1a b73e fbc5 88be 0907 203e
00000280: 4bc6 8b3e d759 10be 16a4 b9be 8ab0 91be
00000290: 21c6 2b3e 70a4 b53e 79f0 91be 6f44 3ebe
000002a0: fbcd 7e3e 8be2 51bd 66f8 a5be b73c 93bd
000002b0: a52f df3d 1fca bebe 592f 31be 9096 183e
000002c0: 7535 ee3d 7fb6 0bbe 9ead cf3e cb09 6b3d
000002d0: 2174 4e3e a2c4 e9bc 0f03 1dbe 105d 7d3e
000002e0: b759 f3be 9e5f c83d bcdf 49be 8d38 33bd
000002f0: c42d 893e e93a abbe 6cc1 0d3d eed3 a6bd
00000300: 1fc7 c93e 4b56 6ebe 7bde b5bd ca38 52be
00000310: d60a 883e 9199 883e 667a d9bc cadc a83d
00000320: 498f 083f 7ad6 75be 351b c03d c4f0 b53e
00000330: 3842 4cbe db31 8abe 433e 933e 11a1 943e
00000340: 5e22 7c3e 426c 8a3e d01f 203e f377 4ebe
00000350: f3f0 a5be 0592 a83c 5a58 39be 7649 b23e
00000360: 6167 bdbc 5b38 563e ce29 8fbc d745 9ebd
00000370: a41c 8cbd b2d9 93be 2aea aabe 20a7 ddbd
00000380: f875 e3be ac9a 9dbe cee8 383e 6015 19be
00000390: 1f40 d53c 91b2 abbc 1a49 7dbe f216 0abe
000003a0: ea82 d2be 490a 543d 8107 903e 8725 17bc
000003b0: 46f9 c73d 0be9 513e 1c8d 413e 49b3 583d
000003c0: a399 35be 1476 153e dfe0 903c 66af 9c3e
000003d0: f65f a6bd f332 903e e501 3d3e 19d1 a53e
000003e0: 0ff9 3f3e 0aa7 413d 786f 68bd c325 453e
000003f0: 44e5 813e da9c 753e 8770 b6be 58db 943c

weight f4 [64, 64]
0.12999143 -0.13454211 -0.12662986 -0.07849375 0.01992532 0.056189783 -0.07976175 0.04135855
0.015977036 -0.079741225 0.018054483 0.10253117 0.022045804 0.022353806 -0.071595766 -0.034174863
-0.015758961 -0.09577532 0.03515999 -0.1383179 -0.08190718 0.108437 0.064961694 -0.072057486
-0.0040974063 0.01800543 0.005716853 0.028950412 -0.2089808 -0.13816832 -0.069576025 -0.0054518143
0.077707775 -0.068158455 -0.0031342143 0.04321541 -0.067143604 -0.05836128 0.0014516297 -0.21174622
-0.0040990203 -0.0095496215 -0.010904119 -0.11595673 0.16253896 0.051905803 -0.13589828 0.04969066
-0.2122634 0.053879615 0.040269792 0.15762036 0.1083172 -0.03209318 -0.11251823 -0.16137159
0.01808166 0.12699458 -0.0041435645 -0.07535808 0.05912041 0.13828267 0.0671414 0.051341634
0.100268975 0.05808719 0.1095818 0.072003536 0.046514973 0.07422949 0.016776558 -0.13517275
-0.009839752 -0.03403347 -0.006730215 -0.07314708 -0.15013736 0.090258464 -0.072935656 -0.075820945
-0.09895051 -0.000121130106 -0.0908965 -0.12925173 -0.009201942 0.0935575 0.123909056 -0.19127834
-0.022742601 -0.027305285 -0.014589963 0.002607567 0.08040359 -0.04520871 0.09922025 -0.019665686
-0.115714826 0.037275936 0.0713994 0.17763789 -0.09103193 -0.025061117 -0.108190835 -0.11552857
0.0055047735 0.011273471 0.044450864 0.101788014 -0.05726601 0.0247952 -0.12245402 -0.028374122
0.059513874 0.059129547 -0.101939164 -0.10593073 -0.063262925 -0.09687377 -0.15761682 0.031340063
0.012650266 -0.016664254 0.07714319 -0.12661618 0.09654523 0.11225906 0.032908443 0.006373737
-0.1102072 -0.0702669 0.0836338 -0.13124809 -0.016958928 0.04726923 -0.04162686 0.009649561
-0.058808215 0.03231752 0.009317407 -0.0067931507 0.1716243 -0.09834832 0.08158568 -0.126311
-0.089636154 0.053162932 -0.03718646 0.074852146 -0.0036039222 -0.16454734 -0.13473865 0.10955778
-0.1364107 -0.040538676 0.025542887 -0.08146995 0.16858932 -0.010710377 0.016789068 -0.0018464564
0.11967472 -0.13496706 0.03160148 -0.07522346 0.07529862 0.035984617 -0.05454565 0.13612264
-0.043372642 -0.040775154 0.00839323 0.07800252 -0.036889955 0.054071262 -0.06253388 -0.09289815
0.1403251 -0.044951513 -0.042114593 0.02405289 -0.11013592 -0.040171105 0.0066626626 -0.07667171
0.06604174 0.08094867 -0.046176665 -0.034051742 -0.14798555 -0.11097249 -0.097309925 -0.03419869
0.045508128 -0.11512525 0.083784126 -0.056233123 -0.015394523 0.03489844 -0.0070426646 0.022203699
-0.12532634 -0.086695455 0.088385575 0.017792411 -0.06556287 0.06035015 0.1174508 0.13307218
-0.13559152 0.113716856 -0.15878944 -0.10795211 0.01005256 0.032461476 -0.09689662 -0.009496573
0.042639103 0.051453933 0.08556918 0.0653394 -0.11549975 0.025045725 0.08582299 -0.0172522
-0.09966756 -0.07670567 -0.05741223 -0.01748762 -0.16571483 -0.1658969 -0.07460662 -0.0774109
0.01954302 -0.13629235 0.020629114 -0.02026792 0.079218 0.09190856 0.097308375 0.08155008
0.05587307 0.06309363 -0.027947173 0.012647642 0.057103287 -0.13069087 0.018931657 0.042808253
-0.0878089 0.0023875954 -0.03110492 0.06552505 0.03430248 0.1343978 0.0010513861 0.15756553
00000000: 791c 053e 68c5 09be 42ab 01be 55c1 a0bd
00000010: 6d3a a33c 4227 663d 215a a3bd 9567 293d
00000020: 46e2 823c 5e4f a3bd ffe6 933c ddfb d13d
00000030: 6799 b43c 541f b73c cda0 92bd f1fa 0bbd
00000040: f018 81bc da25 c4bd ec03 103d 35a3 0dbe
00000050: f4be a7bd 3814 de3d a30a 853d e092 93bd
00000060: 8943 86bb 2080 933c 7054 bb3b 6a29 ed3c
00000070: 10ff 55be ff7b 0dbe e07d 8ebd 22a5 b2bb
00000080: 4125 9f3d a996 8bbd 6467 4dbb a402 313d
00000090: 9682 89bd 3d0c 6fbd 9c44 be3a 00d4 58be
000000a0: 1351 86bb 0476 1cbc 31a7 32bc b97a edbd
000000b0: 9d70 263e 2e9b 543d eb28 0bbe 6f88 4b3d
000000c0: 945b 59be dfb0 5c3d f0f1 243d 3b67 213e
000000d0: 68d5 dd3d 2374 03bd f56f e6bd 983e 25be
000000e0: fd1f 943c de0a 023e bdc6 87bb 5655 9abd
000000f0: 3e28 723d f999 0d3e 6e81 893d 9b4b 523d
00000100: d259 cd3d d5ec 6d3d 6c6c e03d 9776 933d
00000110: 7c86 3e3d a105 983d fe6e 893c ba6a 0abe
00000120: e936 21bc ae66 0bbd 2389 dcbb 23ce 95bd
00000130: 9cbd 19be 6ed9 b83d 4a5f 95bd 0348 9bbd
00000140: 91a6 cabd 3b07 feb8 f227 babd 915a 04be
00000150: bec3 16bc 139b bf3d 08c4 fd3d 78de 43be
00000160: b14e babc 55af dfbc bd0a 6fbc b7e3 2a3b
00000170: a3aa a43d c52c 39bd fd33 cb3d ef19 a1bc
00000180: e5fb ecbd a7ae 183d d939 923d b5e6 353e
00000190: f36e babd f94c cdbc 2893 ddbd 3e9a ecbd
000001a0: 6361 b43b 5db4 383c 1c12 363d 3c76 d03d
000001b0: c48f 6abd 4e1f cb3c 2cc9 fabd d970 e8bc
000001c0: d2c4 733d d331 723d 7bc5 d0bd 36f2 d8bd
000001d0: fe8f 81bd c165 c6bd 4e66 21be 705e 003d
000001e0: 1043 4f3c 7983 88bc 40fd 9d3d aca7 01be
000001f0: 81b9 c53d 14e8 e53d 01cb 063d c8da d03b
00000200: 50b4 e1bd 18e8 8fbd 3348 ab3d e665 06be
00000210: 73ed 8abc 619d 413d ed80 2abd 3119 1e3c
00000220: e2e0 70bd 605f 043d 0aa8 183c 1499 debb
00000230: 48be 2f3e d86a c9bd 6516 a73d ac57 01be
00000240: 2993 b7bd 60c1 593d d450 18bd 154c 993d
00000250: c82f 6cbb 197f 28be eef8 09be d45f e03d
00000260: 3faf 0bbe e20b 26bd 513f d13c b8d9 a6bd
00000270: aea2 2c3e 947a 2fbc 3a89 893c cc04 f2ba
00000280: 0518 f53d ce34 0abe 8e70 013d c20e 9abd
00000290: 2a36 9a3d 9b64 133d 426b 5fbd bc63 0b3e
000002a0: 83a7 31bd d903 27bd c283 093c c9bf 9f3d
000002b0: ec19 17bd d479 5d3d c311 80bd 6341 bebd
000002c0: 62b1 0f3e 141f 38bd 5a80 2cbd 910a c53c
000002d0: f18e e1bd 758a 24bd 7752 da3b 0f06 9dbd
000002e0: e440 873d 6bc8 a53d be23 3dbd d779 0bbd
000002f0: 8689 17be 8b45 e3bd 6d4a c7bd ed13 0cbd
00000300: bb66 3a3d c9c6 ebbd 0397 ab3d b454 66bd
00000310: 4f39 7cbc abf1 0e3d 27c6 e6bb 88e4 b53c
00000320: 8c55 00be 638d b1bd 7f03 b53d 64c1 913c
00000330: d345 86bd b831 773d 0c8a f03d 1344 083e
00000340: 81d8 0abe 62e4 e83d b399 22be ff15 ddbd
00000350: 7eb3 243c 53f6 043d bc71 c6bd 8497 1bbc
00000360: 57a6 2e3d 5cc1 523d e53e af3d aad0 853d
00000370: 228b ecbd b12c cd3c f7c3 af3d 7c54 8dbc
00000380: 811e ccbd dd17 9dbd 1629 6bbd 3242 8fbc
00000390: 26b1 29be e1e0 29be 5bcb 98bd 9b89 9ebd
000003a0: af18 a03c 3990 0bbe 63fe a83c e908 a6bc
000003b0: 0c3d a23d 8e3a bc3d 9d49 c73d ba03 a73d
000003c0: 29db 643d 3c37 813d 78f1 e4bc 0e38 4f3c
000003d0: 23e5 693d d4d3 05be 9016 9b3c b557 2f3d
000003e0: 27d5 b3bd 3479 1c3b bfcf febc ff31 863d
000003f0: c280 0c3d 949f 093e aace 893a dc58 213e

weight f4 [64, 64]
-0.06680198 0.10309171 0.14919323 -0.0970453 0.17768225 0.011685969 -0.122889854 0.12273467
0.20964043 -0.16735679 0.054652415 -0.017202115 0.07946469 -0.034558374 0.04568035 0.033637147
0.035798226 -0.04648781 0.07662684 0.0030004347 -0.07530787 0.11538917 -0.08468605 -0.07409003
0.11676475 -0.16675933 0.015269728 0.08907501 0.004775336 0.09506443 0.17481342 -0.07961585
-0.26234725 0.03450587 0.07819663 0.025062932 -0.027467972 0.021993874 -0.112961665 -0.020376904
-0.10716265 -0.17660484 -0.158975 -0.08555857 -0.119822085 -0.010853177 -0.14334795 0.10777658
-0.019435216 -0.21409015 0.008796245 0.10153967 0.12357419 -0.07568259 0.10119756 0.048136566
-0.016640758 0.12761466 -0.016600775 -0.05164363 -0.041686285 0.2612202 0.0050147125 0.13008717
-0.0715034 -0.003053198 0.05465852 -0.015532738 0.06349318 0.049746796 -0.059746236 -0.040745124
0.082149 -0.090766065 -0.09696855 -0.23166709 0.07988965 -0.046771746 -0.039689012 0.029984513
-0.18870072 -0.019071171 -0.076685935 -0.19278768 0.023388363 0.11347634 0.04679878 0.1036711
0.054778043 -0.018726705 0.046875842 -0.07639123 -0.12138034 -0.10522969 -0.0083850855 0.01689619
0.14045368 0.14873798 0.0839634 0.20942073 0.08051895 0.12452028 -0.092974946 -0.20313095
-0.08929055 0.068612136 0.11391454 -0.14354202 -0.0682242 -0.10423585 -0.09859517 -0.036925446
-0.0077750627 0.03165589 -0.011707776 0.10876858 0.028296137 -0.0007765968 0.031654347 -0.03803922
0.055306133 0.0503738 0.03412186 -0.020902783 -0.13194104 0.07475978 0.094667375 -0.037937954
-0.03388407 -0.070715226 0.0377064 0.081238896 -0.226287 0.03785081 0.103258334 0.056953967
0.013698573 -0.08207862 0.08048677 0.09165988 -0.054949407 -0.088605866 -0.12279407 0.08354109
0.14019215 -0.042780705 0.0719792 0.02660093 0.01781015 -0.109419465 0.038821533 -0.06452342
0.034030233 -0.033562545 -0.16414128 -0.041705843 0.097554624 0.08720317 -0.17950994 0.12176936
-0.012736987 -0.18025757 -0.050697807 -0.23048197 -0.11502086 -0.08602047 0.08259888 0.19628352
-0.07154381 -0.17879954 0.09745119 0.15875126 -0.06811609 -0.089398384 0.055477306 -0.05590283
-0.03252249 0.15730353 -0.006054623 -0.02994429 -0.010646575 0.06071284 -0.09395531 0.14936076
0.024990482 0.05094955 -0.07324901 0.07158894 -0.011905214 -0.078012064 0.12955478 0.049893707
0.113863856 -0.07564456 0.015862709 0.027631933 -0.03308894 -0.00053620583 0.10535944 0.08881386
-0.13190505 0.062162627 0.030457456 0.20691405 -0.00086802646 0.009013255 -0.011905878 0.07624587
0.12554096 0.06585433 0.1563679 0.22907548 -0.13356726 -0.18341264 -0.06840291 0.011577098
0.042776402 0.033521898 -0.1493966 -0.025642473 0.032913707 0.027901175 -0.19923735 0.015637558
0.014139472 0.056936108 -0.12969238 -0.24993826 0.0182656 -0.013008766 0.13081762 0.0036228832
-0.09209418 0.13304879 0.12686385 0.13630684 0.1513117 0.11309342 -0.0038050604 -0.072641306
-0.0435384 -0.036493655 -0.033077836 0.017916273 -0.009962087 -0.031515777 -0.06506808 -0.0070113987
-0.088840194 -0.019372685 -0.0617304 -0.048582803 -0.105695054 -0.13174786 -0.05135559 0.043788802
00000000: 7acf 88bd bf21 d33d 1cc6 183e b0bf c6bd
00000010: 56f2 353e 8276 3f3c adad fbbd 515c fb3d
00000020: fbab 563e 945f 2bbe 36db 5f3d 73eb 8cbc
00000030: 62be a23d 158d 0dbd 521b 3b3d 1bc7 093d
00000040: 29a1 123d 006a 3ebd 88ee 9c3d f1a2 443b
00000050: 033b 9abd 2851 ec3d e16f adbd 83bc 97bd
00000060: 5b22 ef3d f5c2 2abe e22d 7a3c f56c b63d
00000070: 6c7a 9c3b 24b1 c23d 4a02 333e a20d a3bd
00000080: 6152 86be 0756 0d3d 8e25 a03d c750 cd3c
00000090: 8304 e1bc 7f2c b43c 7258 e7bd 77ed a6bc
000000a0: 1778 dbbd e6d7 34be 58ca 22be 5539 afbd
000000b0: 4865 f5bd 86d1 31bc cec9 12be f8b9 dc3d
000000c0: 9a36 9fbc 733a 5bbe 201e 103c 08f4 cf3d
000000d0: 7714 fd3d 79ff 9abd ab40 cf3d d92a 453d
000000e0: 3352 88bc 6bad 023e 59fe 87bc 4588 53bd
000000f0: 3dbf 2abd a7be 853e 7552 a43b 9235 053e
00000100: 6070 92bd 2a18 48bb 9de1 5f3d 067d 7ebc
00000110: b608 823d 4cc3 4b3d 78b8 74bd 5ce4 26bd
00000120: bc3d a83d 8fe3 b9bd 7297 c6bd 233a 6dbe
00000130: 2f9d a33d bb93 3fbd f290 22bd 15a2 f53c
00000140: c33a 41be 253b 9cbc 840d 9dbd 226a 45be
00000150: f498 bf3c 4966 e83d 14b0 3f3d 8451 d43d
00000160: f15e 603d bf68 99bc e200 403d 0173 9cbd
00000170: 4196 f8bd aa82 d7bd 9961 09bc e169 8a3c
00000180: 17d3 0f3e c54e 183e 01f5 ab3d 6372 563e
00000190: 1fe7 a43d 7d04 ff3d a669 bebd 8f01 50be
000001a0: f7dd b6bd 8584 8c3d 074c e93d aefc 12be
000001b0: 21b9 8bbd 9b79 d5bd 44ec c9bd 233f 17bd
000001c0: f4c5 febb 9ba9 013d f9d1 3fbc 10c2 de3d
000001d0: 4dcd e73c 8794 4bba fda7 013d 03cf 1bbd
000001e0: af88 623d c254 4e3d 5dc3 0b3d 503c abbc
000001f0: 8d1b 07be a81b 993d f8e0 c13d d464 1bbd
00000200: 06ca 0abd 25d3 90bd 0772 1a3d 9460 a63d
00000210: c8b7 67be 7309 1b3d 1b79 d33d 9048 693d
00000220: fb6f 603c d618 a8bd 3fd6 a43d 2db8 bb3d
00000230: a112 61bd fe76 b5bd 757b fbbd 9717 ab3d
00000240: 888e 0f3e d23a 2fbd d569 933d 32ea d93c
00000250: 97e6 913c 5017 e0bd 5403 1f3d db24 84bd
00000260: 4963 0b3d e178 09bd a714 28be bfd3 2abd
00000270: b8ca c73d 9397 b23d 74d1 37be 3762 f93d
00000280: ccae 50bc 7195 38be 81a8 4fbd 7703 6cbe
00000290: 0f90 ebbd 802b b0bd 9a29 a93d 8cfe 483e
000002a0: 9085 92bd 3a17 37be 7d94 c73d b18f 223e
000002b0: 7380 8bbd 8016 b7bd 2c3c 633d 5efa 64bd
000002c0: 4d36 05bd 2d14 213e dc65 c6bb ba4d f5bc
000002d0: f96e 2ebc 07ae 783d a46b c0bd 07f2 183e
000002e0: d7b8 cc3c 7ab0 503d 9403 96bd 399d 923d
000002f0: 160e 43bc cac4 9fbd 02aa 043e 585d 4c3d
00000300: 7431 e93d 89eb 9abd 83f2 813c 5d5c e23c
00000310: 4588 07bd 2a90 0cba b1c6 d73d 0be4 b53d
00000320: 1e12 07be 3d9e 7e3d ea81 f93c 47e1 533e
00000330: 458c 63ba 55ac 133c df10 43bc cb26 9c3d
00000340: cf8d 003e a3de 863d e81e 203e c392 6a3e
00000350: dbc5 08be 86d0 3bbe d316 8cbd dead 3d3c
00000360: 4f36 2f3d 424e 093d 6cfb 18be 2a10 d2bc
00000370: 86d0 063d 0191 e43c e004 4cbe 561a 803c
00000380: 3ea9 673c d635 693d 14ce 04be d1ef 7fbe
00000390: bda1 953c b822 55bc 0ef5 053e e56d 6d3b
000003a0: e09b bcbd f13d 083e 99e8 013e 0594 0b3e
000003b0: 74f1 1a3e 869d e73d 525e 79bb f7c4 94bd
000003c0: 5255 32bd 5f7a 15bd a07c 07bd 26c5 923c
000003d0: 0538 23bc b016 01bd 6a42 85bd e0bf e5bb
000003e0: d9f1 b5bd 77b3 9ebc 04d9 7cbd c3fe 46bd
000003f0: a676 d8bd e9e8 06be 3d5a 52bd e35b 333d

weight f4 [64, 64]
-0.056725673 -0.04146816 0.012507513 -0.06730063 -0.005780119 -0.04925935 -0.012200088 -0.0833705
0.11682981 0.019870544 -0.14905651 -0.0080906525 0.004731165 -0.011752457 -0.002122249 -0.008155491
-0.026710387 0.1268445 0.09370966 0.12969674 -0.03927065 0.14745569 -0.08102464 0.05753979
0.012858226 0.1276031 -0.016266853 0.032466494 -0.0663687 0.05033782 -0.059863817 0.03327002
-0.015462206 0.080862425 0.007039088 0.050310474 -0.1623818 0.0026518218 0.013623931 0.11295771
0.08246634 -0.015264987 0.014708937 -0.07276847 0.115282364 -0.008248482 0.015828386 0.0150455125
-0.13744973 -0.06929119 -0.060674775 0.14514826 0.022316251 -0.13973488 -0.086749434 0.032233525
-0.15668228 0.12743026 0.07505262 0.008788918 0.10109155 0.0059950603 0.025491117 0.107611544
0.05006184 0.09455784 -0.0056428537 -0.051628407 -0.130694 -0.052875202 -0.072363965 0.077784635
0.046021484 -0.10366503 0.013722374 0.05886268 0.005025405 0.014891177 0.08123548 0.07106106
-0.076895386 0.061002735 -0.0990788 0.12239437 -0.01766428 0.11260529 0.06000304 0.06773116
-0.07780123 -0.05649478 -0.030423718 -0.053793572 -0.022550588 -0.08669441 -0.05195703 0.081382625
-0.024035422 0.01855256 -0.12324033 -0.100838505 0.086014606 -0.02528884 0.05104401 0.051830962
0.07276724 0.033614043 0.08988051 -0.033423144 0.04438064 0.05079245 -0.07000112 0.059550185
-0.02775303 -0.045385364 -0.005120053 -0.09920388 -0.00644913 -0.11979967 -0.12319791 -0.0072110854
-0.0677171 -0.034336466 -0.030001255 0.12689689 0.01684863 0.084225886 0.071353875 0.10454482
0.09544623 0.097730085 -0.08269387 -0.053597834 -0.13789271 0.0036669301 -0.033680093 0.024113184
-0.09568723 -0.07667354 0.027720395 0.08660147 0.10138028 0.009328672 -0.043164577 -0.098517865
-0.04508625 0.08126171 0.08194698 0.026676789 -0.106757015 0.11661124 -0.07787586 0.062983796
0.026833763 0.12940593 0.04516092 -0.11719524 -0.07165999 0.111336984 0.002007861 0.09093834
0.1307551 0.021518763 0.06566337 -0.07743725 -0.077751696 0.093647674 -0.12344456 0.14455627
0.09605631 -0.10728388 -0.009023326 0.011657183 -0.071584955 -0.05394501 0.06365173 0.0028915207
-0.088517115 0.10587432 0.078537196 -0.070666656 0.026135067 -0.09536774 -0.11915947 0.041819464
-0.038406346 0.079162344 -0.13605028 -0.07085765 -0.0045582037 0.075698055 -0.025848836 0.07343664
-0.056333553 0.03852687 -0.00021893035 -0.06473053 -0.12375376 -0.02686797 -0.081931934 -0.14280088
0.10334702 -0.1559379 0.10099911 0.05750402 0.068730004 0.024653332 -0.119691834 0.06723626
-0.0064635207 0.05586676 0.078187875 -0.025621455 -0.044799402 0.13666277 -0.0110664405 -0.13449214
-0.060022436 0.07192268 0.1015996 -0.132441 0.0028497763 0.09332281 0.14999211 0.06784544
-0.062171422 0.14825593 -0.058915336 -0.0531373 -0.04546274 0.015149607 -0.037673783 0.17561485
0.07401033 0.14935234 -0.0758953 0.10939658 0.0019441149 0.028544275 -0.14703752 -0.114078455
-0.016011698 -0.09810535 -0.09017603 -0.054501094 0.12725872 -0.08456233 0.07097196 0.056228537
-0.16847807 0.115575954 0.033502556 0.05995231 0.12183101 -0.09450353 0.14647603 -0.0043799924
00000000: 2e59 68bd 84da 29bd 50ec 4c3c ead4 89bd
00000010: 2767 bdbb 2cc4 49bd e1e2 47bc 27be aabd
00000020: 7844 ef3d 8dc7 a23c 45a2 18be a88e 04bc
00000030: e307 9b3b 618d 40bc 6e15 0bbb 9c9e 05bc
00000040: becf dabc 86e3 013e daea bf3d 39cf 043e
00000050: 43da 20bd a0fe 163e 3ff0 a5bd d8ae 6b3d
00000060: 4fab 523c 63aa 023e 1042 85bc 96fb 043d
00000070: 50ec 87bd 082f 4e3d c333 75bd 2546 083d
00000080: 3155 7dbc 339b a53d 26a8 e63b 5b12 4e3d
00000090: 6a47 26be 30ca 2d3b e936 5f3c 5f56 e73d
000000a0: 1de4 a83d ff19 7abc c1fd 703c a307 95bd
000000b0: 2919 ec3d a424 07bc 88aa 813c 7481 763c
000000c0: 9fbf 0cbe 8ae8 8dbd 1d86 78bd bfa1 143e
000000d0: 92d0 b63c a916 0fbe b0a9 b1bd 4d07 043d
000000e0: 5271 20be 147d 023e 30b5 993d 65ff 0f3c
000000f0: 1609 cf3d 3672 c43b bfd2 d03c 7163 dc3d
00000100: a50d 4d3d 8aa7 c13d b0e7 b8bb 4f78 53bd
00000110: a6d4 05be ab93 58bd 8f33 94bd 8d4d 9f3d
00000120: 0681 3c3d 554e d4bd cfd3 603c fe19 713d
00000130: 27ac a43b 20fa 733c ca5e a63d 7688 913d
00000140: 547b 9dbd 01de 793d d3e9 cabd e6a9 fa3d
00000150: aeb4 90bc 9a9d e63d bfc5 753d a2b6 8a3d
00000160: 4056 9fbd 1267 67bd 293b f9bc a656 5cbd
00000170: 03bc b8bc d78c b1bd e5d0 54bd efab a63d
00000180: efe5 c4bc 8afb 973c 6d65 fcbd 6b84 cebd
00000190: 6d28 b03d 8b2a cfbc 8613 513d b44c 543d
000001a0: fe06 953d e1ae 093d 4613 b83d b5e6 08bd
000001b0: 79c8 353d be0b 503d bf5c 8fbd e5ea 733d
000001c0: 535a e3bc 01e6 39bd 1ec6 a7bb 672b cbbd
000001d0: 3953 d3bb 8859 f5bd 304f fcbd f84a ecbb
000001e0: 43af 8abd 65a4 0cbd 31c5 f5bc 42f1 013e
000001f0: 2306 8a3c 9f7e ac3d fb21 923d 981b d63d
00000200: 5079 c33d b626 c83d 675b a9bd 6789 5bbd
00000210: bf33 0dbe e150 703b 23f4 09bd 0389 c53c
00000220: abf7 c3bd 0407 9dbd e215 e33c 1d5c b13d
00000230: 77a0 cf3d 49d7 183c 57cd 30bd bcc3 c9bd
00000240: 5cac 38bd 8a6c a63d d1d3 a73d 4889 da3c
00000250: 6ca3 dabd e0d1 ee3d 617d 9fbd a6fd 803d
00000260: 7bd2 db3c fd82 043e a8fa 383d 0f04 f0bd
00000270: 79c2 92bd a504 e43d 5196 033b e13d ba3d
00000280: aae4 053e 1e48 b03c 847a 863d 6c97 9ebd
00000290: 483c 9fbd 5aca bf3d 80d0 fcbd 8f06 143e
000002a0: 2cb9 c43d a7b7 dbbd 93d6 13bc c5fd 3e3c
000002b0: 229b 92bd 71f5 5cbd d75b 823d ab7f 3d3b
000002c0: 7648 b5bd a3d4 d83d 1cd8 a03d aeb9 90bd
000002d0: 3519 d63c 2950 c3bd e109 f4bd e34a 2b3d
000002e0: f94f 1dbd de1f a23d c450 0bbe d11d 91bd
000002f0: fc5c 95bb 9507 9b3d f0c0 d3bc f365 963d
00000300: 03be 66bd 5ace 1d3d ab90 65b9 7191 84bd
00000310: 9c72 fdbd 381a dcbc eecb a7bd 653a 12be
00000320: 9aa7 d33d 2fae 1fbe 9fd8 ce3d 5689 6b3d
00000330: 51c2 8c3d c9f5 c93c fe20 f5bd 2ab3 893d
00000340: f1cb d3bb 8bd4 643d f720 a03d 16e4 d1bc
00000350: 947f 37bd 53f1 0b3e 0450 35bc 4fb8 09be
00000360: 16da 75bd 334c 933d 7313 d03d 9d9e 07be
00000370: 50c3 3a3b 0820 bf3d 8897 193e 8df2 8a3d
00000380: 76a7 7ebd 67d0 173e 3551 71bd 7fa6 59bd
00000390: 2337 3abd 0f36 783c d34f 1abd 61d4 333e
000003a0: ba92 973d d2ef 183e ff6e 9bbd 500b e03d
000003b0: acd1 fe3a afd5 e93c 0191 16be f7a1 e9bd
000003c0: f72a 83bc 75eb c8bd 36ae b8bd 8a3c 5fbd
000003d0: 1c50 023e 042f adbd bf59 913d e54f 663d
000003e0: 8485 2cbe 16b3 ec3d fa39 093d 8e90 753d
000003f0: 8982 f93d 118b c1bd d0fd 153e 0a86 8fbb
