examples/carbon/outDir/epoch=0-step=510-val_loss=0.4211.pt (torch, 752753 bytes, 92 tensors)

cutoff f8 []
0	0x4008000000000000	3.0

weight f4 [7, 64]
0	0x3f594515	0.84871036
1	0x3f312783	0.69200915
2	0xbea1cc6d	-0.31601277
3	0xc0075fc1	-2.1152194
4	0xbeb65675	-0.35612836
5	0x3edfdba8	0.43722272
6	0x3efb8c53	0.49130496
7	0xbe51000b	-0.20410173
8	0x3df56f77	0.11984151
9	0x3f9e6b93	1.2376579
10	0x3f8ef28e	1.1167772
11	0xbe7d367c	-0.24727815
12	0xbf8599a7	-1.0437516
13	0xbfac32f6	-1.3453052
14	0x3f490d11	0.7853556
15	0x3f7e2a99	0.9928375
16	0x3f194d8b	0.59883946
17	0xbfc70d5b	-1.5550951
18	0xbeaec6ca	-0.3413604
19	0x3fed2f4e	1.8530061
20	0x3eefaa55	0.4680964
21	0xbe217f5f	-0.15771244
22	0x3fb8c9db	1.4436601
23	0x3e8837a1	0.2660494
24	0x3fb1d6c0	1.3893661
25	0x3fcb0d00	1.5863342
26	0x3f72409c	0.94629836
27	0xbf57fb33	-0.84367675
28	0x3f6e8c30	0.9318266
29	0x3fa12737	1.2590092
30	0x4000519a	2.0049806
31	0x3d5c1b3a	0.053736903
32	0x3ee11fd0	0.43969584
33	0x3de637d6	0.112411186
34	0x3f240af8	0.64079237
35	0x3ee1df3c	0.44115627
36	0xbe5d0b42	-0.21586326
37	0xbf3e17a3	-0.74254817
38	0x3f100e82	0.5627214
39	0x3e84ede2	0.2596274
40	0x3f05da2f	0.52286047
41	0x40135755	2.3022053
42	0xbfbc04b7	-1.4688939
43	0xbfcb189e	-1.5866888
44	0x3f9a033c	1.2032237
45	0x3dad2087	0.0845347
46	0xbf999e2b	-1.2001394
47	0xbb9cd1ae	-0.004785738
48	0xbe6bdd10	-0.23033547
49	0xbec89408	-0.3917544
50	0x3f0b155d	0.5432947
51	0xbeca5217	-0.39515755
52	0x3e527552	0.20552567
53	0xbee6919f	-0.45032975
54	0xbf12b52e	-0.5730771
55	0xbf0e2bf8	-0.5553584
56	0xbfc3fdd9	-1.5311843
57	0xbf9df823	-1.234135
58	0x3fe8ecc2	1.8197253
59	0xbf0d30fc	-0.5515287
60	0xbfa9a448	-1.325326
61	0x3e411430	0.18855357
62	0xbd8d75fb	-0.069072686
63	0xbefd66db	-0.49492535
64	0xbfbd34ce	-1.478174
65	0x40244d8b	2.5672328
66	0xbef23cc2	-0.4731198
67	0x3eabcd4f	0.33555076
68	0x3fc12ae8	1.5091219
69	0x40053ec2	2.0819554
70	0x3fda7587	1.7067116
71	0x401857f1	2.3803675
72	0xbf8892d0	-1.0669804
73	0x3f8eb657	1.1149396
74	0xbe100c2c	-0.14067143
75	0x3f4e45de	0.8057536
76	0x3ea7bd10	0.3276143
77	0xbf42bdb5	-0.7607072
78	0xbfccaeb8	-1.599082
79	0x3c97715a	0.018486667
80	0x3f57865f	0.8418941
81	0xbeccd147	-0.40003416
82	0x3f850d17	1.039462
83	0x3eb75fd8	0.3581531
84	0xbb5885ca	-0.003303873
85	0xbf08d11b	-0.5344407
86	0x3f959790	1.1686878
87	0x3ec9fc44	0.39450276
88	0xbf85c1dc	-1.0449786
89	0xbf74dd3d	-0.9565008
90	0x3d0958b4	0.03353186
91	0x3f35c83c	0.7100866
92	0xbfc4844a	-1.5352871
93	0xbed34aae	-0.41267914
94	0x3f775fa7	0.9663033
95	0x3fcff8e5	1.6247832
96	0xc02740ad	-2.6133225
97	0xbfd92613	-1.6964744
98	0xbe69b837	-0.22824179
99	0x3e8f5643	0.279955
100	0x3d960206	0.07324605
101	0x3f8e8138	1.1133184
102	0x3e908555	0.28226724
103	0x3ede52d3	0.43422565
104	0x3ee9f40f	0.45694014
105	0xbf5d88fa	-0.86537135
106	0x3f4803cc	0.78130794
107	0xbf6d4212	-0.9267894
108	0x3e535ecc	0.20641631
109	0xbeaab9ae	-0.33344787
110	0xbedb8f9b	-0.42883
111	0x3e6e8222	0.23291829
112	0x3f766799	0.9625183
113	0x3eb2c62e	0.34916824
114	0xbf6be4ef	-0.921462
115	0xbd662c81	-0.056194786
116	0xbf33970d	-0.7015236
117	0x3f84b227	1.0366868
118	0xbf1a8a20	-0.6036701
119	0xbfa3ae94	-1.2787652
120	0x3dfdc095	0.12390248
121	0x3f9517a0	1.1647835
122	0x3f6c6235	0.9233735
123	0x3fb192e4	1.3872952
124	0x3fb0013e	1.3750379
125	0x3f28dd95	0.6596311
126	0x3ef3ff4b	0.4765571
127	0xbf82165d	-1.0163075
128	0x3f1c40db	0.6103646
129	0x3eef0b5c	0.46688354
130	0x3ff9af22	1.9506571
131	0xbf88139d	-1.0630985
132	0x3f91f703	1.1403507
133	0xbdb81417	-0.08988207
134	0x3f3ad3ed	0.72979623
135	0xbfec336a	-1.845319
136	0xbdd115f1	-0.10209263
137	0xbf844b50	-1.0335484
138	0xbea01232	-0.31263882
139	0x3e7baf30	0.24578547
140	0x3ec11dfd	0.37718192
141	0x3f8cf543	1.1012348
142	0xbf92468b	-1.1427778
143	0x3d19f325	0.037585396
144	0x3e93c041	0.28857616
145	0x3ec5f024	0.38659775
146	0xbe4de3b3	-0.20106392
147	0xbdf183b4	-0.117926985
148	0xbf545163	-0.82936686
149	0xbfb420fc	-1.4072566
150	0x3fd03c83	1.6268467
151	0x3e306863	0.1722732
152	0xbf344c9c	-0.70429397
153	0x3ea1231b	0.31472096
154	0x3e212b9a	0.15739289
155	0x3ec54e43	0.3853627
156	0x3f12db07	0.5736546
157	0x3f7f786d	0.9979313
158	0x3f0b29fd	0.54360944
159	0x3da16432	0.07880439
160	0x3f7f9ada	0.9984566
161	0xbeff578b	-0.49871477
162	0x3f42d82a	0.7611109
163	0x3f1e48f7	0.61830086
164	0xbe9948ec	-0.29938447
165	0xbe4048e5	-0.18777807
166	0x3ff53c22	1.9158976
167	0x3f30b0a4	0.6901953
168	0xbea0c932	-0.314035
169	0xbf8a131b	-1.078708
170	0x3e769708	0.24081051
171	0xbfb2b793	-1.3962272
172	0x3de88e01	0.1135521
173	0x3f8d67a7	1.1047257
174	0xbfb294ff	-1.395172
175	0x3ef342c3	0.47511873
176	0x3f8a6096	1.0810726
177	0x3e06a22f	0.13147806
178	0x3fc969b4	1.5735383
179	0x3f480bcb	0.78142995
180	0x3f7cc8a5	0.9874366
181	0xbfbe707a	-1.4878075
182	0x3f163126	0.58668745
183	0x3e22182e	0.15829536
184	0x3f2ab22a	0.66678107
185	0xbf7e9052	-0.99438965
186	0xbf983d14	-1.189364
187	0xbf9914df	-1.1959494
188	0x3fa7ec14	1.311892
189	0xbe56e005	-0.20983894
190	0x3f481f8b	0.7817313
191	0x3f7d5c7e	0.98969257
192	0x3e2fa092	0.17151096
193	0x3f604478	0.87604475
194	0xbe92fd1f	-0.2870874
195	0x3f82c51a	1.0216401
196	0xbf02d5bb	-0.51107377
197	0xbfdb5b6f	-1.7137278
198	0xbf02939b	-0.5100648
199	0xbef32531	-0.47489312
200	0x3f298acb	0.66227406
201	0xbf9a681e	-1.2063024
202	0x3f1b812b	0.6074397
203	0xbf0c1278	-0.5471568
204	0xbf8cdc84	-1.1004796
205	0xbf385a47	-0.7201275
206	0x3c43782c	0.011930507
207	0x3eadf6b7	0.3397729
208	0xbfa077c2	-1.2536547
209	0x3f7ca14a	0.9868361
210	0xbefd436d	-0.49465504
211	0xbfa43ac1	-1.283043
212	0x3ee096a1	0.4386492
213	0xbc2f6009	-0.010704049
214	0x3fab4f31	1.3383542
215	0xbe8f0e2d	-0.27940503
216	0x3e934ddc	0.2877034
217	0xbd08b3ff	-0.033374783
218	0xbf87ebf6	-1.0618885
219	0xbdea5845	-0.11442617
220	0x3e481514	0.1953929
221	0xbf3cb335	-0.7371095
222	0x3fd99ced	1.7001015
223	0x3eb1432a	0.34621555
224	0xbe143b30	-0.14475703
225	0x3f233aec	0.6376178
226	0xbe900546	-0.28129023
227	0xbfaa3959	-1.3298751
228	0xbf275f69	-0.6537996
229	0x3fdc2332	1.7198241
230	0xbf76012c	-0.9609554
231	0xbf23335d	-0.6375025
232	0xbf631005	-0.8869632
233	0x3f56b9f0	0.8387747
234	0x3f939211	1.1528951
235	0xbfe16baa	-1.7610981
236	0xbf8db373	-1.1070389
237	0xbfdbd27e	-1.7173612
238	0x3fc46c7f	1.534561
239	0xbb521f4c	-0.0032062111
240	0x3fb85d22	1.4403422
241	0xbde27f35	-0.11059419
242	0x3f13ad1d	0.57686025
243	0xbe2d3bf9	-0.16917409
244	0x3f9826a3	1.1886791
245	0xbe21499a	-0.15750733
246	0xbd3a86ab	-0.045538586
247	0x3f26025b	0.64847344
248	0xbf5ee90d	-0.8707436
249	0x3e14377b	0.14474289
250	0x3ff390cd	1.9028565
251	0x3ec7e1f5	0.3903958
252	0x3d076dbb	0.03306363
253	0xbf830067	-1.0234498
254	0x3f3bc767	0.7335114
255	0x3f8f1172	1.1177199

weight f4 [64, 64]
0	0x3e606894	0.21914893
1	0x3e42ac6d	0.19011088
2	0xbe8272b8	-0.25478148
3	0xbe4f49b4	-0.2024296
4	0x3e3881ad	0.18018217
5	0xbdd697c8	-0.10478169
6	0xbe1c493c	-0.15262312
7	0x3e3af752	0.18258408
8	0xbe9ff587	-0.3124201
9	0x3dc20877	0.09474271
10	0x3e30beab	0.17260234
11	0x3e860bfa	0.26181012
12	0x3e2ed866	0.17074737
13	0x3e830fd0	0.25598
14	0xbde0c214	-0.109745175
15	0xbe24f0b2	-0.16107443
16	0x3e34009f	0.17578362
17	0x3e468796	0.1938766
18	0xbe0c41a3	-0.13696913
19	0x3d20966c	0.039205953
20	0x3ce0a74a	0.02742352
21	0xbe4fe151	-0.20300795
22	0x3e4d49f8	0.20047748
23	0x3dfb7423	0.12278011
24	0x3e57abfa	0.21061698
25	0x3e169efc	0.14709085
26	0x3e41da2e	0.18930885
27	0x3dec278f	0.11530983
28	0xbda21b87	-0.07915407
29	0x3db4b827	0.08824187
30	0x3db3c908	0.08778578
31	0x3bcabd8e	0.0061871475
32	0x3e666289	0.22498526
33	0xbe0d3f06	-0.13793573
34	0xbe291845	-0.16513164
35	0xbda7ddda	-0.08196612
36	0xbdeafbbf	-0.11473798
37	0xbe98ca88	-0.2984202
38	0x3e068425	0.13136347
39	0xbe6e09db	-0.23245947
40	0x3de1e386	0.11029725
41	0xbde95597	-0.11393278
42	0x3e78de34	0.24303514
43	0x3df656b7	0.12028258
44	0x3e3c6b8b	0.184004
45	0xbcb83bb1	-0.0224894
46	0x3dabf44d	0.08396206
47	0x3e0d4a80	0.1379795
48	0x3e2f5008	0.17120373
49	0x3e021b47	0.12705718
50	0xbe1f311c	-0.15546077
51	0xbe36b831	-0.17843701
52	0xbe351eed	-0.17687578
53	0xbe729d71	-0.23692872
54	0xbe04bbda	-0.12962285
55	0x3e8198f8	0.25312018
56	0xbe647e21	-0.2231374
57	0xbe8a99b3	-0.27070388
58	0x3cde0068	0.027099803
59	0x3dd59904	0.10429576
60	0xbc0a94b7	-0.008458308
61	0xbe7336ef	-0.23751424
62	0x3d8b482a	0.068008736
63	0xbe88af16	-0.2669608
64	0xbdcb14fb	-0.09916111
65	0xbd09c53a	-0.033635356
66	0x3e1e932a	0.15485826
67	0xbc9bede3	-0.019034332
68	0x3b93969e	0.004504039
69	0xbd130b78	-0.03589961
70	0x3d3a3337	0.045459
71	0xbd838783	-0.06422331
72	0xbcc10980	-0.0235641
73	0xbe067607	-0.13130961
74	0xbdaa97ba	-0.08329721
75	0xbdfb4f84	-0.12271026
76	0xbd45dcdc	-0.04830633
77	0xbd092122	-0.033478864
78	0x3e3d438b	0.18482797
79	0x3be17b07	0.006881121
80	0xbddbb110	-0.10727131
81	0xbcd7da34	-0.026349165
82	0x3e0ecf60	0.13946295
83	0xbca567ce	-0.0201911
84	0x3d5f15de	0.054464214
85	0x3db9c3fd	0.09070585
86	0xbe0650b9	-0.13116731
87	0x3dbd5b92	0.09245981
88	0xbdce7d0d	-0.10082445
89	0xbdd7da86	-0.10539727
90	0x3da51a98	0.08061713
91	0xbdbae7ca	-0.091262415
92	0xbca13d00	-0.019682407
93	0xbdca3de5	-0.09875087
94	0xbc2b9926	-0.010473525
95	0xbd2cc3a4	-0.042178765
96	0x3d5418fb	0.051781636
97	0xbdc87c08	-0.09789282
98	0xbadd71b5	-0.0016894849
99	0x3e0f2faf	0.13983034
100	0x3d46bc29	0.048519287
101	0x3c791d6e	0.0152047705
102	0xbe2a7935	-0.166478
103	0x3dd737bb	0.105086766
104	0x3d1bd604	0.038045898
105	0x3d4d13e6	0.050067805
106	0xbe0ea6f8	-0.13930881
107	0x3d234d47	0.03986862
108	0xbe4331cc	-0.19061965
109	0x3cb10036	0.021606546
110	0x3ce5d6f2	0.028056595
111	0xbdf3d4e7	-0.11905842
112	0x3d49d79f	0.049277898
113	0xbd09d9c9	-0.03365496
114	0xbab844cb	-0.0014058588
115	0xbd10f5fe	-0.035390846
116	0xbcdab4bc	-0.026697509
117	0x3d6cd395	0.057818968
118	0x3d969d95	0.07354275
119	0xbdfc5c54	-0.12322298
120	0x3d9ce8db	0.07661601
121	0x3c3dfa6f	0.011595353
122	0x3c81a19e	0.015824135
123	0xbe045d64	-0.1292625
124	0xbdb79cb7	-0.08965438
125	0x3e09d33f	0.1345949
126	0x3d22edee	0.03977769
127	0x3e1a90cf	0.15094303
128	0x3bc41d0e	0.005984909
129	0x3d518d15	0.051159937
130	0xbdbd3f6c	-0.092406124
131	0xbda5c3d2	-0.080939904
132	0x3dde14f8	0.10843843
133	0xbe589050	-0.21148801
134	0x3cc6a3d0	0.024248034
135	0x3dfac21c	0.12244055
136	0xbe454495	-0.19264443
137	0x3da379f1	0.07982243
138	0x3db9c11b	0.09070035
139	0x3dc01686	0.09379296
140	0x3e45f5a1	0.19331981
141	0xbbb717b3	-0.005587542
142	0xbdf8986e	-0.12138449
143	0xbd8a3b6e	-0.067496166
144	0xbcdab151	-0.02669588
145	0x3dcf2eab	0.10116323
146	0x3d5f2f6a	0.054488577
147	0x3e1e3638	0.1545037
148	0xbd035d7b	-0.03207157
149	0xbe22c4ae	-0.1589534
150	0x3bee9f03	0.0072821393
151	0xbc7ad616	-0.015309831
152	0x3caaaa8b	0.020833274
153	0xbd4a217b	-0.049348336
154	0xbe076f1c	-0.13225979
155	0xbd84b25a	-0.0647933
156	0xbe01f9a4	-0.12692887
157	0x3d86f90a	0.06590469
158	0x3e20249b	0.15638964
159	0xbcf365e2	-0.029711667
160	0x3e2b3179	0.16718091
161	0xbd96ad06	-0.0735722
162	0x3d9e0c11	0.07717145
163	0xbe5ab694	-0.2135871
164	0xbe575011	-0.21026637
165	0xbd85a0f8	-0.06524843
166	0x3e193279	0.1496066
167	0xbe3e301f	-0.18573044
168	0x3d736eca	0.05943183
169	0xbe480d3f	-0.19536303
170	0x3e32006c	0.17382973
171	0x3d1a5d63	0.037686717
172	0x3d3dadfd	0.046308506
173	0xbd1479bd	-0.03624891
174	0x3e14e3aa	0.14539972
175	0x3e73a1f5	0.2379225
176	0x3d91a7db	0.07112094
177	0x3e190c1a	0.14946023
178	0x3d90bdfa	0.07067485
179	0xbdbd6f4a	-0.09249742
180	0xbd1c80d7	-0.03820881
181	0x3bd508a8	0.006501276
182	0xbdbc64b0	-0.09198892
183	0xbd381681	-0.044943336
184	0xbdb6cf5c	-0.089262694
185	0x3d3e671b	0.046485048
186	0x3da47366	0.08029823
187	0x3e307c91	0.17235018
188	0x3e1aae5c	0.15105575
189	0xbdaa0560	-0.083018064
190	0x3e1717c0	0.14755154
191	0xbdc9f4fd	-0.09861181
192	0x3dd27d57	0.10277813
193	0x3e856222	0.26051432
194	0xbde38cd2	-0.11110844
195	0xbe9ee668	-0.3103516
196	0x3eb2cbb3	0.34921035
197	0xbe3cd6cd	-0.18441315
198	0xbe4ae38d	-0.19813366
199	0x3e7b33c4	0.24531466
200	0xbe25fd0a	-0.16209808
201	0x3df644ed	0.12024865
202	0x3e532989	0.20621313
203	0x3e55b458	0.20869577
204	0x3dc0ca28	0.09413558
205	0x3d9ab304	0.07553676
206	0xbe13b317	-0.14423786
207	0xbbcddf60	-0.006282732
208	0x3e5fb743	0.21847253
209	0x3e8b80f5	0.27246824
210	0xbdf171d0	-0.11789286
211	0x3d87c2c0	0.066289425
212	0x3e7afc03	0.24510197
213	0xbda3af8b	-0.079924665
214	0x3e38c4d0	0.18043828
215	0x3e6ec084	0.23315626
216	0x3eb157a0	0.34637165
217	0x3e5dbfe9	0.21655239
218	0x3e7e1627	0.24813138
219	0x3e732801	0.23745729
220	0xbe655256	-0.2239469
221	0x3d793408	0.060840636
222	0x3e40f783	0.18844418
223	0x3db525d0	0.08845103
224	0x3d9c60ba	0.07635637
225	0xbe426cac	-0.18986768
226	0xbcfa8ec2	-0.03058565
227	0xbead0d5e	-0.3379926
228	0xbe3c7e87	-0.18407641
229	0xbeaa0ab1	-0.33211282
230	0x3dfa98dc	0.12236187
231	0xbe4502cb	-0.19239347
232	0x3c803961	0.01565236
233	0xbdf25cd2	-0.1183411
234	0x3ea6da56	0.32588452
235	0x3ea1e98f	0.31623504
236	0x3e23d131	0.15997769
237	0xbd96ae65	-0.07357482
238	0x3e4968be	0.19668862
239	0x3eabf08f	0.3358197
240	0x3e1d1b72	0.15342501
241	0x3dbbae04	0.0916405
242	0xbdf2685b	-0.118363105
243	0xbe240fe7	-0.16021691
244	0x3c52fb56	0.012877306
245	0xbe9a84a5	-0.30179325
246	0xbe02df03	-0.12780385
247	0x3e760221	0.2402425
248	0xbe8d8821	-0.2764292
249	0xbe8747b4	-0.26421893
250	0x3d0fcbf9	0.035106633
251	0x3e848563	0.25883016
252	0x3e005646	0.1253291
253	0xbd8fd73e	-0.07023476
254	0x3e8592a2	0.26088434
255	0xbe811d9f	-0.25217912

weight f4 [64, 64]
0	0x3d6f0f87	0.058364417
1	0xbe36335d	-0.17793031
2	0xbe03a284	-0.12854964
3	0xbe201b2a	-0.15635362
4	0x3cd3d83b	0.025859943
5	0xbc3bfea4	-0.011474285
6	0xbe000fea	-0.1250607
7	0xbcb57541	-0.022150638
8	0xbde39de5	-0.111141
9	0x3d1c52d0	0.038164914
10	0xbc67e3b3	-0.014153409
11	0x3e01b797	0.1266769
12	0xbe623507	-0.22090541
13	0xbceb73b4	-0.028741695
14	0xbe0b785b	-0.1362013
15	0xbdc7b364	-0.09751013
16	0x3e04ec66	0.12980804
17	0x3da75c20	0.08171868
18	0x3d9053a0	0.070472
19	0x3d317b2b	0.043330353
20	0x3cee3727	0.029079033
21	0xbd054e25	-0.032545228
22	0xbd04ac87	-0.032391097
23	0xbd915a29	-0.07097275
24	0xbbfe119b	-0.0077535636
25	0xbcc9438f	-0.024568347
26	0x3d26f7a3	0.04076351
27	0xbd15510a	-0.036454238
28	0x3dfb7450	0.12278044
29	0xbb678d72	-0.003533211
30	0xbe36f043	-0.1786509
31	0xb9f91fbf	-0.00047516634
32	0xbd0da62a	-0.034582295
33	0xbcabe433	-0.020982837
34	0xbe716019	-0.23571815
35	0xbd0508e4	-0.032479182
36	0xbce5c355	-0.028047243
37	0xbcf18cd7	-0.029486103
38	0xbd98b089	-0.074555464
39	0xbe084f76	-0.13311562
40	0xbe4df9cc	-0.20114821
41	0xbdba292e	-0.09089886
42	0x3d5b189d	0.05349027
43	0x3db9a3c0	0.09064436
44	0x3c88fb85	0.016721496
45	0xbd8e78d1	-0.06956638
46	0x3d48701c	0.04893504
47	0xbe41a4df	-0.1891055
48	0x3dbb108b	0.09134015
49	0x3d8661ec	0.06561646
50	0xbe0a74ff	-0.13521193
51	0xbdbeb076	-0.09311001
52	0xbde13003	-0.10995486
53	0xbdb7d949	-0.08976991
54	0xbd4e27af	-0.050330814
55	0xbd290f3f	-0.041274305
56	0x3cbd8134	0.023132898
57	0x3d621860	0.055199027
58	0xbe1d66d8	-0.15371263
59	0xbdb946be	-0.09046696
60	0x3e452345	0.19251736
61	0xbd04df11	-0.032439295
62	0xbd611f26	-0.054961346
63	0x3d405ea8	0.04696527
64	0xbdab9adc	-0.083791465
65	0x3a5f5250	0.00085190404
66	0x3a66e32a	0.0008807654
67	0x3e0238b2	0.1271694
68	0x3dc6a82f	0.09700047
69	0x3cc22cfb	0.023703089
70	0x3da94b7f	0.08266353
71	0x3cfab1a4	0.030602284
72	0xbdd0baa0	-0.10191846
73	0xbd22f94f	-0.03978854
74	0xbc081987	-0.008306867
75	0x3b5aadc4	0.0033367733
76	0x3e18bac9	0.14915003
77	0xbca9cf0f	-0.020728616
78	0x3d60e8ab	0.05490939
79	0x3de262ba	0.11053987
80	0xbcdf1ca2	-0.027235333
81	0xbdefc431	-0.117073424
82	0x3d48bf35	0.049010474
83	0xbe210bc1	-0.1572714
84	0x3e110317	0.14161335
85	0x3dfb1b22	0.122610345
86	0x3da5c902	0.0809498
87	0xbdb01bd6	-0.08599059
88	0xbd4a4ebc	-0.049391493
89	0x3d5d8de1	0.054090384
90	0xbe0a1854	-0.13485843
91	0x3d84468a	0.06458767
92	0x3decdde4	0.1156576
93	0xbc07ab92	-0.008280652
94	0xbd3060df	-0.043061133
95	0x3cdc032b	0.02685698
96	0xbdbc452e	-0.091928825
97	0x3e195dac	0.14977139
98	0x3e23d994	0.16000968
99	0x3c61fd4e	0.013793303
100	0xbcd3262b	-0.025775036
101	0x3d24105b	0.04005466
102	0x3df99289	0.121861525
103	0x3df2ba72	0.11851968
104	0xbdc46c56	-0.09590976
105	0xbe15146e	-0.14558575
106	0xbd9c6cda	-0.07637949
107	0xbe2dd108	-0.1697427
108	0x3da63494	0.08115497
109	0xbd9febc2	-0.07808639
110	0x3d225f89	0.03964189
111	0xbcaff35c	-0.021478347
112	0xbe4fc629	-0.20290436
113	0xbd354e0d	-0.04426389
114	0x3e122b4d	0.1427433
115	0x3d8f8466	0.07007675
116	0x3e0722f3	0.13196926
117	0x3dce63d6	0.10077636
118	0x3d93d1f9	0.072177835
119	0xbe1e2183	-0.15442471
120	0x3dc2bcdb	0.095086776
121	0xbd2bab4c	-0.04191141
122	0x3d83537b	0.06412407
123	0xbcb005ba	-0.021487106
124	0x3de7ad98	0.11312407
125	0xbd172cad	-0.03690784
126	0xbc680270	-0.014160737
127	0xbd6b1234	-0.057390407
128	0xbb76b0b3	-0.0037641942
129	0x3d7ab6d9	0.061209533
130	0x3d627808	0.055290252
131	0x3da49f37	0.0803818
132	0x3daff5b1	0.08591784
133	0xb834f899	-4.314687e-05
134	0x3c92b144	0.017906792
135	0xbcde3816	-0.027126353
136	0x3db31f8c	0.087462515
137	0xbda94a8f	-0.08266174
138	0x3d5d64c7	0.054051187
139	0xbd132552	-0.035924263
140	0xbd836fce	-0.064178094
141	0xbcb29977	-0.021801693
142	0xbce28e32	-0.027655695
143	0xbbc54762	-0.0060204724
144	0x3d426ce6	0.047467135
145	0x3d515820	0.051109433
146	0x3d99207a	0.074768975
147	0x3cace0ad	0.021103228
148	0x3d69560e	0.056966834
149	0xbe1fc84d	-0.15603752
150	0xbd2c0949	-0.042001043
151	0xbdaaecf7	-0.08345979
152	0x3b9f29d1	0.00485728
153	0x3e03f005	0.12884529
154	0xba8fc413	-0.0010968469
155	0x3d95e750	0.0731951
156	0xbdab695b	-0.08369704
157	0xbd92c45c	-0.07166359
158	0xbcae2fcb	-0.021263024
159	0x3e13e463	0.14442591
160	0x3dfd8445	0.12378744
161	0xbe01bd3f	-0.12669848
162	0xbcb5d925	-0.02219827
163	0xbc9b85d1	-0.018984707
164	0xbdaf64cd	-0.08564148
165	0xbd8b5de5	-0.06805018
166	0x3dc3b34e	0.09555684
167	0xbccacd46	-0.024756085
168	0xbdb31aee	-0.08745371
169	0xbcce69f0	-0.025197
170	0xbd9324d1	-0.071847565
171	0xbd563717	-0.05229863
172	0xbcd7b8d1	-0.026333245
173	0x3db23015	0.08700577
174	0x3da0fd9c	0.07860872
175	0xbbefec68	-0.007321883
176	0x3e3e5a89	0.18589224
177	0x3de4fe5e	0.11181329
178	0xbd52ab83	-0.051433098
179	0xbe286633	-0.16445236
180	0x3d9679ee	0.07347475
181	0xbd164159	-0.036683414
182	0xbca927c3	-0.020648843
183	0x3dc4ce25	0.096096314
184	0xbde3afb5	-0.11117498
185	0xbd4d6f2e	-0.050154857
186	0x3d860771	0.06544388
187	0x3c87ac21	0.01656157
188	0xbd7e894e	-0.062142663
189	0x3ce2e067	0.027694894
190	0xbdbf1b88	-0.09331423
191	0xbd3e7baf	-0.046504673
192	0x3db07a55	0.08617083
193	0x3e3d92d9	0.18513049
194	0xbd8d13e0	-0.068885565
195	0xbdf60d8b	-0.12014302
196	0xbdb81076	-0.08987515
197	0x3c11deef	0.008903249
198	0x3dd44102	0.10363962
199	0x3dc4df7b	0.09612938
200	0xbdf82e4f	-0.12118208
201	0x3c2ee9f8	0.0106759
202	0x3def2bc1	0.11678267
203	0x3cfaa580	0.030596495
204	0x3c294073	0.010330307
205	0x3d187946	0.03722503
206	0xbc3862fe	-0.01125407
207	0xbdffad38	-0.12484211
208	0x3dd63ea8	0.104611695
209	0xbd093ca3	-0.033505093
210	0xbc06ad5c	-0.008220043
211	0x3dd56b9d	0.10420916
212	0x3c955b9b	0.018232157
213	0xbdf68b9a	-0.12038346
214	0xbd97c84c	-0.074112505
215	0x3e2324a1	0.15931942
216	0x3c971cc7	0.01844634
217	0x3e396991	0.18106677
218	0x3dd7fa55	0.10545794
219	0x3c051c1a	0.008124376
220	0xbd531e03	-0.051542293
221	0xbccabba1	-0.024747672
222	0x3deb52e5	0.1149042
223	0x3dd8f87f	0.10594272
224	0x3d67c024	0.056579724
225	0x3d392306	0.045199417
226	0xbd2dbc9e	-0.042416207
227	0xbdc6d522	-0.097086206
228	0x3d933483	0.0718775
229	0x3dc31237	0.095249586
230	0x3c53100e	0.012882246
231	0xbe09592b	-0.13412921
232	0x3dc16a03	0.09444048
233	0x3d8bad2e	0.06820141
234	0x3ce3ce9a	0.027808476
235	0x3d5182a0	0.051149964
236	0xb8120d64	-3.4821584e-05
237	0x3c729ce3	0.0148079125
238	0xbd8d76cb	-0.069074236
239	0x3b8e6055	0.0043449798
240	0x3e62a098	0.22131574
241	0xbd17d717	-0.03707036
242	0x3b90e77f	0.0044221277
243	0xbdd2d4ee	-0.10294519
244	0x3cf4f94e	0.029904034
245	0xbd828dbf	-0.06374692
246	0xbbb9ed53	-0.005674043
247	0x3dda2983	0.10652449
248	0x3d75a344	0.059970155
249	0x3d3db119	0.04631147
250	0x3e651487	0.22371112
251	0x3ca50ec6	0.020148646
252	0xbcdbbd58	-0.026823685
253	0x3d14aafa	0.03629587
254	0x3d10c03e	0.035339586
255	0xbdab896c	-0.083758205

weight f4 [64, 64]
0	0xbd89e3b8	-0.06732887
1	0x3b9cef14	0.0047892425
2	0xbdb9d9b7	-0.09074729
3	0xbda33352	-0.07968773
4	0x3e05a950	0.13052869
5	0xbe00726c	-0.12543648
6	0x3d24572a	0.04012219
7	0xbdefcb88	-0.117087424
8	0xbdce6e95	-0.100796856
9	0xbd4f33f0	-0.05058664
10	0xbd810472	-0.06299676
11	0xbd7e9d43	-0.062161695
12	0x3bcb383c	0.006201772
13	0xbd46260f	-0.04837614
14	0xbe018da2	-0.12651685
15	0xbd93a61d	-0.07209418
16	0x3bb9061d	0.0056464807
17	0xbdd13579	-0.10215277
18	0xbd31777f	-0.04332685
19	0x3e085308	0.13312924
20	0xbdd77e73	-0.10522165
21	0x3ba997ce	0.005175567
22	0xbdd0f35b	-0.10202666
23	0x3c95bab5	0.018277505
24	0xbd3c1867	-0.04592171
25	0x3cf5acef	0.029989688
26	0xbdf7c5c9	-0.120982714
27	0x3dfb5413	0.12271895
28	0xbbaf5506	-0.0053507118
29	0x3d518c94	0.051159456
30	0x3c1f1f9a	0.009712124
31	0xbda1ad35	-0.07894365
32	0x3e029a7b	0.12754242
33	0x3e18e951	0.14932753
34	0x3cd609d9	0.026127743
35	0xbdcfc8fe	-0.10145758
36	0x3caf2ea2	0.021384541
37	0xbcaba87f	-0.020954369
38	0x3dafc494	0.08582416
39	0xbe1147d4	-0.14187557
40	0xbc84f5ab	-0.016230425
41	0xbddef037	-0.10885661
42	0xbdb55dcd	-0.08855782
43	0x3d8516d8	0.06498498
44	0x3d6823a2	0.056674607
45	0x3d8715cd	0.06595955
46	0x3a42c023	0.00074291433
47	0xbce2dc0b	-0.027692815
48	0x3df9b9c2	0.121936336
49	0x3df4909e	0.11941646
50	0x3d84bb36	0.0648102
51	0x3d258ce3	0.040417563
52	0xbe0bc859	-0.13650645
53	0x3d248c87	0.04017308
54	0xbcef3f4d	-0.029204989
55	0x3dcce247	0.100040965
56	0xbd870f1c	-0.06594679
57	0xbdad9cc9	-0.0847717
58	0xbcfe1bcd	-0.031019116
59	0xbde9ae2c	-0.11410174
60	0xbcb0e455	-0.021593252
61	0xbcf1c80e	-0.029514339
62	0x3e0f6975	0.14005072
63	0xbdb86e93	-0.09005465
64	0xbdeb8290	-0.11499512
65	0x3c894c55	0.01676003
66	0x3e341c56	0.17588934
67	0x3d4d5d2c	0.050137684
68	0xbd6771e7	-0.05650511
69	0x3d841943	0.06450131
70	0xbdd1228a	-0.10211666
71	0x3da73d3d	0.08165977
72	0x3d4b33ed	0.049610067
73	0xbd6492e1	-0.055804137
74	0xbdc8a2c6	-0.097966716
75	0xbd3b04e7	-0.045658972
76	0xbd99424f	-0.074833505
77	0x3d52d7d3	0.051475357
78	0x3dc8eb37	0.09810489
79	0xbe089aa4	-0.1334024
80	0x3d97d217	0.07413118
81	0xbd4530ab	-0.048142117
82	0xbd8a9e9f	-0.06768536
83	0xbcd51682	-0.02601171
84	0xbd6d7ee3	-0.057982337
85	0xbc771ca6	-0.015082514
86	0x3da3a150	0.07989752
87	0x3cccd860	0.02500552
88	0x3e0891d2	0.13336876
89	0x3d0797b5	0.033103663
90	0xbe0ac57a	-0.13551894
91	0x3e30ecec	0.17277879
92	0xbdca5751	-0.098799355
93	0x3d082e98	0.03324756
94	0x3c99d6d8	0.018779203
95	0x3d5d744e	0.054065995
96	0xbd7b3f13	-0.06133945
97	0xbdc254b4	-0.09488812
98	0x3d8a1234	0.06741753
99	0xbd7fb257	-0.062425938
100	0x3d793ba5	0.060847897
101	0x3c74c038	0.014938407
102	0x3d501eba	0.050810553
103	0xbd3d4c08	-0.046215087
104	0x3dac2edb	0.084073745
105	0xbbcb0f5c	-0.0061968993
106	0xbce9545e	-0.028482612
107	0xbdaaca3f	-0.08339357
108	0xbd4642df	-0.048403617
109	0x3d901dc9	0.07036931
110	0xbd9e4cbd	-0.077294804
111	0xbdd76bc3	-0.10518601
112	0x3c1e102c	0.00964741
113	0xbd8480cc	-0.064698786
114	0x3d1941b8	0.03741619
115	0x3dd0ef06	0.1020184
116	0x3d4eaddb	0.05045877
117	0x3dfae3db	0.12250491
118	0xbcf0a279	-0.029374348
119	0x3bc59839	0.0060301092
120	0xbd858a9c	-0.06520578
121	0xbdc49e96	-0.0960056
122	0x3c18124e	0.009281708
123	0x3cbba3d0	0.02290526
124	0x3e2bd1a3	0.16779189
125	0x3e0c101b	0.13678019
126	0x3d513d1c	0.05108367
127	0xbdb8db84	-0.09026244
128	0xbdb3c4a7	-0.08777743
129	0x3c32dee7	0.010917402
130	0xbc77d35e	-0.015126077
131	0x3d0fd354	0.035113648
132	0xbcbcf3f5	-0.023065547
133	0xbd83221c	-0.0640299
134	0xbd42ecd6	-0.047589146
135	0x3d85fa2c	0.06541857
136	0x3b564f18	0.0032700952
137	0xbd553f2a	-0.05206219
138	0x3cc183f1	0.023622485
139	0xbd8a67ff	-0.06758117
140	0xbda1f142	-0.079073444
141	0x3d44c42d	0.04803865
142	0xbd8cbd6b	-0.06872066
143	0xbdbdba1e	-0.09264015
144	0xbd549777	-0.05190226
145	0x3d9f560e	0.077800855
146	0x3dab74f9	0.0837192
147	0xbcd187d9	-0.025577473
148	0x3c97c356	0.01852576
149	0xbcf90146	-0.030396115
150	0x3caeaa42	0.02132142
151	0x3dbc6580	0.09199047
152	0xbbd70e03	-0.0065629496
153	0x3e1c1f3d	0.15246291
154	0x3d961608	0.07328421
155	0x3d39b260	0.045336127
156	0xbc30806b	-0.010772805
157	0x3d7b3bc3	0.06133629
158	0x3d8fe469	0.07025988
159	0xbdb30e8c	-0.08743009
160	0x3d965db0	0.07342088
161	0xbe0981f3	-0.13428478
162	0xbdcf0c95	-0.10109822
163	0x3cc66bd5	0.02422134
164	0xba906a64	-0.0011018035
165	0x3dc8c4b2	0.09803142
166	0x3d715f98	0.058929056
167	0x3d38c975	0.045114
168	0x3dc8992b	0.097948395
169	0xbd41bd34	-0.04729958
170	0x3de928eb	0.113847576
171	0x3d24cec7	0.04023626
172	0x3bdfde85	0.0068319463
173	0x3d67603e	0.056488268
174	0xbe124a14	-0.14286071
175	0xbda4ad63	-0.080408834
176	0x3de14dc8	0.11001164
177	0x3b9599a1	0.004565433
178	0xbd0c2ad8	-0.034220546
179	0xbdf84f96	-0.12124555
180	0xbe15accf	-0.14616702
181	0x3cda482b	0.02664574
182	0xbc6ca6e2	-0.014444085
183	0x3df38839	0.11891217
184	0xba984601	-0.0011617542
185	0xbd4d4a58	-0.050119728
186	0xbd6b39ca	-0.05742816
187	0xbe063dae	-0.13109466
188	0xbd601827	-0.054710533
189	0x3d821c68	0.06353074
190	0x3d667688	0.056265384
191	0xbd9b51f7	-0.07583993
192	0x3dba1bd3	0.09087338
193	0xbd0a5b5a	-0.033778526
194	0xbd227a47	-0.039667394
195	0xbe1f224e	-0.1554043
196	0x3dcd27ee	0.100173816
197	0x3dec391d	0.11534331
198	0x3e196739	0.14980783
199	0x3e0e3088	0.138857
200	0xbd85bd25	-0.06530217
201	0xbd6e897e	-0.05823659
202	0x3d57ad1b	0.05265532
203	0xbc127f81	-0.008941532
204	0x3d563a2c	0.05230157
205	0x3d8fab37	0.070150785
206	0xbc188c86	-0.009310847
207	0xbcd27059	-0.025688337
208	0xbe23632e	-0.15955803
209	0xbdecfa0f	-0.115711324
210	0xbe08a4da	-0.13344136
211	0x3da7769e	0.08176921
212	0xbdfcc20f	-0.12341701
213	0x3cb35f5d	0.021896059
214	0xbd6645c2	-0.05621887
215	0x3cf8e474	0.030382372
216	0xbd250763	-0.040290248
217	0x3dd74910	0.105119824
218	0xbd9bc1c5	-0.07605318
219	0xbd1b8db8	-0.03797695
220	0x3d2ff93e	0.042962305
221	0xbc8858e3	-0.016643947
222	0xbc5fc6be	-0.013658224
223	0x3c59b04b	0.01328666
224	0xbd994e5d	-0.0748565
225	0x3d2e70c6	0.042588018
226	0xbc964407	-0.018342985
227	0xbe2ede41	-0.1707697
228	0xbd5f942e	-0.054584675
229	0xbdbbe310	-0.09174168
230	0xbe083bef	-0.13304113
231	0xbe0d26ae	-0.13784286
232	0x3d8b4bb7	0.06801551
233	0xbb29737f	-0.0025856195
234	0xbbf0fecd	-0.0073545934
235	0xbb1751d6	-0.002308955
236	0xbc1bd388	-0.009510882
237	0x3dc1c02f	0.09460484
238	0x3dfa23e2	0.12213875
239	0x3e1f1439	0.15535058
240	0xbc2e37c5	-0.010633414
241	0x3dca03d5	0.09864012
242	0xbd85f045	-0.065399684
243	0x3dab0d92	0.08352198
244	0x3dbc88d5	0.09205786
245	0x3d6cd006	0.057815574
246	0x3e12dc25	0.14341791
247	0x3d597470	0.05308956
248	0x3c1a21c7	0.009407467
249	0xbddccaae	-0.107808456
250	0x3d0256a7	0.03182092
251	0x3e301984	0.17197233
252	0x3c0a3fd1	0.008438067
253	0xbdede102	-0.116151825
254	0xbdef586d	-0.11686788
255	0x3da4a9a0	0.08040166

freqs f4 [8]
0	0x3f6d21b6	0.92629564
1	0x400bebf5	2.1862767
2	0x404c6126	3.1934295
3	0x4082b2a3	4.0843062
4	0x40a7811e	5.2345114
5	0x40c83c8e	6.257392
6	0x40ec5157	7.384929
7	0x4107c0d9	8.484582

weight f4 [64, 8]
0	0x3e5b5b82	0.21421626
1	0x3dc82da8	0.09774333
2	0x3d450270	0.048098028
3	0x3e4372c9	0.19086756
4	0xbe52b8a7	-0.20578252
5	0x3dba4885	0.09095863
6	0x3d8a4536	0.06751482
7	0x3d2e83c4	0.04260613
8	0xbeb00431	-0.34378198
9	0xbeb0f8c3	-0.3456479
10	0xbdf16174	-0.11786166
11	0xbe72517c	-0.23663896
12	0xbe9bd4d9	-0.30435827
13	0xbdc6bde7	-0.0970419
14	0xbced8849	-0.02899565
15	0x3d54d7d5	0.051963646
16	0xbdd59ce9	-0.10430319
17	0xbe32f6a7	-0.17476903
18	0xbe1ace33	-0.15117721
19	0x3e486ff4	0.19573957
20	0x3dc87ee9	0.09789831
21	0x3ec6f6e4	0.38860238
22	0x3e04ee5a	0.12981549
23	0x3e6c8566	0.23097762
24	0xbe28cebe	-0.16485116
25	0xbe68b94a	-0.22726932
26	0x3de9acba	0.11409898
27	0x3e5e609c	0.21716541
28	0xbdbe2e15	-0.09286133
29	0x3e1a1123	0.150456
30	0xbe4cc4ab	-0.19996898
31	0x3e18fa9e	0.14939353
32	0xbecfd73e	-0.40593904
33	0xbde26906	-0.11055188
34	0xbe06a3f9	-0.13148488
35	0xbe027ec1	-0.12743665
36	0x3ccc89cd	0.024968052
37	0xbe238824	-0.15969902
38	0x3eba9d54	0.36448157
39	0xbe3165c8	-0.17323983
40	0x3e2b79ec	0.16745728
41	0xbea7d81a	-0.3278206
42	0x3e4e51ab	0.20148341
43	0x3e56552e	0.20930931
44	0xbe83733c	-0.25673854
45	0xbd64d39b	-0.055865865
46	0xbd5f9242	-0.05458284
47	0xbd231524	-0.039815083
48	0x3d47e23d	0.048799742
49	0x3e7ce17c	0.2469539
50	0xbddfe0db	-0.1093156
51	0x3cb47af3	0.022031283
52	0xbe5793bf	-0.21052454
53	0xbddf3515	-0.108987965
54	0xbe6452c3	-0.22297196
55	0x3db34149	0.087526865
56	0xbd8e96b8	-0.06962341
57	0x3e927528	0.28605008
58	0x3e07a4b7	0.13246427
59	0xbde26a3e	-0.1105542
60	0xbd7ca79f	-0.061683293
61	0x3df74623	0.120739244
62	0xbdc11008	-0.09426886
63	0x3e113c91	0.1418326
64	0xbe0bc37f	-0.13648795
65	0xbe82f3bc	-0.2557658
66	0xbddb6dea	-0.10714324
67	0x3be475ec	0.006972065
68	0x3d98924f	0.07449781
69	0x3e0336da	0.12813893
70	0xbea13e5d	-0.31492892
71	0xbe067b6f	-0.13133024
72	0xbeeb08d6	-0.4590518
73	0x3e94cff0	0.29064894
74	0x3e9dca1a	0.30818254
75	0xbec3f72b	-0.38274512
76	0xbe49ed0b	-0.19719331
77	0xbe5599cb	-0.20859449
78	0x3e658708	0.22414792
79	0x3d975004	0.07388309
80	0xbef386a5	-0.47563663
81	0xbdfc010f	-0.123048894
82	0x3ea08fd3	0.3135973
83	0x3c320fe1	0.010868044
84	0xbe89d52a	-0.26920444
85	0x3e2656d2	0.16244057
86	0x3ea28aa9	0.31746414
87	0x3e857e60	0.2607298
88	0x3e3bb512	0.18330792
89	0xbddd2fe7	-0.10800152
90	0x3c1d2a80	0.009592652
91	0x3e932c5a	0.28744775
92	0x3dc13046	0.094330356
93	0xbe90a023	-0.28247175
94	0x3e45b28e	0.19306394
95	0x3dd6c07d	0.10485933
96	0xbed6c388	-0.41946054
97	0xbe6f75cc	-0.2338478
98	0x3e8964f7	0.26834843
99	0x3e91979c	0.2843598
100	0xbe99163b	-0.29899773
101	0x3df6f406	0.120582625
102	0x3e630fb6	0.22173962
103	0x3d547234	0.051866725
104	0x3e7af7f7	0.24508654
105	0x3da35095	0.07974354
106	0x3dfc58d1	0.12321628
107	0x3e08291e	0.13296935
108	0xbd7f44f9	-0.062321637
109	0x3d9ea934	0.07747117
110	0xbdb94cf9	-0.090478845
111	0xbd6f1fbb	-0.05837987
112	0x3e532e08	0.20623028
113	0xbe380b6b	-0.17973106
114	0x3dc985f4	0.09840003
115	0x3e9fd3e4	0.31216347
116	0x3d5ee158	0.054414123
117	0x3ea1dda2	0.31614405
118	0xbcab6abe	-0.020924922
119	0xbda855d1	-0.08219493
120	0x3ed49969	0.41523293
121	0xbe42058b	-0.18947427
122	0x3eb20b38	0.34774184
123	0x3e9d028c	0.30666006
124	0xbe94479b	-0.2896088
125	0xbda6895c	-0.08131668
126	0x3e97945a	0.2960537
127	0xb9f5e44e	-0.00046900142
128	0xbec81185	-0.39075866
129	0x3d1838ee	0.037163667
130	0xbee25525	-0.44205585
131	0xbc61fae2	-0.013792725
132	0x3d78f379	0.06077907
133	0xbdefa806	-0.1170197
134	0xbd891491	-0.06693376
135	0x3e036485	0.12831314
136	0x3de7dd43	0.11321499
137	0xbcccb63f	-0.024989245
138	0xbe26eac8	-0.163005
139	0x3d6229e1	0.05521572
140	0xbcfa91f9	-0.030587183
141	0xbdb9ab37	-0.0906586
142	0xbdfb4ee8	-0.122709095
143	0x3d631cda	0.055447437
144	0xbed38a73	-0.41316566
145	0x3dfcba01	0.12340165
146	0xbe36fece	-0.17870638
147	0x3ea2c8bf	0.31793782
148	0x3c80df04	0.015731342
149	0x3e3b0c32	0.18266371
150	0x3d752c86	0.059856914
151	0xbe05ec32	-0.13078383
152	0x3dfb8d94	0.12282863
153	0xbe91eb2c	-0.28499734
154	0x3d9f9b05	0.077932395
155	0x3ea83f17	0.32860634
156	0xbdba21b5	-0.0908846
157	0x3eb59b2d	0.35469952
158	0xbe8d55cc	-0.2760452
159	0x3e10e58f	0.1415007
160	0x3e86b310	0.2630849
161	0xbe168dd0	-0.14702535
162	0xbeb67b0e	-0.35640758
163	0xbe9221ec	-0.28541505
164	0x3e270c98	0.16313398
165	0x3eb87a02	0.36030585
166	0xbe8ff9d7	-0.281203
167	0xbe2b6560	-0.1673789
168	0x3e6ffc99	0.23436202
169	0xbd991ae3	-0.07475831
170	0xbea6d9bc	-0.32587993
171	0xbd9c507e	-0.0763254
172	0x3ddfafb7	0.10922187
173	0xbeb306e6	-0.349662
174	0xbe1f654a	-0.15565982
175	0x3e39b780	0.18136406
176	0x3dbc7825	0.09202603
177	0xbe384a36	-0.17997059
178	0x3ec82991	0.39094213
179	0x3c412ae3	0.01179001
180	0x3e5af01b	0.21380655
181	0x3d46fe4e	0.048582368
182	0xbdeba8ef	-0.11506831
183	0x3e8c4ab0	0.27400732
184	0xbeec9b05	-0.4621202
185	0x3dd76f42	0.105192676
186	0xbe4bface	-0.19919893
187	0xbd46c406	-0.048526786
188	0x3e8a3e4a	0.27000648
189	0xbeae7df7	-0.3408048
190	0x3cbdf34f	0.023187308
191	0xbdcc3911	-0.09971822
192	0x3ec4e724	0.38457596
193	0xbe703aeb	-0.23459975
194	0xbda985b5	-0.08277456
195	0xbe5445b9	-0.20729722
196	0x3e85768e	0.26067013
197	0x3e80ed17	0.25180885
198	0xbcb6b459	-0.022302793
199	0x3dd3cb1e	0.10341476
200	0x3f0435e2	0.5164472
201	0xbe79dc25	-0.24400385
202	0x3dbe2269	0.09283907
203	0x3ea10fb4	0.31457293
204	0xbe4db9de	-0.20090434
205	0xbe6a3b10	-0.22874093
206	0x3e9ecaed	0.31014195
207	0x3ea7a679	0.32744196
208	0x3e624e5e	0.22100207
209	0x3e5f48b7	0.21805082
210	0x3e080dad	0.13286467
211	0xbe794b7e	-0.24345204
212	0xbe9d2fbf	-0.3070049
213	0x3dad4c8b	0.08461865
214	0xbe0993a3	-0.13435225
215	0x3ed69de3	0.41917333
216	0xbd809295	-0.06277958
217	0x3e053e29	0.13011993
218	0xbda46562	-0.0802715
219	0xbe0661ad	-0.13123198
220	0xbc048b29	-0.008089819
221	0xbe4e30f6	-0.20135865
222	0xbe89116b	-0.267711
223	0xbd81e11a	-0.06341763
224	0xbedcb73b	-0.43108544
225	0xbe9bc807	-0.30426046
226	0x3e35bed6	0.1774858
227	0xbe22742a	-0.15864626
228	0x3cea2862	0.02858371
229	0xbcaf35ae	-0.021387901
230	0xbe840a3a	-0.25789052
231	0xbe16f7f4	-0.14743024
232	0xbecbe369	-0.39821938
233	0x3d51257e	0.051061146
234	0x3e8f2472	0.27957493
235	0xba94f9a6	-0.0011365905
236	0x3dcea1d8	0.10089463
237	0x3e56942b	0.20954959
238	0x3e36ccfc	0.17851633
239	0x3cf510b4	0.029915191
240	0xbe2928b1	-0.16519429
241	0x3e14f3ce	0.14546129
242	0x3c8a87f4	0.01691053
243	0x3e9e1d5b	0.3088177
244	0xbd9d8e03	-0.07693102
245	0x3e8da793	0.2766691
246	0x3e2f3a22	0.1711202
247	0x3e90b449	0.28262547
248	0x3e2f5dd7	0.17125641
249	0xbd2199b1	-0.039453212
250	0xbdb180a7	-0.086671166
251	0x3e3f8bfb	0.18705742
252	0x3e8f73d4	0.28018057
253	0x3e9429f8	0.2893827
254	0xbea1ff98	-0.31640315
255	0x3ccd8aeb	0.025090655

weight f4 [64, 64]
0	0x3d549040	0.05189538
1	0xbdea075c	-0.11427185
2	0xbd8eaefd	-0.0696697
3	0xbdcd21f8	-0.10016245
4	0x3d13e2ea	0.036105074
5	0xbc49029c	-0.0122686885
6	0xbe1245e3	-0.14284472
7	0x3c6a4812	0.014299409
8	0xbc11b663	-0.008893582
9	0xbd9706e2	-0.0737436
10	0x3d0d2367	0.03445759
11	0x3dbda072	0.09259118
12	0x3d12f7d9	0.035880897
13	0xbd358862	-0.044319518
14	0xbda1bc54	-0.07897249
15	0xbda8c9fb	-0.0824165
16	0x3d5a333e	0.053271525
17	0xbdd8d7ca	-0.105880335
18	0x3d5d4692	0.05402238
19	0xbe126226	-0.14295253
20	0xbdb8ed01	-0.0902958
21	0x3dc3c8ef	0.095598094
22	0x3b3c67fe	0.0028748508
23	0xbd8fb809	-0.07017524
24	0xbc427470	-0.011868581
25	0x3b7d608c	0.0038662283
26	0xbd29a854	-0.041420296
27	0xbd230e56	-0.039808594
28	0xbe567ba8	-0.20945609
29	0xbdfc1e1e	-0.12310432
30	0xbd4efe87	-0.050535705
31	0xbc6e47c7	-0.01454348
32	0x3d9556b4	0.07291928
33	0xbda947c2	-0.0826564
34	0xbc5bf5c3	-0.013425293
35	0x3d662582	0.056188114
36	0xbd321294	-0.04347475
37	0xbd487cab	-0.048947018
38	0x3cadc2b3	0.021211004
39	0xbe498207	-0.19678508
40	0xbc74b891	-0.014936582
41	0xbc40b7af	-0.011762544
42	0x39e0936c	0.00042834447
43	0xbdd9bd0b	-0.1063176
44	0x3e20d06c	0.15704507
45	0x3d50314b	0.05082826
46	0xbde32cb6	-0.11092512
47	0x3c494b23	0.01228598
48	0xbe482f05	-0.19549187
49	0xbb3659dd	-0.0027824559
50	0x3d46de0e	0.04855161
51	0x3dc36bb8	0.0954203
52	0x3df6509f	0.12027096
53	0xbc88e2b3	-0.016709661
54	0xbdb640c7	-0.08899074
55	0xbe0fb860	-0.14035177
56	0xbc61738c	-0.013760459
57	0x3dce9431	0.10086859
58	0x3bd7594d	0.006571925
59	0xbd752454	-0.0598491
60	0x3d3ae9d5	0.045633156
61	0x3d82a7e8	0.06379682
62	0x3d9bce70	0.07607734
63	0x3d1903b1	0.037357036
64	0x3db81433	0.08988228
65	0x3d6a3d62	0.057187445
66	0x3e13f79c	0.14449924
67	0x3d944cec	0.07241234
68	0x3d302658	0.043005317
69	0x3d6328d6	0.055458866
70	0xbde02055	-0.10943667
71	0xbe1ad6ae	-0.15120956
72	0xbda2195d	-0.07914994
73	0xbd30264e	-0.04300528
74	0xbc047181	-0.008083702
75	0xbde5df18	-0.112241924
76	0xbe1b02dd	-0.15137811
77	0x3da61b99	0.081107326
78	0xbd7a8218	-0.061159223
79	0xbdb33d19	-0.08751888
80	0xbdf8dfda	-0.12152071
81	0xba554775	-0.0008135953
82	0xbdc5884b	-0.096451364
83	0xbdf15227	-0.117832474
84	0xbb237a91	-0.0024944881
85	0x3db7d1bd	0.08975551
86	0x3dc43759	0.09580869
87	0xbe5a117f	-0.21295737
88	0xbc67b722	-0.014142783
89	0xbd6c2aad	-0.057657886
90	0xbd7168ad	-0.058937717
91	0xbdd00d4f	-0.101587884
92	0x3dc3de47	0.095638804
93	0xbd3bcd7c	-0.045850262
94	0x3dcbf97d	0.099596955
95	0xbc8eec2d	-0.017446602
96	0xbde512ee	-0.11185251
97	0x3d2fd6fe	0.042929642
98	0x3dadba36	0.084827825
99	0x3e308073	0.172365
100	0xbdba2928	-0.09089881
101	0xbd00d280	-0.03145075
102	0xbde0ea8a	-0.10982235
103	0xbdefd286	-0.11710076
104	0xbca41123	-0.020027703
105	0x3c30170b	0.010747681
106	0x3d1d714e	0.038438134
107	0x3dce6c94	0.100793034
108	0xbda4d29b	-0.08047982
109	0x3cd7135d	0.02625435
110	0xbdffbea6	-0.12487535
111	0xbd0b7d6d	-0.034055162
112	0x3d6995a7	0.057027485
113	0x3d156958	0.036477417
114	0xbdd4c4c5	-0.10389093
115	0xbe4fe00f	-0.20300315
116	0xbd9023e9	-0.07038099
117	0xbdcff629	-0.10154373
118	0xbe263901	-0.16232683
119	0x3cc87460	0.024469554
120	0x3c2bde72	0.010490047
121	0xbc9c084f	-0.01904693
122	0x3d827903	0.063707374
123	0xbdea7230	-0.11447561
124	0x3da0172b	0.07816919
125	0x3d53e48e	0.05173164
126	0x3d1e7584	0.03868629
127	0x3c78f6fd	0.015195605
128	0xbdaa85aa	-0.08326276
129	0xbdabf9e0	-0.08397269
130	0x3d8d1d4a	0.06890352
131	0xbdfa68f2	-0.12227048
132	0xbcf03039	-0.02931987
133	0x3d71b821	0.05901349
134	0x3c5d12b3	0.013493228
135	0x3ba224ce	0.004948235
136	0xbd89872c	-0.06715235
137	0x3cadab01	0.021199705
138	0xbb5345c2	-0.0032237624
139	0xbb17048e	-0.0023043486
140	0x3e237add	0.15964837
141	0xbd97d97b	-0.07414528
142	0x3dbed5ad	0.09318099
143	0xbdf44421	-0.11927057
144	0xbdd79ecc	-0.10528335
145	0x3d82dbf1	0.06389607
146	0xbd54cb37	-0.051951613
147	0x3dadca1c	0.08485815
148	0x3bebc16d	0.007194689
149	0xbe1cdd50	-0.15318799
150	0xbde437b7	-0.11143439
151	0x3dc0416a	0.09387477
152	0xbe000bf4	-0.1250456
153	0xbd00a697	-0.031408872
154	0x3d2d6617	0.04233369
155	0xbd14fc51	-0.03637344
156	0x3e3233c3	0.17402558
157	0xbcbf8bae	-0.023382034
158	0x3b7f8195	0.003898715
159	0x3c0262c9	0.0079581225
160	0x3e03d5fc	0.12874597
161	0xbe0c290e	-0.13687536
162	0x3c9a318d	0.018822456
163	0xbdb286be	-0.08717106
164	0x3d72e581	0.059300903
165	0x3cc70930	0.024296373
166	0xbd89f835	-0.06736795
167	0x3dfbf799	0.12303085
168	0xbd48783c	-0.04894279
169	0xbd052127	-0.03250232
170	0xbb376b9c	-0.0027987724
171	0x3d89504b	0.06704768
172	0xbd1dd0b2	-0.038529105
173	0x3d7e9d9a	0.06216202
174	0xbd9aae29	-0.0755275
175	0xbd9c4ea0	-0.07632184
176	0x3e01d9f4	0.12680799
177	0xbd0e2e8c	-0.03471236
178	0xbd319f2f	-0.0433647
179	0x3d417850	0.04723388
180	0xbdd4368e	-0.10361968
181	0xbd593834	-0.053032115
182	0xbc19ca3c	-0.009386595
183	0xbdbc2104	-0.09185985
184	0x3d872a12	0.06599821
185	0x3db4c660	0.088268995
186	0xbd73d42b	-0.05952851
187	0xbd34452a	-0.044011272
188	0xbe1545e4	-0.14577442
189	0xbda5dc5c	-0.08098671
190	0xbdcd2f7e	-0.10018824
191	0xbca9e351	-0.020738276
192	0xbc7d7fe9	-0.015472391
193	0xbdc95495	-0.09830586
194	0x3db2f55d	0.087382056
195	0xbd669ec9	-0.056303773
196	0x3ab664cc	0.0013915538
197	0x3cdfc0f4	0.027313687
198	0xbd590d36	-0.052991115
199	0x3d25a7a8	0.040443093
200	0xbe067376	-0.13129982
201	0xbd8ce4ed	-0.06879602
202	0x3dd80e05	0.10549549
203	0x3af1c9f6	0.001844703
204	0xbd48766a	-0.048941053
205	0x3d232c52	0.03983719
206	0x3dce68d0	0.10078585
207	0x3df995ad	0.121867515
208	0xbe055335	-0.13020022
209	0x3dc45bcd	0.09587822
210	0xbe1135e8	-0.1418072
211	0xbdfbb776	-0.12290852
212	0xbb8efd60	-0.0043637007
213	0x3c6874a6	0.014187967
214	0xbdd0ed78	-0.102015436
215	0xbc2b8da4	-0.0104707815
216	0x3cdf4c94	0.027258195
217	0x3cedd0ce	0.02903023
218	0x3d86bc76	0.06578915
219	0x3c8702a3	0.01648075
220	0xbde8160e	-0.113323316
221	0x3d3185db	0.043340545
222	0x3dd040ef	0.10168635
223	0xbd048162	-0.03234995
224	0xbde980f9	-0.11401553
225	0xbd7feff1	-0.062484685
226	0xbd1a538c	-0.037677333
227	0xbc8f8ad3	-0.017522251
228	0xbe150420	-0.14552355
229	0xbe18e2af	-0.14930223
230	0xbd7829c2	-0.0605867
231	0xbd6e82ce	-0.058230214
232	0x3c97c6c5	0.018527398
233	0xbe1b94b4	-0.15193444
234	0x3d0dc924	0.03461565
235	0xbb57a6a6	-0.0032905727
236	0x3d965c28	0.07341796
237	0x3d9b6692	0.07587923
238	0x3de58294	0.112065464
239	0x3d81bf2a	0.0633529
240	0x3d95ae88	0.0730868
241	0x3d55c1f3	0.052186918
242	0xbce8be50	-0.02841106
243	0xbcda958b	-0.026682636
244	0x3d34532b	0.044024628
245	0xbde69388	-0.11258608
246	0x3d13d10c	0.036088035
247	0x3d7cb3b3	0.061694812
248	0xbd9f9aa5	-0.07793168
249	0x3b12d022	0.002240189
250	0xbc7b6b8f	-0.015345468
251	0x3da8a764	0.08235052
252	0x3ce4d6ed	0.027934516
253	0x3df0fb2b	0.117666565
254	0xbb2d75a0	-0.0026467815
255	0x3e0e3305	0.1388665

weight f4 [64, 64]
0	0xbd7a4e68	-0.06110993
1	0x3de1ba5f	0.110218756
2	0x3e0f651f	0.14003418
3	0xbdd8e13a	-0.105898336
4	0x3e2c8099	0.16845931
5	0x3c919c69	0.017774777
6	0xbdea0b5f	-0.1142795
7	0x3e181cf5	0.14854796
8	0x3e4bd526	0.19905528
9	0xbe204146	-0.156499
10	0x3d86eabd	0.065877415
11	0xbc281290	-0.010258332
12	0x3db4f729	0.088362046
13	0xbd2d8a66	-0.042368315
14	0x3d6b0923	0.05738176
15	0x3cc6736f	0.024224965
16	0x3d01b461	0.031666163
17	0xbe0cf4da	-0.13765278
18	0x3db4a733	0.08820953
19	0x3b9e3675	0.004828269
20	0xbdd16bbc	-0.10225627
21	0x3ddaadf0	0.10677707
22	0xbdb92066	-0.09039383
23	0xbda6ee5a	-0.08150931
24	0x3e0805cc	0.13283461
25	0xbe2eeb2f	-0.17081903
26	0x3bb3d603	0.0054881587
27	0x3da5a69b	0.08088418
28	0x3c4a5e0e	0.012351526
29	0x3da3f64c	0.08005962
30	0x3e29371b	0.16524927
31	0xbd9de106	-0.077089354
32	0xbe8211cb	-0.254042
33	0x3cd41a1c	0.025891356
34	0x3d91565b	0.07096549
35	0x3c7d9c2a	0.015479127
36	0xbd182623	-0.037145745
37	0x3c540a67	0.012941933
38	0xbde0fde8	-0.10985929
39	0xbc63fd8f	-0.013915434
40	0xbde8638a	-0.113471106
41	0xbe26b85b	-0.16281264
42	0xbe191ddb	-0.14952795
43	0xbda9ac1e	-0.08284782
44	0xbde3e0ed	-0.111268856
45	0xbc96d9e3	-0.018414443
46	0xbe07e32c	-0.13270253
47	0x3dc83d58	0.097773254
48	0xbcf7bb36	-0.030240636
49	0xbe5236fa	-0.20528784
50	0x3b343c22	0.0027501662
51	0x3dbc3b43	0.09190991
52	0x3dec6fb4	0.11544743
53	0xbd9f7f9c	-0.077880114
54	0x3dbae17f	0.09125041
55	0x3d1afead	0.037840534
56	0xbc74a039	-0.014930778
57	0x3e047488	0.12935078
58	0xbbfa9fbf	-0.0076484377
59	0xbd3838ab	-0.044975918
60	0xbd58c513	-0.05292232
61	0x3e80e41b	0.2517403
62	0x3c52255a	0.012826288
63	0x3dfc3041	0.12313891
64	0xbd39efd5	-0.045394737
65	0x3ca244cb	0.019808194
66	0x3d3ffbce	0.046871
67	0xbb2cf6a7	-0.0026392133
68	0x3d50a5ee	0.050939493
69	0x3d956b0a	0.07295807
70	0xbd1be634	-0.038061336
71	0x3d8e7543	0.0695596
72	0x3d828594	0.06373134
73	0xbd8b0b69	-0.06789286
74	0xbd8c3bd3	-0.06847348
75	0xbe4f5a40	-0.20249271
76	0x3de8e933	0.11372604
77	0xbd53c73e	-0.051703684
78	0xbcac85a8	-0.021059826
79	0x3e0986eb	0.13430373
80	0xbdecb658	-0.11558217
81	0xbdab51fc	-0.08365247
82	0xbd437795	-0.047721464
83	0xbe1c285e	-0.15249774
84	0xbc439130	-0.011936471
85	0x3dd0daf7	0.10198014
86	0x3d32a150	0.04361087
87	0x3e147c7a	0.14500609
88	0x3da26d31	0.07930983
89	0xbcbabb23	-0.022794312
90	0x3d0ca64f	0.03433829
91	0xbdb1b859	-0.0867774
92	0xbdd7fa7b	-0.10545822
93	0xbdc86701	-0.097852714
94	0xbc9e67c8	-0.019336596
95	0x3d474a6e	0.048654966
96	0x3e2210e1	0.15826751
97	0x3e0b1352	0.13581589
98	0x3d937bae	0.072013244
99	0x3e46ce30	0.19414592
100	0x3d820f53	0.06350579
101	0x3ddfa534	0.10920182
102	0xbd797e9d	-0.060911763
103	0xbe2b9cfb	-0.16759102
104	0xbdc852fa	-0.097814515
105	0x3dce2c3d	0.100670315
106	0x3e0c225e	0.13684985
107	0xbdd44d6f	-0.10366332
108	0xbd6a6325	-0.057223458
109	0xbdea1a44	-0.11430791
110	0xbda9e0c8	-0.08294827
111	0xbd4b33f7	-0.049610104
112	0xbcdec385	-0.02719284
113	0x3d52e8d4	0.051491573
114	0x3d7c7933	0.061639022
115	0x3dbdf523	0.09275272
116	0x3c4c5f91	0.012473957
117	0x3d3db329	0.04631344
118	0x3ca61b38	0.02027665
119	0xbd0ac4a8	-0.033878952
120	0x3d704456	0.05865892
121	0x3d9dfe96	0.07714574
122	0x3d83fde0	0.06444907
123	0xbc8ec87e	-0.017429586
124	0xbe111a54	-0.141702
125	0x3d7f68df	0.062355872
126	0x3deac842	0.114639774
127	0xbd0d5ff4	-0.034515336
128	0xbd811689	-0.06303126
129	0xbdc6b0c5	-0.09701685
130	0x3d89e711	0.067335255
131	0x3d85717a	0.065157846
132	0xbe5a49ee	-0.21317264
133	0x3c08cfec	0.008350354
134	0x3d9ff2dd	0.07809994
135	0xbd8e9952	-0.06962837
136	0x3d0bae26	0.034101628
137	0xbdda53c4	-0.10660508
138	0x3d4af2f9	0.049548123
139	0x3d68718e	0.05674892
140	0xbdcfea73	-0.101521395
141	0xbda3c0f4	-0.07995787
142	0xbe1060ec	-0.14099473
143	0xbccc5977	-0.024945004
144	0x3d809cb3	0.06279888
145	0x3d2d9364	0.04237689
146	0x3d15e359	0.03659377
147	0xbcbff676	-0.023432951
148	0x3d6a30cf	0.057175454
149	0xbdca392c	-0.09874186
150	0x3d167d2f	0.036740478
151	0xbdeb9c74	-0.115044504
152	0x3c1bda48	0.0095124915
153	0xbd300f0d	-0.042983104
154	0xbe1cb734	-0.15304261
155	0xbcffccc9	-0.031225579
156	0x3da5e518	0.08100337
157	0x3dc76a7e	0.09737109
158	0xbe2cea6e	-0.16886303
159	0x3da9dc60	0.08293986
160	0xbd030d81	-0.0319953
161	0xbe2b95ec	-0.1675641
162	0xbd257983	-0.040399086
163	0xbe5dd277	-0.21662317
164	0xbdc282e9	-0.094976254
165	0xbd8fe88e	-0.07026778
166	0x3d337b60	0.04381883
167	0x3e19c4ea	0.15016523
168	0xbd7d7536	-0.06187936
169	0xbe572293	-0.21009283
170	0x3d8d2f28	0.0689376
171	0x3ddab116	0.10678308
172	0xbd9d1402	-0.07669832
173	0xbda7d035	-0.08194009
174	0x3d20ea54	0.039285973
175	0xbd3118d2	-0.04323656
176	0xbc4566bf	-0.012048422
177	0x3e092a49	0.13395037
178	0xbdaf7ef1	-0.08569134
179	0xbc6de3f3	-0.014519679
180	0x3ba42743	0.005009563
181	0x3b6c4750	0.0036053248
182	0xbdab49f5	-0.083637156
183	0x3e0be892	0.13662937
184	0x3cb1890c	0.021671794
185	0x3c9925b1	0.01869473
186	0xbdde5afc	-0.10857198
187	0x3d9220c8	0.07135159
188	0xba85da90	-0.0010212231
189	0xbd8871bc	-0.06662318
190	0x3dd946f7	0.106092386
191	0x3d8194d7	0.06327217
192	0x3dae996b	0.08525356
193	0xbdcd840f	-0.10034954
194	0x3d32da78	0.04366538
195	0x3c58f660	0.013242334
196	0xbc99a72b	-0.01875647
197	0xbce1eae8	-0.027577832
198	0x3da670a1	0.08126951
199	0xbcb0c1b7	-0.021576745
200	0xbde6a4c1	-0.11261893
201	0x3d1c32a4	0.038134232
202	0x3abb3b51	0.0014284645
203	0x3e32545e	0.17414996
204	0xbd270689	-0.040777717
205	0xbb4d01d6	-0.0031281612
206	0xbd0309ae	-0.031991653
207	0xbc7ff192	-0.01562156
208	0x3d3dd334	0.046343997
209	0x3d7eac87	0.062176254
210	0x3dfbb021	0.12289453
211	0x3e3c4578	0.18385875
212	0xbde0ad24	-0.10970524
213	0xbe2def28	-0.16985762
214	0xbd7eaef7	-0.06217858
215	0xbd1892be	-0.03724932
216	0x3c98743f	0.018610118
217	0x3cb00374	0.021486022
218	0xbe0afafc	-0.13572305
219	0xbc488879	-0.012239569
220	0x3c72d9d1	0.014822439
221	0x3d1d3ff6	0.038391076
222	0xbe3edc52	-0.18638733
223	0xbcb0c172	-0.021576617
224	0xbbbddf2e	-0.0057944274
225	0x3d9209cd	0.071307756
226	0xbdee02f2	-0.116216555
227	0xbe6fd4b3	-0.23420982
228	0x3d1876fe	0.037222855
229	0x3b7e6427	0.003881702
230	0x3dc148c6	0.094377086
231	0xbd1864ff	-0.037205692
232	0xbdaf7d40	-0.085688114
233	0x3dce6e27	0.10079604
234	0x3dcf7166	0.10129051
235	0x3db7b9a8	0.08970958
236	0x3e0e28b8	0.1388272
237	0x3dff605c	0.12469551
238	0xbca7018d	-0.020386482
239	0xbd6dc454	-0.05804856
240	0xbcbb64f2	-0.022875283
241	0xbd7333f4	-0.05937572
242	0xbde5dfeb	-0.112243496
243	0x3d0c8b2b	0.03431241
244	0x3be4235f	0.0069622244
245	0xbdb28b8d	-0.087180234
246	0xbd554db0	-0.05207604
247	0xbc20ed15	-0.00982215
248	0xbdc4f2f2	-0.09616651
249	0xbd5c5d85	-0.053800125
250	0xbdc05cb6	-0.09392683
251	0xbd610e70	-0.05494541
252	0xbdc7bf91	-0.09753335
253	0xbdf202c3	-0.11816933
254	0xbd979677	-0.07401746
255	0x3d74eafe	0.05979442
