examples/carbon/outDir/epoch=176-step=88485-val_loss=0.2148.pt (torch, 745777 bytes, 92 tensors)

cutoff f8 []
000000 00 00 00 00 00 00 08 40
       3.0

weight f4 [7, 64]
000000 15 45 59 3f 83 27 31 3f 6d cc a1 be c1 5f 07 c0
       0.84871036 0.69200915 -0.31601277 -2.1152194
000010 75 56 b6 be a8 db df 3e 53 8c fb 3e 0b 00 51 be
       -0.35612836 0.43722272 0.49130496 -0.20410173
000020 77 6f f5 3d 93 6b 9e 3f 8e f2 8e 3f 7c 36 7d be
       0.11984151 1.2376579 1.1167772 -0.24727815
000030 a7 99 85 bf f6 32 ac bf 11 0d 49 3f 99 2a 7e 3f
       -1.0437516 -1.3453052 0.7853556 0.9928375
000040 8b 4d 19 3f 5b 0d c7 bf ca c6 ae be 4e 2f ed 3f
       0.59883946 -1.5550951 -0.3413604 1.8530061
000050 55 aa ef 3e 5f 7f 21 be db c9 b8 3f a1 37 88 3e
       0.4680964 -0.15771244 1.4436601 0.2660494
000060 c0 d6 b1 3f 00 0d cb 3f 9c 40 72 3f 33 fb 57 bf
       1.3893661 1.5863342 0.94629836 -0.84367675
000070 30 8c 6e 3f 37 27 a1 3f 9a 51 00 40 3a 1b 5c 3d
       0.9318266 1.2590092 2.0049806 0.053736903
000080 d0 1f e1 3e d6 37 e6 3d f8 0a 24 3f 3c df e1 3e
       0.43969584 0.112411186 0.64079237 0.44115627
000090 42 0b 5d be a3 17 3e bf 82 0e 10 3f e2 ed 84 3e
       -0.21586326 -0.74254817 0.5627214 0.2596274
0000a0 2f da 05 3f 55 57 13 40 b7 04 bc bf 9e 18 cb bf
       0.52286047 2.3022053 -1.4688939 -1.5866888
0000b0 3c 03 9a 3f 87 20 ad 3d 2b 9e 99 bf ae d1 9c bb
       1.2032237 0.0845347 -1.2001394 -0.004785738
0000c0 10 dd 6b be 08 94 c8 be 5d 15 0b 3f 17 52 ca be
       -0.23033547 -0.3917544 0.5432947 -0.39515755
0000d0 52 75 52 3e 9f 91 e6 be 2e b5 12 bf f8 2b 0e bf
       0.20552567 -0.45032975 -0.5730771 -0.5553584
0000e0 d9 fd c3 bf 23 f8 9d bf c2 ec e8 3f fc 30 0d bf
       -1.5311843 -1.234135 1.8197253 -0.5515287
0000f0 48 a4 a9 bf 30 14 41 3e fb 75 8d bd db 66 fd be
       -1.325326 0.18855357 -0.069072686 -0.49492535
000100 ce 34 bd bf 8b 4d 24 40 c2 3c f2 be 4f cd ab 3e
       -1.478174 2.5672328 -0.4731198 0.33555076
000110 e8 2a c1 3f c2 3e 05 40 87 75 da 3f f1 57 18 40
       1.5091219 2.0819554 1.7067116 2.3803675
000120 d0 92 88 bf 57 b6 8e 3f 2c 0c 10 be de 45 4e 3f
       -1.0669804 1.1149396 -0.14067143 0.8057536
000130 10 bd a7 3e b5 bd 42 bf b8 ae cc bf 5a 71 97 3c
       0.3276143 -0.7607072 -1.599082 0.018486667
000140 5f 86 57 3f 47 d1 cc be 17 0d 85 3f d8 5f b7 3e
       0.8418941 -0.40003416 1.039462 0.3581531
000150 ca 85 58 bb 1b d1 08 bf 90 97 95 3f 44 fc c9 3e
       -0.003303873 -0.5344407 1.1686878 0.39450276
000160 dc c1 85 bf 3d dd 74 bf b4 58 09 3d 3c c8 35 3f
       -1.0449786 -0.9565008 0.03353186 0.7100866
000170 4a 84 c4 bf ae 4a d3 be a7 5f 77 3f e5 f8 cf 3f
       -1.5352871 -0.41267914 0.9663033 1.6247832
000180 ad 40 27 c0 13 26 d9 bf 37 b8 69 be 43 56 8f 3e
       -2.6133225 -1.6964744 -0.22824179 0.279955
000190 06 02 96 3d 38 81 8e 3f 55 85 90 3e d3 52 de 3e
       0.07324605 1.1133184 0.28226724 0.43422565
0001a0 0f f4 e9 3e fa 88 5d bf cc 03 48 3f 12 42 6d bf
       0.45694014 -0.86537135 0.78130794 -0.9267894
0001b0 cc 5e 53 3e ae b9 aa be 9b 8f db be 22 82 6e 3e
       0.20641631 -0.33344787 -0.42883 0.23291829
0001c0 99 67 76 3f 2e c6 b2 3e ef e4 6b bf 81 2c 66 bd
       0.9625183 0.34916824 -0.921462 -0.056194786
0001d0 0d 97 33 bf 27 b2 84 3f 20 8a 1a bf 94 ae a3 bf
       -0.7015236 1.0366868 -0.6036701 -1.2787652
0001e0 95 c0 fd 3d a0 17 95 3f 35 62 6c 3f e4 92 b1 3f
       0.12390248 1.1647835 0.9233735 1.3872952
0001f0 3e 01 b0 3f 95 dd 28 3f 4b ff f3 3e 5d 16 82 bf
       1.3750379 0.6596311 0.4765571 -1.0163075
000200 db 40 1c 3f 5c 0b ef 3e 22 af f9 3f 9d 13 88 bf
       0.6103646 0.46688354 1.9506571 -1.0630985
000210 03 f7 91 3f 17 14 b8 bd ed d3 3a 3f 6a 33 ec bf
       1.1403507 -0.08988207 0.72979623 -1.845319
000220 f1 15 d1 bd 50 4b 84 bf 32 12 a0 be 30 af 7b 3e
       -0.10209263 -1.0335484 -0.31263882 0.24578547
000230 fd 1d c1 3e 43 f5 8c 3f 8b 46 92 bf 25 f3 19 3d
       0.37718192 1.1012348 -1.1427778 0.037585396
000240 41 c0 93 3e 24 f0 c5 3e b3 e3 4d be b4 83 f1 bd
       0.28857616 0.38659775 -0.20106392 -0.117926985
000250 63 51 54 bf fc 20 b4 bf 83 3c d0 3f 63 68 30 3e
       -0.82936686 -1.4072566 1.6268467 0.1722732
000260 9c 4c 34 bf 1b 23 a1 3e 9a 2b 21 3e 43 4e c5 3e
       -0.70429397 0.31472096 0.15739289 0.3853627
000270 07 db 12 3f 6d 78 7f 3f fd 29 0b 3f 32 64 a1 3d
       0.5736546 0.9979313 0.54360944 0.07880439
000280 da 9a 7f 3f 8b 57 ff be 2a d8 42 3f f7 48 1e 3f
       0.9984566 -0.49871477 0.7611109 0.61830086
000290 ec 48 99 be e5 48 40 be 22 3c f5 3f a4 b0 30 3f
       -0.29938447 -0.18777807 1.9158976 0.6901953
0002a0 32 c9 a0 be 1b 13 8a bf 08 97 76 3e 93 b7 b2 bf
       -0.314035 -1.078708 0.24081051 -1.3962272
0002b0 01 8e e8 3d a7 67 8d 3f ff 94 b2 bf c3 42 f3 3e
       0.1135521 1.1047257 -1.395172 0.47511873
0002c0 96 60 8a 3f 2f a2 06 3e b4 69 c9 3f cb 0b 48 3f
       1.0810726 0.13147806 1.5735383 0.78142995
0002d0 a5 c8 7c 3f 7a 70 be bf 26 31 16 3f 2e 18 22 3e
       0.9874366 -1.4878075 0.58668745 0.15829536
0002e0 2a b2 2a 3f 52 90 7e bf 14 3d 98 bf df 14 99 bf
       0.66678107 -0.99438965 -1.189364 -1.1959494
0002f0 14 ec a7 3f 05 e0 56 be 8b 1f 48 3f 7e 5c 7d 3f
       1.311892 -0.20983894 0.7817313 0.98969257
000300 92 a0 2f 3e 78 44 60 3f 1f fd 92 be 1a c5 82 3f
       0.17151096 0.87604475 -0.2870874 1.0216401
000310 bb d5 02 bf 6f 5b db bf 9b 93 02 bf 31 25 f3 be
       -0.51107377 -1.7137278 -0.5100648 -0.47489312
000320 cb 8a 29 3f 1e 68 9a bf 2b 81 1b 3f 78 12 0c bf
       0.66227406 -1.2063024 0.6074397 -0.5471568
000330 84 dc 8c bf 47 5a 38 bf 2c 78 43 3c b7 f6 ad 3e
       -1.1004796 -0.7201275 0.011930507 0.3397729
000340 c2 77 a0 bf 4a a1 7c 3f 6d 43 fd be c1 3a a4 bf
       -1.2536547 0.9868361 -0.49465504 -1.283043
000350 a1 96 e0 3e 09 60 2f bc 31 4f ab 3f 2d 0e 8f be
       0.4386492 -0.010704049 1.3383542 -0.27940503
000360 dc 4d 93 3e ff b3 08 bd f6 eb 87 bf 45 58 ea bd
       0.2877034 -0.033374783 -1.0618885 -0.11442617
000370 14 15 48 3e 35 b3 3c bf ed 9c d9 3f 2a 43 b1 3e
       0.1953929 -0.7371095 1.7001015 0.34621555
000380 30 3b 14 be ec 3a 23 3f 46 05 90 be 59 39 aa bf
       -0.14475703 0.6376178 -0.28129023 -1.3298751
000390 69 5f 27 bf 32 23 dc 3f 2c 01 76 bf 5d 33 23 bf
       -0.6537996 1.7198241 -0.9609554 -0.6375025
0003a0 05 10 63 bf f0 b9 56 3f 11 92 93 3f aa 6b e1 bf
       -0.8869632 0.8387747 1.1528951 -1.7610981
0003b0 73 b3 8d bf 7e d2 db bf 7f 6c c4 3f 4c 1f 52 bb
       -1.1070389 -1.7173612 1.534561 -0.0032062111
0003c0 22 5d b8 3f 35 7f e2 bd 1d ad 13 3f f9 3b 2d be
       1.4403422 -0.11059419 0.57686025 -0.16917409
0003d0 a3 26 98 3f 9a 49 21 be ab 86 3a bd 5b 02 26 3f
       1.1886791 -0.15750733 -0.045538586 0.64847344
0003e0 0d e9 5e bf 7b 37 14 3e cd 90 f3 3f f5 e1 c7 3e
       -0.8707436 0.14474289 1.9028565 0.3903958
0003f0 bb 6d 07 3d 67 00 83 bf 67 c7 3b 3f 72 11 8f 3f
       0.03306363 -1.0234498 0.7335114 1.1177199

weight f4 [64, 64]
000000 58 4f 3b 3e 12 6f 0e 3e e5 8e 4d be a9 2d 15 be
       0.18291986 0.13909557 -0.20074041 -0.14568199
000010 bb a0 f8 3d 88 58 38 bd e6 25 fd bc e1 ba 04 3e
       0.12140032 -0.045006305 -0.03090186 0.12961914
000020 7a 01 79 be 11 b1 77 3d b0 e3 10 3e 23 65 4d 3e
       -0.2431697 0.060471598 0.14149356 0.20058112
000030 2a 1e 4f 3e 8f 1e 3f 3e 4c 00 2a bd 2c 99 f8 bd
       0.2022635 0.18664001 -0.04150419 -0.1213859
000040 cd fb f1 3d 8e a0 1b 3e 7c 2b e5 bd 53 ed ee 3b
       0.11815605 0.15197966 -0.111899346 0.007291475
000050 2b a7 7c bd b8 0d 18 be fa 58 1b 3e 24 90 9f 3d
       -0.06168286 -0.14848983 0.1517066 0.077911645
000060 78 95 1d 3e dd 5d da 3d e7 9a 0c 3e 66 3d 23 3d
       0.15389049 0.10662434 0.13730966 0.039853476
000070 4b 3d cf bc 10 db 44 3d 27 42 fb 3c de 6f 02 bd
       -0.025297781 0.048060477 0.030671192 -0.031844966
000080 b5 7a 53 3e 99 50 a4 bd 3b f4 fe bd be 85 9d bc
       0.20652278 -0.08023185 -0.12448927 -0.019228812
000090 30 2d 3a bd 64 5e 79 be 6f f6 c5 3d 87 d2 3e be
       -0.04545325 -0.24352413 0.09666144 -0.18634997
0000a0 19 fa cd 3d 0d ef 6a bd 7a 1f 3b 3e 9c 4b bd 3d
       0.10057468 -0.057356883 0.18273726 0.09242937
0000b0 bb cf 16 3e 4d 5f 2b bc c2 63 a5 3c 8b 33 bb 3d
       0.1472768 -0.010459733 0.02018917 0.091406904
0000c0 f1 42 fa 3d a7 00 ab 3d d9 9d d3 bd 56 3e 10 be
       0.12219799 0.08349734 -0.103328414 -0.1408628
0000d0 fc 51 0d be f4 99 31 be f9 c2 4e bd c5 45 59 3e
       -0.13800806 -0.17343885 -0.05047891 0.21218021
0000e0 9a 7d 1d be 44 f9 64 be a6 f0 2b 3b 27 36 50 3d
       -0.15379944 -0.22360712 0.0026235967 0.050832894
0000f0 2c 8d 93 bd a2 7f 3e be 8b b1 ea 3c 8f 3b 5a be
       -0.07204661 -0.18603376 0.028649112 -0.21311782
000100 f1 c8 c3 bd 17 fa e9 bc 9f f1 1a 3e 70 75 b0 bc
       -0.09559811 -0.028561635 0.15131234 -0.021540374
000110 ba 7f b6 3b c3 8c 1a bd 29 bb 36 3d a8 e7 7d bd
       0.0055694254 -0.037731897 0.044612084 -0.061988503
000120 f0 f1 cf bc f7 da 03 be 78 3d a4 bd 2a a1 f2 bd
       -0.02538392 -0.12876497 -0.08019537 -0.11847146
000130 86 f2 4a bd 42 ff e2 bc e6 12 3c 3e 64 fa 81 3b
       -0.049547695 -0.027709607 0.18366584 0.0039666165
000140 e1 97 e6 bd 33 5f b1 bc 39 c0 0b 3e 6f 30 90 bc
       -0.11259437 -0.02165184 0.13647546 -0.01760122
000150 e2 ac 4a 3d 40 3e b2 3d 81 3b 04 be bb c8 c9 3d
       0.04948128 0.087032795 -0.12913324 0.098527394
000160 1c 8c cf bd bd 45 cf bd 44 0d b4 3d d1 86 bd bd
       -0.101341456 -0.101207234 0.08791593 -0.0925423
000170 44 40 aa bc 1a ec c3 bd be e8 d9 bb 5e bc 21 bd
       -0.020782597 -0.09566517 -0.0066500595 -0.03948628
000180 a6 c9 5c 3d ac 15 d6 bd bc b4 cf bb 46 bb 0c 3e
       0.053903244 -0.10453352 -0.006338684 0.13743314
000190 f5 c1 41 3d f9 df 24 3c c9 11 29 be 18 2b d2 3d
       0.047304112 0.010063165 -0.16510691 0.10262126
0001a0 35 78 1d 3d 85 4c 48 3d da a9 0c be e0 90 2c 3d
       0.038444716 0.0489011 -0.13736668 0.04213035
0001b0 4d 59 40 be 22 54 cc 3c 54 ef f4 3c 5e 08 f5 bd
       -0.18784066 0.024942461 0.029899277 -0.119644865
0001c0 7c 12 59 3d e9 79 0a bd 33 fe c1 bb cc 28 1d bd
       0.052996144 -0.03380767 -0.0059201955 -0.038368985
0001d0 68 35 fd bc ba 1a 69 3d 4b 35 96 3d ca 66 f1 bd
       -0.030909255 0.056910254 0.073343836 -0.117871836
0001e0 ea 65 9a 3d 5b 96 ca 3b 51 31 95 3c c8 6e 01 be
       0.0753897 0.0061824745 0.018211992 -0.12639916
0001f0 04 bd b3 bd 63 de 07 3e c5 0d 37 3d 8d cb 15 3e
       -0.08776286 0.13268428 0.044690866 0.1462843
000200 4b e1 07 3c 07 e5 1a 3d b7 57 98 bd aa c8 92 bd
       0.00829346 0.037816074 -0.07438605 -0.0716718
000210 f4 47 b0 3d 04 ad 41 be 51 27 10 3d 30 1a f1 3d
       0.08607474 -0.18913656 0.035193745 0.11772573
000220 e4 52 44 be e2 5c 98 3d 19 b9 c0 3d 1b b5 b6 3d
       -0.19172245 0.07439591 0.094103046 0.08921262
000230 df 59 47 3e ce 24 b4 bc be fd d5 bd 60 66 63 bd
       0.19467877 -0.021990206 -0.10448788 -0.055517554
000240 77 f8 b5 bd bd 11 b7 3d 13 7f 42 3d 38 80 1a 3e
       -0.088852815 0.0893893 0.04748447 0.15087974
000250 ac bb f9 bd 86 52 1b be 82 8a 3b bc fb f0 d6 bc
       -0.12193999 -0.15168199 -0.011446597 -0.026237955
000260 99 9e 65 b9 a5 22 80 bd 4b 42 16 be 5e 2a cd bd
       -0.00021898224 -0.06256608 -0.14673726 -0.100178465
000270 a0 a3 da bd ae 2b 61 3d c6 08 15 3e e5 76 0b bd
       -0.1067574 0.054973297 0.14554128 -0.034048934
000280 e4 26 2a 3e fc ea 6f bd 10 75 9f 3d 41 a3 50 be
       0.16616398 -0.058573708 0.07786 -0.20374776
000290 dd 89 47 be d7 06 59 bd 38 14 0a 3e 9d 9b 3c be
       -0.19486184 -0.05298504 0.13484275 -0.18418737
0002a0 41 d2 09 3c b7 bd 30 be 95 74 35 3e 48 bc c9 3c
       0.008411945 -0.1725987 0.17720254 0.024625912
0002b0 98 5d 2c 3d 8d b9 1a bd 05 6f fc 3d d8 04 4f 3e
       0.042081445 -0.03777461 0.12325863 0.20216691
0002c0 b4 f6 8b 3d b3 d7 01 3e 56 bb a2 3d c6 3e a8 bd
       0.06834164 0.12679939 0.07945888 -0.08215098
0002d0 d4 a4 10 bd 06 9e c5 3c 33 4a 81 bd 40 57 43 bd
       -0.035313442 0.024123203 -0.063129805 -0.04769063
0002e0 21 e6 a3 bd 92 a9 67 3d ff 5a b3 3d 61 fa 29 3e
       -0.08002878 0.0565582 0.087575905 0.16599418
0002f0 94 8f 0f 3e e8 e8 97 bd 45 f5 ff 3d 76 66 d6 bd
       0.14019614 -0.0741747 0.12497953 -0.104687616
000300 7f 6f c2 3d dc 82 7f 3e 44 df d7 bd f5 21 9b be
       0.094939224 0.24952263 -0.105406314 -0.30299345
000310 45 bf af 3e c9 0e 4b be f8 c3 52 be 61 bb 74 3e
       0.34325615 -0.19829859 -0.20582569 0.23899604
000320 85 79 1e be e8 a6 e8 3d 59 85 4b 3e b6 57 4a 3e
       -0.15476044 0.1135996 0.19875087 0.19760022
000330 bf fb cf 3d 05 a9 8c 3d fc d1 0d be 0e e1 0a 3b
       0.10155439 0.068681754 -0.13849634 0.0021191272
000340 86 4e 73 3e fb 26 87 3e a2 91 e1 bd c2 23 6f 3d
       0.23760423 0.26396927 -0.110141054 0.05838371
000350 da b7 8b 3e 17 b4 94 bd 7f 81 48 3e 05 16 65 3e
       0.27288705 -0.07260912 0.19580649 0.22371681
000360 23 0e af 3e c2 11 56 3e 95 90 74 3e 24 9b 70 3e
       0.34190473 0.20905212 0.23883279 0.23496681
000370 5c 2c 5f be fd 53 58 3d ce a7 37 3e 0b f2 a5 3d
       -0.21794266 0.052814472 0.17935106 0.08102807
000380 ef 3a 8b 3d 44 c7 3a be 4c 59 c0 bc 5a d3 a9 be
       0.0679835 -0.18240076 -0.02348008 -0.3316906
000390 08 ef 36 be aa 29 a6 be 64 f8 ec 3d b1 70 3d be
       -0.1786462 -0.32453662 0.11570814 -0.1850002
0003a0 b2 d2 ec 3c 10 dd e6 bd 9c 3b a3 3e 41 05 9e 3e
       0.028909061 -0.11272633 0.31881416 0.30863383
0003b0 1b 1e 1c 3e cd b0 a9 bd 87 32 45 3e 98 04 a9 3e
       0.1524586 -0.08285675 0.19257556 0.33011317
0003c0 89 ea 14 3e 15 19 af 3d fd b1 e2 bd 9f a0 1c be
       0.14542593 0.08549706 -0.11069105 -0.15295647
0003d0 89 f2 af 3c 03 8f 97 be 8b d2 15 be 6e 80 6c 3e
       0.021477954 -0.29601297 -0.14631097 0.23095867
0003e0 bc 36 8a be a3 c3 82 be ba 75 e5 3c e1 de 80 3e
       -0.26994884 -0.25539884 0.028010238 0.25170043
0003f0 9d 69 f6 3d 30 5d 82 bd ea 0b 8c 3e c4 30 75 be
       0.12031863 -0.0636543 0.2735284 -0.23944384

weight f4 [64, 64]
000000 4e 37 79 3d 91 7d 0b be a8 f4 37 be db 67 45 be
       0.06084376 -0.13622119 -0.17964423 -0.19277899
000010 b6 dd a5 3d b5 c5 a3 bd 50 41 40 be 4e e6 45 bb
       0.08098929 -0.07996694 -0.18774915 -0.0030197087
000020 40 a0 f8 bd a3 a0 87 3d 72 de 61 bc 79 28 1d 3e
       -0.1213994 0.06622436 -0.013785945 0.1534747
000030 c3 18 71 be 5d 1e b7 3c 5c 09 3a be 05 1e 0d be
       -0.23544602 0.022353346 -0.18167633 -0.13780983
000040 2c 6e 6d 3e 81 fc fb 3d 68 11 a1 3d b8 e5 7a 3d
       0.23186558 0.12304021 0.07864648 0.061254233
000050 60 be 06 3e 8a 63 8f bd 70 6c ef 3c 5f 0c 0f bd
       0.1315856 -0.070014074 0.029226512 -0.034923907
000060 5c b8 53 3d b6 24 a4 3c f3 dc b1 3d b4 a8 0f 3d
       0.05168949 0.020037036 0.08684721 0.035072997
000070 4b 1c 8a 3d c3 02 07 3d 48 92 0f be 7a 1e 96 3c
       0.06743678 0.03296162 -0.14020646 0.01832508
000080 4c 92 a7 bc 65 17 84 bd e9 9b 81 be f7 b2 86 bd
       -0.020455502 -0.06449775 -0.25314263 -0.065771036
000090 5c f5 93 bd b5 a6 8e bd 0d 78 ce bc 68 2a 17 be
       -0.07224533 -0.069653906 -0.025203729 -0.1476227
0000a0 0d 82 d8 bd ee 03 1b be 95 ed 57 3d 51 76 06 3e
       -0.1057168 -0.15138218 0.05271681 0.13131072
0000b0 c8 94 16 3d ee 66 59 bd 5f 85 d5 3d 40 32 fa bd
       0.036762983 -0.053076677 0.10425829 -0.12216616
0000c0 0d eb e1 3d ba e5 f0 3d 83 82 2b be 12 bd 04 be
       0.110311605 0.11762567 -0.16749005 -0.1296275
0000d0 d2 5d 01 be 00 70 10 be 53 02 00 be 1f 2e ad bc
       -0.12633446 -0.14105225 -0.12500887 -0.021140156
0000e0 1c 0a d2 bb 26 0a a5 3c 44 f9 1f be b3 4c 87 bd
       -0.0064098965 0.02014644 -0.15622431 -0.06606426
0000f0 17 dc 72 3e 9f ea 7b bd 3b aa 39 3c 28 db 17 3d
       0.2371677 -0.06150305 0.01133209 0.037074238
000100 10 b8 43 bd 8c 02 84 3d 9e 6e 97 bd 05 86 45 3d
       -0.047782958 0.06445798 -0.073941454 0.048223514
000110 9a 24 33 3e 16 9b 11 bd 1a 8a 0f bc 1d ec aa 3d
       0.17494431 -0.035548292 -0.008760953 0.08345816
000120 1d 04 0d be e5 c9 aa 3c 37 62 b9 3c 56 dc 8e 3d
       -0.137711 0.020848224 0.02262984 0.069756195
000130 8f d9 d4 3d c1 6e a2 3d 3a 78 05 bd db 7e 36 3d
       0.103930585 0.07931281 -0.03258536 0.044554573
000140 7f 0f b9 3c 53 09 3c bd 5e 6c f5 3c 14 75 c3 bd
       0.022590397 -0.04590733 0.0299589 -0.09543815
000150 f0 08 5a 3e a2 ad 1f 3d ca fd 19 3e fd 95 9f bc
       0.21292472 0.03898395 0.15038219 -0.0194807
000160 06 8d 4f 3d 25 82 f7 3d aa 6a 7e bd c3 4b 18 3e
       0.0506716 0.1208537 -0.06211344 0.14872651
000170 f9 ce 2b 3d 62 0f 96 3d b3 6d d6 3c ae 53 bc 3d
       0.04194543 0.07327153 0.026175356 0.09195648
000180 65 9b 7e bd 05 f9 6f 3d e6 78 dd 3d ea a6 7a bd
       -0.062159915 0.058587093 0.10814075 -0.061194338
000190 ae 75 e6 bd 3d 41 4e bd 46 22 39 3e 71 ad 8f 3d
       -0.11252914 -0.050355185 0.1807948 0.07015503
0001a0 66 68 a4 bd 73 f9 5c be 18 8d 50 bd ee f3 e3 bd
       -0.08027725 -0.21579532 -0.050915807 -0.1113051
0001b0 be 41 08 3e ad 72 95 bd b2 f3 0a 3e de e0 39 3d
       0.13306329 -0.07297263 0.13569525 0.045380466
0001c0 c4 16 17 be a6 98 c6 3c e1 f9 8a 3d ba a9 f2 3b
       -0.14754778 0.02424271 0.06785942 0.007405487
0001d0 0e 53 92 3d 66 1b 31 3b 99 49 24 bd f6 eb b6 bd
       0.07144748 0.0027024387 -0.04010925 -0.08931725
0001e0 c4 19 0e 3d 8f 15 fb bd 8c 35 b8 3d 8d 48 20 3d
       0.03469254 -0.12259971 0.08994588 0.03913169
0001f0 80 a8 5a 3e da 5d d3 bd 4c e7 d3 3c 60 91 c2 bd
       0.2135334 -0.10320635 0.025867127 -0.09500384
000200 eb d9 85 bd e2 ef 58 bc 2b 54 16 3e f8 9e 31 3e
       -0.06535705 -0.013240786 0.14680545 0.17345798
000210 bb b3 47 bc 85 54 c7 3d 29 1e 07 3e 50 3b e3 bd
       -0.012188847 0.09732918 0.13195099 -0.11095297
000220 fa 48 16 3e 1a df 2e be f6 66 0a bc 01 01 dc bd
       0.14676276 -0.17077294 -0.008447399 -0.10742379
000230 b6 c7 87 bb 2c fa f4 bd 3c 86 89 3d 46 14 b7 3d
       -0.0041436804 -0.11961779 0.06715056 0.08939414
000240 ea 9d 78 bd c1 7b 2e bd 7d 22 cd 3d c4 37 7f bd
       -0.060697474 -0.04259849 0.10016344 -0.06230904
000250 3d c1 24 bd dd 87 88 bd 5a 8a 08 be ef c6 30 be
       -0.04022335 -0.06666539 -0.13334027 -0.17263387
000260 cf 5b c7 bd d4 36 11 3d df f2 bf bd b7 36 05 bd
       -0.09734308 0.03545268 -0.09372496 -0.032522883
000270 76 33 85 3c e7 aa 27 be 65 40 e8 bd 44 52 7f 3d
       0.01625989 -0.16373788 -0.11340407 0.062334314
000280 10 fd 98 3d 6a 65 17 bd d6 12 67 3d a7 28 95 3d
       0.07470143 -0.03696195 0.056414448 0.072831444
000290 26 0c 0e 3c 33 94 b6 3c 46 a3 63 bb d1 ea 5a 3d
       0.008669889 0.022287464 -0.003473477 0.053446595
0002a0 87 4b 35 be c9 f7 96 3d be ec f4 bd 05 25 14 be
       -0.17704593 0.0737148 -0.119592175 -0.14467247
0002b0 e5 6c e2 bd 5d 51 23 3d d0 95 97 bc 57 1a de bd
       -0.11055926 0.039872516 -0.018504053 -0.10844868
0002c0 f2 e5 d4 3d 10 7a 2b 3c a7 87 18 3d 3c 94 98 bd
       0.10395421 0.010466114 0.037238743 -0.074501485
0002d0 52 39 1a 3e 43 6d 81 3d 10 45 94 3d fb 7e 68 3c
       0.15060928 0.06319668 0.07239735 0.014190431
0002e0 a6 42 29 bd 7c 63 24 3d df cb e9 3c c3 dc 89 bd
       -0.041323327 0.04013394 0.028539596 -0.0673156
0002f0 3f ee 1e be 72 13 f2 3d 8f 9e 3f be 04 ba 38 3c
       -0.15520571 0.11820115 -0.18712829 0.011274818
000300 8e 78 4a 3d 30 7f ef 3d 4b fd 45 3c 45 f7 88 bd
       0.049431376 0.11694181 0.0120843155 -0.06687788
000310 b5 de 2a be 45 51 ba 3d c2 f1 e2 3d 00 cf 5c 3d
       -0.16686518 0.09097532 0.11081268 0.053908348
000320 87 36 b9 bd ad d3 10 bd f8 18 a9 3d 9f c1 5e bc
       -0.090436034 -0.03535812 0.082567155 -0.013595968
000330 16 d4 58 3d 72 fb bb bc d0 6c 53 3d e6 d1 7f bd
       0.052936636 -0.022947047 0.051617444 -0.062456034
000340 67 17 2f 3b f2 4e d4 bd 63 6b cb 3c 83 5b 74 3d
       0.002671683 -0.1036662 0.02483148 0.059657585
000350 81 be a3 bd aa 45 87 bd 33 7d 11 be 9b 21 c0 3d
       -0.0799532 -0.06605084 -0.14207916 0.0938141
000360 75 65 69 bd ad 32 e7 3d f0 9d 00 3d 86 d9 85 bd
       -0.056981523 0.112889625 0.03140062 -0.0653563
000370 ba 8b 96 3c 94 84 b2 bd 12 2f 62 3d 2a f8 72 3d
       0.018377174 -0.087166935 0.05522067 0.0593187
000380 48 8e 1a ba 7b fc ef 3d c2 49 23 bb 24 0b 4c bd
       -0.00058958353 0.11718079 -0.002491579 -0.049815312
000390 f7 b4 09 3e fa dc 24 3e 38 3a 53 bd 33 b7 be bd
       0.13447939 0.16099921 -0.051569194 -0.09312286
0003a0 7d 42 c4 bb c8 c4 18 3e d2 c2 1f 3b a0 b4 b6 bc
       -0.0059893713 0.14918816 0.0024377597 -0.022302926
0003b0 cc 8a 39 bd df 6b 2d bd 8f 93 11 be d1 ae bf bd
       -0.045298383 -0.042339202 -0.14216445 -0.093595155
0003c0 86 f8 38 3e d3 5c dd bd e6 ff 64 3d 1a fe 2e bd
       0.18063554 -0.108087204 0.055908106 -0.0427228
0003d0 4d 41 a1 3d 4e 4c aa 3b 72 b9 93 3d 66 7b 78 3d
       0.07873783 0.0051970845 0.07213105 0.060664557
0003e0 76 ed dc 3d 4a ee d4 3d 4d 54 44 3e f3 f5 e3 bc
       0.107874796 0.103970125 0.19172783 -0.027827239
0003f0 d4 ca af bd bb b6 a7 3d ad b1 6d bd 52 95 6e bd
       -0.08583608 0.0818915 -0.058030773 -0.05824787

weight f4 [64, 64]
000000 bf c1 8e bd 4d 95 74 3c b3 cd e5 bd 2c 94 ae bd
       -0.06970548 0.014928174 -0.11220875 -0.08524355
000010 bd 3f 1f 3e 63 79 14 be fb cb 90 3c f5 ae e8 bd
       0.15551658 -0.1449943 0.01767539 -0.113614954
000020 80 8b da bd 68 98 51 bd e7 08 84 bd 7f e1 4d bd
       -0.10671139 -0.051170737 -0.064470105 -0.050263878
000030 3d 93 cb 3a 68 ce 23 bd 52 d2 08 be e9 60 99 bd
       0.0015531551 -0.039991766 -0.13361481 -0.07489187
000040 6a 9a 31 3d 06 d6 a1 bd 84 5e 1f bd b2 92 09 3e
       0.04336015 -0.0790215 -0.038908496 0.13434866
000050 83 7a 54 bd c6 c2 6f 3b 26 26 a6 bd 9d ae bc 3c
       -0.05187465 0.00365846 -0.08112745 0.02303248
000060 ce cd 87 bc ae 50 51 3d 5a 3a c6 bd 45 ab 0b 3e
       -0.016577628 0.051102333 -0.096790984 0.13639553
000070 64 36 1b bc 53 e6 5a 3d bd 30 6c 3c 3a a5 9f bd
       -0.009473417 0.05344231 0.014415917 -0.07795186
000080 ac a6 f8 3d 78 1d 17 3e 76 cd d4 3c f3 4f dc bd
       0.12141165 0.14757335 0.025976878 -0.107574366
000090 a4 80 71 3c 83 0d c2 bc 2c 28 dc 3d 9d 5c 12 be
       0.014740143 -0.023688084 0.1074985 -0.14293142
0000a0 24 ed 0b bc e2 9f 05 be 7d 40 ac bd 08 1a ae 3d
       -0.008540425 -0.13049272 -0.08410738 0.08501059
0000b0 61 c8 6b 3d e6 a1 95 3d 21 b2 d7 3b f6 f7 ec ba
       0.057564143 0.0730627 0.006582514 -0.0018079269
0000c0 fb cc fd 3d 01 03 01 3e 5f 61 7b 3d 53 cb 27 3d
       0.123926125 0.12598802 0.061372157 0.04096539
0000d0 fa 02 0b be e4 02 02 3d 43 db 7c bd 61 b8 cf 3d
       -0.13575354 0.031741038 -0.06173254 0.10142589
0000e0 42 42 92 bd 74 8e b8 bd be bf 02 bd 01 14 e5 bd
       -0.07141544 -0.09011546 -0.03192114 -0.11185456
0000f0 98 6f d6 39 cb 7e 08 bd c6 1b 22 3e 09 7f cb bd
       0.00040900405 -0.033324044 0.15830907 -0.099363394
000100 5a 85 cb bd 78 17 05 3d 12 87 27 3e b7 89 0a 3d
       -0.09937544 0.032493085 0.16360119 0.03382274
000110 0d c0 22 bd ff 2e 43 3d 3d 3f e9 bd ee d6 c7 3d
       -0.039733935 0.04765224 -0.11389015 0.097577915
000120 e9 5c 07 3d 6e 77 20 bd 43 ba a8 bd 0f 55 f7 bc
       0.03304759 -0.039176397 -0.082386516 -0.030191926
000130 5d f2 b9 bd c7 e4 89 3d 22 af a7 3d eb 3f 1a be
       -0.0907943 0.06733089 0.08187701 -0.15063445
000140 29 27 c1 3d 4e ca 04 bd d7 0a ac bd 17 55 1a bc
       0.09431297 -0.032419495 -0.08400505 -0.009419701
000150 02 a0 24 bd ef ce ff bc 5b cb c4 3d 4c 18 20 3d
       -0.040191658 -0.031226603 0.096090995 0.03908567
000160 3d 36 1a 3e 49 de 4b 3d 36 ff f7 bd 28 f7 42 3e
       0.15059753 0.049772535 -0.121092245 0.19039595
000170 28 1b ee bd 23 30 4d 3d 0e a7 0f 3d 95 08 90 3d
       -0.116262734 0.050094735 0.035071425 0.07032887
000180 ea d1 2d bd b9 b3 df bd 47 c4 54 3d 3e a0 a0 bd
       -0.042436518 -0.10922951 0.051944997 -0.07843064
000190 3b f4 37 3d b7 5f e8 3a 01 38 8c 3d 2e 58 7e bd
       0.04491065 0.001772872 0.068466194 -0.062095813
0001a0 ae 9f b5 3d b7 93 bf bc a5 23 4c bc f7 20 87 bd
       0.08868347 -0.023385866 -0.01245967 -0.065980844
0001b0 09 f7 04 bd 2f 0b b6 3d 51 c9 80 bd c3 30 b4 bd
       -0.032462154 0.08888852 -0.06288398 -0.08798363
0001c0 a4 10 d1 3c af 91 3d bd 86 2c b0 3c 76 32 ae 3d
       0.02552063 -0.046281513 0.021505605 0.085057184
0001d0 79 db 0d 3d 1d ac d9 3d 2d 66 39 bd fb b2 b1 3c
       0.034633134 0.10628531 -0.045263458 0.02169179
0001e0 93 3b a8 bd 5c 6d e3 bd 8a 38 d3 3c 8b ca 1f 3d
       -0.08214488 -0.11104843 0.025783796 0.03901152
0001f0 7a fd 3b 3e 44 2e f6 3d 6d c5 8b 3d 1a b1 e0 bd
       0.18358412 0.12020543 0.06824765 -0.109712794
000200 70 85 9d bd 11 dc f1 3c 80 7a 10 bd 0a 52 84 3c
       -0.07691467 0.029523881 -0.035273075 0.0161524
000210 f9 05 12 bb e9 8e a9 bd 6c dc c0 bd b0 d4 a6 3d
       -0.0022281392 -0.08279211 -0.09417042 0.08146036
000220 46 05 2e bc 2c fc 11 bd a2 1f 13 3d cc b4 52 bd
       -0.0106213745 -0.03564088 0.03591884 -0.051441953
000230 60 26 ca bd bc 02 8d 3d b7 04 b6 bd 21 30 e1 bd
       -0.09870601 0.06885287 -0.08887618 -0.10995508
000240 dc 41 17 bc 75 26 c7 3d 31 6e 96 3d c2 fa 2a bc
       -0.009232011 0.09724132 0.07345236 -0.010435762
000250 53 f9 8d 3d 6b 35 43 bd 8b da 34 3d 87 49 db 3d
       0.069323204 -0.047658365 0.04415373 0.107073836
000260 08 58 ad 3c f4 3a 2f 3e a0 7e bb 3d a5 a0 9a 3d
       0.02116014 0.17112333 0.09155011 0.07550172
000270 77 13 01 bd fc f2 a2 3d 14 84 aa 3d d0 f8 93 bd
       -0.031512704 0.07956502 0.08325973 -0.072251916
000280 57 9a ae 3d 75 40 1b be f2 bc ef bd 6a 8d e0 3b
       0.08525532 -0.15161307 -0.1170596 0.0068527954
000290 42 5a ae bc bb f7 a7 3d c5 a0 a1 3d f4 14 ff 3c
       -0.021283273 0.08201548 0.078919925 0.03113792
0002a0 eb c6 fc 3d 35 8f 8a bd c2 1b d8 3d 01 da 6f 3d
       0.12342628 -0.06765596 0.105521694 0.058557514
0002b0 fb ce b3 3c ec 1e 86 3d 50 e7 f4 bd 5f 6d 62 bd
       0.021949282 0.06548867 -0.11958182 -0.055280086
0002c0 88 70 ff 3d f8 89 e0 3c b9 ae 53 bd 40 a0 0c be
       0.124726355 0.027409539 -0.0516803 -0.13733006
0002d0 42 33 22 be 3e 89 71 3b 40 d4 3a bd 94 b4 08 3e
       -0.15839866 0.0036855484 -0.045612574 0.13350135
0002e0 ee 57 95 bc 59 56 88 bd 23 5d 88 bd 7e 91 ef bd
       -0.018230405 -0.066570945 -0.066583894 -0.11697672
0002f0 5f 49 0e bd 8d f5 40 3d 9b e8 9b 3d 4e cb ab bd
       -0.03473794 0.047109175 0.07612725 -0.08388387
000300 59 56 a8 3d a3 0e 47 bd 54 78 bc bc 87 9f 12 be
       0.082195945 -0.048597943 -0.023006596 -0.14318667
000310 a0 c5 ad 3d 83 41 07 3e 09 49 2d 3e a2 47 04 3e
       0.084849596 0.13208584 0.16922392 0.12917951
000320 0e 45 71 bd 6f 60 91 bd 11 3a 33 3d 3f 84 ad bc
       -0.058903746 -0.070984714 0.04375655 -0.021181224
000330 15 a2 7f 3d 44 01 6e 3d 14 63 38 3b 81 fc 4d bc
       0.062410433 0.058106676 0.0028135227 -0.012572409
000340 00 e3 3f be 10 bc 05 be 30 de ff bd e5 a5 91 3d
       -0.18738937 -0.13060021 -0.12493551 0.0711172
000350 91 02 25 be cd 17 0b 3d 8c 60 9a bd a6 b9 80 3c
       -0.1611426 0.033958245 -0.07537946 0.015713524
000360 65 17 64 bd ef 69 b8 3d e3 a3 bb bd 39 09 5e bd
       -0.055686373 0.0900458 -0.09162118 -0.054208014
000370 da ea 6d 3d 6f 02 fa bc 90 c8 c5 bc f6 e2 08 3b
       0.0580853 -0.030518739 -0.024143487 0.0020887232
000380 d0 e4 b3 bd 7c b6 6c 3d 94 a2 de bb ca b5 24 be
       -0.08783877 0.05779122 -0.006794283 -0.16084972
000390 d8 16 2d bd f7 ba 9e bd 9f a2 17 be bb 13 04 be
       -0.042258114 -0.077505045 -0.14808129 -0.12898152
0003a0 78 85 35 3d 3b f9 69 3c e1 06 32 bc c6 4a 92 bc
       0.04431674 0.014280613 -0.010865898 -0.01785792
0003b0 e7 d0 ab bc 40 0f a5 3d a4 65 d6 3d ef 48 0b 3e
       -0.020973636 0.08059549 0.10468605 0.1360204
0003c0 dc b5 a7 bc 26 ad ab 3d 4a 0e 5a bd 2c 38 c7 3d
       -0.02047246 0.08382635 -0.053236283 0.09727511
0003d0 6a 9c d2 3d 14 1b 92 3d d3 5b 28 3e 50 9e 2b 3d
       0.1028374 0.07134071 0.16441278 0.041899025
0003e0 04 e3 99 3c b2 4d c3 bd e5 1e cf 3c 10 96 25 3e
       0.018785007 -0.095363036 0.025283286 0.16170526
0003f0 72 f6 c3 bb 38 a2 d8 bd cc 88 0a be db ee b5 3d
       -0.0059803063 -0.10577816 -0.13528746 0.08883449

freqs f4 [8]
000000 7f 55 6f 3f 2a 8c 0b 40 1e 38 4b 40 60 0f 82 40
       0.9348983 2.18043 3.1753001 4.064377
000010 4d dd a8 40 b7 7b c8 40 a1 90 eb 40 7e be 07 41
       5.2770143 6.265102 7.361405 8.484007

weight f4 [64, 8]
000000 a2 63 6c 3e 0f 54 bd 3d a0 ca 1f 3d 1c c3 54 3e
       0.23084882 0.092445485 0.039011598 0.20777553
000010 34 37 4a be c5 6a b6 3d f7 40 58 3d 07 b2 d5 3c
       -0.19747621 0.089070834 0.05279633 0.026085867
000020 90 38 b6 be 83 d9 ae be 05 be e9 bd cd b9 69 be
       -0.3559003 -0.34150323 -0.114131965 -0.22824784
000030 e2 a3 9e be 58 e3 d0 bd dd bb 9a bc 58 09 a3 3d
       -0.30984408 -0.101996124 -0.018888408 0.079607666
000040 2c 2e ed bd b5 ba 21 be cf 5a 13 be e0 d4 4c 3e
       -0.11581072 -0.1579388 -0.1439011 0.2000308
000050 7f 52 b3 3d b0 3b c1 3e b6 36 0b 3e 91 30 83 3e
       0.08755969 0.3774085 0.1359509 0.2562299
000060 e8 fb e5 bd b6 a9 4d be 04 ca 00 3e 61 93 7c 3e
       -0.11229688 -0.20084271 0.12577063 0.24665596
000070 5a 8e c8 bd 4e 19 a3 3d d5 cd 90 be 2c 15 18 3e
       -0.097927764 0.07963811 -0.28282037 0.14851826
000080 19 63 d6 be 4e 47 d5 bd 57 ff 00 be 88 1c 0c be
       -0.4187248 -0.10413991 -0.12597404 -0.13682759
000090 d0 bf 98 3c 62 8e 2a be 64 63 be 3e 1d 1e 19 be
       0.01864615 -0.16655877 0.37185204 -0.14952894
0000a0 d4 2f 42 3e fb fa 9a be c7 57 59 3e fe 7f 80 3e
       0.18963557 -0.30269608 0.2122489 0.2509765
0000b0 ab 24 89 be 97 d0 f0 bd 1b f0 b0 bd 69 21 68 bd
       -0.26785788 -0.11758535 -0.086395465 -0.056672487
0000c0 ef c8 b7 3d 35 3d a3 3e 63 ab 70 bd c1 e9 a5 3d
       0.08973872 0.31882635 -0.058757197 0.08101226
0000d0 e7 64 84 be e9 fa 41 be da f2 94 be 52 ad bc 3c
       -0.25858232 -0.18943371 -0.2909153 0.023031864
0000e0 fa 07 2d bc 66 90 b3 3e da 9e 46 3e bd 2d cc bc
       -0.010560984 0.35071105 0.19396535 -0.024924153
0000f0 57 d5 fb bd 4c 32 28 3d 45 9e 30 be dd 49 85 3d
       -0.12296551 0.04106359 -0.17247875 0.06508229
000100 c6 69 00 be 65 b0 30 be c0 36 1a 3d eb 8f 43 3d
       -0.1254035 -0.17254789 0.03764987 0.047744673
000110 02 6f 5f bd cb 2a 83 3c f6 cc 9a be 89 cd fe bd
       -0.054549225 0.016011616 -0.30234498 -0.124415465
000120 e3 f7 e9 be 8e f6 aa 3e cb 41 ac 3e ca bf 9f be
       -0.45696935 0.3339123 0.33643946 -0.3120101
000130 ae fa 67 be e0 a1 8d be 60 8e 55 3e be bc 97 3d
       -0.2265422 -0.27662563 0.20855093 0.074090466
000140 d8 d4 ef be fd 01 e9 bd bc 5c 95 3e 30 9e 07 bd
       -0.46842074 -0.11377332 0.29172313 -0.033109844
000150 05 76 90 be 4d 4b 22 3e ca 1a ad 3e 7d 57 ae 3e
       -0.28215042 0.15849037 0.338095 0.34051123
000160 24 6d 4a 3e ba 96 f4 bd 75 51 4c 3b 1d bc 9c 3e
       0.19768196 -0.11942811 0.0031176482 0.3061227
000170 43 ea d1 3d f5 5c 96 be 06 a7 36 3e 61 cc c3 3d
       0.1024976 -0.29367796 0.17837152 0.095604666
000180 f0 bd dd be 65 d1 68 be a7 52 89 3e 9e 23 8e 3e
       -0.43308973 -0.22736128 0.2682087 0.2776155
000190 33 b6 9a be 2b cd f9 3d d8 43 6f 3e 88 2e 86 3d
       -0.30217132 0.12197336 0.23365724 0.06551844
0001a0 b0 b4 89 3e 16 fb 03 3e bd be 09 3e 2b 93 15 3e
       0.26895666 0.1288875 0.13451667 0.14606921
0001b0 f0 9f 97 bd 11 f2 c3 3c 33 03 00 be 0c 2f ae bd
       -0.074035525 0.023919137 -0.1250122 -0.08505067
0001c0 13 42 5a 3e 40 ac 2e be a2 0b c1 3d ba b7 9d 3e
       0.21314268 -0.17057896 0.09426047 0.30804235
0001d0 3b 97 80 3d 04 29 a1 3e 30 7c 32 bd ad b9 b0 bd
       0.06278845 0.31476605 -0.043575466 -0.08629165
0001e0 1e 80 df 3e d4 de 33 be 7e 4e b5 3e 59 3b b4 3e
       0.43652433 -0.17565471 0.35411447 0.3520153
0001f0 13 c5 97 be a2 90 07 be 6c 17 88 3e 41 f9 02 bd
       -0.29642543 -0.13238767 0.2658037 -0.03197599
000200 84 08 d1 be 4d 1e 38 3d b7 5f de be 81 9d 17 bc
       -0.4082681 0.044950772 -0.434324 -0.00925386
000210 e8 c8 5e 3d 2b e4 ea bd 20 b9 67 bd ee 96 16 3e
       0.054390818 -0.11469301 -0.056573033 0.14706013
000220 ed 71 ca 3d b9 be 4a bd 05 bb 23 be 96 5f 27 3d
       0.09885011 -0.049498294 -0.15989311 0.040862642
000230 8e ee 05 bd 6d 8e 83 bd f6 92 e1 bd 2e aa 80 3d
       -0.032698207 -0.0642365 -0.11014359 0.06282459
000240 e6 66 db be 96 0f 02 3e 22 e0 30 be 6e fe ab 3e
       -0.42851943 0.12701258 -0.17273 0.33592552
000250 b3 51 21 3c 4f 51 33 3e c2 2d 89 3d 04 0d f6 bd
       0.009846139 0.17511486 0.06698181 -0.12014201
000260 ca f8 de 3d 2d 99 92 be e0 c6 ac 3d 89 15 ac 3e
       0.108872965 -0.2863249 0.0843637 0.3361018
000270 cb 6f c3 bd 54 e3 b5 3e e3 d1 88 be ba ac 1d 3e
       -0.09542807 0.35525 -0.2672263 0.15397921
000280 96 fe 8b 3e 5a ce 10 be d5 ba b9 be 9a f6 92 be
       0.2734267 -0.14141217 -0.36275354 -0.28703767
000290 70 a7 2b 3e 86 be b6 3e ee 6c 91 be 6d d7 3f be
       0.16763091 0.35692233 -0.2840342 -0.18734522
0002a0 e2 1a 7f 3e d8 61 52 bd 35 33 a6 be fb 8b 96 bd
       0.24912599 -0.051362842 -0.32460943 -0.07350918
0002b0 a4 e6 de 3d 5d c8 be be c3 d9 30 be a4 03 1a 3e
       0.10883835 -0.3726224 -0.1727057 0.15040451
0002c0 9b c3 ee 3d 11 83 0c be b7 54 cf 3e 32 76 5c 3d
       0.116584025 -0.13721873 0.4049432 0.053823657
0002d0 80 32 4e 3e 02 6a e3 bc 16 85 1c be 08 1a 80 3e
       0.20136452 -0.02776051 -0.15285143 0.2501986
0002e0 0b 63 f3 be 2e e3 c9 3d ee 73 49 be cb dc 29 bd
       -0.475365 0.09857784 -0.1967313 -0.04147033
0002f0 15 26 89 3e 0e 99 ab be a8 07 0c 3d 8c b6 a6 bd
       0.26786867 -0.3351521 0.03418699 -0.08140287
000300 06 fd c9 3e ed 67 6e be d5 ec b5 bd 9c c4 53 be
       0.39450854 -0.23281832 -0.08883063 -0.2068047
000310 ec 10 88 3e 2e 3e 89 3e bc 51 da bc d5 f4 a4 3d
       0.2657541 0.26805252 -0.026650302 0.080545105
000320 2c b4 08 3f c4 d9 74 be 05 b0 bf 3d c9 da b4 3e
       0.5339992 -0.23911196 0.09359745 0.3532317
000330 0f e5 4c be f9 5b 8a be b9 6e 93 3e dd d5 95 3e
       -0.20009254 -0.27023295 0.28795412 0.29264727
000340 04 06 7d 3e 50 0a 8a 3e b8 a4 20 3e e0 43 50 be
       0.24709326 0.26960993 0.15687835 -0.20338392
000350 ed 64 a6 be fc bf ae 3c 0d 7a 39 be 9b dd b3 3e
       -0.32498875 0.02133178 -0.18112965 0.3513001
000360 40 20 bc bc c2 4a 55 3e d5 6d 95 bc ce eb a4 bd
       -0.022964597 0.20829299 -0.018240849 -0.08052789
000370 df 1e 8c bd fe 56 93 be 54 b1 aa be 83 eb d8 bd
       -0.06841826 -0.28777307 -0.33338416 -0.10591795
000380 8b 6a e3 be 2d af 9c be 5c 7c 39 3e a3 bc 15 be
       -0.44417223 -0.306024 0.18113846 -0.1462274
000390 2b 40 d3 3c f0 4c b4 bc 40 ac 7d be bd 92 0a be
       0.025787434 -0.022009343 -0.2477274 -0.13532539
0003a0 e5 a5 d2 be 57 95 54 3d af ef 8f 3e a7 32 0d bc
       -0.41142192 0.051900234 0.28112552 -0.0086180335
0003b0 73 ef c7 3d df 47 53 3e 20 f5 41 3e 20 3b 57 3d
       0.09762468 0.20632885 0.18941164 0.05254662
0003c0 1a d6 37 be 7f b7 16 3e e2 50 89 3c 2b da 9c 3e
       -0.17952767 0.14718436 0.0167622 0.306352
0003d0 33 ed a6 bd 37 93 90 3e e8 f0 3d 3e 6a eb a4 3e
       -0.08150711 0.28237316 0.1854893 0.32210857
0003e0 a8 bb 3f 3e 8d 7a 36 3d f2 d4 6b bd d0 39 44 3e
       0.18723929 0.044550467 -0.057576127 0.19162679
0003f0 cb 5b 82 3e 94 3a 77 3e 52 d2 b6 be 0c 3f 98 3c
       0.25460657 0.2414344 -0.35707337 0.01858475

weight f4 [64, 64]
000000 60 31 05 3e c8 27 09 be 69 1d 05 be b5 05 a2 bd
       0.13007116 -0.13394082 -0.129995 -0.07911245
000010 db 98 a2 3c db fd 5c 3d 5d 45 a6 bd 76 65 26 3d
       0.019848278 0.053953033 -0.08118699 0.040624104
000020 a7 02 7a 3c b4 14 a2 bd 2d 4a 95 3c 48 84 d3 3d
       0.015259421 -0.07914105 0.018223846 0.10327965
000030 d1 e4 b3 3c 6b 7c a1 3c 27 29 93 bd f0 ce 0b bd
       0.021959694 0.019712647 -0.071855836 -0.034132898
000040 b5 0a 7a bc 84 0c c4 bd 76 84 0c 3d cd d7 0d be
       -0.015261342 -0.095727 0.034306012 -0.13851853
000050 c3 7a a7 bd 58 b1 de 3d 59 0f 85 3d fc cf 93 bd
       -0.08177712 0.108736694 0.06497068 -0.07217404
000060 24 34 81 bb 05 67 a0 3c e7 58 18 3c e1 99 e3 3c
       -0.003942983 0.019580374 0.00929854 0.027783336
000070 44 11 57 be 15 c4 0d be 83 44 8e bd f0 34 bd bb
       -0.2100268 -0.1384433 -0.06946661 -0.005774133
000080 38 6d 9f 3d 81 87 8c bd e2 ef db bb ed fd 2c 3d
       0.07784504 -0.06861783 -0.006711946 0.04223435
000090 21 6f 8b bd 4c ab 71 bd 53 bc 0d 3b 6f 63 59 be
       -0.068083055 -0.059001252 0.0021627143 -0.21229337
0000a0 66 9d 0e bb ab 46 18 bc 7b 57 25 bc 46 bd eb bd
       -0.0021761297 -0.009294192 -0.010091658 -0.115107104
0000b0 42 a1 28 3e 9d 40 59 3d bf bd 0a be 08 10 46 3d
       0.16467765 0.053040136 -0.13548945 0.048355132
0000c0 8e c3 59 be 9e f6 59 3d 09 43 22 3d eb 6d 22 3e
       -0.21266004 0.053213708 0.03961471 0.15862243
0000d0 72 50 de 3d 63 d5 04 bd fd 9c e7 bd bb ea 25 be
       0.108551875 -0.032430064 -0.1130924 -0.16202824
0000e0 e1 ed 88 3c 76 40 03 3e 15 57 42 bb 65 31 9b bd
       0.016714992 0.12817559 -0.0029653956 -0.07577781
0000f0 57 36 75 3d e2 51 0c 3e 67 1b 8b 3d 68 5d 58 3d
       0.059866276 0.13703111 0.06792336 0.052823454
000100 8b 8d ce 3d 12 4e 6e 3d c2 f0 e3 3d 97 c4 98 3d
       0.10085591 0.058179922 0.11129905 0.074593715
000110 bd cb 3a 3d 0d 1a 98 3d 78 db 8c 3c 3e 28 0b be
       0.045604456 0.07426844 0.017194495 -0.1358957
000120 2d e7 2c bc ae cb 0b bd ab 79 e0 bb 15 5f 90 bd
       -0.0105531635 -0.03412979 -0.0068504415 -0.070493855
000130 51 5f 1a be 39 1d b8 3d bb 10 95 bd 8a f0 9a bd
       -0.15075423 0.08989949 -0.07278582 -0.075654104
000140 e4 93 c6 bd c7 e4 98 3a 9d a2 bd bd 21 8d 03 be
       -0.09696177 0.0011664861 -0.09259532 -0.12846805
000150 6c 10 1e bc be 25 c4 3d 45 ce ff 3d 11 ab 44 be
       -0.00964747 0.09577511 0.12490515 -0.19205882
000160 36 eb b6 bc 9d 66 ce bc bd c5 d8 bb 5a 19 e6 3a
       -0.022328954 -0.025195414 -0.006615369 0.0017555163
000170 35 a6 9c 3d 1b e5 3c bd 0b b6 cb 3d 72 ed a3 bc
       0.07648889 -0.04611693 0.09946831 -0.020010684
000180 68 39 ed bd 4d 51 15 3d eb 1d 84 3d dd 3f 3a 3e
       -0.11583215 0.036454488 0.06451019 0.18188424
000190 1a a6 bb bd af 2e d7 bc 0f ea db bd 35 10 f0 bd
       -0.09162541 -0.026267378 -0.107380025 -0.11721841
0001a0 f0 5c f6 3b 23 a4 38 3c 10 83 39 3d 39 f6 d2 3d
       0.007518403 0.011269602 0.045291007 0.103008695
0001b0 12 ba 58 bd 4b 08 db 3c 32 01 fa bd 33 2f ef bc
       -0.052911825 0.026737353 -0.12207259 -0.029197311
0001c0 2c 0f 70 3d fa f0 81 3d b6 2c d6 bd 4d 51 d1 bd
       0.05860822 0.06344791 -0.10457747 -0.10220585
0001d0 6a e1 81 bd 71 2f c9 bd 50 cd 22 be 8f 0a 00 3d
       -0.063418224 -0.09823502 -0.15898633 0.03126007
0001e0 40 47 f1 3b 30 c0 60 bc 89 be 9e 3d 43 06 02 be
       0.00736323 -0.013717696 0.077511854 -0.12697701
0001f0 04 04 c8 3d 7d c9 e1 3d 60 6e 0f 3d a4 bd d7 3b
       0.09766391 0.11024759 0.03501737 0.006583886
000200 b2 a7 e1 bd 35 23 90 bd 11 e6 b3 3d 1e 58 06 be
       -0.110183135 -0.07037965 0.08784116 -0.13119552
000210 7d 19 8b bc 58 e0 43 3d 89 19 2c bd aa f6 1a 3c
       -0.016979927 0.047821373 -0.04201654 0.009458223
000220 78 a6 70 bd 9d 0a 03 3d bb 8e 1a 3c 7c 64 dd bb
       -0.058752507 0.031992543 0.009433444 -0.0067563634
000230 a7 be 2f 3e 40 fd c7 bd 37 72 a7 3d 0f 6c 01 be
       0.17162572 -0.097651005 0.08176082 -0.12638877
000240 b8 41 b8 bd 51 3b 5a 3d 2c 1b 17 bd 6d bf 99 3d
       -0.0899691 0.053279225 -0.036891147 0.07507215
000250 93 d3 67 bb 7b 7b 28 be 23 38 0a be ae 51 e3 3d
       -0.003537391 -0.16453354 -0.13497977 0.110995635
000260 53 a0 0b be f2 75 27 bd 14 7f c5 3c c7 dd a6 bd
       -0.13635378 -0.040883966 0.024108447 -0.081477694
000270 57 91 2e 3e 56 56 2d bc 52 a8 8b 3c 80 38 d5 ba
       0.1704763 -0.010579666 0.017048035 -0.0016267449
000280 2e 23 f5 3d 47 f6 09 be 11 90 07 3d a3 f6 96 bd
       0.119696006 -0.13472854 0.033096377 -0.07371261
000290 b3 19 9b 3d 1a 7d 13 3d 6c 64 5f bd 3f 93 0b 3e
       0.07573261 0.036007978 -0.05453913 0.13630389
0002a0 46 63 34 bd 74 9f 27 bd 1c 40 07 3c 03 98 9f 3d
       -0.044039987 -0.04092355 0.008255031 0.07792666
0002b0 cd 2d 19 bd 57 83 5c 3d b3 b1 7f bd 92 9f bd bd
       -0.037397195 0.053836193 -0.062425327 -0.09258951
0002c0 27 df 0f 3e da e3 35 bd 6f f5 2a bd e4 97 be 3c
       0.1404997 -0.04440675 -0.04173797 0.023265786
0002d0 de b4 e1 bd a5 3f 24 bd bf d3 e4 3b ff bc 9c bd
       -0.11020826 -0.04009976 0.00698325 -0.07653236
0002e0 db ea 87 3d ef db a3 3d c6 c6 3f bd 1b 40 0a bd
       0.06636592 0.080009334 -0.046820424 -0.033752542
0002f0 6f e2 17 be 4a 83 e2 bd 69 a1 c7 bd 54 82 0d bd
       -0.14832471 -0.11060198 -0.097475834 -0.03454812
000300 88 ab 40 3d 02 08 ed bd 4c f6 87 3d f0 db 67 bd
       0.047038585 -0.11573793 0.06638774 -0.056606233
000310 82 07 7f bc 74 dc 14 3d 4f eb 44 bb 33 a4 e5 3c
       -0.015565755 0.036343053 -0.0030047481 0.028032398
000320 9a b7 00 be 22 59 aa bd fd e6 b6 3d b7 34 8e 3c
       -0.12570038 -0.08317782 0.08930776 0.01735912
000330 66 7c 85 bd ff 2b 83 3d 72 8e ed 3d 5b df 0a 3e
       -0.06517868 0.06404876 0.11599435 0.13561766
000340 21 58 0b be 0e ad e7 3d 4e 63 24 be 0e 32 df bd
       -0.13607837 0.113123044 -0.16053507 -0.10898219
000350 b2 dc 28 3c 62 0b 03 3d eb 99 c6 bd ee 52 2e bc
       0.010306524 0.031993277 -0.09697326 -0.010639889
000360 a6 51 2d 3d 4e 57 58 3d 80 b5 b8 3d 4f d6 87 3d
       0.042314194 0.052817635 0.090189934 0.06632673
000370 a8 ed ed bd 73 5a ca 3c d7 57 af 3d fe 2d 95 bc
       -0.11617595 0.024701333 0.08561676 -0.018210407
000380 a9 95 cd bd 81 47 9c bd 74 55 73 bd 30 2a 99 bc
       -0.10038311 -0.07630826 -0.059407666 -0.018696874
000390 16 56 2a be 4b d0 29 be 22 3c 96 bd ba bb 9f bd
       -0.16634402 -0.16583364 -0.07335688 -0.07799478
0003a0 5a 60 be 3c a5 e4 0b be 9c c1 b8 3c 83 e2 95 bc
       0.023239303 -0.1366144 0.022553258 -0.018296486
0003b0 15 ff a9 3d a7 d6 bc 3d d8 28 c4 3d b8 a3 a6 3d
       0.08300606 0.09220629 0.09578103 0.081366956
0003c0 17 be 65 3d 81 c9 85 3d d3 76 e7 bc c4 0a 65 3c
       0.056089487 0.065325744 -0.028254902 0.0139796175
0003d0 f1 83 6b 3d 35 3c 06 be e6 f6 84 3c 99 95 2c 3d
       0.057498876 -0.13108905 0.016231012 0.042134855
0003e0 d7 86 b2 bd 0b d1 53 3b 9b 86 fb bc 59 57 84 3d
       -0.08717125 0.0032320644 -0.030703833 0.06461973
0003f0 5d ae 10 3d 26 cf 09 3e 77 af dc 3a 34 67 23 3e
       0.035322536 0.13457927 0.001683696 0.15957338

weight f4 [64, 64]
000000 94 e3 8c bd e9 68 d1 3d b2 a4 1a 3e 05 da c9 bd
       -0.068793446 0.10225088 0.15101889 -0.09856037
000010 e4 83 35 3e 85 a2 57 3c cf 32 fc bd bc 90 ff 3d
       0.17726094 0.013161306 -0.123143785 0.12478778
000020 db a5 57 3e cc c5 2e be f5 d0 59 3d 75 87 9e bc
       0.21059363 -0.17067641 0.053177793 -0.0193517
000030 65 77 9d 3d 8f f1 0b bd 08 00 39 3d 8f 56 b4 3c
       0.07688788 -0.034165915 0.045166045 0.02201393
000040 65 be 00 3d 08 59 3e bd bc 41 9c 3d cd cd 72 bb
       0.031431574 -0.046471626 0.07629725 -0.0037048936
000050 8a a0 9c bd 55 e4 eb 3d c8 ff ae bd 01 7d 95 bd
       -0.07647808 0.1151816 -0.0854488 -0.07299233
000060 9e 26 eb 3d 8e ce 2c be 4f 37 74 3c e8 03 b5 3d
       0.11481975 -0.1687567 0.014905765 0.08838636
000070 f4 f9 4f 3b 9f 1d c1 3d 78 4d 32 3e 9a 0b a8 bd
       0.0031734677 0.09429478 0.17412364 -0.08205338
000080 af be 89 be 3a 88 0b 3d 7f 54 a0 3d cc d3 cc 3c
       -0.26903293 0.034065463 0.07828616 0.025003336
000090 e0 d9 da bc fb 01 b2 3c ae 1a f0 bd 7a 0d bf bc
       -0.026715219 0.02172946 -0.11723839 -0.023321856
0000a0 3b 73 dd bd 01 1f 38 be c3 30 23 be 22 d7 b9 bd
       -0.10812994 -0.17980577 -0.1593657 -0.090742365
0000b0 5f c8 f5 bd 36 b1 31 bc bc e0 12 be 2d 59 dc 3d
       -0.120011084 -0.010845473 -0.14343542 0.107591964
0000c0 ce 69 9b bc 29 6f 5b be 0e 9c 32 3b dc 41 d0 3d
       -0.01897135 -0.21429123 0.002725366 0.10168812
0000d0 53 94 fd 3d cf d4 a9 bd 73 41 ce 3d ac b6 3a 3d
       0.12381806 -0.08292543 0.10071077 0.045584366
0000e0 01 fc 72 bc 3a d9 ff 3d f7 7e 9e bc 08 71 53 bd
       -0.01483059 0.124926046 -0.01934765 -0.051621467
0000f0 19 d4 2e bd 44 68 85 3e 86 a9 99 3b 2a 00 06 3e
       -0.04268274 0.2605611 0.004689398 0.13086
000100 56 1e 93 bd da 84 fd ba 23 93 66 3d 90 50 81 bc
       -0.071835205 -0.0019341961 0.056292664 -0.015785486
000110 60 64 82 3d 6a bf 4e 3d bf f4 69 bd 52 e9 27 bd
       0.06366801 0.050475515 -0.057118174 -0.040993996
000120 88 a8 a8 3d bc c5 b7 bd 40 4b c6 bd ba 1f 6d be
       0.0823527 -0.08973262 -0.096823215 -0.23156634
000130 10 68 a7 3d 0c 10 3e bd 1b eb 1f bd 2a 17 01 3d
       0.08174145 -0.046402022 -0.039042573 0.03151623
000140 0c bd 40 be e9 be 9f bc b6 cd 9f bd 58 c5 44 be
       -0.18822116 -0.019500213 -0.07802908 -0.19215906
000150 ba bc bb 3c ce 8e e8 3d d8 51 40 3d e7 83 d3 3d
       0.02291714 0.11355363 0.046953052 0.10327893
000160 96 0a 64 3d 03 6a aa bc c8 e1 40 3d 8f 0a 9d bd
       0.055674158 -0.020802503 0.04709032 -0.076680295
000170 c0 4b fa bd cb a8 d6 bd 1e 4b 08 bc d9 9a 8a 3c
       -0.122214794 -0.104814135 -0.008318691 0.01691954
000180 9b 3a 1a 3e ed d5 17 3e ca 9b aa 3d 2a ec 56 3e
       0.15061419 0.148277 0.08330496 0.20988527
000190 57 21 a6 3d 49 46 02 3e 67 fb be bd 6d b2 4f be
       0.08111828 0.12722124 -0.09325295 -0.20282908
0001a0 04 ce b7 bd 01 56 8b 3d f9 30 f1 3d d8 d8 12 be
       -0.08974841 0.06803513 0.11776919 -0.14340532
0001b0 94 2d 88 bd ed 31 d5 bd 65 d7 ca bd ce e2 15 bd
       -0.06649318 -0.10409913 -0.099043645 -0.03659325
0001c0 cc e6 f5 bb f1 d6 18 3d e6 f7 72 bc 49 07 df 3d
       -0.00750432 0.03731436 -0.014829611 0.108900614
0001d0 8d 7f e4 3c 1d e7 8e ba 79 a2 02 3d e2 25 1c bd
       0.027892852 -0.0010902617 0.031893227 -0.038122065
0001e0 d7 49 5f 3d c9 1c 4c 3d d4 74 01 3d a6 2a ac bc
       0.05451378 0.04983214 0.031605557 -0.02101643
0001f0 08 c3 06 be 96 49 99 3d 0d b6 c8 3d 6f 9f 1d bd
       -0.13160336 0.074847385 0.098003484 -0.038482126
000200 a7 25 0e bd 2f 5d 95 bd 70 ca 24 3d 0b f7 9f 3d
       -0.034703877 -0.07293164 0.040232122 0.078107916
000210 d2 01 68 be 7b fe 1d 3d ed ae d3 3d 9e a0 6a 3d
       -0.22656944 0.03857277 0.10336099 0.057282083
000220 90 bf 69 3c 05 fa aa bd a2 52 a2 3d 1c 89 ba 3d
       0.014266863 -0.08348469 0.07925917 0.09108183
000230 ca e4 67 bd 7d ea b3 bd 11 d0 fd bd e8 63 a8 3d
       -0.056614675 -0.087849595 -0.12393201 0.082221806
000240 b3 c8 0e 3e 76 36 2d bd 0f b8 97 3d e6 51 d4 3c
       0.13943748 -0.042288266 0.07408153 0.025917958
000250 c8 d5 8c 3c 56 67 e1 bd 76 0b 1f 3d 68 a8 83 bd
       0.017191783 -0.11006038 0.03882929 -0.06428605
000260 9c 83 07 3d 03 e5 20 bd e8 0c 28 be 2c ed 2c bd
       0.033084497 -0.039280903 -0.16411173 -0.042218372
000270 1f 7a c7 3d 11 92 b1 3d 53 9e 38 be c6 21 f9 3d
       0.097400896 0.08670438 -0.18029146 0.12164645
000280 cc 17 4e bc 88 a7 39 be 46 99 4d bd 6c 5b 6b be
       -0.012578916 -0.18130314 -0.050195 -0.22984093
000290 c0 c9 ea bd 64 c1 b0 bd 0c 72 a8 3d 0f 64 48 3e
       -0.11464262 -0.08630636 0.08224878 0.1956942
0002a0 00 0c 93 bd bf 46 3c be bc b6 cc 3d ce 01 22 3e
       -0.07180023 -0.18386362 0.09995791 0.15821001
0002b0 e8 c2 8a bd 0a 3e b7 bd 29 c4 61 3d 50 05 67 bd
       -0.06775457 -0.0894738 0.055118714 -0.05640155
0002c0 80 1a 05 bd 63 c2 22 3e fa ad 93 bb 56 e9 ef bc
       -0.032495975 0.15894465 -0.0045068236 -0.029286068
0002d0 ea fc 28 bc 29 51 77 3d ba a5 c1 bd 09 4d 19 3e
       -0.010314206 0.060380135 -0.09455438 0.14970793
0002e0 ba 48 ce 3c 01 7c 4f 3d ce b6 97 bd da 80 91 3d
       0.025181163 0.05065537 -0.07407914 0.071046546
0002f0 58 89 51 bc b1 50 a0 bd eb 3e 05 3e 86 1a 57 3d
       -0.012789093 -0.07827891 0.13012283 0.05251553
000300 4a c9 e8 3d 02 40 9b bd 0a 40 7f 3c 41 69 fd 3c
       0.11366518 -0.07580568 0.015579233 0.030933978
000310 c5 c9 09 bd b4 98 22 b9 23 c8 d6 3d 92 14 ad 3d
       -0.033639688 -0.0001550641 0.10487392 0.08451189
000320 e0 10 08 be 50 3d 81 3d 74 43 fc 3c 11 ff 53 3e
       -0.13287687 0.063105226 0.030793883 0.20702769
000330 b5 00 a3 bb bd 54 40 3c 4e 0a 59 bc 23 77 9a 3d
       -0.0049744495 0.011738953 -0.013247086 0.07542255
000340 34 6c 01 3e e8 71 86 3d b3 94 1c 3e 14 1b 6d 3e
       0.12638932 0.06564695 0.15291099 0.2315486
000350 d9 0c 07 be 71 61 3c be 6f cf 8c bd 19 8d 1e 3c
       -0.13188495 -0.18396546 -0.06875502 0.009677195
000360 72 69 31 3d 0f 77 21 3d e8 7b 19 be f0 09 d3 bc
       0.04331345 0.039420184 -0.14988673 -0.025761575
000370 41 4d 0b 3d 0b 40 d6 3c e0 a4 4c be 95 4a 84 3c
       0.034009222 0.026153585 -0.1998477 0.016148845
000380 23 4d 6b 3c fd 52 67 3d 48 d5 03 be fd 28 80 be
       0.014361653 0.05647563 -0.12874329 -0.25031272
000390 a3 64 90 3c be ef 56 bc 52 2a 07 3e e8 ce 6a 3b
       0.017626112 -0.013118682 0.13199738 0.0035828892
0003a0 4e a8 b8 bd 4d 59 08 3e 69 91 02 3e 6a 5a 0c 3e
       -0.090164766 0.13315316 0.12750782 0.13706365
0003b0 bd e3 1a 3e 82 fc e6 3d 0f ef 2c bb f6 9c 95 bd
       0.15125938 0.11278631 -0.0026387607 -0.073053285
0003c0 63 3e 34 bd b2 b3 1b bd ac 92 e5 bc 96 78 8d 3c
       -0.04400481 -0.038013168 -0.02802404 0.017269414
0003d0 d1 5c 1f bc 87 72 ee bc a4 33 86 bd e6 a0 e6 bb
       -0.009726719 -0.029107345 -0.065528184 -0.0070382236
0003e0 c2 bd bc bd 42 93 90 bc e5 dd 77 bd c3 46 43 bd
       -0.09215881 -0.017648343 -0.06051435 -0.047674906
0003f0 a3 57 d0 bd ca 5f 07 be ae c1 56 bd c0 5e 32 3d
       -0.101729654 -0.13220134 -0.0524308 0.043547392
