examples/carbon/outDir/epoch=5-step=1530-val_loss=0.2887.pt (torch, 752753 bytes, 92 tensors)

cutoff f8 []
000000 00 00 00 00 00 00 08 40
       3.0

weight f4 [7, 64]
000000 15 45 59 3f 83 27 31 3f 6d cc a1 be c1 5f 07 c0
       0.84871036 0.69200915 -0.31601277 -2.1152194
000010 75 56 b6 be a8 db df 3e 53 8c fb 3e 0b 00 51 be
       -0.35612836 0.43722272 0.49130496 -0.20410173
000020 77 6f f5 3d 93 6b 9e 3f 8e f2 8e 3f 7c 36 7d be
       0.11984151 1.2376579 1.1167772 -0.24727815
000030 a7 99 85 bf f6 32 ac bf 11 0d 49 3f 99 2a 7e 3f
       -1.0437516 -1.3453052 0.7853556 0.9928375
000040 8b 4d 19 3f 5b 0d c7 bf ca c6 ae be 4e 2f ed 3f
       0.59883946 -1.5550951 -0.3413604 1.8530061
000050 55 aa ef 3e 5f 7f 21 be db c9 b8 3f a1 37 88 3e
       0.4680964 -0.15771244 1.4436601 0.2660494
000060 c0 d6 b1 3f 00 0d cb 3f 9c 40 72 3f 33 fb 57 bf
       1.3893661 1.5863342 0.94629836 -0.84367675
000070 30 8c 6e 3f 37 27 a1 3f 9a 51 00 40 3a 1b 5c 3d
       0.9318266 1.2590092 2.0049806 0.053736903
000080 d0 1f e1 3e d6 37 e6 3d f8 0a 24 3f 3c df e1 3e
       0.43969584 0.112411186 0.64079237 0.44115627
000090 42 0b 5d be a3 17 3e bf 82 0e 10 3f e2 ed 84 3e
       -0.21586326 -0.74254817 0.5627214 0.2596274
0000a0 2f da 05 3f 55 57 13 40 b7 04 bc bf 9e 18 cb bf
       0.52286047 2.3022053 -1.4688939 -1.5866888
0000b0 3c 03 9a 3f 87 20 ad 3d 2b 9e 99 bf ae d1 9c bb
       1.2032237 0.0845347 -1.2001394 -0.004785738
0000c0 10 dd 6b be 08 94 c8 be 5d 15 0b 3f 17 52 ca be
       -0.23033547 -0.3917544 0.5432947 -0.39515755
0000d0 52 75 52 3e 9f 91 e6 be 2e b5 12 bf f8 2b 0e bf
       0.20552567 -0.45032975 -0.5730771 -0.5553584
0000e0 d9 fd c3 bf 23 f8 9d bf c2 ec e8 3f fc 30 0d bf
       -1.5311843 -1.234135 1.8197253 -0.5515287
0000f0 48 a4 a9 bf 30 14 41 3e fb 75 8d bd db 66 fd be
       -1.325326 0.18855357 -0.069072686 -0.49492535
000100 ce 34 bd bf 8b 4d 24 40 c2 3c f2 be 4f cd ab 3e
       -1.478174 2.5672328 -0.4731198 0.33555076
000110 e8 2a c1 3f c2 3e 05 40 87 75 da 3f f1 57 18 40
       1.5091219 2.0819554 1.7067116 2.3803675
000120 d0 92 88 bf 57 b6 8e 3f 2c 0c 10 be de 45 4e 3f
       -1.0669804 1.1149396 -0.14067143 0.8057536
000130 10 bd a7 3e b5 bd 42 bf b8 ae cc bf 5a 71 97 3c
       0.3276143 -0.7607072 -1.599082 0.018486667
000140 5f 86 57 3f 47 d1 cc be 17 0d 85 3f d8 5f b7 3e
       0.8418941 -0.40003416 1.039462 0.3581531
000150 ca 85 58 bb 1b d1 08 bf 90 97 95 3f 44 fc c9 3e
       -0.003303873 -0.5344407 1.1686878 0.39450276
000160 dc c1 85 bf 3d dd 74 bf b4 58 09 3d 3c c8 35 3f
       -1.0449786 -0.9565008 0.03353186 0.7100866
000170 4a 84 c4 bf ae 4a d3 be a7 5f 77 3f e5 f8 cf 3f
       -1.5352871 -0.41267914 0.9663033 1.6247832
000180 ad 40 27 c0 13 26 d9 bf 37 b8 69 be 43 56 8f 3e
       -2.6133225 -1.6964744 -0.22824179 0.279955
000190 06 02 96 3d 38 81 8e 3f 55 85 90 3e d3 52 de 3e
       0.07324605 1.1133184 0.28226724 0.43422565
0001a0 0f f4 e9 3e fa 88 5d bf cc 03 48 3f 12 42 6d bf
       0.45694014 -0.86537135 0.78130794 -0.9267894
0001b0 cc 5e 53 3e ae b9 aa be 9b 8f db be 22 82 6e 3e
       0.20641631 -0.33344787 -0.42883 0.23291829
0001c0 99 67 76 3f 2e c6 b2 3e ef e4 6b bf 81 2c 66 bd
       0.9625183 0.34916824 -0.921462 -0.056194786
0001d0 0d 97 33 bf 27 b2 84 3f 20 8a 1a bf 94 ae a3 bf
       -0.7015236 1.0366868 -0.6036701 -1.2787652
0001e0 95 c0 fd 3d a0 17 95 3f 35 62 6c 3f e4 92 b1 3f
       0.12390248 1.1647835 0.9233735 1.3872952
0001f0 3e 01 b0 3f 95 dd 28 3f 4b ff f3 3e 5d 16 82 bf
       1.3750379 0.6596311 0.4765571 -1.0163075
000200 db 40 1c 3f 5c 0b ef 3e 22 af f9 3f 9d 13 88 bf
       0.6103646 0.46688354 1.9506571 -1.0630985
000210 03 f7 91 3f 17 14 b8 bd ed d3 3a 3f 6a 33 ec bf
       1.1403507 -0.08988207 0.72979623 -1.845319
000220 f1 15 d1 bd 50 4b 84 bf 32 12 a0 be 30 af 7b 3e
       -0.10209263 -1.0335484 -0.31263882 0.24578547
000230 fd 1d c1 3e 43 f5 8c 3f 8b 46 92 bf 25 f3 19 3d
       0.37718192 1.1012348 -1.1427778 0.037585396
000240 41 c0 93 3e 24 f0 c5 3e b3 e3 4d be b4 83 f1 bd
       0.28857616 0.38659775 -0.20106392 -0.117926985
000250 63 51 54 bf fc 20 b4 bf 83 3c d0 3f 63 68 30 3e
       -0.82936686 -1.4072566 1.6268467 0.1722732
000260 9c 4c 34 bf 1b 23 a1 3e 9a 2b 21 3e 43 4e c5 3e
       -0.70429397 0.31472096 0.15739289 0.3853627
000270 07 db 12 3f 6d 78 7f 3f fd 29 0b 3f 32 64 a1 3d
       0.5736546 0.9979313 0.54360944 0.07880439
000280 da 9a 7f 3f 8b 57 ff be 2a d8 42 3f f7 48 1e 3f
       0.9984566 -0.49871477 0.7611109 0.61830086
000290 ec 48 99 be e5 48 40 be 22 3c f5 3f a4 b0 30 3f
       -0.29938447 -0.18777807 1.9158976 0.6901953
0002a0 32 c9 a0 be 1b 13 8a bf 08 97 76 3e 93 b7 b2 bf
       -0.314035 -1.078708 0.24081051 -1.3962272
0002b0 01 8e e8 3d a7 67 8d 3f ff 94 b2 bf c3 42 f3 3e
       0.1135521 1.1047257 -1.395172 0.47511873
0002c0 96 60 8a 3f 2f a2 06 3e b4 69 c9 3f cb 0b 48 3f
       1.0810726 0.13147806 1.5735383 0.78142995
0002d0 a5 c8 7c 3f 7a 70 be bf 26 31 16 3f 2e 18 22 3e
       0.9874366 -1.4878075 0.58668745 0.15829536
0002e0 2a b2 2a 3f 52 90 7e bf 14 3d 98 bf df 14 99 bf
       0.66678107 -0.99438965 -1.189364 -1.1959494
0002f0 14 ec a7 3f 05 e0 56 be 8b 1f 48 3f 7e 5c 7d 3f
       1.311892 -0.20983894 0.7817313 0.98969257
000300 92 a0 2f 3e 78 44 60 3f 1f fd 92 be 1a c5 82 3f
       0.17151096 0.87604475 -0.2870874 1.0216401
000310 bb d5 02 bf 6f 5b db bf 9b 93 02 bf 31 25 f3 be
       -0.51107377 -1.7137278 -0.5100648 -0.47489312
000320 cb 8a 29 3f 1e 68 9a bf 2b 81 1b 3f 78 12 0c bf
       0.66227406 -1.2063024 0.6074397 -0.5471568
000330 84 dc 8c bf 47 5a 38 bf 2c 78 43 3c b7 f6 ad 3e
       -1.1004796 -0.7201275 0.011930507 0.3397729
000340 c2 77 a0 bf 4a a1 7c 3f 6d 43 fd be c1 3a a4 bf
       -1.2536547 0.9868361 -0.49465504 -1.283043
000350 a1 96 e0 3e 09 60 2f bc 31 4f ab 3f 2d 0e 8f be
       0.4386492 -0.010704049 1.3383542 -0.27940503
000360 dc 4d 93 3e ff b3 08 bd f6 eb 87 bf 45 58 ea bd
       0.2877034 -0.033374783 -1.0618885 -0.11442617
000370 14 15 48 3e 35 b3 3c bf ed 9c d9 3f 2a 43 b1 3e
       0.1953929 -0.7371095 1.7001015 0.34621555
000380 30 3b 14 be ec 3a 23 3f 46 05 90 be 59 39 aa bf
       -0.14475703 0.6376178 -0.28129023 -1.3298751
000390 69 5f 27 bf 32 23 dc 3f 2c 01 76 bf 5d 33 23 bf
       -0.6537996 1.7198241 -0.9609554 -0.6375025
0003a0 05 10 63 bf f0 b9 56 3f 11 92 93 3f aa 6b e1 bf
       -0.8869632 0.8387747 1.1528951 -1.7610981
0003b0 73 b3 8d bf 7e d2 db bf 7f 6c c4 3f 4c 1f 52 bb
       -1.1070389 -1.7173612 1.534561 -0.0032062111
0003c0 22 5d b8 3f 35 7f e2 bd 1d ad 13 3f f9 3b 2d be
       1.4403422 -0.11059419 0.57686025 -0.16917409
0003d0 a3 26 98 3f 9a 49 21 be ab 86 3a bd 5b 02 26 3f
       1.1886791 -0.15750733 -0.045538586 0.64847344
0003e0 0d e9 5e bf 7b 37 14 3e cd 90 f3 3f f5 e1 c7 3e
       -0.8707436 0.14474289 1.9028565 0.3903958
0003f0 bb 6d 07 3d 67 00 83 bf 67 c7 3b 3f 72 11 8f 3f
       0.03306363 -1.0234498 0.7335114 1.1177199

weight f4 [64, 64]
000000 bb ab 2c 3e c7 eb 1e 3e b6 74 54 be 77 5e 10 be
       0.16862385 0.1551963 -0.20747647 -0.14098535
000010 e7 fe 07 3e 27 b0 5f bd 70 33 f8 bc 39 e0 00 3e
       0.13280831 -0.05461135 -0.030297965 0.12585534
000020 b9 05 72 be 2e 31 68 3d 79 85 fc 3d 68 a5 4a 3e
       -0.23634996 0.056687526 0.123301454 0.1978966
000030 f2 56 89 3e 4b e3 3d 3e c6 9c 35 bd 8c 3e 07 be
       0.26824147 0.18543737 -0.044338964 -0.13207453
000040 9f c6 03 3e 79 18 1b 3e 2c 46 da bd b3 aa 20 3b
       0.12868737 0.15146054 -0.106579155 0.0024515807
000050 5b 14 2a bd 5b 3d 1a be 8d de 24 3e 0d 93 a7 3d
       -0.04152332 -0.15062468 0.16100521 0.081823446
000060 2c 05 22 3e 37 f4 e3 3d 63 c0 10 3e 85 8c 80 3d
       0.15822285 0.11130565 0.1413589 0.06276802
000070 c7 47 1f bd b7 e3 5e 3d f0 83 2c 3d 01 2e 10 bd
       -0.03888681 0.054416385 0.042118013 -0.035200123
000080 71 77 5b 3e 67 9f 9e bd 65 ef e1 bd da 0e 97 bc
       0.21432282 -0.07745247 -0.11031989 -0.018439699
000090 0d 5c 3b bd 7d 29 7c be 0c 14 d7 3d 64 b9 32 be
       -0.045742083 -0.24625202 0.105018705 -0.17453533
0000a0 da 31 fc 3d 61 f1 92 bd b9 05 3d 3e 7d c3 cf 3d
       0.12314196 -0.071749456 0.18459214 0.10144708
0000b0 c2 09 19 3e d9 78 56 bc 73 b4 f5 3c 5a 35 e8 3d
       0.14945129 -0.013090336 0.029993271 0.11338301
0000c0 c0 ca dc 3d 2d ba d4 3d d4 22 cb bd 67 4f 15 be
       0.10780859 0.10387073 -0.09918752 -0.14581071
0000d0 26 ec 0c be 46 a2 32 be b1 c9 75 bd 51 dc 4e 3e
       -0.13761958 -0.17444715 -0.0600068 0.20201232
0000e0 a9 e5 28 be 76 08 5f be 33 39 13 3c 76 b5 62 3d
       -0.16493858 -0.21780571 0.008985805 0.055348836
0000f0 9b 2a 8d bd cd 90 45 be 0f 1f 2a 3d d9 be 44 be
       -0.06892892 -0.19293518 0.041533526 -0.19213428
000100 d7 01 c5 bd b1 62 fd bc 78 61 1c 3e 24 d7 a5 bc
       -0.096194915 -0.030930849 0.15271556 -0.020244189
000110 ac 87 bd 3b c0 30 1f bd 64 f5 35 3d 6b 72 80 bd
       0.0057839956 -0.03886485 0.044423476 -0.062718235
000120 44 19 c8 bc 63 c1 03 be ec b4 a4 bd f2 57 f8 bd
       -0.02442611 -0.1286674 -0.080423206 -0.12126149
000130 83 0a 3d bd d2 36 05 bd b4 83 3c 3e cc 51 a9 3b
       -0.046152603 -0.032522984 0.18409616 0.0051672217
000140 cb f2 e3 bd ad d6 c7 bc 09 49 0a 3e 88 b0 95 bc
       -0.111302935 -0.024394358 0.13504423 -0.018272653
000150 50 4f 4e 3d f7 9d b5 3d 12 62 03 be 69 98 c2 3d
       0.050368607 0.0886802 -0.1283038 0.09501726
000160 8f 30 ce bd 61 44 d3 bd cd cc a9 3d d6 e5 bb bd
       -0.100678556 -0.103157766 0.08291016 -0.09174697
000170 7d 67 ac bc 54 fe c5 bd 54 b9 03 bc 6c f8 23 bd
       -0.02104544 -0.0966765 -0.008039791 -0.040031835
000180 b0 f4 67 3d dc 2f cc bd a9 20 7f bb bf e4 0d 3e
       0.056629837 -0.09970066 -0.003892938 0.13856791
000190 4f d5 43 3d 6c 6e 57 3c ee 24 28 be 45 42 d3 3d
       0.04781085 0.013148885 -0.16420338 0.10315374
0001a0 42 87 23 3d 40 28 43 3d 7a 3d 0d be 03 dd 2f 3d
       0.039923914 0.047645807 -0.13792983 0.042935383
0001b0 30 b9 3f be 9d 84 d2 3c 4d 9e ef 3c 52 23 f2 bd
       -0.18722987 0.025698 0.029250288 -0.11823143
0001c0 ea eb 50 3d 59 b5 05 bd 5f 7d 2b bb 3c e1 1b bd
       0.051006235 -0.03264365 -0.0026167256 -0.038056597
0001d0 ee 80 f4 bc 35 d4 6b 3d e8 27 96 3d 83 71 f7 bd
       -0.029846635 0.057575423 0.0733183 -0.120821975
0001e0 24 cc 9a 3d 72 4c 20 3c c0 c6 9b 3c dc 59 02 be
       0.07558468 0.009783851 0.01901567 -0.12729591
0001f0 15 2a b3 bd dc 87 07 3e ee 8e 2f 3d c4 4d 19 3e
       -0.08748261 0.1323542 0.042860918 0.14971071
000200 6d 56 6f 3c 09 8c ee 3c 86 b4 8b bd 33 68 94 bd
       0.014608008 0.029119508 -0.068215415 -0.07246437
000210 37 8c a0 3d 9d 52 3e be 89 ed 0a 3d 42 2a f6 3d
       0.07839244 -0.18586202 0.033917937 0.12019779
000220 a6 ba 4d be dd fc 99 3d 41 3d d6 3d 1b 40 b1 3d
       -0.20090732 0.07518933 0.10460902 0.08654805
000230 9d a2 3f 3e ad b2 bc bc be 0a d3 bd b5 51 48 bd
       0.18714376 -0.023034418 -0.10304783 -0.048906047
000240 04 ea cd bd 04 c8 ad 3d cb b0 23 3d 68 c8 1c 3e
       -0.100544006 0.084854156 0.039963525 0.15310824
000250 eb c5 0a be 35 fe 18 be 6f 58 74 bc 51 1d f7 bc
       -0.13552062 -0.14940722 -0.014913662 -0.030165346
000260 3b a8 05 bc 04 56 88 bd 77 8e 1a be 01 14 e2 bd
       -0.008157785 -0.06657031 -0.15093409 -0.11038972
000270 29 7a ca bd a8 63 52 3d fd 01 11 3e f9 10 04 bd
       -0.098865815 0.05136457 0.14160915 -0.03224275
000280 87 e8 25 3e b6 a7 65 bd fc a7 9c 3d 1d 21 52 be
       0.16201983 -0.056068145 0.07649228 -0.20520444
000290 a3 88 45 be 5a e0 48 bd e1 7e 03 3e 3c f1 43 be
       -0.19290404 -0.049042083 0.12841369 -0.19134992
0002a0 63 a1 44 bc 3c b5 29 be 12 b5 3f 3e 11 30 93 3c
       -0.012001368 -0.16573042 0.18721417 0.017967256
0002b0 c8 07 33 3d eb 61 24 bd a3 d8 f2 3d 3c bb 42 3e
       0.043708593 -0.040132444 0.118577264 0.19016737
0002c0 62 a3 96 3d 20 30 ee 3d dc 2a a4 3d 5c a0 a3 bd
       0.073553815 0.11630273 0.08015987 -0.079895705
0002d0 5a c0 14 bd c7 fc f2 3c ab 1f 62 bd d4 ab 3a bd
       -0.036316253 0.02966155 -0.055205982 -0.045574024
0002e0 05 59 9c bd 8b 3c 73 3d 9e 99 bf 3d e4 2c 28 3e
       -0.07634167 0.05938391 0.09355472 0.16423374
0002f0 12 ce 0b 3e 53 d5 9a bd 6e e5 ee 3d fe a5 db bd
       0.13652828 -0.075602196 0.11664854 -0.1072502
000300 b8 79 d0 3d ca 3f 77 3e 22 8f c1 bd 0c 7a 98 be
       0.10179466 0.24145427 -0.094511285 -0.29780614
000310 d7 31 a8 3e 07 d2 3e be c0 bd 47 be 2c 80 6f 3e
       0.32850525 -0.18634807 -0.19505978 0.23388737
000320 7a 1c 1c be 0a d5 e3 3d 62 50 55 3e 1d a2 46 3e
       -0.15245238 0.11124618 0.20831445 0.19397779
000330 09 44 86 3d 9a d0 7e 3d 82 24 00 be 16 74 5a 3c
       0.065559454 0.062210657 -0.12513927 0.013333341
000340 94 35 60 3e 84 13 85 3e 6e 42 e8 bd 4c df 71 3d
       0.21895438 0.25991452 -0.113407955 0.059050843
000350 a0 10 7a 3e e3 fd 80 bd 19 d9 3d 3e 99 74 5f 3e
       0.24420404 -0.06298425 0.18539847 0.21821822
000360 e9 46 a6 3e 20 f1 4d 3e a1 32 6e 3e 3c 61 55 3e
       0.32475975 0.20111513 0.23261501 0.20837873
000370 35 4e 4e be 64 a8 30 3d 09 d6 2d 3e d9 83 a3 3d
       -0.20147021 0.04312934 0.16976179 0.07984132
000380 f0 a9 82 3d 40 74 32 be 92 d6 cc bc d2 b9 a6 be
       0.06380069 -0.17427158 -0.025004659 -0.32563645
000390 a0 c7 2b be 3d c9 a1 be 86 31 d8 3d bc 77 40 be
       -0.1677537 -0.31598845 0.10556321 -0.18795675
0003a0 f7 51 10 3c 77 24 cb bd 71 2d a3 3e b5 e7 99 3e
       0.008808604 -0.099190645 0.31870607 0.3005959
0003b0 0a 20 18 3e 05 d1 95 bd e3 11 36 3e 86 58 9e 3e
       0.14855972 -0.07315258 0.1778026 0.30926913
0003c0 79 20 18 3e ee 8e 83 3d 4f 3f d8 bd 18 a6 15 be
       0.14856137 0.06423746 -0.1055895 -0.14614141
0003d0 c6 6c c0 3c 6f 5e 91 be 53 5b 00 be 2c c7 6e 3e
       0.023489367 -0.2839236 -0.12534837 0.23318166
0003e0 58 34 82 be 3b 9d 7d be dc 42 f4 3c 79 3b 77 3e
       -0.2543056 -0.2476701 0.029817037 0.24143781
0003f0 ec 7c e4 3d 85 ee 5a bd 7c 77 86 3e af 14 7d be
       0.111566395 -0.053450126 0.26263034 -0.24714921

weight f4 [64, 64]
000000 1b 81 75 3d 7b 64 1c be 89 3a 32 be a7 34 39 be
       0.059937578 -0.15272705 -0.17405142 -0.18086492
000010 0f 1a 8c 3d 80 8c 8c bd 31 19 38 be 61 d7 7a bc
       0.06840908 -0.06862736 -0.1797836 -0.015310139
000020 f4 b0 cb bd aa a2 74 3d a5 eb 9d bc 0d 1c 0f 3e
       -0.099458605 0.05972544 -0.019277403 0.13975544
000030 c2 34 b1 be b1 3c 1a 3c 23 09 2a be e7 a2 fa bd
       -0.34610564 0.009413884 -0.16605048 -0.122381024
000040 b9 e4 65 3e 75 70 f8 3d 7a f0 b7 3d fe 03 68 3d
       0.22450532 0.121308245 0.08981414 0.056644432
000050 1d 9a e8 3d 46 c1 67 bd 26 0a be 3c 42 c6 34 bd
       0.1135752 -0.056580804 0.023198199 -0.044134386
000060 bb 32 2c 3d a0 1d 50 3c ce ab a0 3d d6 b6 15 3c
       0.042040568 0.012702376 0.07845269 0.00913783
000070 3e d6 af 3d d9 8b 8c 3c 19 32 23 be 54 25 34 3c
       0.08585785 0.017156528 -0.1593708 0.010995228
000080 a8 d7 fc bc 89 3a 60 bd cd ef 7f be dd 6f 5c bd
       -0.030864552 -0.054743323 -0.2499382 -0.05381762
000090 97 ef 74 bd ac 50 75 bd 56 54 0e bd df 75 09 be
       -0.059798803 -0.059891388 -0.034748398 -0.1342387
0000a0 83 eb f1 bd 66 8b 0e be e0 91 00 3d 62 4f 00 3e
       -0.118124984 -0.13920364 0.031389117 0.12530282
0000b0 14 be df 3c 5c ae 25 bd 0d 64 b5 3d 86 b6 0e be
       0.027312316 -0.040449485 0.08856974 -0.13936815
0000c0 de 6b d8 3d 28 d1 c2 3d d3 16 23 be 54 14 f4 bd
       0.10567449 0.0951255 -0.15926675 -0.1191794
0000d0 49 79 eb bd 4f 26 06 be 6a fc e1 bd d1 db c4 bc
       -0.11497743 -0.13100551 -0.11034472 -0.024030598
0000e0 53 6a 97 3c 50 d4 01 3d d3 2b 34 be a0 52 af bd
       0.018483317 0.031696618 -0.17594843 -0.08560681
0000f0 c4 ca 6b 3e 96 dc 27 bd 8a 48 68 3b b8 a2 43 3d
       0.23026568 -0.04098185 0.0035443627 0.047762603
000100 3d 14 7f bd 41 60 32 3d 9d 1a 66 bd 06 4b 8d 3d
       -0.06227516 0.043548826 -0.056177724 0.06899075
000110 60 6f 1e 3e 16 9b 14 bc 47 7c 85 3c 8c 3c 8b 3d
       0.15472174 -0.0090701785 0.016294612 0.06798658
000120 76 28 fa bd 72 fa 5e ba 65 56 2f 3c bd fa 58 3d
       -0.122147486 -0.0008505947 0.01070175 0.052973498
000130 31 10 e8 3d 2e 9b 54 3d 34 c7 44 bc 3a f9 85 3d
       0.11331213 0.051905803 -0.012010384 0.06541677
000140 21 5b 20 39 44 ea 83 bd 65 20 1d 3d 84 8e e5 bd
       0.00015292737 -0.06441167 0.038360972 -0.11208823
000150 bf 29 45 3e 89 82 63 3d ca e3 00 3e 36 c1 1c bd
       0.19254206 0.05554441 0.12586895 -0.038270198
000160 65 f3 01 3d 99 d7 c9 3d 54 b8 a7 bd cb 5c 01 3e
       0.03172626 0.09855575 -0.08189455 0.12633054
000170 9c b7 82 3d ba 56 51 3d a2 6f 54 3b df c0 97 3d
       0.06382677 0.0511081 0.003241517 0.07409834
000180 6b 95 a6 bd df 64 9e 3d 6a 62 ee 3d 1c 69 2d bd
       -0.08133968 0.077340834 0.11639865 -0.04233657
000190 e9 aa c0 bd 2d d5 06 bd a3 96 20 3e 40 c7 b9 3d
       -0.094075985 -0.032918144 0.15682463 0.09071207
0001a0 97 66 c9 bd fc 22 44 be c1 fb 7f bd 6a b6 08 be
       -0.098340206 -0.1915397 -0.06249595 -0.13350835
0001b0 65 c8 e5 3d bf 4e b1 bd be 1e ec 3d e8 8f c0 3c
       0.11219863 -0.08657598 0.11529301 0.02350612
0001c0 ae 0d 27 be 57 9b c0 3b d3 4a aa 3d 71 7a e9 3c
       -0.16313812 0.005877893 0.08315053 0.028500767
0001d0 8a 48 b2 3d ef eb b1 3c 44 4c 99 bc ea c9 d5 bd
       0.08705242 0.021718947 -0.018713124 -0.10438903
0001e0 96 03 58 3d 93 1c d7 bd 18 0a 90 3d fa 63 bd 3c
       0.052737795 -0.10503497 0.07033175 0.023118962
0001f0 f7 76 49 3e a6 49 a8 bd 13 83 0c 3a 02 10 a5 bd
       0.19674288 -0.08217172 0.0005360108 -0.08059694
000200 a7 69 68 bd 46 2b f9 3b 3b bc 07 3e 61 ed 1f 3e
       -0.056741383 0.0076040355 0.13255398 0.15617897
000210 05 b8 a9 3b c4 8a a6 3d 37 90 dd 3d 47 4a c2 bd
       0.0051794075 0.08131936 0.108185224 -0.094868235
000220 65 7f 02 3e c2 4f 21 be 20 93 82 3b 27 31 b8 bd
       0.1274391 -0.15753081 0.003984824 -0.0899375
000230 a3 bd d3 3c 12 0f cf bd 17 94 49 3d 12 72 90 3d
       0.025847262 -0.10110296 0.049213495 0.07053007
000240 75 be 37 bd 4e 1c ee bc ff 84 b4 3d e9 30 4c bd
       -0.04485937 -0.029066231 0.088144295 -0.04985133
000250 9d e7 a7 bc 1e 1f a8 bd e4 ea f0 bd 8b d4 1e be
       -0.020496184 -0.0820906 -0.11763552 -0.15510766
000260 a4 82 a9 bd 1e b7 50 3d 4a 2f a0 bd 0d 9b 24 bc
       -0.08276871 0.050955884 -0.0782152 -0.010046733
000270 7c df 12 bb 2c 44 11 be e6 56 bf bd f6 6d 9e 3d
       -0.002241104 -0.14186162 -0.093427464 0.07735817
000280 fc 1e be 3d 7b 1e 64 bd d9 31 40 3d 3d 9e 6f 3d
       0.092832536 -0.05569313 0.04692254 0.058500517
000290 7d 5b fb bb e2 1a c3 3b 90 bf 57 3c 47 c7 1e 3d
       -0.0076708184 0.0059541324 0.013168231 0.038764264
0002a0 d9 2e 21 be 8f fd 5a 3d 2e 98 d2 bd 2c 6a 01 be
       -0.15740527 0.05346447 -0.10282932 -0.12638158
0002b0 44 b9 bc bd de 74 1a 3d 85 ad 57 3b a0 b7 ae bd
       -0.09215024 0.03770911 0.0032909822 -0.085311174
0002c0 87 15 f0 3d 46 81 00 3d 00 8a be 3c d6 b0 be bd
       0.11722856 0.031373285 0.023259163 -0.093110725
0002d0 c5 0b 09 3e 5a d9 48 3d 82 c6 56 3d cb b8 d3 3c
       0.13383396 0.049035408 0.052435406 0.025844952
0002e0 de 07 80 bd 63 00 ba 3c 3f 65 46 3d 71 b1 45 bd
       -0.062515005 0.022705263 0.0484364 -0.048264924
0002f0 74 03 11 be 0b 4d c9 3d bc f3 2e be fb e7 e2 b9
       -0.14161474 0.09829148 -0.17085165 -0.00043278918
000300 57 43 8f 3d 49 7f 22 3e 2b c1 ec bc a9 7a bc bd
       0.06995266 0.15868868 -0.028900703 -0.09203083
000310 16 4b 02 be 82 7b 58 3d c8 d6 a0 3d 6e 56 9f 3d
       -0.12723956 0.05285216 0.07853466 0.07780157
000320 56 3d c2 bd 1c 74 ed bb fe 21 c3 3d 24 c9 42 3c
       -0.09484355 -0.0072465073 0.09527968 0.011888776
000330 90 1c a3 3d e2 f1 97 ba ed cf b3 3c 20 e8 ca bd
       0.07964432 -0.0011592472 0.021949733 -0.099075556
000340 52 e9 43 3d 0b 14 8a bd f4 fa fc 3a c9 f5 a4 3d
       0.047829933 -0.06742104 0.0019300864 0.08054692
000350 5c d2 01 bd 1c 19 c7 bd 84 95 cf bd e7 f6 06 3e
       -0.031694755 -0.09721586 -0.1013594 0.13180123
000360 02 e1 a1 bc e6 5e 19 3e f1 12 90 3d 7a f1 be bc
       -0.019760612 0.14977607 0.07034863 -0.023308504
000370 73 73 a2 bc 60 fe 57 bd 9b a3 b4 3d ca 4d ad 3d
       -0.019830441 -0.052732825 0.08820268 0.08462103
000380 15 02 18 3d 17 ff a3 3d 37 a2 bc bc 14 34 91 bd
       0.03711136 0.08007639 -0.023026569 -0.07090011
000390 e3 26 d5 3d 4c a1 00 3e 97 98 54 bc fc 2b c9 bd
       0.10407808 0.1256153 -0.012975833 -0.098228425
0003a0 81 9a 2c 3d 7b 25 da 3d 27 d4 3f 3c c6 5b a4 3c
       0.042139534 0.1065168 0.011708296 0.020063292
0003b0 8a f2 46 bc 38 2b 7b bc b3 33 cf bd 46 2a 3c bd
       -0.012142787 -0.015330128 -0.10117283 -0.045938753
0003c0 bb 4c 48 3e b7 89 86 bd df bf ff 3c 29 66 a4 bd
       0.1956052 -0.06569236 0.031219421 -0.08027298
0003d0 b0 28 46 3d 55 77 e1 bc e7 46 f2 3c 25 ac ae 3d
       0.048378646 -0.027522722 0.029574824 0.08528928
0003e0 8e 21 9f 3d b5 45 94 3d 29 1f 55 3e 2a cc bb 3a
       0.07770072 0.07239858 0.20812668 0.0014327813
0003f0 96 e7 44 bd 62 70 5c 3d 3b 2a 31 bc 16 3a 6a bd
       -0.04807242 0.053818114 -0.010813291 -0.0571843

weight f4 [64, 64]
000000 3a b0 b6 bd 7f e7 68 3b eb cd fa bd 61 19 a2 bd
       -0.08920331 0.0035538373 -0.12246307 -0.07914997
000010 f5 7c 2a 3e c6 b8 2a be 07 dc 4e 3c 2a 73 03 be
       0.1664923 -0.16672048 0.012625701 -0.128369
000020 39 a5 a6 bd 2f 8a 42 bd 20 44 bb bd 99 2c 8a bd
       -0.081369825 -0.047495063 -0.09143853 -0.067467876
000030 95 bc fb 3c ef f5 13 bd a5 5e 0d be bc 74 96 bd
       0.030729571 -0.036123212 -0.13805635 -0.07346484
000040 ab b2 86 3d 25 9c a2 bd 18 74 49 bc 4f 68 f6 3d
       0.06577047 -0.079399385 -0.012295745 0.12031614
000050 fd ff 4d bc eb 4b 98 ba c3 dc 72 bd ba 7a 84 3c
       -0.012573239 -0.0011619305 -0.059292566 0.016171802
000060 a3 be 65 bb c5 f9 6e 3d 7d b1 c1 bd 11 36 1e 3e
       -0.0035056255 0.058343668 -0.09457681 0.15450312
000070 f1 8a af bc 10 57 54 3d 84 df eb 3b c7 6e bb bd
       -0.021428557 0.05184084 0.007198276 -0.091519885
000080 bb 66 df 3d 78 ec 13 3e ab 83 04 3d 64 b6 d1 bd
       0.10908266 0.14445674 0.03235213 -0.102398664
000090 37 df 69 3c 3f 6f c5 bc 07 e5 ec 3d f7 48 00 be
       0.01427441 -0.024100898 0.11567121 -0.12527834
0000a0 85 76 26 3c 29 9c 12 be 41 a2 ed bd 0c d9 b0 3d
       0.010160093 -0.14317383 -0.11603213 0.086351484
0000b0 3e 63 48 3d 81 27 8a 3d 9f 9a 44 3c 4c 17 2a 3c
       0.04892277 0.06745816 0.011999755 0.010381531
0000c0 fe 63 e4 3d d9 e0 09 3e 92 71 81 3d c9 28 2b 3d
       0.111518845 0.13464679 0.0632049 0.041786943
0000d0 db 8d f8 bd ae f2 e6 3c e0 d9 a9 bd 7d d0 b9 3d
       -0.12136432 0.02819189 -0.082935095 0.09072969
0000e0 52 b1 7a bd 99 0c ae bd ec ad 96 bd ab d5 fa bd
       -0.061204262 -0.084984966 -0.07357392 -0.12247785
0000f0 96 c6 0e 3c dd d4 e4 bc 8b 5a 2e 3e 32 64 90 bd
       0.008714339 -0.027933532 0.17026727 -0.07050361
000100 3e 46 cb bd 44 fa e2 3c d6 84 21 3e a0 03 00 3d
       -0.09925507 0.027707227 0.15773329 0.031253457
000110 eb ff 1c bd 85 1a 28 3d 59 45 f7 bd cb 3c cb 3d
       -0.03833 0.041040916 -0.12073774 0.09923705
000120 98 19 00 3d e4 d5 11 bd c6 89 a9 bd df 6a ef bc
       0.031274408 -0.035604373 -0.08278231 -0.029225765
000130 74 4f c6 bd e4 23 97 3d a4 29 9a 3d 26 39 17 be
       -0.09683123 0.073798925 0.075274736 -0.14767894
000140 2f 02 c7 3d 1e f5 03 bd e1 0b 9f bd 0d 7e 2f bc
       0.09717213 -0.032216184 -0.077659376 -0.010711205
000150 51 68 f2 bc b3 a2 0d bd 39 5b cf 3d cd 99 21 3d
       -0.029590758 -0.03457899 0.10124821 0.039453316
000160 fd 54 1d 3e e8 65 55 3d 2a 84 f2 bd da 88 46 3e
       0.15364452 0.05209914 -0.118416145 0.19388142
000170 57 4f f3 bd 36 70 4a 3d 2b 7b 0a 3d ae d6 8e 3d
       -0.11880367 0.04942342 0.03380887 0.06974541
000180 cc 03 55 bd 06 14 e5 bd 7c 5b 44 3d 04 f5 aa bd
       -0.052005574 -0.1118546 0.04793881 -0.08347514
000190 bd 10 25 3d 69 7f 2a bb fb 6c 89 3d e7 53 89 bd
       0.040299166 -0.0026015884 0.067102395 -0.06705456
0001a0 40 41 a8 3d 26 b9 be bc 28 30 60 bc 5c 7b 8f bd
       0.082155704 -0.023281645 -0.013683356 -0.07005951
0001b0 42 e9 0e bd 8a db a6 3d cb 18 74 bd 0e 7b b6 bd
       -0.03489042 0.081473425 -0.059593957 -0.089101896
0001c0 82 6b e5 3c 7c 51 41 bd 9f c7 8f 3c 87 e6 b3 3d
       0.028005365 -0.04719685 0.017551241 0.08784204
0001d0 0e e7 1d 3d 93 01 d1 3d 7c ee 5a bd 5b ff b9 3c
       0.03855043 0.102053784 -0.053450093 0.02270477
0001e0 cb 67 a7 bd e3 5a e7 bd 07 7e 7c 3c 6e 19 24 3d
       -0.08174094 -0.11296632 0.015410907 0.040063314
0001f0 65 cd 3f 3e 2b a1 f0 3d 53 30 89 3d 52 30 e0 bd
       0.18730696 0.1174949 0.0669867 -0.10946716
000200 5b 6f a6 bd 72 d5 ab 3c ae 9c 12 bd 2c 2c ba 3c
       -0.08126708 0.020975802 -0.035793953 0.02272614
000210 e4 14 85 bb 9f ea b0 bd 08 d2 aa bd b0 93 99 3d
       -0.0040613282 -0.086385004 -0.083408415 0.07498872
000220 f6 90 a3 39 0d 22 0e bd 63 48 ef 3c 85 a2 62 bd
       0.00031197787 -0.034700442 0.029209321 -0.055330772
000230 ef 58 cd bd e1 ee 76 3d be 58 a9 bd 8c 35 d5 bd
       -0.10026728 0.060286406 -0.08268879 -0.10410604
000240 c7 41 44 bc b4 a7 c3 3d 2e 6a a2 3d 5a e0 80 bc
       -0.011978573 0.09553471 0.079304084 -0.01573198
000250 50 fd 8a 3d e1 72 3c bd 1c dd 41 3d 56 38 d3 3d
       0.06786597 -0.046007995 0.047330007 0.103134796
000260 0f 03 9e 3c 62 c5 2c 3e 35 1a b5 3d 1b 6d 8d 3d
       0.019288568 0.1687217 0.08842889 0.06905576
000270 e2 97 f4 bc bb e9 90 3d b4 a2 9a 3d 16 75 a1 bd
       -0.02985758 0.070758305 0.075505644 -0.078836605
000280 58 69 9f 3d 08 d5 15 be 94 80 ef bd ff f3 40 3c
       0.077837646 -0.14632046 -0.11694446 0.011776923
000290 2b e1 84 bc 91 ec ab 3d 10 ce a2 3d af 56 25 3d
       -0.01622065 0.08394731 0.079494596 0.04036587
0002a0 84 85 fe 3d 98 ad 88 bd 38 a7 c3 3d f1 d7 5c 3d
       0.1242781 -0.066737354 0.09553379 0.053916875
0002b0 d7 aa 89 3c bd 9c 91 3d 9a a6 01 be c9 3f 7c bd
       0.016805096 0.071099736 -0.1266121 -0.061584268
0002c0 aa ef f1 3d 96 41 bf 3c f3 e7 3a bd b0 e0 06 be
       0.118132904 0.023346703 -0.04563136 -0.13171649
0002d0 4b 6e 1b be b0 43 ef 3b d7 6d 2c bd e5 5c 05 3e
       -0.15178792 0.00730177 -0.04209694 0.13023718
0002e0 0c bd 23 bc e6 34 80 bd 67 47 9e bd d1 e7 fb bd
       -0.009993803 -0.062600896 -0.07728463 -0.12300075
0002f0 af 4a 07 bd 61 d0 56 3d d3 4b 9e 3d c8 9a a9 bd
       -0.03303021 0.05244482 0.07729306 -0.08281475
000300 8f 5b b2 3d 6d 92 82 bd 94 5b 1a bc 95 4c 11 be
       0.0870887 -0.06375585 -0.009421248 -0.1418937
000310 dc c9 92 3d 42 32 11 3e 8d 1e 2a 3e e5 b8 00 3e
       0.07167408 0.14179328 0.16613217 0.12570532
000320 ea 0c 82 bd 5e db 9d bd eb 5f 4a 3d a4 ca e2 bc
       -0.063501194 -0.077078566 0.04940788 -0.027684517
000330 d0 de 0b 3d d5 63 78 3d 36 61 03 3c f9 52 05 bb
       0.034148037 0.060642082 0.008018782 -0.0020343645
000340 ca 6b 4a be de 39 10 be 3c 3c ec bd d7 af 8d 3d
       -0.19767681 -0.14084575 -0.11534926 0.069183044
000350 6d 44 2f be 25 31 2e 3d 5a d5 ac bd 16 da 00 3c
       -0.17115946 0.042527337 -0.08439131 0.007864496
000360 ab b0 8e bd dd 5b a9 3d 88 9c cb bd 1e b9 8c bd
       -0.069672905 0.08269475 -0.09941965 -0.06871246
000370 9b ad 90 3d 82 f7 10 bd 48 c6 eb bc fd db d5 3a
       0.070643626 -0.03539229 -0.028781071 0.0016316172
000380 40 a7 c5 bd f6 12 80 3d f5 8a 1a bb dd 38 22 be
       -0.09651041 0.062536165 -0.002358136 -0.15842004
000390 1c 41 13 bd 76 aa 8c bd 0b 3d 24 be 5f d9 0c be
       -0.035950765 -0.0686845 -0.16038911 -0.13754795
0003a0 47 02 e6 3c 7e 16 dd 3c 1e 78 32 bc cd d5 f0 bc
       0.028077258 0.026988264 -0.010892896 -0.029398823
0003b0 b4 36 da bc b6 a0 93 3d c8 33 c5 3d 3e 68 f0 3d
       -0.026637413 0.072083876 0.09629017 0.117386326
0003c0 eb c8 79 bc 55 03 80 3d 8d 95 53 bd e5 94 d4 3d
       -0.0152456565 0.062506355 -0.051656295 0.10379962
0003d0 6a 08 dd 3d e9 cc a2 3d e7 00 31 3e 25 1a 24 3d
       0.107926205 0.0794924 0.172855 0.040063996
0003e0 ad bf f9 3c 2b a9 b2 bd 01 cb dc 3c 25 fd 1c 3e
       0.030486906 -0.087236725 0.026952269 0.15330942
0003f0 bc ef 8e bc ef ed c8 bd 95 c0 17 be e4 39 aa 3d
       -0.017448299 -0.09811007 -0.14819558 0.08311823

freqs f4 [8]
000000 41 1f 67 3f c8 4e 0c 40 f9 e1 4d 40 75 fc 82 40
       0.90282065 2.1923084 3.2169173 4.0933175
000010 75 2e a9 40 c0 ff c8 40 f9 f1 eb 40 5f 5e 08 41
       5.286921 6.2812195 7.3732877 8.52304

weight f4 [64, 8]
000000 38 14 5d 3e 18 0a 88 3d 7d f6 7c 3c bf 5e 64 3e
       0.21589744 0.0664255 0.015439627 0.22301768
000010 36 2e 33 be 32 1e df 3d 26 5b 60 3d 2b dd 4e 3c
       -0.17498097 0.10894431 0.054774426 0.012625973
000020 9d ec b6 be f2 c6 9e be c6 64 b0 bd 69 a9 75 be
       -0.35727397 -0.31011158 -0.08612971 -0.23990406
000030 ec 16 aa be eb 20 f9 bd ed e1 d5 bc 4f 5a a8 3d
       -0.33220613 -0.12164482 -0.026108706 0.0822035
000040 84 bf e1 bd 51 46 07 be c6 99 02 be ac fc 3f 3e
       -0.11022857 -0.13210417 -0.12753972 0.1874873
000050 0e 7a 99 3d 3d 9d ba 3e 66 a5 06 3e f2 68 84 3e
       0.07493983 0.36448088 0.13149032 0.25861317
000060 73 5d 01 be 59 ef 6a be 99 65 f2 3d 6b 0f 97 3e
       -0.12633304 -0.22942866 0.118357845 0.2950395
000070 d3 57 97 bd dd 76 a9 3d d8 7d 93 be 33 f2 04 3e
       -0.07389798 0.082746245 -0.2880695 0.12983017
000080 e6 e0 d8 be 66 65 a1 bd 42 e9 c2 bd 02 37 0b be
       -0.42359084 -0.07880668 -0.09517147 -0.13595203
000090 73 ae eb 3a 6e 35 3e be f8 cf ba 3e 10 3e 14 be
       0.0017981067 -0.1857507 0.36486793 -0.144768
0000a0 37 15 37 3e 7e 07 a7 be be f8 4d 3e 61 c7 94 3e
       0.17879187 -0.32622904 0.20114419 0.29058364
0000b0 a9 b4 78 be 65 e6 e7 bd 40 cf be bd 4d 89 97 bd
       -0.24287666 -0.11323241 -0.093168736 -0.07399235
0000c0 65 8e 8d 3d 50 30 97 3e e7 6a 9f bd 23 81 ef 3d
       0.06911925 0.29529047 -0.07784062 0.11694553
0000d0 e5 24 6e be c5 69 30 be 06 fb 96 be cc cb 6c bb
       -0.23256262 -0.17227848 -0.2948839 -0.0036132215
0000e0 ce d9 1b bd d2 35 a8 3e 2e c1 2e 3e de e0 87 3c
       -0.03804951 0.32853562 0.1706588 0.016586717
0000f0 f4 ac c3 bd af f3 76 3d 47 ed 3e be 94 62 ec 3c
       -0.095544726 0.06029099 -0.18645202 0.0288556
000100 62 6d fc bd 48 eb 45 be a6 53 16 3d 4d 7d 97 3d
       -0.123255506 -0.19328034 0.036700867 0.07396946
000110 a1 2b 3c bd 22 2f 12 3c 87 20 9a be 65 10 ff bd
       -0.045940045 0.00892237 -0.3010294 -0.12454299
000120 6b 07 f9 be 3b 6a af 3e c7 de ba 3e ff f2 93 be
       -0.48638472 0.34260735 0.3649809 -0.2889633
000130 28 da 78 be ad 3e 97 be f9 62 3a 3e b5 e0 a2 3d
       -0.2430197 -0.29540005 0.18201818 0.07953016
000140 b6 84 ea be 14 e8 a7 bd 1d d6 b2 3e 94 19 15 bd
       -0.45804375 -0.08198562 0.3492898 -0.036401346
000150 2d f2 a1 be 15 ef f1 3d d8 66 a8 3e c2 5e b7 3e
       -0.31630078 0.118131794 0.32890964 0.35814482
000160 bf f9 48 3e 08 3c 17 be 60 f2 a9 bb ad cf ad 3e
       0.1962652 -0.14768994 -0.005186364 0.33947507
000170 95 b4 fb 3d dd 01 95 be 04 35 30 3e 3a e8 b3 3d
       0.12290303 -0.29102984 0.17207724 0.08784528
000180 43 2d e6 be 7e 35 4c be a3 44 a0 3e e6 16 8f 3e
       -0.44956407 -0.1994228 0.31302366 0.27947158
000190 83 1a aa be 3a 2a cd 3d 7f 09 6a 3e 04 7a 83 3d
       -0.33223352 0.1001782 0.22855185 0.06419757
0001a0 47 bc 81 3e c2 fb d6 3d 4a 72 eb 3d 4d db 30 3e
       0.25338957 0.10497238 0.11496408 0.17271157
0001b0 81 4f 50 bd 42 f4 1e 3d 5e 29 fd bd 4c 86 d4 bd
       -0.05085707 0.03880716 -0.12361406 -0.103771776
0001c0 0b e1 88 3e c9 aa 2d be eb b8 d2 3d 37 23 a3 3e
       0.26734194 -0.1695968 0.102891766 0.31862804
0001d0 4b 4e 58 3d a8 ad 90 3e 87 89 da bc 81 cd 3b bd
       0.05280904 0.2825749 -0.026676906 -0.04585028
0001e0 b6 dd d9 3e 8f f0 4a be 9e cc a6 3e ca 47 c1 3e
       0.42551965 -0.19818328 0.32577986 0.37750083
0001f0 a3 00 88 be 5e 18 ed bd cd fb 84 3e 32 98 62 bd
       -0.26562986 -0.11576913 0.2597336 -0.055320926
000200 49 b9 ce be d8 cd 9a 3d c4 7d d6 be 93 f6 f2 bc
       -0.40375736 0.07558793 -0.41892827 -0.029658591
000210 4f 5d 12 3d bc bf 00 be 65 79 6d bd c5 d1 14 3e
       0.035733517 -0.12573141 -0.0579771 0.14533146
000220 d3 da f4 3d 1f df 69 bc 50 05 d2 bd 44 8f b5 3c
       0.119558 -0.014274388 -0.102549195 0.022163041
000230 86 97 69 bd a7 8e b8 bd b7 5b 14 be 83 ae 85 3d
       -0.05702927 -0.09011584 -0.14488111 0.06527426
000240 e5 d3 e2 be fe 2d 19 3e e8 22 2e be 33 95 aa 3e
       -0.44302288 0.14958951 -0.17005503 0.33316955
000250 a9 25 dc 3b f6 ec 33 3e 19 74 7c 3d c0 ff 0a be
       0.0067183566 0.17570862 0.061634157 -0.13574123
000260 d2 73 f3 3d c4 5d 88 be 04 27 ba 3d 33 04 a4 3e
       0.11887325 -0.26634037 0.09089473 0.32034454
000270 7d 36 d4 bd 37 de b5 3e 81 95 8a be f5 72 18 3e
       -0.10361955 0.355211 -0.27067187 0.14887603
000280 95 fd 95 3e 35 f6 19 be 48 97 b9 be 4d 3f 94 be
       0.2929503 -0.15035327 -0.3624823 -0.28954545
000290 a0 5d 25 3e 3a 1b b3 3e 27 8b 8a be 21 03 23 be
       0.16148996 0.3498171 -0.2705929 -0.15919162
0002a0 ac ce 74 3e d2 d5 a3 bd b7 0b ab be d5 0b 21 bd
       0.23906964 -0.07999767 -0.33407375 -0.039317925
0002b0 57 8c 02 3e 6c 95 bb be 65 6a 2f be b7 f1 0f 3e
       0.12748848 -0.36637437 -0.1713043 0.1405705
0002c0 6b e5 d8 3d 08 c5 28 be f4 41 c9 3e 6c d8 c3 3d
       0.10590633 -0.16481411 0.3930813 0.095627636
0002d0 25 cf 66 3e 1f ec b2 bc 71 3c 20 be 2e 14 70 3e
       0.22539957 -0.021841107 -0.15648057 0.23445198
0002e0 e6 62 f6 be 06 b8 03 3e 7d 2b 43 be 93 4e 84 bd
       -0.4812233 0.12863168 -0.19059558 -0.06460299
0002f0 02 df 83 3e f7 db a9 be f8 da fa 3c 10 63 b8 bd
       0.2575608 -0.33175632 0.03062199 -0.0900327
000300 9a 02 dd 3e 01 b3 7e be cc 01 cb bd 23 5b 5c be
       0.43166047 -0.24872972 -0.09912452 -0.21519141
000310 e9 4e 86 3e f9 0f 89 3e cc 33 e1 bb 59 7a e2 3d
       0.2623208 0.2677 -0.0068726297 0.11058492
000320 3a 24 06 3f c5 df 86 be 91 2d 87 3d f8 b4 c4 3e
       0.5239903 -0.26342598 0.06600488 0.38419318
000330 a7 8b 2e be af cb 82 be f3 0a 90 3e 84 3c 8b 3e
       -0.1704546 -0.25546023 0.28133354 0.27194607
000340 5a 40 69 3e 87 3c 7b 3e 66 ad fc 3d 77 d7 37 be
       0.22778454 0.24534808 0.123377606 -0.17953287
000350 cc cb 97 be 72 70 43 3d c9 87 3a be d6 65 a6 3e
       -0.29647672 0.047714658 -0.1821586 0.3249957
000360 dd ad 22 bd 3f db 3a 3e 5e 2a e1 bc 85 74 44 bd
       -0.03971659 0.18247698 -0.027486023 -0.047962684
000370 64 53 48 bd c6 f7 8d be 37 0b ab be b1 13 fa bd
       -0.048907652 -0.277281 -0.33406994 -0.12210787
000380 4c 8d e5 be 1e 65 8e be 3f cd 37 3e d0 72 2a be
       -0.44834363 -0.2781152 0.17949389 -0.1664536
000390 f3 f3 b1 3c 19 6b 50 bc 96 97 80 be 03 e6 1d be
       0.02172277 -0.012720847 -0.2511565 -0.15419774
0003a0 16 0c d6 be fe 33 9d 3d 06 a9 9c 3e bb d9 05 bc
       -0.41806096 0.07675932 0.30597705 -0.008169587
0003b0 26 db a3 3d ff aa 3e 3e 9c df 3a 3e 1f a0 70 3d
       0.080007836 0.18619917 0.18249363 0.058746453
0003c0 e7 de 36 be 57 81 32 3e 16 b5 61 3d e0 ac 98 3e
       -0.17858468 0.17432152 0.055104338 0.29819393
0003d0 e1 ca d7 bd 44 5e 85 3e c9 e7 36 3e c8 8e a9 3e
       -0.10536743 0.2604848 0.17861857 0.33116746
0003e0 21 52 45 3e 0d 77 07 3d 3e 33 5c bd e5 28 5d 3e
       0.19269611 0.03307252 -0.053759806 0.21597631
0003f0 87 81 82 3e 12 8f 6a 3e 53 00 b5 be 17 86 91 3c
       0.25489447 0.2290614 -0.3535181 0.017764134

weight f4 [64, 64]
000000 98 7c e1 3d da 57 08 be 8e 7a ba bd 4d bd 8c bd
       0.110100925 -0.13314763 -0.09105407 -0.06872044
000010 a1 3a 0a 3d 51 46 37 3d 5a f4 d9 bd 14 36 6c 3c
       0.03374732 0.044744793 -0.106423095 0.01441719
000020 29 b6 ac 3c ad 0f dd bd 8c 86 c3 3b 6d db df 3d
       0.021082954 -0.107940055 0.005966967 0.10930524
000030 0b 7b b8 3c 59 c6 79 bb 25 ba 5f bd 50 0e 59 bd
       0.022519609 -0.003811261 -0.05462088 -0.052992165
000040 41 55 1f ba 3e bc c0 bd 24 48 3f 3d c0 cf fa bd
       -0.00060780725 -0.09410904 0.046699658 -0.122466564
000050 65 2b a0 bd b8 c1 d5 3d 2d 81 7f 3d a7 8f 65 bd
       -0.07820777 0.104373395 0.06237905 -0.0560452
000060 93 ca 2b 3c f4 29 4d 3b d6 12 52 bc 8e 57 8a 3b
       0.010485309 0.0031305524 -0.012821874 0.004221863
000070 84 d2 4b be f9 16 05 be 17 f4 95 bd 28 98 3d bb
       -0.19904524 -0.12997045 -0.07321947 -0.0028929804
000080 fa 7b a8 3d 98 d3 a7 bd d2 64 4d 3b 66 12 68 3d
       0.08226772 -0.08194655 0.0031340611 0.05665817
000090 83 05 52 bd 2f f5 67 bd 1d df 7d bc ba e0 4d be
       -0.051274788 -0.05663031 -0.015495089 -0.20105258
0000a0 3b 65 dd bc 69 7d 6d bb 5d 9e f9 bc 3e ac 0d be
       -0.02702581 -0.003623808 -0.030471021 -0.13835236
0000b0 96 5d 16 3e 38 76 26 3d 9b 59 05 be 2f 8d 2a 3d
       0.14684138 0.040640086 -0.13022463 0.04163855
0000c0 36 22 51 be 57 ec 06 3d e0 14 7f 3d fa 1d 0e 3e
       -0.20423207 0.032940235 0.062275767 0.13878623
0000d0 20 0d 02 3e 1c b0 8a bc b5 de c5 bd 67 fc 0e be
       0.1270032 -0.016929679 -0.096616186 -0.13963471
0000e0 f1 78 58 3c 43 80 d9 3d 20 5a 09 bd 20 6c 6b bd
       0.013212428 0.10620167 -0.033533216 -0.057476163
0000f0 98 f8 36 3d bc c4 09 3e 3d 84 65 3d 86 55 22 3d
       0.04467067 0.13453954 0.056034315 0.039632343
000100 02 b0 c6 3d 20 68 17 3d 08 50 bc 3d 10 44 b5 3d
       0.097015396 0.036964536 0.09194952 0.088508725
000110 23 65 13 3d 2f f2 d1 3d ab 70 27 3d 48 e4 dd bd
       0.035985123 0.10251271 0.040878933 -0.10834557
000120 86 11 d8 3b 85 71 11 bd a2 91 e9 bc 75 02 a1 bd
       0.006593886 -0.03550865 -0.028511826 -0.07861797
000130 36 91 21 be b4 0c 04 3e 5c 1e 7e bd 9c 1a 97 bd
       -0.1577805 0.12895471 -0.06204067 -0.07378122
000140 57 ac e1 bd f8 2a 0e 3c 55 27 be bd fc 04 ff bd
       -0.11019199 0.008677237 -0.09284846 -0.124521226
000150 9b 4f 47 bb a2 dd b6 3d 60 02 01 3e 7e 2a 3f be
       -0.0030412439 0.08928992 0.12598562 -0.18668553
000160 84 49 b6 bc 36 85 16 bd bd f8 cb bc b9 18 0f 3d
       -0.022251852 -0.036748134 -0.024898881 0.034935687
000170 9c f0 c3 3d 8f 92 5c bd bc f4 9f 3d 87 8a 83 bc
       0.09567377 -0.053850707 0.07810351 -0.016057266
000180 42 3b ea bd ea b2 24 3d 89 24 ce 3d 09 f1 2e 3e
       -0.11437084 0.04020969 0.10065562 0.17084135
000190 d1 33 c2 bd 7f ea 89 bc 46 70 04 be 79 64 e6 bd
       -0.094825394 -0.01683545 -0.12933454 -0.112496324
0001a0 4f ff d2 bb d4 1a 54 3c c1 52 f6 3c a5 76 c0 3d
       -0.0064391266 0.012945849 0.030068757 0.0939763
0001b0 72 1c 96 bd 99 d9 d0 3b 41 2c 16 be db 18 13 3c
       -0.07329644 0.006373596 -0.14665319 0.008978094
0001c0 bf 5d 68 3d 39 50 95 3d 92 0d bd bd 28 8a e1 bd
       0.05673003 0.07290692 -0.09231104 -0.11012679
0001d0 7d 07 89 bd fc 2e c9 bd 74 9c 32 be 13 b3 00 3d
       -0.066908814 -0.09823415 -0.17442495 0.03142078
0001e0 f9 88 1b 3d c6 ca d1 bc fb 97 9d 3d 88 d9 04 be
       0.037972424 -0.025609385 0.076950036 -0.12973607
0001f0 f6 bd b4 3d 2f d8 fc 3d 57 c7 9f 3b 1b bb 28 bc
       0.08825295 0.12345921 0.004876058 -0.010298516
000200 85 5c ca bd 25 4a 90 bd c5 2d 3d 3d 5b 2d 0a be
       -0.09880928 -0.07045392 0.046186227 -0.13493864
000210 a1 9d b0 bc 83 61 57 3d d9 d3 86 bc 77 65 19 3d
       -0.021559538 0.05258323 -0.016458439 0.03745028
000220 3c 94 59 bd b4 4f 57 3d 82 05 70 3c 0b fa 8d bc
       -0.053119883 0.052566245 0.014649751 -0.017331144
000230 65 bf 32 3e ce 83 98 bd 37 8b 93 3d 11 4b f1 bd
       0.17455824 -0.07447015 0.072042875 -0.11781896
000240 c4 cd bc bd b2 4d 41 3d f2 d6 e7 bc 07 a5 83 3d
       -0.09218934 0.047193237 -0.028300736 0.06427961
000250 b7 6a ed ba e6 3a 29 be a5 c3 0e be 8d 51 e5 3d
       -0.0018113469 -0.16526374 -0.1394182 0.11197195
000260 43 35 16 be 50 ab 15 bd 22 4d 31 3d 89 45 70 bd
       -0.14668755 -0.03654033 0.04328645 -0.058660064
000270 21 d4 30 3e fa 9a 46 bc 58 2b 80 3c d3 13 3d ba
       0.17268421 -0.01212191 0.015645668 -0.0007212732
000280 0b 60 fb 3d 4b 50 04 be db 2d 31 3d dc 4b ab bd
       0.12274178 -0.12921254 0.04325662 -0.083640784
000290 17 41 8f 3d a6 7a 2c 3d 35 07 41 bd f4 94 0d 3e
       0.06994837 0.042109154 -0.047126014 0.13826352
0002a0 ee a6 d8 bc 2d 4e 18 bd 33 48 98 3c 50 4c b4 3d
       -0.026446786 -0.03718393 0.018589115 0.08803618
0002b0 e3 ed dd bc 64 9a 5c 3d bf 8f 9a bd a7 3b ae bd
       -0.027090972 0.053858176 -0.07546949 -0.085074715
0002c0 89 0c 18 3e 4f 71 e1 bc 67 22 62 bd e3 4b 13 3d
       0.14848532 -0.02751985 -0.05520859 0.035961043
0002d0 e8 5d 00 be 35 12 2d bd 3b 5d 12 3c 50 42 b0 bd
       -0.12535822 -0.04225369 0.008933361 -0.08606398
0002e0 bc c4 a3 3d 41 c9 bc 3d ce 42 c9 bc a6 a0 3c bd
       0.079965085 0.09218074 -0.024567988 -0.046051644
0002f0 02 da 14 be 5c 8c e3 bd 25 5e cd bd e4 e2 06 bd
       -0.14536288 -0.11110756 -0.10027722 -0.032931224
000300 90 f9 bf 3c 82 ce a3 bd f3 a2 0c 3e f3 c1 5e bd
       0.02343443 -0.079983726 0.13734035 -0.054384183
000310 ef 5b 15 3d d5 45 6a bc 33 6f 74 bd 63 f4 a5 bc
       0.036464628 -0.014298876 -0.05967636 -0.020258134
000320 83 10 fe bd 66 3e ee bd cf f9 ce 3d a9 8b e2 ba
       -0.12405493 -0.11632995 0.10106241 -0.0017284054
000330 27 fb 01 bd 45 37 20 bb 63 cb 0b 3e 58 00 d0 3d
       -0.03173366 -0.0024447006 0.13651805 0.101563156
000340 8c 57 d5 bd 2f a5 a9 3d fd 39 ff bd c3 46 bd bd
       -0.10417089 0.082834594 -0.12462232 -0.09242012
000350 01 f4 7e 3c 5f 84 00 3c 14 a8 03 be ba e2 b7 3b
       0.015561105 0.00784406 -0.12857085 0.0056117447
000360 ab 8c 86 3d bb 54 03 3d 5d 44 85 3d 65 35 23 3c
       0.06569799 0.032063227 0.0650718 0.009961461
000370 27 c2 ce bd 48 09 8d 3d 17 fd d6 3d c9 f7 9d bc
       -0.10095625 0.06886536 0.10497492 -0.019283192
000380 3a f0 b7 bd ac c0 bf bd 01 96 58 bd 73 b3 d7 bb
       -0.089813665 -0.09362921 -0.05287743 -0.0065826713
000390 7e 8d 06 be 30 cd 21 be 12 6b 92 bd 29 29 41 bd
       -0.13139912 -0.15800929 -0.07149328 -0.047158394
0003a0 ac 82 9a 3b 7d 7a fa bd 5c 5e 05 3c f2 29 1a bd
       0.0047152843 -0.12230394 0.008140173 -0.03763766
0003b0 47 08 7a 3d 4b 9f a9 3d 69 28 e6 3d 66 78 3b 3d
       0.06104305 0.08282336 0.112381764 0.045769118
0003c0 03 ce c2 3d ed ae ba 3c d0 fd fa 3a 1c 4d dc bc
       0.0951195 0.02278849 0.0019149128 -0.026892237
0003d0 ea 36 d1 3d 00 1d c0 bd fa e8 8e 3d 82 af 8a 3d
       0.10215552 -0.09380531 0.069780305 0.06771757
0003e0 14 0f bd bd 82 f9 fe bc a8 bf 98 bd fc 9b db 3d
       -0.092313915 -0.031124834 -0.074584305 0.10723111
0003f0 db c7 71 3c f2 f8 d2 3d 65 c6 08 3b 4c 2f 1b 3e
       0.014757122 0.10301389 0.0020870205 0.15154761

weight f4 [64, 64]
000000 e3 b7 8d bd 41 52 d6 3d 16 77 2b 3e a7 9e d9 bd
       -0.06919839 0.104649074 0.16744646 -0.10625964
000010 ec 76 3c 3e 3a f8 bf 3c 5c f2 d3 bd 2a ee 13 3e
       0.1840474 0.023433793 -0.10348961 0.14446321
000020 8c 83 56 3e f9 1e 19 be 5e eb 7b 3d 0f fc 32 bb
       0.20948619 -0.14953221 0.06150376 -0.0027310883
000030 1c b9 28 3e 8b fa 3e bd 14 b3 5c 3d 78 77 9a 3d
       0.16476864 -0.046625655 0.05388172 0.07542318
000040 bc 4a 5e 3d 60 40 ed bb 58 8c 0b 3e 35 7f 8d 3c
       0.05427049 -0.00724034 0.13627756 0.017272571
000050 55 43 95 bd 44 f8 e6 3d 34 88 a2 bd 84 34 11 bd
       -0.07288233 0.11277822 -0.07936135 -0.035450473
000060 08 67 d9 3d 50 77 44 be 9c e1 d2 3c 25 46 cd 3d
       0.10615355 -0.19186139 0.025742345 0.10023145
000070 3b 5a df ba fe af 0f 3e 74 d1 33 3e 7f 1f 7a bd
       -0.001704044 0.1403198 0.17560369 -0.061065193
000080 ae a3 83 be c0 bb 25 3d e8 7c b6 3d d4 64 36 3d
       -0.25710815 0.040462255 0.08910543 0.04452975
000090 33 76 d9 bc cf 80 d1 3c 34 e8 c8 bd 18 52 ce 3b
       -0.02654562 0.025574116 -0.09809914 0.0062964074
0000a0 1a 05 e0 bd ec 0b 2f be 36 25 10 be 7b c7 83 bd
       -0.10938473 -0.17094392 -0.14076695 -0.06434532
0000b0 1d 98 08 be b2 3c 44 bc c0 f6 2b be f4 be f4 3d
       -0.13339277 -0.0119773615 -0.16793346 0.11950484
0000c0 69 42 a7 bc 57 ee 44 be f6 90 e1 3c 9f 93 f0 3d
       -0.020417409 -0.19231544 0.027534943 0.117469065
0000d0 6d 4a 09 3e 9d 53 6f bd 44 53 e7 3d 34 50 1b 3e
       0.13407297 -0.05842935 0.112951785 0.15167314
0000e0 c6 44 05 3d ba 41 0e 3e 21 8d 60 bb 0e 40 6b bd
       0.03253629 0.1389226 -0.0034263807 -0.057434134
0000f0 11 06 47 bd a9 89 8e 3e 88 58 59 3c bf 5c 05 3e
       -0.04858977 0.278394 0.013265736 0.13023661
000100 fc 2e 60 bd b3 9b 78 bc e5 7e 4d 3d 22 0d 5a bc
       -0.054732308 -0.01517384 0.050169844 -0.013308795
000110 08 91 82 3d 4c cc 83 3d 49 f9 53 bd f4 80 e1 bc
       0.06375319 0.06435451 -0.05175141 -0.02752731
000120 03 72 9d 3d 9f 41 92 bd 7f 18 a7 bd ce 53 59 be
       0.07687762 -0.071414225 -0.08158969 -0.21223375
000130 f9 a3 ce 3d cd c3 40 bd 87 1d e8 bc 2f 96 5e 3d
       0.10089869 -0.04706173 -0.028334392 0.054342445
000140 a5 f9 2f be 67 c5 a1 bb f0 f5 7a bd a7 c9 33 be
       -0.17185076 -0.0049368623 -0.0612697 -0.17557393
000150 af e0 e8 3c 9f f6 dc 3d b1 93 3d 3d fb a2 eb 3d
       0.02842745 0.10789227 0.046283428 0.115056954
000160 6b 0d 3f 3d b2 c4 00 bd 7b 6b 44 3d 1c 8a 90 bd
       0.046643656 -0.031437583 0.047954064 -0.07057592
000170 17 19 dd bd 76 bc c5 bd d6 49 29 bc 5f de 2b 3d
       -0.10795801 -0.09655087 -0.010332545 0.041960116
000180 dc a1 15 3e a8 b8 15 3e b1 ad a0 3d 5f e1 58 3e
       0.14612526 0.14621222 0.07845629 0.21179722
000190 a5 01 9e 3d 01 0f f1 3d ab 5f 90 bd cf 90 38 be
       0.077151574 0.1177044 -0.07049497 -0.1802399
0001a0 32 4a b7 bd 2e d1 a6 3d 0b 0e fd 3d 8b 45 f9 bd
       -0.089496985 0.081453666 0.12356194 -0.121714674
0001b0 90 08 7b bd f2 07 e3 bd 74 0a bf bd 0d 96 27 bd
       -0.061287463 -0.110855 -0.09328166 -0.040914584
0001c0 11 47 ab bc 36 57 2e 3d a5 a9 42 3c 08 9f e5 3d
       -0.02090791 0.04256364 0.011881267 0.112119734
0001d0 55 5e ae 3c ce 97 9b 3c 3f b7 dd 3c b3 13 a1 bc
       0.021285215 0.018993285 0.027064918 -0.019662714
0001e0 2e 6c 8a 3d 76 13 7d 3d 6d 07 55 3d 7c aa 92 bc
       0.06758915 0.061786138 0.052009035 -0.017903559
0001f0 31 3e 03 be 66 55 9f 3d c1 87 ce 3d dc bf 2e bd
       -0.12816693 0.0777996 0.10084487 -0.04266344
000200 e0 2a 43 bd 31 55 54 bd 2a 51 2b 3d bd b7 a0 3d
       -0.04764831 -0.051839057 0.04182545 0.07847545
000210 93 a1 68 be 67 2b dc 3c a0 f4 ca 3d 63 6a 55 3d
       -0.22717886 0.026876165 0.0990994 0.05210341
000220 6a 13 8f 3c 71 77 c8 bd 69 21 8b 3d 4b 00 9e 3d
       0.017465312 -0.09788407 0.06793482 0.077149
000230 9b 0b 82 bd 8f 68 b5 bd b2 f6 06 be 46 55 84 3d
       -0.0634987 -0.088578336 -0.13180044 0.06461577
000240 39 7d 01 3e b8 af 54 bd 91 1c 80 3d 8d ff 5a 3c
       0.12645425 -0.05192539 0.062554486 0.013366592
000250 eb bb a3 3c 2e cc d9 bd 62 2b 13 3d f3 44 8e bd
       0.019987067 -0.10634647 0.035930045 -0.06946745
000260 47 59 29 3d 1a 15 de bc 18 6f 29 be aa f8 50 bd
       0.041344907 -0.027109671 -0.16546285 -0.051018395
000270 37 9b ae 3d d3 21 aa 3d f7 71 37 be 73 c0 d2 3d
       0.08525699 0.08307233 -0.17914568 0.10290613
000280 0e 40 81 bc 78 54 38 be 3c 0b 3f bd b4 a5 6f be
       -0.015777614 -0.18000972 -0.046641573 -0.23403054
000290 81 b6 e6 bd 24 48 a5 bd 4f 87 85 3d 4b 3a 37 3e
       -0.112652786 -0.080704 0.06519949 0.17893331
0002a0 25 3a 93 bd 3e 3e 41 be 74 79 ba 3d 59 e3 11 3e
       -0.071888246 -0.188714 0.091051966 0.14246882
0002b0 12 2d 96 bd 26 b8 ab bd e6 86 43 3d 10 d7 53 bd
       -0.07332815 -0.08384733 0.04773607 -0.05171877
0002c0 43 7a b7 bc 25 63 19 3e 41 48 c2 bc 15 b3 0d bd
       -0.022397166 0.14979227 -0.023716094 -0.034594614
0002d0 76 8b b1 bb 57 fe 40 3d 82 bf b7 bd 6d 60 0d 3e
       -0.0054182364 0.047117557 -0.08972074 0.13806315
0002e0 89 59 af 3c 9d a9 38 3d fb 7c b5 bd 08 35 96 3d
       0.021404998 0.04508363 -0.08861729 0.07334334
0002f0 78 95 71 bc 7b 45 a6 bd cc 7b 01 3e 2c 24 4a 3d
       -0.014745109 -0.08118721 0.12644881 0.049350902
000300 52 c6 d1 3d 56 c3 91 bd 4f 63 3c 3c 4a 7f f8 3c
       0.10242905 -0.071173355 0.011498286 0.030334134
000310 ec 91 18 bd 95 53 6b bc fa e2 c2 3d 56 61 9f 3d
       -0.037248537 -0.014363189 0.095159486 0.07782237
000320 50 4b 05 be 8a 26 33 3d 65 60 9e 3c dc c0 3f 3e
       -0.1301701 0.043737926 0.019333074 0.18725914
000330 c5 a4 43 bd 44 09 2c 3c 91 b2 8f bc c4 92 3e 3d
       -0.04776456 0.010500256 -0.017541202 0.046526685
000340 4a 8d df 3d 1c b5 2b 3d 03 a3 03 3e d3 2d 58 3e
       0.109156206 0.041920766 0.12855153 0.2111123
000350 a9 9d 19 be 64 a4 37 be a5 a5 83 bd 9b 97 a0 bb
       -0.15001549 -0.17933804 -0.064280786 -0.0049008853
000360 a9 da 66 3d d5 6b 6d 3d 08 a5 1f be ca 38 10 bd
       0.056360874 0.057964165 -0.15590298 -0.03521041
000370 55 c4 dc 3c 11 7d 67 b9 e5 93 4e be c9 bf 34 bc
       0.026949087 -0.00022076468 -0.20173605 -0.011032053
000380 db d0 1e 3c a2 6a 5e 3d 73 3f 04 be 88 4d 84 be
       0.00969335 0.05430091 -0.12914829 -0.25840402
000390 5f 42 93 3c 62 49 35 bc a0 b2 df 3d 2e 49 af bc
       0.017975984 -0.011064859 0.10922742 -0.0213972
0003a0 81 30 c7 bd eb 2b f9 3d 2c fc f0 3d b2 26 e6 3d
       -0.09726048 0.1216658 0.11766848 0.11237849
0003b0 29 75 1a 3e 76 42 ef 3d 1d 16 a5 3b b0 40 a3 bd
       0.15083756 0.11682598 0.0050380365 -0.079713225
0003c0 e0 26 23 bd 4b ec 48 bd 76 8a 61 bd bb 69 22 3c
       -0.039831996 -0.04905347 -0.055063687 0.009912903
0003d0 7e 38 41 bc 48 c7 5d bd 22 94 8e bd 8b ea 57 bd
       -0.011793254 -0.054145128 -0.06961848 -0.052713912
0003e0 64 ca 04 be a0 d1 10 bd 34 48 99 bd cd 6e 69 bd
       -0.12967831 -0.035356164 -0.07484475 -0.056990433
0003f0 22 40 df bd 50 d6 10 be 48 69 64 bd af c8 37 3d
       -0.10900904 -0.14144254 -0.055764467 0.04486912
