examples/carbon/outDir/epoch=177-step=88740-val_loss=0.2126-v1.pt (torch, 745777 bytes, 92 tensors)

cutoff f8 []
00000000: 0000 0000 0000 0840
3.0

weight f4 [7, 64]
00000000: 1545 593f 8327 313f 6dcc a1be c15f 07c0
00000010: 7556 b6be a8db df3e 538c fb3e 0b00 51be
00000020: 776f f53d 936b 9e3f 8ef2 8e3f 7c36 7dbe
00000030: a799 85bf f632 acbf 110d 493f 992a 7e3f
00000040: 8b4d 193f 5b0d c7bf cac6 aebe 4e2f ed3f
00000050: 55aa ef3e 5f7f 21be dbc9 b83f a137 883e
00000060: c0d6 b13f 000d cb3f 9c40 723f 33fb 57bf
00000070: 308c 6e3f 3727 a13f 9a51 0040 3a1b 5c3d
00000080: d01f e13e d637 e63d f80a 243f 3cdf e13e
00000090: 420b 5dbe a317 3ebf 820e 103f e2ed 843e
000000a0: 2fda 053f 5557 1340 b704 bcbf 9e18 cbbf
000000b0: 3c03 9a3f 8720 ad3d 2b9e 99bf aed1 9cbb
000000c0: 10dd 6bbe 0894 c8be 5d15 0b3f 1752 cabe
000000d0: 5275 523e 9f91 e6be 2eb5 12bf f82b 0ebf
000000e0: d9fd c3bf 23f8 9dbf c2ec e83f fc30 0dbf
000000f0: 48a4 a9bf 3014 413e fb75 8dbd db66 fdbe
00000100: ce34 bdbf 8b4d 2440 c23c f2be 4fcd ab3e
00000110: e82a c13f c23e 0540 8775 da3f f157 1840
00000120: d092 88bf 57b6 8e3f 2c0c 10be de45 4e3f
00000130: 10bd a73e b5bd 42bf b8ae ccbf 5a71 973c
00000140: 5f86 573f 47d1 ccbe 170d 853f d85f b73e
00000150: ca85 58bb 1bd1 08bf 9097 953f 44fc c93e
00000160: dcc1 85bf 3ddd 74bf b458 093d 3cc8 353f
00000170: 4a84 c4bf ae4a d3be a75f 773f e5f8 cf3f
00000180: ad40 27c0 1326 d9bf 37b8 69be 4356 8f3e
00000190: 0602 963d 3881 8e3f 5585 903e d352 de3e
000001a0: 0ff4 e93e fa88 5dbf cc03 483f 1242 6dbf
000001b0: cc5e 533e aeb9 aabe 9b8f dbbe 2282 6e3e
000001c0: 9967 763f 2ec6 b23e efe4 6bbf 812c 66bd
000001d0: 0d97 33bf 27b2 843f 208a 1abf 94ae a3bf
000001e0: 95c0 fd3d a017 953f 3562 6c3f e492 b13f
000001f0: 3e01 b03f 95dd 283f 4bff f33e 5d16 82bf
00000200: db40 1c3f 5c0b ef3e 22af f93f 9d13 88bf
00000210: 03f7 913f 1714 b8bd edd3 3a3f 6a33 ecbf
00000220: f115 d1bd 504b 84bf 3212 a0be 30af 7b3e
00000230: fd1d c13e 43f5 8c3f 8b46 92bf 25f3 193d
00000240: 41c0 933e 24f0 c53e b3e3 4dbe b483 f1bd
00000250: 6351 54bf fc20 b4bf 833c d03f 6368 303e
00000260: 9c4c 34bf 1b23 a13e 9a2b 213e 434e c53e
00000270: 07db 123f 6d78 7f3f fd29 0b3f 3264 a13d
00000280: da9a 7f3f 8b57 ffbe 2ad8 423f f748 1e3f
00000290: ec48 99be e548 40be 223c f53f a4b0 303f
000002a0: 32c9 a0be 1b13 8abf 0897 763e 93b7 b2bf
000002b0: 018e e83d a767 8d3f ff94 b2bf c342 f33e
000002c0: 9660 8a3f 2fa2 063e b469 c93f cb0b 483f
000002d0: a5c8 7c3f 7a70 bebf 2631 163f 2e18 223e
000002e0: 2ab2 2a3f 5290 7ebf 143d 98bf df14 99bf
000002f0: 14ec a73f 05e0 56be 8b1f 483f 7e5c 7d3f
00000300: 92a0 2f3e 7844 603f 1ffd 92be 1ac5 823f
00000310: bbd5 02bf 6f5b dbbf 9b93 02bf 3125 f3be
00000320: cb8a 293f 1e68 9abf 2b81 1b3f 7812 0cbf
00000330: 84dc 8cbf 475a 38bf 2c78 433c b7f6 ad3e
00000340: c277 a0bf 4aa1 7c3f 6d43 fdbe c13a a4bf
00000350: a196 e03e 0960 2fbc 314f ab3f 2d0e 8fbe
00000360: dc4d 933e ffb3 08bd f6eb 87bf 4558 eabd
00000370: 1415 483e 35b3 3cbf ed9c d93f 2a43 b13e
00000380: 303b 14be ec3a 233f 4605 90be 5939 aabf
00000390: 695f 27bf 3223 dc3f 2c01 76bf 5d33 23bf
000003a0: 0510 63bf f0b9 563f 1192 933f aa6b e1bf
000003b0: 73b3 8dbf 7ed2 dbbf 7f6c c43f 4c1f 52bb
000003c0: 225d b83f 357f e2bd 1dad 133f f93b 2dbe
000003d0: a326 983f 9a49 21be ab86 3abd 5b02 263f
000003e0: 0de9 5ebf 7b37 143e cd90 f33f f5e1 c73e
000003f0: bb6d 073d 6700 83bf 67c7 3b3f 7211 8f3f
0.84871036 0.69200915 -0.31601277 -2.1152194 -0.35612836 0.43722272 0.49130496 -0.20410173
0.11984151 1.2376579 1.1167772 -0.24727815 -1.0437516 -1.3453052 0.7853556 0.9928375
0.59883946 -1.5550951 -0.3413604 1.8530061 0.4680964 -0.15771244 1.4436601 0.2660494
1.3893661 1.5863342 0.94629836 -0.84367675 0.9318266 1.2590092 2.0049806 0.053736903
0.43969584 0.112411186 0.64079237 0.44115627 -0.21586326 -0.74254817 0.5627214 0.2596274
0.52286047 2.3022053 -1.4688939 -1.5866888 1.2032237 0.0845347 -1.2001394 -0.004785738
-0.23033547 -0.3917544 0.5432947 -0.39515755 0.20552567 -0.45032975 -0.5730771 -0.5553584
-1.5311843 -1.234135 1.8197253 -0.5515287 -1.325326 0.18855357 -0.069072686 -0.49492535
-1.478174 2.5672328 -0.4731198 0.33555076 1.5091219 2.0819554 1.7067116 2.3803675
-1.0669804 1.1149396 -0.14067143 0.8057536 0.3276143 -0.7607072 -1.599082 0.018486667
0.8418941 -0.40003416 1.039462 0.3581531 -0.003303873 -0.5344407 1.1686878 0.39450276
-1.0449786 -0.9565008 0.03353186 0.7100866 -1.5352871 -0.41267914 0.9663033 1.6247832
-2.6133225 -1.6964744 -0.22824179 0.279955 0.07324605 1.1133184 0.28226724 0.43422565
0.45694014 -0.86537135 0.78130794 -0.9267894 0.20641631 -0.33344787 -0.42883 0.23291829
0.9625183 0.34916824 -0.921462 -0.056194786 -0.7015236 1.0366868 -0.6036701 -1.2787652
0.12390248 1.1647835 0.9233735 1.3872952 1.3750379 0.6596311 0.4765571 -1.0163075
0.6103646 0.46688354 1.9506571 -1.0630985 1.1403507 -0.08988207 0.72979623 -1.845319
-0.10209263 -1.0335484 -0.31263882 0.24578547 0.37718192 1.1012348 -1.1427778 0.037585396
0.28857616 0.38659775 -0.20106392 -0.117926985 -0.82936686 -1.4072566 1.6268467 0.1722732
-0.70429397 0.31472096 0.15739289 0.3853627 0.5736546 0.9979313 0.54360944 0.07880439
0.9984566 -0.49871477 0.7611109 0.61830086 -0.29938447 -0.18777807 1.9158976 0.6901953
-0.314035 -1.078708 0.24081051 -1.3962272 0.1135521 1.1047257 -1.395172 0.47511873
1.0810726 0.13147806 1.5735383 0.78142995 0.9874366 -1.4878075 0.58668745 0.15829536
0.66678107 -0.99438965 -1.189364 -1.1959494 1.311892 -0.20983894 0.7817313 0.98969257
0.17151096 0.87604475 -0.2870874 1.0216401 -0.51107377 -1.7137278 -0.5100648 -0.47489312
0.66227406 -1.2063024 0.6074397 -0.5471568 -1.1004796 -0.7201275 0.011930507 0.3397729
-1.2536547 0.9868361 -0.49465504 -1.283043 0.4386492 -0.010704049 1.3383542 -0.27940503
0.2877034 -0.033374783 -1.0618885 -0.11442617 0.1953929 -0.7371095 1.7001015 0.34621555
-0.14475703 0.6376178 -0.28129023 -1.3298751 -0.6537996 1.7198241 -0.9609554 -0.6375025
-0.8869632 0.8387747 1.1528951 -1.7610981 -1.1070389 -1.7173612 1.534561 -0.0032062111
1.4403422 -0.11059419 0.57686025 -0.16917409 1.1886791 -0.15750733 -0.045538586 0.64847344
-0.8707436 0.14474289 1.9028565 0.3903958 0.03306363 -1.0234498 0.7335114 1.1177199

weight f4 [64, 64]
00000000: 2d5a 3b3e 9185 0e3e 128d 4dbe af3a 15be
00000010: 51a2 f83d 1b52 38bd 6f2d fdbc 76c7 043e
00000020: 2d1e 79be 24b8 773d 6dec 103e 8c9f 4d3e
00000030: 731b 4f3e 8147 3f3e 5f16 2abd 63a3 f8bd
00000040: 44f9 f13d 6fa5 1b3e 8c33 e5bd 9cfd ef3b
00000050: f7ad 7cbd 3214 18be 5256 1b3e 18b6 9f3d
00000060: fc95 1d3e 1a5c da3d ec9b 0c3e 653f 233d
00000070: f441 cfbc f0f6 443d 16b5 fb3c 924d 02bd
00000080: c17b 533e 13b9 a4bd 5216 ffbd 2dec 9dbc
00000090: 3e3f 3abd c26e 79be 10f5 c53d e5d8 3ebe
000000a0: 56e3 cd3d dbea 6abd f533 3b3e 8749 bd3d
000000b0: 7fd4 163e 3173 2bbc ca93 a53c d530 bb3d
000000c0: f06c fa3d e505 ab3d dfc8 d3bd a040 10be
000000d0: 1761 0dbe 6f9e 31be cbc2 4ebd 485f 593e
000000e0: bb87 1dbe 7863 65be 57ec 2d3b 3881 503d
000000f0: 2f8c 93bd bc88 3ebe c21b ea3c 5fbe 5abe
00000100: f2cf c3bd ffc1 e8bc b6e3 1a3e f06f b0bc
00000110: 681b b73b 7698 1abd 39bc 363d 42f6 7dbd
00000120: 108c cfbc fad8 03be bc44 a4bd 99a0 f2bd
00000130: 57ee 4abd ec88 e2bc 4f13 3c3e 0182 803b
00000140: da93 e6bd 7eb6 b0bc f9bf 0b3e 1616 90bc
00000150: dbb3 4a3d 9235 b23d d237 04be 88f0 c93d
00000160: 4e89 cfbd 5c25 cfbd da45 b43d dd84 bdbd
00000170: 3d60 aabc 10db c3bd 27d4 d8bb 8eb8 21bd
00000180: 99d9 5c3d 9d29 d6bd d540 cfbb acbc 0c3e
00000190: 43c3 413d 613b 243c 910c 29be 3e2f d23d
000001a0: 13b8 1d3d 223c 483d 78b3 0cbe b1be 2c3d
000001b0: 7c55 40be f76b cc3c ba0c f53c f6f3 f4bd
000001c0: c6ff 583d 1f66 0abd d94c c2bb 8f47 1dbd
000001d0: e957 fdbc ed13 693d 4434 963d 9f5d f1bd
000001e0: e267 9a3d c5db c93b e833 953c af72 01be
000001f0: ebba b3bd 40de 073e 9c87 373d d7e9 153e
00000200: 378a 083c 8cd7 1b3d b070 98bd 28f4 92bd
00000210: 8654 b03d 16ae 41be c923 103d 2638 f13d
00000220: 7675 44be 3867 983d 94c8 c03d 0d7e b73d
00000230: 2358 473e 17ed b2bc e50d d6bd 4097 63bd
00000240: 8cf8 b5bd 5b2e b73d e26c 423d 6a8b 1a3e
00000250: 48bd f9bd d15d 1bbe 2a8a 3bbc a0e7 d4bc
00000260: 0891 5eb9 140f 80bd bf0f 16be 2c27 cdbd
00000270: c7ad dabd 8f5b 613d 294b 153e 254f 0bbd
00000280: 8d2a 2a3e 9c82 70bd d155 9f3d dbb6 50be
00000290: 3590 47be aff6 59bd 3118 0a3e 03a2 3cbe
000002a0: 11c3 093c d6bf 30be 3e8a 353e 2eec c93c
000002b0: bc89 2c3d 31b6 1abd 6b90 fc3d 880c 4f3e
000002c0: ba1d 8c3d 38e1 013e ba8d a23d d14d a8bd
000002d0: 37e2 10bd 075c c53c 464b 81bd fcf6 42bd
000002e0: 0404 a4bd 64c4 663d 0b6c b33d d718 2a3e
000002f0: 1391 0f3e 3305 98bd 0afc ff3d 7bc9 d7bd
00000300: 0183 c23d 1a53 7f3e 47ea d7bd b821 9bbe
00000310: 4fbe af3e 2d0d 4bbe 82c6 52be 12c6 743e
00000320: 3689 1ebe 79a4 e83d af8c 4b3e f153 4a3e
00000330: 19f7 cf3d 49c1 8c3d 79d6 0dbe 9efe 0e3b
00000340: db4c 733e d11e 873e 2c93 e1bd 371e 6f3d
00000350: 14b8 8b3e 70b4 94bd bd83 483e 3a0e 653e
00000360: 300d af3e 3008 563e 487e 743e 099b 703e
00000370: c829 5fbe 3c33 583d b2a0 373e 00f6 a53d
00000380: f22a 8b3d b2e5 3abe 6cf6 c0bc 5dd8 a9be
00000390: 7ff2 36be 2530 a6be 3cea ec3d 0675 3dbe
000003a0: a908 ec3c f2da e6bd 5941 a33e eefe 9d3e
000003b0: ad19 1c3e eab7 a9bd 9e3c 453e 1e02 a93e
000003c0: aff6 143e c30b af3d 9cd2 e2bd a09b 1cbe
000003d0: ace7 af3c b08d 97be abd3 15be 2684 6c3e
000003e0: 3538 8abe 6ece 82be 3964 e53c 12e7 803e
000003f0: 916b f63d 0663 82bd fafd 8b3e 2d5e 75be
0.18296118 0.13918139 -0.20073345 -0.14573167 0.121403344 -0.045000177 -0.030905453 0.12966713
-0.24327917 0.060478345 0.1415269 0.20080394 0.20225315 0.1867962 -0.04152524 -0.121405385
0.11815122 0.15199827 -0.111914724 0.0073239338 -0.061689343 -0.14851454 0.15169647 0.077984035
0.15389246 0.10662098 0.13731354 0.03985538 -0.025300004 0.04808706 0.030725997 -0.031812258
0.20652677 -0.080431126 -0.12455429 -0.019277656 -0.04547047 -0.24358657 0.096658826 -0.18637426
0.100531265 -0.057352882 0.18281539 0.0924254 0.14729498 -0.0104644755 0.020212073 0.09140173
0.122278094 0.08350734 -0.103410475 -0.14087152 -0.13806568 -0.17345594 -0.050478738 0.21227753
-0.15383808 -0.22401226 0.0026538575 0.050904483 -0.07204472 -0.18606848 0.02857769 -0.21361683
-0.09561147 -0.028412817 0.15125927 -0.021537751 0.005587984 -0.037743054 0.044613097 -0.062002428
-0.025335342 -0.12875739 -0.080209225 -0.11847038 -0.049543705 -0.02765318 0.1836674 0.0039217477
-0.11258669 -0.021571394 0.1364745 -0.017588656 0.04948793 0.08701624 -0.12911919 0.09860331
-0.10133611 -0.101145476 0.08802386 -0.09253857 -0.020797843 -0.09563267 -0.0066170874 -0.039482646
0.053918455 -0.10457156 -0.0063248673 0.13743848 0.047305357 0.010023923 -0.165087 0.10262917
0.038505625 0.048885472 -0.13740337 0.042174045 -0.1878261 0.024953825 0.029913295 -0.11960594
0.0529783 -0.033788797 -0.005929571 -0.03839832 -0.030925708 0.05690377 0.073341876 -0.11785435
0.07539345 0.006160232 0.018213227 -0.12641405 -0.08775886 0.13268375 0.04480706 0.14639984
0.008333734 0.03804736 -0.074433684 -0.07175475 0.086098716 -0.18914065 0.035190377 0.117782876
-0.19185433 0.074415624 0.09413257 0.08959589 0.19467215 -0.021841569 -0.10451869 -0.055564165
-0.08885297 0.089443885 0.04746712 0.15092245 -0.12194306 -0.15172507 -0.011446515 -0.025989354
-0.00021225598 -0.06252876 -0.14654444 -0.10017237 -0.10677677 0.055018958 0.14579453 -0.034011025
0.16617794 -0.05871831 0.0778004 -0.20382254 -0.19488604 -0.05321377 0.13485791 -0.18421178
0.008408324 -0.1726068 0.17728516 0.024648752 0.04212354 -0.037771408 0.12332233 0.20219624
0.068416074 0.1268357 0.079371884 -0.08217967 -0.035371985 0.024091734 -0.063131854 -0.047598824
-0.080085784 0.056339636 0.08760842 0.16611038 0.14020185 -0.07422867 0.124992445 -0.10536476
0.09497643 0.24934044 -0.10542732 -0.30299163 0.3432488 -0.19829245 -0.20583537 0.23903683
-0.1548203 0.11359496 0.19877885 0.19758584 0.10154552 0.06872804 -0.13851346 0.0021819244
0.23759787 0.263907 -0.11014399 0.058378424 0.27288878 -0.07260978 0.19581504 0.22368708
0.3418975 0.20901561 0.23876297 0.23496641 -0.21793282 0.052783236 0.17932394 0.081035614
0.067953005 -0.18251684 -0.023555003 -0.33172885 -0.17865942 -0.32458606 0.11568114 -0.18501672
0.028812723 -0.11272229 0.31885794 0.30858558 0.1524417 -0.08287032 0.19261405 0.33009428
0.14547227 0.08547165 -0.11075327 -0.15293741 0.021472774 -0.29600286 -0.14631526 0.23097286
-0.26996008 -0.25548118 0.028001891 0.25176293 0.120322354 -0.063665435 0.27342206 -0.23961706

weight f4 [64, 64]
00000000: fb8f 7a3d f191 0bbe f9c4 37be 55a8 45be
00000010: a1c7 a53d 36cf a3bd e043 40be b519 34bb
00000020: 5d78 f9bd c4e6 873d 6d33 5dbc 9249 1d3e
00000030: b92d 71be 756f b83c 4837 3abe a126 0dbe
00000040: 213c 6d3e 99c2 fb3d 110e a13d 1d5b 7b3d
00000050: 0e8d 063e a0cc 8fbd 5107 ee3c a03d 0fbd
00000060: ab8f 533d a0cf a33c c8cf b13d 6ccf 0f3d
00000070: 34f9 893d 14e9 063d 7b6a 0fbe 41b7 963c
00000080: ff98 a8bc 4bff 83bd 28be 81be 2b40 87bd
00000090: 5f42 94bd 87a7 8ebd c7b9 cebc 0880 17be
000000a0: 0dff d8bd 05e8 1abe 7adb 593d 4543 063e
000000b0: d6ae 163d 00ab 59bd c771 d53d 619b fabd
000000c0: f885 e23d 5cd6 f03d 98a4 2bbe 38ba 04be
000000d0: 3e6c 01be 908c 10be 43fa ffbd 47f3 abbc
000000e0: 4212 d8bb 0cb8 a43c 12e8 1fbe 7dee 86bd
000000f0: b4db 723e 91cd 7cbd 42a0 373c 9389 153d
00000100: 45ce 43bd 562a 843d 4885 97bd 1091 453d
00000110: d629 333e c2a7 11bd 3482 0fbc 79e1 aa3d
00000120: 08f9 0cbe 18df aa3c a338 b93c 00e0 8e3d
00000130: 39de d43d d57e a23d 826f 05bd a611 363d
00000140: a41f b93c 2a6f 3bbd aa56 f53c 8666 c3bd
00000150: 090a 5a3e 8daa 1f3d 4b02 1a3e 3931 9fbc
00000160: 9792 4f3d 9fc8 f73d df36 7ebd 8f4c 183e
00000170: 43c1 2b3d 9533 963d 7194 d63c 8b5e bc3d
00000180: 5b6c 7ebd 27df 6f3d 399b dd3d c19a 7abd
00000190: 5873 e6bd d75c 4ebd 6228 393e 7bb7 8f3d
000001a0: 9d10 a4bd 31fe 5cbe 53ae 50bd cda2 e3bd
000001b0: 4248 083e 3b68 95bd 7bf6 0a3e a109 3a3d
000001c0: 0a2a 17be 5ec3 c63c 3208 8b3d cb00 ef3b
000001d0: b731 923d bb12 313b f749 24bd d4df b6bd
000001e0: b31e 0e3d a821 fbbd c040 b83d 403a 203d
000001f0: 7fa9 5a3e 9d5e d3bd dd6d d53c 2662 c2bd
00000200: eb1e 86bd af27 5bbc 484d 163e 55c2 313e
00000210: 93f6 47bc d046 c73d b61e 073e 6d72 e3bd
00000220: f281 163e fbe5 2ebe 6676 0cbc ef72 dcbd
00000230: cd78 86bb da11 f5bd 9c99 893d 4458 b73d
00000240: 0b97 78bd 8bf9 2ebd 6e53 cd3d f0f5 7fbd
00000250: 17a2 24bd 5e57 88bd e77b 08be 48de 30be
00000260: 8c69 c7bd ec19 113d ab01 c0bd 5a3d 05bd
00000270: 6258 853c abc8 27be 8563 e8bd 2dab 7e3d
00000280: 1cba 983d b833 17bd cdc5 673d 3c4b 953d
00000290: 43bf 0e3c 5f18 b73c 728e 65bb dd45 5b3d
000002a0: 6854 35be 3ef1 963d 7050 f5bd d23a 14be
000002b0: 719a e2bd 784f 233d 5dbb 97bc 8825 debd
000002c0: 6f8a d43d 4277 2a3c 24e6 183d 0f72 98bd
000002d0: 9c5d 1a3e d093 813d 6241 943d ede0 653c
000002e0: dcd0 28bd 43e0 243d bf04 e83c 8512 8abd
000002f0: 6cee 1ebe 603d f23d 9195 3fbe 7e08 3e3c
00000300: 77c7 4a3d db2c ef3d 3bff 463c a614 89bd
00000310: 20e5 2abe fa57 ba3d 05ed e23d 9912 5d3d
00000320: 377a b9bd e9d3 10bd 7635 a93d 5a2f 5ebc
00000330: 55bd 583d b962 bbbc f443 533d b57e 7fbd
00000340: a218 2e3b 8a9b d4bd cb84 cb3c 9154 743d
00000350: afc1 a3bd 0465 87bd 9d81 11be dff9 bf3d
00000360: 2d6d 69bd 63ff e63d af54 003d 66da 85bd
00000370: 38a4 963c 42a2 b2bd 4632 623d 1a04 733d
00000380: d29a 2cba dff8 ef3d cd8e 2ebb 815a 4cbd
00000390: ddad 093e 66dd 243e cd60 53bd 17d3 bebd
000003a0: 36ad cabb f0cb 183e a210 263b 35f4 b7bc
000003b0: 6aa7 39bd 278a 2dbd d593 11be 81d9 bfbd
000003c0: fd1f 393e 9470 ddbd c67b 643d 74b8 2ebd
000003d0: 684e a13d ffda a93b fbb6 933d d7a5 783d
000003e0: 11df dc3d 49e2 d43d ff4c 443e 7369 e3bc
000003f0: c7ca afbd 9ca8 a73d 1959 6ebd d5e2 6fbd
0.061172467 -0.13629891 -0.17946233 -0.19302495 0.08094717 -0.07998507 -0.18775892 -0.0027481143
-0.121811606 0.06635812 -0.01350103 0.15360096 -0.23552598 0.022514084 -0.1818515 -0.13784267
0.23167469 0.12292976 0.07864011 0.06136619 0.13139746 -0.07021451 0.029056223 -0.03497088
0.051650684 0.019996464 0.08682209 0.035109922 0.06736985 0.032937124 -0.14005463 0.01839793
-0.020580767 -0.06445178 -0.2534039 -0.06604036 -0.07239222 -0.06965547 -0.02523507 -0.14794934
-0.10595522 -0.15127571 0.053187825 0.13111599 0.03678783 -0.053141594 0.10422092 -0.122366674
0.11060709 0.11759636 -0.16762006 -0.12961662 -0.12638947 -0.1411612 -0.124989055 -0.020990027
-0.0065939734 0.020107292 -0.15615872 -0.06588457 0.23716623 -0.06171948 0.011207642 0.036508154
-0.047804136 0.064533874 -0.07398468 0.048234046 0.17496428 -0.035560377 -0.00875907 0.08343787
-0.13766873 0.020858333 0.022610014 0.06976318 0.10393948 0.079343475 -0.032577045 0.044450425
0.022598095 -0.04576031 0.029948551 -0.09541039 0.2129289 0.03898101 0.15039937 -0.01943265
0.05067691 0.12098812 -0.062064048 0.14872955 0.041932356 0.07334057 0.02619383 0.0919772
-0.062115055 0.058562424 0.10820622 -0.06118274 -0.11252469 -0.050381508 0.18081811 0.07017418
-0.08010981 -0.21581341 -0.0509475 -0.11115036 0.13308814 -0.07295271 0.13570587 0.04541934
-0.1476213 0.02426308 0.067886725 0.0072937957 0.071383886 0.002701922 -0.0401096 -0.089294106
0.034697246 -0.12262279 0.08996725 0.03911805 0.2135372 -0.103207804 0.026053363 -0.094913766
-0.06548866 -0.0133761605 0.14677918 0.17359288 -0.012204784 0.09730303 0.13195309 -0.11105809
0.14698008 -0.17079918 -0.00857315 -0.10764109 -0.004103756 -0.119662955 0.06718752 0.08952382
-0.06069092 -0.04271845 0.100256786 -0.062490404 -0.040193643 -0.06657289 -0.13328515 -0.17272294
-0.09736928 0.03542511 -0.09375318 -0.032529213 0.016277496 -0.16385143 -0.11347107 0.062174965
0.074573725 -0.036914557 0.056585122 0.072897404 0.008712593 0.022350488 -0.003502753 0.053533424
-0.1770798 0.07370232 -0.11978233 -0.14475563 -0.110646136 0.03987071 -0.018521959 -0.10847002
0.103779666 0.01040441 0.037328854 -0.0744363 0.15074772 0.06327021 0.07239033 0.014030677
-0.04121481 0.040252935 0.028322576 -0.067418136 -0.15520638 0.118281126 -0.18709399 0.011598704
0.04950663 0.116784774 0.012145813 -0.066933915 -0.16688967 0.090988114 0.11080364 0.053972814
-0.09056514 -0.035358343 0.0826215 -0.013561094 0.052914936 -0.022874223 0.051578477 -0.062376697
0.0026564975 -0.10381229 0.024843594 0.05965096 -0.079959266 -0.06611064 -0.142096 0.09373831
-0.056988884 0.1127918 0.03133076 -0.06535797 0.018388852 -0.087223545 0.055223726 0.059330083
-0.00065843493 0.1171739 -0.002663541 -0.049891 0.1344523 0.16100082 -0.05160599 -0.09317606
-0.006185199 0.14921546 0.0025339504 -0.022455314 -0.045325674 -0.04236808 -0.1421655 -0.093676575
0.18078609 -0.10812488 0.055782102 -0.042656377 0.07876283 0.005183577 0.07212635 0.060705032
0.10784734 0.10394723 0.19169997 -0.027760243 -0.085835986 0.081864566 -0.05819044 -0.058565933

weight f4 [64, 64]
00000000: eebe 8ebd 0793 793c 1db9 e5bd 31a5 aebd
00000010: d340 1f3e 6178 14be ffd4 903c 06ab e8bd
00000020: 6ca5 dabd 858f 51bd 7c05 84bd 32c9 4cbd
00000030: 7c73 cb3a 26d1 23bd 5cd1 08be f97a 99bd
00000040: 7298 313d 79bf a1bd 186d 1fbd 979a 093e
00000050: 2885 54bd b164 6f3b 752e a6bd 4bb7 bd3c
00000060: 96c3 87bc e35c 513d f025 c6bd 59ab 0b3e
00000070: 5654 1bbc 3108 5b3d e6b1 6d3c 2b9b 9fbd
00000080: 44b5 f83d 0737 173e 72e9 d43c 0752 dcbd
00000090: 9c83 713c 05f5 c1bc da31 dc3d 485e 12be
000000a0: d569 0bbc 909f 05be f72c acbd c429 ae3d
000000b0: 4deb 6b3d faa5 953d 80a0 d63b 3a01 ecba
000000c0: 38d5 fd3d 200a 013e dc67 7b3d f1b9 273d
000000d0: 660c 0bbe 91f3 013d 7bd4 7cbd 4acf cf3d
000000e0: 694f 92bd 59a5 b8bd aa9a 02bd a50e e5bd
000000f0: f21d d539 a093 08bd 151f 223e 4b1d ccbd
00000100: 3985 cbbd 47c1 043d 509d 273e 557f 0a3d
00000110: bbc9 22bd 2c2b 433d 2a3e e9bd 45d3 c73d
00000120: b063 073d 3076 20bd 55bc a8bd d5b9 f7bc
00000130: 8af0 b9bd caef 893d c1ac a73d e43d 1abe
00000140: a625 c13d 53eb 04bd 6e05 acbd 5f80 1abc
00000150: d49f 24bd 82e6 ffbc f4c9 c43d 62ce 1f3d
00000160: 6b35 1a3e 7ed6 4b3d fe0b f8bd 0bf7 423e
00000170: 9e1b eebd 0b1f 4d3d 5fc0 0f3d 0404 903d
00000180: cddf 2dbd 12a2 dfbd afc2 543d 2ba7 a0bd
00000190: 95f3 373d dc7a f03a 5135 8c3d 095c 7ebd
000001a0: 7e9a b53d 3785 bfbc d938 4cbc 072d 87bd
000001b0: 9807 05bd 390a b63d d6e3 80bd 6955 b4bd
000001c0: b41b d13c f7a3 3dbd 3028 b03c 9e36 ae3d
000001d0: 36eb 0d3d 88ac d93d d666 39bd f59f b13c
000001e0: 7837 a8bd 345a e3bd 1a14 d33c 5bb9 1f3d
000001f0: 27fd 3b3e 1b2f f63d 0fc0 8b3d b6c9 e0bd
00000200: 139b 9dbd bd78 f23c 925d 10bd 38bc 843c
00000210: d33e 12bb f591 a9bd ccd8 c0bd 6db5 a63d
00000220: d209 2cbc 69ff 11bd 43fd 123d 2ec1 53bd
00000230: d820 cabd 4fd8 8c3d 9ef5 b5bd 0c33 e1bd
00000240: 5533 17bc b729 c73d 9e73 963d 8541 2bbc
00000250: 50f9 8d3d e51e 43bd ecda 343d bd0b db3d
00000260: 1458 ad3c 973c 2f3e 1a73 bb3d cc9f 9a3d
00000270: 8a12 01bd 42eb a23d 9a5e aa3d 3605 94bd
00000280: df9e ae3d 3715 1bbe 6f98 efbd 1a86 e23b
00000290: a62b aebc 8b52 a83d c4a7 a13d ee46 ff3c
000002a0: 3ee2 fc3d 4991 8abd b6f3 d73d 98e9 6f3d
000002b0: bac1 b33c 8b23 863d fa09 f5bd 0566 62bd
000002c0: 614d ff3d 5889 e03c 5558 53bd d09f 0cbe
000002d0: 8d2b 22be c77f 723b 15d0 3abd 3da7 083e
000002e0: 0e09 95bc 12ff 87bd e561 88bd e5cb efbd
000002f0: 844d 0ebd a416 413d da01 9c3d f07f aabd
00000300: 2c5d a83d 2d9b 47bd 25a6 bcbc 2d9c 12be
00000310: e0c2 ad3d ba41 073e f547 2d3e 964b 043e
00000320: f858 71bd fd62 91bd de40 333d 2d28 aebc
00000330: 2ea2 7f3d ce19 6e3d b29b 373b 888c 4dbc
00000340: dee3 3fbe 0ac6 05be 53db ffbd b49f 913d
00000350: 7901 25be cc16 0b3d f75b 9abd 5646 803c
00000360: bc1d 64bd e162 b83d bfb8 bbbd d809 5ebd
00000370: 91f0 6d3d 792d fabc a413 c6bc 29b5 083b
00000380: b6ef b3bd 8995 6c3d de42 dfbb d4bc 24be
00000390: ab1e 2dbd bdd1 9ebd d1a7 17be 3e15 04be
000003a0: 2c5b 353d eb08 6a3c b3cd 31bc d184 92bc
000003b0: 77fb abbc 8a0b a53d 4f7d d63d 6640 0b3e
000003c0: 5c9c a7bc ba9f ab3d 0629 5abd 403d c73d
000003d0: 43a1 d23d e81f 923d d85a 283e 4f93 2b3d
000003e0: 8eeb 993c 4f50 c3bd 0df7 ce3c 80a1 253e
000003f0: 90e6 c3bb b0a2 d8bd ba8f 0abe 58ca b53d
-0.06970011 0.015232808 -0.11216948 -0.085276015 0.15552072 -0.14499046 0.01767969 -0.11360745
-0.10676083 -0.05116226 -0.064463586 -0.049996562 0.0015522088 -0.03999438 -0.13361114 -0.07494158
0.043358274 -0.07897849 -0.0389224 0.13437878 -0.0518848 0.0036528523 -0.0811433 0.02315869
-0.016572755 0.051113974 -0.09675205 0.13639583 -0.0094805565 0.05347461 0.014507746 -0.07793268
0.12143949 0.14767085 0.025990222 -0.10757833 0.014740851 -0.023676405 0.10751696 -0.14293778
-0.008509119 -0.1304915 -0.08407014 0.0850406 0.057597447 0.07307048 0.006549895 -0.0018005737
0.12394184 0.12601519 0.061378345 0.040948812 -0.13578948 0.031726424 -0.061726075 0.10146959
-0.071440525 -0.090159126 -0.03188578 -0.11184434 0.00040648837 -0.03334391 0.1583217 -0.09966525
-0.099375196 0.032410886 0.16368604 0.03381284 -0.039743166 0.047648594 -0.1138881 0.09757093
0.033054054 -0.039175212 -0.082390465 -0.030239979 -0.09079082 0.06735189 0.08187247 -0.15062672
0.09431009 -0.032450985 -0.08399473 -0.00943002 -0.040191486 -0.031237844 0.09608832 0.03901518
0.1505944 0.049765103 -0.12111662 0.19039552 -0.11626361 0.050078433 0.03509557 0.07032016
-0.04244976 -0.10919584 0.051943477 -0.07844385 0.044910032 0.0018347162 0.06846107 -0.06209949
0.08867358 -0.023378951 -0.012464725 -0.06600385 -0.032477945 0.088886686 -0.06293456 -0.08805353
0.025525905 -0.046298947 0.021503538 0.08506511 0.034648143 0.10628611 -0.045264088 0.021682719
-0.08213705 -0.11101189 0.025766421 0.038995128 0.18358289 0.120207034 0.06823742 -0.10975973
-0.07695594 0.029598588 -0.035245486 0.016203031 -0.0022315278 -0.08279792 -0.09416351 0.08140073
-0.010500388 -0.03564397 0.03588606 -0.051697902 -0.09869546 0.06877195 -0.088847384 -0.109960645
-0.009228547 0.09724753 0.07346271 -0.010452633 0.06932318 -0.047636885 0.044154093 0.10695598
0.021160163 0.17112957 0.09152813 0.0755001 -0.03151182 0.07955028 0.08318825 -0.072275564
0.08526396 -0.15144812 -0.11698996 0.006912959 -0.021261048 0.08218869 0.07893327 0.031161752
0.1234784 -0.06765992 0.10544531 0.05857238 0.021942962 0.06549748 -0.119647935 -0.055273075
0.12465931 0.02740924 -0.051597912 -0.13732839 -0.15836926 0.003700243 -0.0456086 0.13345046
-0.018192794 -0.06640448 -0.06659297 -0.11708812 -0.034741893 0.047140732 0.07617541 -0.083251834
0.08220896 -0.04873197 -0.023028443 -0.14317389 0.08484435 0.13208666 0.1692198 0.12919459
-0.058922738 -0.07098959 0.043763034 -0.021259392 0.062410526 0.058130078 0.0028016386 -0.012545712
-0.18739268 -0.13063827 -0.12493005 0.07110539 -0.16113843 0.033957288 -0.07537072 0.015658539
-0.05569242 0.09003235 -0.09166097 -0.054208606 0.05809075 -0.030539261 -0.024179287 0.0020859933
-0.087859556 0.057759795 -0.006813391 -0.16087657 -0.042265575 -0.07754848 -0.1481011 -0.12898728
0.0442764 0.014284353 -0.010852265 -0.017885597 -0.020993931 0.080588415 0.104731195 0.13598785
-0.0204603 0.08380075 -0.05326178 0.097284794 0.102846645 0.07134992 0.16440904 0.04188853
0.018789079 -0.09536802 0.025264287 0.16174889 -0.005978413 -0.10577905 -0.1353139 0.08876485

freqs f4 [8]
00000000: a252 6f3f b08d 0b40 2238 4b40 560f 8240
00000010: 79dd a840 e379 c840 e090 eb40 2fbe 0741
0.9348546 2.180523 3.175301 4.064372 5.277035 6.2648787 7.361435 8.483932

weight f4 [64, 8]
00000000: 5f65 6c3e 9452 bd3d e0cc 1f3d 08bc 543e
00000010: d639 4abe eb6b b63d bf45 583d d998 d63c
00000020: 443c b6be 8dd9 aebe d7c3 e9bd 80a0 69be
00000030: 41a1 9ebe 30e3 d0bd 3c92 9abc 67d0 a23d
00000040: 4c4b edbd c6bb 21be 7391 13be f0d5 4c3e
00000050: ac67 b33d 6740 c13e 9648 0b3e 8a29 833e
00000060: 76fb e5bd 51ab 4dbe b9ca 003e c89a 7c3e
00000070: eb93 c8bd 8519 a33d 60cc 90be f833 183e
00000080: b467 d6be 9747 d5bd fa03 01be 4e1a 0cbe
00000090: e0fa 983c 2b87 2abe ef61 be3e 9c2c 19be
000000a0: 8232 423e 45fe 9abe cb56 593e 9c82 803e
000000b0: 2527 89be 35d2 f0bd a4d7 b0bd b48c 67bd
000000c0: 23ca b73d d93c a33e dfab 70bd 40e4 a53d
000000d0: f665 84be e8fa 41be 08f2 94be 062c bd3c
000000e0: a108 2dbc 5590 b33e 9e9e 463e bb41 ccbc
000000f0: 00d6 fbbd 9b32 283d ab9d 30be ce6e 853d
00000100: 1a6a 00be 6db1 30be 2f38 1a3d a49c 433d
00000110: b971 5fbd dc27 833c 57cc 9abe f1a2 febd
00000120: fff7 e9be 9bf6 aa3e d341 ac3e 5cbf 9fbe
00000130: 83fa 67be f6a1 8dbe 808e 553e 51b9 973d
00000140: c2da efbe 5206 e9bd c85a 953e 8921 07bd
00000150: 4773 90be cc4b 223e 4e23 ad3e d551 ae3e
00000160: bc6d 4a3e e599 f4bd ee7f 4c3b 1cc4 9c3e
00000170: 7de4 d13d e85d 96be 52aa 363e e40e c43d
00000180: dfc1 ddbe c0d1 68be b651 893e 2553 8e3e
00000190: 97b6 9abe d6c4 f93d c452 6f3e 0fe8 853d
000001a0: a6b5 893e 6af8 033e 12be 093e 3d8c 153e
000001b0: 68b1 97bd 7800 c43c cdfe ffbd a90a aebd
000001c0: 3241 5a3e 70ad 2ebe e40c c13d 99c0 9d3e
000001d0: 7a97 803d 3628 a13e 847d 32bd bbae b0bd
000001e0: 4981 df3e 39e0 33be 024e b53e a931 b43e
000001f0: 07c6 97be f690 07be 7718 883e 2695 02bd
00000200: 2f2c d1be b542 383d e26e debe 6524 17bc
00000210: 72f1 5f3d 75c3 eabd 26e9 67bd 2361 163e
00000220: 1d70 ca3d 08c1 4abd 9cb9 23be 65b0 273d
00000230: 7bf2 05bd 3f90 83bd 7d92 e1bd ca6d 803d
00000240: 2979 dbbe d429 023e 9409 31be 3808 ac3e
00000250: c741 233c ce3b 333e dc29 893d 344f f6bd
00000260: a1f7 de3d 0f99 92be 9cc6 ac3d 4c19 ac3e
00000270: 5c70 c3bd 31e3 b53e 8ed1 88be bc75 1d3e
00000280: 5701 8c3e e5ce 10be 56b8 b9be 07fe 92be
00000290: 3a9f 2b3e fcbf b63e fb69 91be 91b5 3fbe
000002a0: cb1b 7f3e 1967 52bd eb32 a6be 747a 96bd
000002b0: 24e1 de3d f2c8 bebe a1d6 30be 8b1b 1a3e
000002c0: 63c8 ee3d 8b85 0cbe ca54 cf3e c86f 5c3d
000002d0: be2d 4e3e db68 e3bc 8a83 1cbe de28 803e
000002e0: c263 f3be 5be5 c93d 3b74 49be 1cd6 29bd
000002f0: 4927 893e e098 abbe defc 0b3d 3fdb a6bd
00000300: d800 ca3e 8567 6ebe 28e9 b5bd 05d5 53be
00000310: d80e 883e a43f 893e ef69 dabc 1433 a53d
00000320: d8b4 083f 3cdb 74be 9daf bf3d 94e0 b43e
00000330: 58e7 4cbe 225d 8abe 386f 933e 1de2 953e
00000340: 0e17 7d3e a406 8a3e d5a8 203e 2149 50be
00000350: 266c a6be dbcf ae3c 337a 39be 62e4 b33e
00000360: 621e bcbc 114a 553e 346c 95bc c3ef a4bd
00000370: 7b22 8cbd d556 93be 9ab0 aabe 77c1 d8bd
00000380: fc6a e3be 57ae 9cbe 1b7b 393e 7cb6 15be
00000390: 1c54 d33c a658 b4bc 64ad 7dbe bba5 0abe
000003a0: 82a8 d2be 179c 543d e8ed 8f3e 8fcc 0cbc
000003b0: 45f9 c73d 0047 533e 62f8 413e 260f 573d
000003c0: 370f 38be 5ebe 163e 91fc 883c cddc 9c3e
000003d0: 3dc6 a6bd 9096 903e 9dfb 3d3e 2fe5 a43e
000003e0: 0bb5 3f3e 9e53 363d bcce 6bbd 414d 443e
000003f0: f35b 823e 7b32 773e afcf b6be c0d0 983c
0.23085545 0.09244266 0.039013743 0.20774853 -0.19748625 0.089073025 0.05280089 0.02619593
-0.35592854 -0.34150353 -0.114143066 -0.22815132 -0.30982402 -0.101995826 -0.018868558 0.07949906
-0.11586627 -0.15794286 -0.14410953 0.20003486 0.08760008 0.37744448 0.13601908 0.2561763
-0.11229603 -0.20084883 0.12577333 0.2466842 -0.09793838 0.07963852 -0.28280926 0.14863575
-0.41875994 -0.10414045 -0.12599173 -0.1368191 0.018674314 -0.16653125 0.37184092 -0.14958423
0.1896458 -0.30272117 0.21224515 0.25099647 -0.26787677 -0.11758844 -0.0863488 -0.05653067
0.089741014 0.3188236 -0.05875766 0.08100176 -0.2585904 -0.1894337 -0.29090905 0.023092281
-0.010561139 0.35071054 0.19396445 -0.024933686 -0.12296677 0.041063886 -0.17247646 0.06515275
-0.12540475 -0.17255183 0.037651237 0.047756806 -0.054551814 0.016010217 -0.30234024 -0.12433422
-0.45697019 0.3339127 0.3364397 -0.31200683 -0.22654156 -0.2766263 0.2085514 0.07408393
-0.46846586 -0.11378159 0.29170823 -0.032990966 -0.2821295 0.15849227 0.33815998 0.34046808
0.19768423 -0.119434156 0.0031204182 0.3061837 0.10248659 -0.2936852 0.1783841 0.09573153
-0.43311974 -0.22736263 0.26820153 0.2779781 -0.3021743 0.121957466 0.23371416 0.06538402
0.268964 0.12887731 0.13451412 0.14604278 -0.074068844 0.023926005 -0.12499771 -0.08498127
0.21313933 -0.17058349 0.09426287 0.30811003 0.06278892 0.3147599 -0.043576732 -0.08627077
0.43653324 -0.17566003 0.35411078 0.35194138 -0.2964327 -0.13238892 0.26581165 -0.03188052
-0.40854022 0.04498549 -0.43443972 -0.009224986 0.05467362 -0.11463062 -0.056618832 0.14685492
0.09884665 -0.049500495 -0.15988773 0.040939707 -0.03270195 -0.06423997 -0.110142685 0.062709406
-0.42865875 0.12711269 -0.1728881 0.3360002 0.009964413 0.17503282 0.06697437 -0.120268255
0.10887075 -0.286324 0.08436319 0.3361305 -0.09542915 0.35524896 -0.26722378 0.15376943
0.27344772 -0.14141424 -0.3627345 -0.28709432 0.16759959 0.35693347 -0.2840117 -0.18721606
0.24912946 -0.051367853 -0.32460722 -0.07347575 0.10882786 -0.37262684 -0.17269374 0.1504957
0.116593145 -0.13722818 0.40494376 0.05381754 0.20134637 -0.02775996 -0.15284553 0.2503118
-0.47537047 0.09858199 -0.19673245 -0.041463956 0.26787785 -0.33515072 0.0341767 -0.081472866
0.3945377 -0.23281677 -0.08882362 -0.20686729 0.26573825 0.26806366 -0.026661841 0.08066383
0.53400946 -0.23911756 0.093596675 0.3532759 -0.20010126 -0.2702418 0.2879579 0.29274073
0.24715826 0.2695819 0.15689404 -0.20340396 -0.32504386 0.021339348 -0.18113022 0.3513518
-0.022963706 0.20829035 -0.018240072 -0.080535434 -0.06842514 -0.28777185 -0.3333786 -0.105837755
-0.4441756 -0.3060176 0.18113367 -0.14620394 0.025796942 -0.022014927 -0.24773175 -0.13539784
-0.41144186 0.05190667 0.28111196 -0.008593692 0.09764341 0.20632553 0.18942407 0.05250468
-0.17974554 0.14721057 0.016721996 0.30637208 -0.0814328 0.2823987 0.18553014 0.32206103
0.18721406 0.044513337 -0.057570204 0.19170095 0.25460777 0.2414035 -0.35705325 0.018654227

weight f4 [64, 64]
00000000: 9032 053e 7924 09be 191d 05be 6504 a2bd
00000010: 079a a23c bcf8 5c3d dc45 a6bd dd64 263d
00000020: 9caf 793c a013 a2bd 5157 953c 2198 d33d
00000030: 88e1 b33c 1376 a13c d92b 93bd 73ce 0bbd
00000040: d700 7abc a907 c4bd cb7f 0c3d c3d6 0dbe
00000050: d781 a7bd bcb6 de3d e410 853d 59d8 93bd
00000060: 0943 81bb 2890 a03c 8f6c 183c 7f92 e33c
00000070: da14 57be 38c4 0dbe 6841 8ebd f1c7 bdbb
00000080: da67 9f3d e987 8cbd 8517 ddbb 8114 2d3d
00000090: 6b6e 8bbd 5bbd 71bd bce4 0e3b d164 59be
000000a0: 7105 0ebb c175 18bc ba31 25bc 1bb9 ebbd
000000b0: 4da4 283e df51 593d 31bc 0abe f407 463d
000000c0: edc4 59be fdf6 593d 873d 223d 536f 223e
000000d0: 5251 de3d 3fd9 04bd 849d e7bd e7e9 25be
000000e0: 3fde 883c 7e41 033e e80f 42bb f830 9bbd
000000f0: 093d 753d a750 0c3e 5632 8b3d 4267 583d
00000100: 927d ce3d 0c56 6e3d d6ef e33d d9ca 983d
00000110: aac7 3a3d ed0f 983d f0df 8c3c d627 0bbe
00000120: e70e 2dbc 7ec3 0bbd e15f e0bb ec42 90bd
00000130: a965 1abe e61a b83d fd20 95bd 41f9 9abd
00000140: 9e87 c6bd 4cb1 9f3a e3a9 bdbd 8f8f 03be
00000150: c2c3 1ebc 9968 c43d 26da ff3d 9782 44be
00000160: 19f7 b6bc 7655 cebc 7d5e d8bb 595f e63a
00000170: 6ea4 9c3d 8fe7 3cbd bcb7 cb3d 42d8 a3bc
00000180: 4a3e edbd ec45 153d 0f0c 843d d28b 3a3e
00000190: 4ba4 bbbd d447 d7bc 23e6 dbbd d418 f0bd
000001a0: fb08 f73b db89 383c eb9e 393d 2301 d33d
000001b0: f0b3 58bd b156 db3c abf8 f9bd 3339 efbc
000001c0: ccf6 6f3d 5eec 813d 043c d6bd 173e d1bd
000001d0: fbe9 81bd 8933 c9bd e9cc 22be 7b2a 003d
000001e0: 26f4 f03b da3b 60bc b5c8 9e3d a90a 02be
000001f0: 71fe c73d 6ac6 e13d 5f69 0f3d 4d58 d23b
00000200: feae e1bd cc27 90bd cae5 b33d 9559 06be
00000210: e01c 8bbc c1d5 433d ac19 2cbd 0bf4 1a3c
00000220: 10a1 70bd 8b08 033d 4f72 1a3c 7bac debb
00000230: c8bb 2f3e 39fd c7bd 7c72 a73d 6a6e 01be
00000240: 103f b8bd e541 5a3d 9918 17bd 33bb 993d
00000250: dc8b 66bb 1678 28be 6d38 0abe ab67 e33d
00000260: 779e 0bbe 318b 27bd 9278 c53c f6dc a6bd
00000270: e092 2e3e 935f 2dbc 549f 8b3c 1570 d2ba
00000280: 312b f53d fff6 09be 1296 073d e0f3 96bd
00000290: fe18 9b3d 6f7a 133d 5a6e 5fbd 9493 0b3e
000002a0: b469 34bd b291 27bd 4f24 073c ea94 9f3d
000002b0: 1f38 19bd 2985 5c3d 52b2 7fbd f59d bdbd
000002c0: ecde 0f3e 91e8 35bd a8f5 2abd cc9a be3c
000002d0: 94b7 e1bd cc3b 24bd 0bee e43b 8bbb 9cbd
000002e0: a4ec 873d 44dc a33d e0c6 3fbd c147 0abd
000002f0: c9e4 17be 6282 e2bd a1b2 c7bd b57a 0dbd
00000300: dbb9 403d 1408 edbd 5ef6 873d cce0 67bd
00000310: c005 7fbc fed8 143d 82eb 44bb e4a6 e53c
00000320: a3b8 00be 0b58 aabd 5ee9 b63d 25c3 8d3c
00000330: 0b7b 85bd 442c 833d c28e ed3d c4df 0a3e
00000340: c259 0bbe 76a4 e73d 7e63 24be 5032 dfbd
00000350: b6f5 283c 03e8 023d 579c c6bd c696 2fbc
00000360: 9f53 2d3d 7d4d 583d f4b6 b83d d1d5 873d
00000370: b4f4 edbd b261 ca3c 0a59 af3d 5944 95bc
00000380: 4b97 cdbd 7f44 9cbd eb4f 73bd c2cd 99bc
00000390: ab56 2abe e2d0 29be 1f39 96bd cfb9 9fbd
000003a0: a069 be3c fde6 0bbe c5d1 b83c 4dd7 95bc
000003b0: 9c01 aa3d 90d5 bc3d 6727 c43d 39a3 a63d
000003c0: 5ebf 653d 9ccb 853d e277 e7bc d2ec 643c
000003d0: 9981 6b3d f13b 06be b1f4 843c 068d 2c3d
000003e0: aa86 b2bd f48f 533b df8b fbbc 6e58 843d
000003f0: bdb4 103d 31cf 093e e754 df3a 1587 233e
0.1300757 -0.1339282 -0.12999381 -0.079109944 0.019848837 0.05394815 -0.08118793 0.040623534
0.015239622 -0.079138994 0.018230112 0.10331751 0.021958128 0.019709622 -0.07186098 -0.034132432
-0.015258989 -0.095717736 0.03430156 -0.13851456 -0.08179062 0.108746976 0.06497362 -0.072189994
-0.003944759 0.019599989 0.009303226 0.027779816 -0.21004048 -0.13844383 -0.06946069 -0.005791657
0.0778348 -0.0686186 -0.0067471885 0.042255882 -0.0680817 -0.059018474 0.0021803817 -0.21229865
-0.0021670724 -0.0093054185 -0.0100826565 -0.115099154 0.16468926 0.053056594 -0.13548352 0.04834743
-0.21266527 0.053214062 0.03960946 0.1586278 0.10855354 -0.032433745 -0.113093406 -0.16202508
0.016707538 0.12817952 -0.0029611532 -0.075776994 0.05987266 0.13702641 0.0679671 0.05283285
0.100825444 0.05818753 0.111297294 0.07460565 0.04560057 0.074249126 0.017196625 -0.13589415
-0.010562635 -0.034121983 -0.006847367 -0.07044014 -0.15077843 0.089895055 -0.07281683 -0.07567073
-0.09693836 0.0012183576 -0.09260919 -0.12847732 -0.009690227 0.09590263 0.124927804 -0.19190441
-0.022334622 -0.025187235 -0.0066030608 0.0017576023 0.0764855 -0.04611927 0.09947154 -0.02000058
-0.11584146 0.036443636 0.064476125 0.182174 -0.09162196 -0.026279368 -0.107372545 -0.117234856
0.0075389124 0.011263336 0.04531757 0.10302951 -0.052905977 0.026774736 -0.12205633 -0.02920208
0.058584973 0.063439116 -0.10460666 -0.10216921 -0.06343456 -0.09824283 -0.1589848 0.031290513
0.0073533235 -0.013686145 0.077531256 -0.12699379 0.09765328 0.110241726 0.0350126 0.0064192177
-0.11019705 -0.07038841 0.08784063 -0.1312011 -0.016981542 0.047811273 -0.04201667 0.009457598
-0.05874735 0.03199057 0.009426667 -0.0067954636 0.17161477 -0.09765095 0.08176133 -0.12639776
-0.08996403 0.0532855 -0.036888693 0.075064085 -0.0035178578 -0.16452059 -0.13498087 0.111037575
-0.13634668 -0.040904228 0.024105344 -0.08147614 0.17048216 -0.010581869 0.017043747 -0.0016055132
0.11971129 -0.13473128 0.033102103 -0.07370734 0.07573126 0.036005434 -0.0545486 0.13630515
-0.04404612 -0.04091043 0.008248403 0.07792075 -0.037407037 0.05383793 -0.06242592 -0.092586435
0.14049882 -0.044411246 -0.041738182 0.023267172 -0.11021343 -0.04009609 0.0069863847 -0.076529585
0.066369325 0.08000997 -0.04682052 -0.033759836 -0.14833368 -0.11060025 -0.09750868 -0.03454085
0.047052246 -0.115738064 0.06638788 -0.056610867 -0.015565336 0.036339752 -0.00300476 0.028033681
-0.12570433 -0.08317574 0.0893123 0.017304966 -0.06517609 0.064049274 0.115994945 0.13561922
-0.13608459 0.11310665 -0.16053578 -0.10898268 0.010312488 0.031959545 -0.09697788 -0.0107170995
0.042316075 0.052808274 0.090192705 0.06632579 -0.11618939 0.024704788 0.08561905 -0.018221067
-0.100386225 -0.07630252 -0.059402388 -0.01877487 -0.16634624 -0.16583589 -0.07335114 -0.07799112
0.023243725 -0.13662334 0.022560963 -0.01829114 0.08301088 0.09220421 0.09577828 0.08136601
0.056090705 0.06532976 -0.028255407 0.013972478 0.05749664 -0.13108803 0.01622996 0.042126678
-0.087170914 0.0032281848 -0.030706344 0.06462179 0.035328615 0.13457943 0.0017038853 0.15969498

weight f4 [64, 64]
00000000: c8f5 8cbd e464 d13d dca8 1a3e 32dc c9bd
00000010: c285 353e 47d4 563c 7444 fcbd c5c0 ff3d
00000020: 0ba9 573e b7f1 2ebe 98b8 593d 7897 9ebc
00000030: 8577 9d3d c0f7 0bbd b1dc 383d ec65 b43c
00000040: 02c3 003d 015b 3ebd d240 9c3d 01c9 72bb
00000050: 569a 9cbd fcea eb3d 52fe aebd 427e 95bd
00000060: e126 eb3d 4bf1 2cbe 4768 743c 6408 b53d
00000070: e0aa 4f3b 951d c13d a950 323e a711 a8bd
00000080: cfef 89be 5aa0 0b3d 495f a03d 2107 cd3c
00000090: 32e9 dabc 486c b23c 301e f0bd 2111 bfbc
000000a0: a770 ddbd 6f31 38be 0b46 23be bdd7 b9bd
000000b0: acdc f5bd 43a0 31bc c5e3 12be c659 dc3d
000000c0: 7165 9bbc 24a4 5bbe db81 323b 4045 d03d
000000d0: a8a0 fd3d c6d6 a9bd 2744 ce3d 0eb7 3a3d
000000e0: 9b04 73bc 30cb ff3d 3cb4 9ebc b573 53bd
000000f0: 6fcf 2ebd 1a6b 853e 1960 983b a701 063e
00000100: cd1d 93bd dc06 feba 23df 663d 2cbb 81bc
00000110: 4866 823d 97ba 4e3d 1d7f 69bd 340f 28bd
00000120: 5eb0 a83d da94 b7bd bd40 c6bd bc1f 6dbe
00000130: 4f6a a73d d81a 3ebd 1e92 1fbd 4507 013d
00000140: 4cc3 40be 23a8 9fbc b6ca 9fbd 00c7 44be
00000150: a751 bb3c 5189 e83d 0d4c 403d 7e88 d33d
00000160: c2f7 633d 9e2b aabc ade2 403d 2211 9dbd
00000170: ff5a fabd 8ea5 d6bd 6468 08bc a4af 8a3c
00000180: f3a0 1a3e 7fcf 173e 3489 aa3d 91ef 563e
00000190: eb32 a63d ce5c 023e 9dfe bebd 95b2 4fbe
000001a0: 40e2 b7bd 0a73 8b3d 1a7b f13d 04da 12be
000001b0: 37fc 87bd d235 d5bd 3fda cabd 93dc 15bd
000001c0: 7cd9 f5bb 71f0 193d fff5 72bc d50d df3d
000001d0: 0638 e43c 2b68 8fba 04a0 023d 0325 1cbd
000001e0: 6955 5f3d d4c3 4b3d ea21 013d 273a acbc
000001f0: d8cb 06be 0649 993d 4af7 c83d 7099 1dbd
00000200: faef 0dbd d44e 95bd 6683 243d 6234 a03d
00000210: 820f 68be 8450 1e3d 7d80 d33d 1004 6b3d
00000220: 1903 693c 22fd aabd c94b a23d cb92 ba3d
00000230: abf1 67bd 0cdf b3bd 63e7 fdbd ec6d a83d
00000240: 53d0 0e3e 153f 2dbd d5b0 973d 1f6b d43c
00000250: 2766 8e3c 107c e1bd 0707 1f3d 1cae 83bd
00000260: bf9f 073d a67a 21bd bb16 28be 5407 2dbd
00000270: 6fc2 c73d 288a b13d 81ab 38be 9525 f93d
00000280: f19f 4ebc 3abb 39be e4cf 4dbd 2a68 6bbe
00000290: 54eb eabd cbfe b0bd 9179 a83d dd67 483e
000002a0: 38db 92bd 1a72 3cbe c7e7 cc3d 2406 223e
000002b0: a3d0 8abd 3c47 b7bd 57fd 613d f33d 67bd
000002c0: 382d 05bd 88cf 223e 4b8f 93bb 802e f0bc
000002d0: bfb5 29bc 005d 773d 8bbe c1bd 924b 193e
000002e0: 2913 ce3c 7fc7 4f3d 3290 97bd 33a0 913d
000002f0: e9e5 4fbc c971 a0bd 3740 053e c926 573d
00000300: 5db0 e83d 7230 9bbd 8b04 803c a386 fd3c
00000310: 9bd7 09bd 410e 0ab9 d1bf d63d be84 ac3d
00000320: 1f18 08be 7f4d 813d de69 fc3c d5fa 533e
00000330: 681f a3bb 3d9b 403c 2703 5bbc 5b71 9a3d
00000340: d86c 013e 5870 863d 5a94 1c3e 061b 6d3e
00000350: c90f 07be 7663 3cbe 35cf 8cbd a589 1e3c
00000360: 4758 313d de2f 223d e77c 19be 1d25 d3bc
00000370: 624f 0b3d b341 d63c b2a9 4cbe 2b46 843c
00000380: af9b 6b3c f347 673d d1c7 03be e526 80be
00000390: 195b 903c a2c6 56bc 322b 073e dc97 6a3b
000003a0: 91a5 b8bd f249 083e 589d 023e 065b 0c3e
000003b0: ffde 1a3e ae02 e73d 77f0 2abb 9999 95bd
000003c0: 8033 34bd c007 1cbd 2a8d e5bc 9a78 8d3c
000003d0: eeac 1ebc 6466 eebc 8034 86bd e7a2 e6bb
000003e0: 7abc bcbd 7cf2 8fbc 6fcb 77bd 7d32 43bd
000003f0: 515a d0bd 8c61 07be 3ef6 56bd 468a 323d
-0.068828166 0.102243215 0.15103477 -0.09856452 0.17726806 0.013112134 -0.12317744 0.1248794
0.21060579 -0.17084394 0.053154558 -0.019359335 0.07688812 -0.03417182 0.045132343 0.022021256
0.031435974 -0.046473507 0.07629551 -0.0037046077 -0.07646625 0.11519429 -0.085446015 -0.072994724
0.11482025 -0.16888921 0.01491744 0.08839491 0.0031687543 0.094294704 0.17413582 -0.08206492
-0.26940772 0.03408847 0.07830674 0.025027813 -0.026722524 0.021780148 -0.11724508 -0.023323597
-0.10812502 -0.17987607 -0.15944688 -0.09074352 -0.120049804 -0.010841432 -0.143447 0.107593104
-0.01896927 -0.21449333 0.0027238044 0.101694584 0.123841584 -0.08292918 0.10071593 0.04558473
-0.014832641 0.12489927 -0.019373052 -0.05162402 -0.042678293 0.26058275 0.0046501276 0.13086568
-0.071834184 -0.0019380706 0.056365144 -0.01583632 0.06367165 0.050470915 -0.05700599 -0.041030124
0.08236764 -0.08963938 -0.096803166 -0.23156637 0.08174574 -0.04641232 -0.038957708 0.031501073
-0.188245 -0.019489354 -0.07802336 -0.19216537 0.022866083 0.11354316 0.046947528 0.10328768
0.055656202 -0.020772751 0.047091175 -0.076692834 -0.122243874 -0.10480796 -0.00832567 0.016929455
0.1510046 0.14825247 0.08326951 0.20989825 0.081151806 0.12730715 -0.093259074 -0.20282967
-0.08978701 0.06809051 0.11791058 -0.14340979 -0.06639903 -0.10410656 -0.099049084 -0.03658731
-0.007502733 0.03758282 -0.014829158 0.1089131 0.027858745 -0.0010941079 0.031890884 -0.038121235
0.054524813 0.049747303 0.031526484 -0.021023823 -0.13163698 0.07484631 0.09812792 -0.038476408
-0.034652688 -0.07290426 0.040164374 0.07822491 -0.22662166 0.038651004 0.103272416 0.05737692
0.01422193 -0.083490625 0.07924611 0.0911003 -0.056626957 -0.08782777 -0.12397649 0.08224091
0.13946657 -0.042296488 0.07406775 0.025929986 0.017382694 -0.11009991 0.03882506 -0.06429693
0.03311133 -0.039423607 -0.16414921 -0.042243317 0.09753882 0.08668929 -0.18034174 0.12165371
-0.012611375 -0.18137828 -0.050247088 -0.22988954 -0.114706665 -0.08642348 0.08226312 0.1957087
-0.07170719 -0.18402901 0.100051455 0.15822655 -0.067780755 -0.08949134 0.055173244 -0.056455564
-0.032513827 0.1589948 -0.004503166 -0.029319048 -0.010358273 0.060391426 -0.09460171 0.14970234
0.02515562 0.050727364 -0.0740055 0.07110634 -0.012689092 -0.07834203 0.13012777 0.052527223
0.113617636 -0.075775996 0.015627166 0.030947989 -0.033652883 -0.00013166016 0.10485805 0.08423756
-0.13290451 0.06313609 0.0308122 0.20701154 -0.004978109 0.011755762 -0.013367451 0.07541152
0.12639177 0.065643966 0.15290967 0.2315484 -0.13189615 -0.18397316 -0.06875459 0.009676372
0.04329708 0.03959643 -0.14989053 -0.025774533 0.034011252 0.026154375 -0.19986609 0.01614674
0.01438038 0.0564651 -0.12869193 -0.25029674 0.017621564 -0.013108881 0.13200071 0.0035796082
-0.09015954 0.13309458 0.12755334 0.13706598 0.15124129 0.11279808 -0.002608327 -0.07304687
-0.043994427 -0.03809333 -0.028021414 0.017269421 -0.009684784 -0.029101558 -0.06552982 -0.0070384624
-0.092156366 -0.01757168 -0.060496744 -0.04765557 -0.101734765 -0.13220805 -0.05248093 0.0435889

weight f4 [64, 64]
00000000: ecfa 6cbd b94b 30bd 74d1 503c 06ce 96bd
00000010: 7083 9ebb 40a0 50bd ba06 51bc 1324 a9bd
00000020: 3cfd f23d 37ff a63c 4dca 19be fccc 19bc
00000030: 685e 843b c87c 46bc 9f53 debb 42de cfbb
00000040: 3e3d e0bc d534 013e 58e2 ba3d 5053 033e
00000050: 37c7 1ebd 4851 173e 8b71 a3bd 379a 6e3d
00000060: a68e 483c dccf 003e 62cc afbc 256f f83c
00000070: 9d16 87bd 7075 403d dde7 74bd fa15 063d
00000080: 1c10 80bc e0c5 a23d ae40 0f3c d713 4a3d
00000090: 1346 26be 508f 0d3c ab40 253c 5ca4 e43d
000000a0: 8e57 a93d effc 6fbc 75e1 603c 8313 92bd
000000b0: 0125 e83d f8d3 c4bb f531 8c3c 0c28 893c
000000c0: 752c 0dbe 94a9 8bbd c8e2 6fbd ec28 153e
000000d0: 5b75 ba3c 7207 0fbe d86f b0bd 2280 053d
000000e0: 308d 1fbe 543e 073e 1892 9b3d afa3 253c
000000f0: 4616 cf3d 12da ee3b 24ca c33c c8db d93d
00000100: ec05 443d ff36 c03d b3c2 b7bb 4689 5abd
00000110: b985 05be 8e74 5bbd 854c 94bd 81e1 9f3d
00000120: b01a 453d 3549 d4bd 27d2 5c3c 3950 6f3d
00000130: 53c4 933b df41 713c 1e75 a33d 11e3 953d
00000140: dfbc 9dbd 73bb 783d 20fd cdbd a605 f93d
00000150: de1a 90bc 76b9 e63d c94c 7f3d d311 8b3d
00000160: 41ca 9fbd 00f7 70bd f7d0 02bd eff8 66bd
00000170: a469 b8bc 9b70 b4bd fdd7 54bd ad72 a63d
00000180: 8dfa c3bc 8112 923c 4fe3 fabd d9f6 cebd
00000190: d213 b03d c9e1 c1bc 5396 4b3d 9788 523d
000001a0: 53f6 943d 9ad6 0a3d 4b85 b73d 2742 ffbc
000001b0: 891e 323d 7cff 583d 938c 8ebd b3de 763d
000001c0: 2a63 e4bc e397 38bd e169 49bb cb12 cbbd
000001d0: c09e cfbb 4245 f5bd 1708 fcbd 4f52 e9bb
000001e0: ff62 8abd 9706 07bd ed27 f2bc 210e 043e
000001f0: aa41 8b3c 5185 ad3d 35ef 903d 4d3a d53d
00000200: 74dd c23d f6d0 c83d 05e2 a9bd 2ae4 59bd
00000210: f487 0dbe 75d3 823b 2293 08bd 5e22 c33c
00000220: 2566 c3bd b5c6 9dbd b7f4 e03c 1500 b23d
00000230: 063c d03d 02fb 1d3c d725 2ebd 9f3d c9bd
00000240: 97c7 39bd e40e a73d 6b51 a73d 3e22 dd3c
00000250: b107 dabd 8175 ef3d 221d 9fbd c35b 803d
00000260: 9348 de3c ccd8 043e f369 3b3d 982a f0bd
00000270: d068 93bd ecdd e33d 27ff 173b e8e2 ba3d
00000280: bf3c 063e 00e3 b23c cccf 853d e0f5 9dbd
00000290: 8dd1 9fbd e2ea be3d 46a8 f9bd 545c 143e
000002a0: 671f c43d c313 dbbd 8416 17bc 2c5f 423c
000002b0: 3df3 91bd fea7 5abd d6b5 813d 68ee 273b
000002c0: f3d1 b5bd 0a34 d83d 6225 a13d d837 90bd
000002d0: e494 d73c 9cf3 c3bd 88a4 f4bd 2c34 2a3d
000002e0: 60ab 1ebd 1a88 a03d 2f9f 0bbe 4585 90bd
000002f0: ef97 85bb 3a6b 9a3d e411 d1bc 6302 973d
00000300: 7a7d 60bd c5bd 173d 77ec 18b9 7b1a 86bd
00000310: ce5a fabd 9fa6 e8bc 50b3 abbd b278 10be
00000320: c286 d23d ab18 1ebe 539f d13d 111c 653d
00000330: 2b85 893d 383b c23c 3d86 f6bd 37d6 883d
00000340: 3840 a4bb c912 5f3d 5312 a03d f9d0 ddbc
00000350: 2f44 3dbd bfd3 0a3e 510e 4abc e52b 08be
00000360: 6563 7dbd 2624 8f3d 6799 ce3d 8eff 06be
00000370: a7f6 2e3b 874d be3d 2ffa 183e 5621 873d
00000380: 10b8 7ebd 5256 163e f806 6bbd 4a79 60bd
00000390: ea4c 3abd 9bbd 823c 239a 1cbd 4c44 323e
000003a0: 837b 963d 554b 173e 70b8 98bd 0581 de3d
000003b0: c7ca c439 1abb e73c 11f0 14be fc84 e6bd
000003c0: 8933 6ebc f599 c5bd 366c b8bd d759 62bd
000003d0: 58b5 013e d469 acbd 2aec 943d a346 653d
000003e0: c6e1 2abe 0183 ee3d b119 0f3d 7181 713d
000003f0: b9c7 f53d cc30 bebd 8d6f 143e 43cc c1bb
-0.057856485 -0.043040965 0.01274525 -0.073635146 -0.004837446 -0.050934076 -0.012757951 -0.08258834
0.11864707 0.020385368 -0.15018578 -0.009387251 0.0040395744 -0.012114711 -0.0067848708 -0.006343634
-0.027372953 0.1261781 0.09125203 0.1282475 -0.038764205 0.147771 -0.07980641 0.05825254
0.012241041 0.12579292 -0.021459762 0.030326435 -0.0659611 0.046986997 -0.059791435 0.032735802
-0.015632682 0.07947898 0.008743448 0.049335327 -0.16237669 0.008640125 0.010086219 0.111641616
0.08268653 -0.014647706 0.013725628 -0.07132628 0.11335183 -0.006006714 0.017113665 0.016742729
-0.1378649 -0.06819454 -0.058565885 0.14566392 0.022761038 -0.13967684 -0.086150825 0.0325929
-0.15581203 0.1320737 0.075962245 0.010109826 0.1011167 0.0072891796 0.0239001 0.10637623
0.04785721 0.0938549 -0.0056079268 -0.05335357 -0.13039292 -0.053577952 -0.072411574 0.07806683
0.048121154 -0.10365526 0.013477839 0.058426116 0.0045094877 0.014725178 0.07981323 0.073187
-0.0770204 0.06072564 -0.100580454 0.121592805 -0.017590936 0.112658426 0.062329087 0.06790509
-0.07802249 -0.058829308 -0.031937566 -0.056389745 -0.02251131 -0.0881054 -0.051963795 0.081273414
-0.023923183 0.017831089 -0.12250387 -0.10105676 0.085975304 -0.023667233 0.049703907 0.051399793
0.07273545 0.033896066 0.089609705 -0.031159474 0.04348615 0.052978024 -0.06960406 0.060270976
-0.027879316 -0.045066725 -0.0030733275 -0.09915694 -0.006336063 -0.119761005 -0.123062305 -0.0071204077
-0.06757163 -0.03296527 -0.029560054 0.12896015 0.016999085 0.08472694 0.07076875 0.104115106
0.09514895 0.09805481 -0.08295063 -0.05319611 -0.13821393 0.003992493 -0.03334344 0.023820098
-0.09540967 -0.07703916 0.02746044 0.08691422 0.101676986 0.009642364 -0.042516556 -0.098262064
-0.04535636 0.08157137 0.08169826 0.026993867 -0.10645998 0.11692334 -0.077692285 0.06267502
0.027134215 0.12973326 0.045755338 -0.11726874 -0.07197726 0.111263126 0.0023192854 0.0912531
0.1310911 0.021836758 0.06533775 -0.077129126 -0.078036405 0.09322144 -0.12190299 0.14488345
0.09576302 -0.106971286 -0.009221677 0.011863511 -0.07126472 -0.053382866 0.063335106 0.002562428
-0.08877935 0.10556801 0.07868458 -0.07041901 0.026316114 -0.09567949 -0.11945444 0.04155366
-0.038737655 0.07838459 -0.13634942 -0.07056669 -0.00407695 0.07539983 -0.025521226 0.07373502
-0.054807164 0.037046213 -0.0001458394 -0.065480195 -0.12224351 -0.028399764 -0.083838105 -0.14108542
0.10279609 -0.15439098 0.10235467 0.05593497 0.06714853 0.023709878 -0.12037323 0.06681483
-0.0050125383 0.054461274 0.07815995 -0.027077185 -0.046207603 0.13557337 -0.012332515 -0.13297994
-0.061862368 0.06989317 0.10087853 -0.13183424 0.002669731 0.09292131 0.14939187 0.06598155
-0.062187254 0.14681366 -0.057379693 -0.05480317 -0.045483507 0.015959552 -0.038232934 0.17408866
0.07347777 0.1477483 -0.07457054 0.10864452 0.00037535114 0.02828746 -0.14544703 -0.112558335
-0.014538654 -0.096485056 -0.090050146 -0.05526146 0.12666833 -0.084186226 0.07271607 0.055975568
-0.16687688 0.11646081 0.03493661 0.058961336 0.12000985 -0.09286651 0.14495678 -0.0059142425
