examples/carbon/outDir/epoch=0-step=255-val_loss=0.2169.pt (torch, 752753 bytes, 92 tensors)

cutoff f8 []
000000 00 00 00 00 00 00 08 40
       3.0

weight f4 [7, 64]
000000 15 45 59 3f 83 27 31 3f 6d cc a1 be c1 5f 07 c0
       0.84871036 0.69200915 -0.31601277 -2.1152194
000010 75 56 b6 be a8 db df 3e 53 8c fb 3e 0b 00 51 be
       -0.35612836 0.43722272 0.49130496 -0.20410173
000020 77 6f f5 3d 93 6b 9e 3f 8e f2 8e 3f 7c 36 7d be
       0.11984151 1.2376579 1.1167772 -0.24727815
000030 a7 99 85 bf f6 32 ac bf 11 0d 49 3f 99 2a 7e 3f
       -1.0437516 -1.3453052 0.7853556 0.9928375
000040 8b 4d 19 3f 5b 0d c7 bf ca c6 ae be 4e 2f ed 3f
       0.59883946 -1.5550951 -0.3413604 1.8530061
000050 55 aa ef 3e 5f 7f 21 be db c9 b8 3f a1 37 88 3e
       0.4680964 -0.15771244 1.4436601 0.2660494
000060 c0 d6 b1 3f 00 0d cb 3f 9c 40 72 3f 33 fb 57 bf
       1.3893661 1.5863342 0.94629836 -0.84367675
000070 30 8c 6e 3f 37 27 a1 3f 9a 51 00 40 3a 1b 5c 3d
       0.9318266 1.2590092 2.0049806 0.053736903
000080 d0 1f e1 3e d6 37 e6 3d f8 0a 24 3f 3c df e1 3e
       0.43969584 0.112411186 0.64079237 0.44115627
000090 42 0b 5d be a3 17 3e bf 82 0e 10 3f e2 ed 84 3e
       -0.21586326 -0.74254817 0.5627214 0.2596274
0000a0 2f da 05 3f 55 57 13 40 b7 04 bc bf 9e 18 cb bf
       0.52286047 2.3022053 -1.4688939 -1.5866888
0000b0 3c 03 9a 3f 87 20 ad 3d 2b 9e 99 bf ae d1 9c bb
       1.2032237 0.0845347 -1.2001394 -0.004785738
0000c0 10 dd 6b be 08 94 c8 be 5d 15 0b 3f 17 52 ca be
       -0.23033547 -0.3917544 0.5432947 -0.39515755
0000d0 52 75 52 3e 9f 91 e6 be 2e b5 12 bf f8 2b 0e bf
       0.20552567 -0.45032975 -0.5730771 -0.5553584
0000e0 d9 fd c3 bf 23 f8 9d bf c2 ec e8 3f fc 30 0d bf
       -1.5311843 -1.234135 1.8197253 -0.5515287
0000f0 48 a4 a9 bf 30 14 41 3e fb 75 8d bd db 66 fd be
       -1.325326 0.18855357 -0.069072686 -0.49492535
000100 ce 34 bd bf 8b 4d 24 40 c2 3c f2 be 4f cd ab 3e
       -1.478174 2.5672328 -0.4731198 0.33555076
000110 e8 2a c1 3f c2 3e 05 40 87 75 da 3f f1 57 18 40
       1.5091219 2.0819554 1.7067116 2.3803675
000120 d0 92 88 bf 57 b6 8e 3f 2c 0c 10 be de 45 4e 3f
       -1.0669804 1.1149396 -0.14067143 0.8057536
000130 10 bd a7 3e b5 bd 42 bf b8 ae cc bf 5a 71 97 3c
       0.3276143 -0.7607072 -1.599082 0.018486667
000140 5f 86 57 3f 47 d1 cc be 17 0d 85 3f d8 5f b7 3e
       0.8418941 -0.40003416 1.039462 0.3581531
000150 ca 85 58 bb 1b d1 08 bf 90 97 95 3f 44 fc c9 3e
       -0.003303873 -0.5344407 1.1686878 0.39450276
000160 dc c1 85 bf 3d dd 74 bf b4 58 09 3d 3c c8 35 3f
       -1.0449786 -0.9565008 0.03353186 0.7100866
000170 4a 84 c4 bf ae 4a d3 be a7 5f 77 3f e5 f8 cf 3f
       -1.5352871 -0.41267914 0.9663033 1.6247832
000180 ad 40 27 c0 13 26 d9 bf 37 b8 69 be 43 56 8f 3e
       -2.6133225 -1.6964744 -0.22824179 0.279955
000190 06 02 96 3d 38 81 8e 3f 55 85 90 3e d3 52 de 3e
       0.07324605 1.1133184 0.28226724 0.43422565
0001a0 0f f4 e9 3e fa 88 5d bf cc 03 48 3f 12 42 6d bf
       0.45694014 -0.86537135 0.78130794 -0.9267894
0001b0 cc 5e 53 3e ae b9 aa be 9b 8f db be 22 82 6e 3e
       0.20641631 -0.33344787 -0.42883 0.23291829
0001c0 99 67 76 3f 2e c6 b2 3e ef e4 6b bf 81 2c 66 bd
       0.9625183 0.34916824 -0.921462 -0.056194786
0001d0 0d 97 33 bf 27 b2 84 3f 20 8a 1a bf 94 ae a3 bf
       -0.7015236 1.0366868 -0.6036701 -1.2787652
0001e0 95 c0 fd 3d a0 17 95 3f 35 62 6c 3f e4 92 b1 3f
       0.12390248 1.1647835 0.9233735 1.3872952
0001f0 3e 01 b0 3f 95 dd 28 3f 4b ff f3 3e 5d 16 82 bf
       1.3750379 0.6596311 0.4765571 -1.0163075
000200 db 40 1c 3f 5c 0b ef 3e 22 af f9 3f 9d 13 88 bf
       0.6103646 0.46688354 1.9506571 -1.0630985
000210 03 f7 91 3f 17 14 b8 bd ed d3 3a 3f 6a 33 ec bf
       1.1403507 -0.08988207 0.72979623 -1.845319
000220 f1 15 d1 bd 50 4b 84 bf 32 12 a0 be 30 af 7b 3e
       -0.10209263 -1.0335484 -0.31263882 0.24578547
000230 fd 1d c1 3e 43 f5 8c 3f 8b 46 92 bf 25 f3 19 3d
       0.37718192 1.1012348 -1.1427778 0.037585396
000240 41 c0 93 3e 24 f0 c5 3e b3 e3 4d be b4 83 f1 bd
       0.28857616 0.38659775 -0.20106392 -0.117926985
000250 63 51 54 bf fc 20 b4 bf 83 3c d0 3f 63 68 30 3e
       -0.82936686 -1.4072566 1.6268467 0.1722732
000260 9c 4c 34 bf 1b 23 a1 3e 9a 2b 21 3e 43 4e c5 3e
       -0.70429397 0.31472096 0.15739289 0.3853627
000270 07 db 12 3f 6d 78 7f 3f fd 29 0b 3f 32 64 a1 3d
       0.5736546 0.9979313 0.54360944 0.07880439
000280 da 9a 7f 3f 8b 57 ff be 2a d8 42 3f f7 48 1e 3f
       0.9984566 -0.49871477 0.7611109 0.61830086
000290 ec 48 99 be e5 48 40 be 22 3c f5 3f a4 b0 30 3f
       -0.29938447 -0.18777807 1.9158976 0.6901953
0002a0 32 c9 a0 be 1b 13 8a bf 08 97 76 3e 93 b7 b2 bf
       -0.314035 -1.078708 0.24081051 -1.3962272
0002b0 01 8e e8 3d a7 67 8d 3f ff 94 b2 bf c3 42 f3 3e
       0.1135521 1.1047257 -1.395172 0.47511873
0002c0 96 60 8a 3f 2f a2 06 3e b4 69 c9 3f cb 0b 48 3f
       1.0810726 0.13147806 1.5735383 0.78142995
0002d0 a5 c8 7c 3f 7a 70 be bf 26 31 16 3f 2e 18 22 3e
       0.9874366 -1.4878075 0.58668745 0.15829536
0002e0 2a b2 2a 3f 52 90 7e bf 14 3d 98 bf df 14 99 bf
       0.66678107 -0.99438965 -1.189364 -1.1959494
0002f0 14 ec a7 3f 05 e0 56 be 8b 1f 48 3f 7e 5c 7d 3f
       1.311892 -0.20983894 0.7817313 0.98969257
000300 92 a0 2f 3e 78 44 60 3f 1f fd 92 be 1a c5 82 3f
       0.17151096 0.87604475 -0.2870874 1.0216401
000310 bb d5 02 bf 6f 5b db bf 9b 93 02 bf 31 25 f3 be
       -0.51107377 -1.7137278 -0.5100648 -0.47489312
000320 cb 8a 29 3f 1e 68 9a bf 2b 81 1b 3f 78 12 0c bf
       0.66227406 -1.2063024 0.6074397 -0.5471568
000330 84 dc 8c bf 47 5a 38 bf 2c 78 43 3c b7 f6 ad 3e
       -1.1004796 -0.7201275 0.011930507 0.3397729
000340 c2 77 a0 bf 4a a1 7c 3f 6d 43 fd be c1 3a a4 bf
       -1.2536547 0.9868361 -0.49465504 -1.283043
000350 a1 96 e0 3e 09 60 2f bc 31 4f ab 3f 2d 0e 8f be
       0.4386492 -0.010704049 1.3383542 -0.27940503
000360 dc 4d 93 3e ff b3 08 bd f6 eb 87 bf 45 58 ea bd
       0.2877034 -0.033374783 -1.0618885 -0.11442617
000370 14 15 48 3e 35 b3 3c bf ed 9c d9 3f 2a 43 b1 3e
       0.1953929 -0.7371095 1.7001015 0.34621555
000380 30 3b 14 be ec 3a 23 3f 46 05 90 be 59 39 aa bf
       -0.14475703 0.6376178 -0.28129023 -1.3298751
000390 69 5f 27 bf 32 23 dc 3f 2c 01 76 bf 5d 33 23 bf
       -0.6537996 1.7198241 -0.9609554 -0.6375025
0003a0 05 10 63 bf f0 b9 56 3f 11 92 93 3f aa 6b e1 bf
       -0.8869632 0.8387747 1.1528951 -1.7610981
0003b0 73 b3 8d bf 7e d2 db bf 7f 6c c4 3f 4c 1f 52 bb
       -1.1070389 -1.7173612 1.534561 -0.0032062111
0003c0 22 5d b8 3f 35 7f e2 bd 1d ad 13 3f f9 3b 2d be
       1.4403422 -0.11059419 0.57686025 -0.16917409
0003d0 a3 26 98 3f 9a 49 21 be ab 86 3a bd 5b 02 26 3f
       1.1886791 -0.15750733 -0.045538586 0.64847344
0003e0 0d e9 5e bf 7b 37 14 3e cd 90 f3 3f f5 e1 c7 3e
       -0.8707436 0.14474289 1.9028565 0.3903958
0003f0 bb 6d 07 3d 67 00 83 bf 67 c7 3b 3f 72 11 8f 3f
       0.03306363 -1.0234498 0.7335114 1.1177199

weight f4 [64, 64]
000000 04 a5 3a 3e 12 88 0e 3e 28 3e 4d be 30 38 14 be
       0.18227011 0.13919094 -0.20043242 -0.14474559
000010 58 f8 f7 3d bf 43 36 bd 35 1c fe bc ae 22 04 3e
       0.12107915 -0.0444982 -0.03101931 0.12903854
000020 23 97 77 be 93 07 76 3d 42 84 10 3e fc 0b 49 3e
       -0.24178748 0.060065817 0.14112952 0.19633478
000030 09 06 4f 3e f2 2c 3b 3e 1c e3 28 bd 7d 34 f7 bd
       0.20217146 0.18278864 -0.041232213 -0.12070558
000040 5a 47 f0 3d b1 dd 1a 3e 18 c8 e4 bd 68 35 da 3b
       0.11732359 0.15123631 -0.11170977 0.0066591986
000050 46 07 7f bd bc 52 17 be db f4 1a 3e 84 09 9c 3d
       -0.062262796 -0.14777654 0.15132467 0.076190025
000060 f0 28 1d 3e e0 7f d9 3d 50 e0 0b 3e a8 28 23 3d
       0.15347648 0.10620093 0.13659787 0.039833695
000070 79 b9 cc bc 19 c7 41 3d d3 a6 f1 3c 1a e7 04 bd
       -0.024990784 0.047309015 0.029498493 -0.032446958
000080 45 6a 54 3e f4 ee 99 bd 66 0e fc bd 09 d5 96 bc
       0.20743664 -0.0751628 -0.12307434 -0.01841213
000090 2b 5b 39 bd e6 d0 77 be c7 ab c4 3d 12 a5 3e be
       -0.04525296 -0.24200782 0.096030764 -0.18617657
0000a0 70 8d cb 3d c7 3a 69 bd 1f b0 3c 3e 95 19 bc 3d
       0.099390864 -0.05694082 0.1842656 0.09184567
0000b0 70 43 16 3e a9 3d 3c bc 42 89 a0 3c e9 63 ba 3d
       0.14674163 -0.01148931 0.0195967 0.091010876
0000c0 e3 1d f7 3d 29 36 aa 3d 87 f3 cf bd 11 b7 0f be
       0.12066247 0.083111115 -0.10153871 -0.14034678
0000d0 9f 14 0c be 84 32 31 be 19 ed 4d bd 6c 23 57 3e
       -0.13679741 -0.17304426 -0.050274942 0.21009606
0000e0 2c 30 1d be d8 fe 5b be ec 66 84 3b 18 55 4b 3d
       -0.15350407 -0.21483934 0.0040405896 0.0496417
0000f0 9e 09 94 bd bb 07 3e be ac c3 ee 3c 73 35 50 be
       -0.07228397 -0.18557636 0.029146038 -0.2033289
000100 f9 18 c6 bd cb 08 09 bd 84 df 1d 3e 42 67 a1 bc
       -0.09672732 -0.03345565 0.15417296 -0.019702557
000110 f9 38 92 3b f8 5d 17 bd e5 32 38 3d db 07 81 bd
       0.004462358 -0.03695485 0.04497041 -0.063003264
000120 44 be cb bc 93 c5 04 be 18 d6 a5 bd 31 d1 f9 bd
       -0.024871 -0.12965994 -0.08097476 -0.12198103
000130 53 79 49 bd 31 c5 07 bd 02 0b 3d 3e d1 d1 cc 3b
       -0.04918797 -0.03314704 0.1846123 0.006250598
000140 37 be e7 bd 97 40 d2 bc f7 53 0c 3e 39 10 9b bc
       -0.113155775 -0.025665564 0.13703905 -0.018928634
000150 c2 6d 48 3d 0b f4 b6 3d 38 29 05 be 00 73 bf 3d
       0.0489328 0.08933266 -0.13004005 0.093481064
000160 15 a8 d0 bd 34 0c d6 bd 89 0c a7 3d c0 67 be bd
       -0.10188309 -0.10451546 0.08156688 -0.092971325
000170 7d 62 a2 bc 83 3b c9 bd 81 5c 16 bc 68 db 26 bd
       -0.019822353 -0.09825804 -0.009177328 -0.040736586
000180 c5 56 59 3d a0 f8 c9 bd 5d c6 6c bb 40 20 0e 3e
       0.053061265 -0.098618746 -0.0036128976 0.1387949
000190 e4 03 45 3d 53 3b 6a 3c b5 10 2a be 41 9d d3 3d
       0.048099414 0.014296371 -0.16607936 0.10332728
0001a0 50 f7 15 3d fa b6 4b 3d 80 db 0c be d4 f9 24 3d
       0.03661281 0.049735047 -0.13755608 0.040277317
0001b0 03 a4 41 be 8c fb c6 3c 6f bc e4 3c b9 27 f8 bd
       -0.18910222 0.024289869 0.027921883 -0.121169515
0001c0 bb 3d 50 3d 71 a5 0e bd fd 46 1f bb 6c b7 15 bd
       0.05084012 -0.034825746 -0.0024303787 -0.036551878
0001d0 f6 0d ea bc 33 7c 6d 3d 04 2f 97 3d 5a f3 f8 bd
       -0.02857111 0.057979774 0.073820144 -0.121557906
0001e0 59 f5 9b 3d db fa 31 3c 59 50 91 3c 64 16 03 be
       0.07615156 0.010863031 0.017738508 -0.1280151
0001f0 21 eb b4 bd 43 e2 08 3e 3a 0e 26 3d 75 e0 18 3e
       -0.0883391 0.13367562 0.04054091 0.14929374
000200 35 40 02 3c f2 01 19 3d 43 93 99 bd be 91 91 bd
       0.007949878 0.03735537 -0.07498791 -0.07107876
000210 b7 77 b0 3d ee c1 41 be 10 de 0f 3d 5a 30 f0 3d
       0.08616584 -0.18921635 0.035123885 0.11727972
000220 89 f8 42 be 06 41 98 3d 43 37 c0 3d af 6b b1 3d
       -0.19040121 0.07434277 0.0938554 0.08663117
000230 5c 49 47 3e bf d7 bc bc 9b a4 d5 bd c9 20 63 bd
       0.19461578 -0.023052095 -0.104317866 -0.05545119
000240 86 7b b5 bd e9 5b b7 3d 72 b1 42 3d b3 50 1a 3e
       -0.08861451 0.08953077 0.047532506 0.15069847
000250 0e 3e f9 bd 2b 18 1b be a4 1d 38 bc ad d1 da bc
       -0.12170039 -0.15145938 -0.011237536 -0.02671131
000260 c9 4a 90 b8 13 f4 7f bd 8d 1d 16 be 13 f1 cc bd
       -6.880385e-05 -0.062488627 -0.1465971 -0.10006919
000270 52 b0 da bd 31 32 61 3d 8a 4b 13 3e 44 1a 0c bd
       -0.10678162 0.054979507 0.14384285 -0.034204736
000280 00 49 2a 3e 5f 7c 6f bd e6 34 a0 3d f4 00 50 be
       0.1662941 -0.05846822 0.078225896 -0.20312864
000290 54 73 47 be 50 72 55 bd de 31 0a 3e 44 64 3c be
       -0.19477588 -0.05211097 0.13495585 -0.18397623
0002a0 75 48 12 3c 45 e4 30 be 90 7e 34 3e 49 c2 cb 3c
       0.008928408 -0.17274578 0.17626405 0.024872916
0002b0 d5 e4 2b 3d 6c 58 1a bd 22 35 fc 3d 18 70 4f 3e
       0.041966278 -0.037681982 0.12314822 0.20257604
0002c0 14 cb 8a 3d d7 d9 01 3e a0 8f a3 3d 05 41 a8 bd
       0.06777015 0.12680756 0.07986379 -0.082155265
0002d0 4d 8a 0f bd 94 fd c5 3c 4b 92 81 bd f5 7d 45 bd
       -0.035044003 0.024168767 -0.06326731 -0.048215825
0002e0 87 10 a3 bd b6 37 6c 3d f1 08 b3 3d 6c 0d 29 3e
       -0.07962137 0.057670318 0.0874194 0.16509026
0002f0 a2 a1 0f 3e 08 12 97 bd b5 6c 00 3e 34 f4 c8 bd
       0.14026502 -0.07376486 0.12541468 -0.09812203
000300 70 00 c0 3d 02 8b 81 3e 92 fd d6 bd d6 2d 9b be
       0.093750834 0.25301367 -0.104975834 -0.30308408
000310 72 70 af 3e f2 ec 4a be 35 07 52 be 15 55 73 3e
       0.34265476 -0.1981695 -0.20510562 0.23762925
000320 0d 0e 1e be 9c 69 e7 3d 84 03 4a 3e 55 d9 4d 3e
       -0.15435047 0.1129944 0.19727904 0.20102437
000330 c2 fe d3 3d 5a 7e 8e 3d 71 0d 0d be d0 94 e5 3a
       0.103513256 0.069576934 -0.13774659 0.0017515663
000340 c5 37 73 3e 74 9d 87 3e c1 58 de bd 89 8f 6b 3d
       0.23751743 0.26487315 -0.10856772 0.057509933
000350 83 a0 8b 3e f4 53 95 bd e2 18 48 3e 47 91 66 3e
       0.27270898 -0.072914034 0.19540742 0.22516356
000360 79 6f ae 3e 85 80 56 3e 0c bb 76 3e 43 65 6f 3e
       0.34069422 0.20947464 0.2409479 0.23378472
000370 75 b0 5e be b0 3e 59 3d 12 5d 38 3e 8b e1 a3 3d
       -0.21747 0.0530383 0.18004254 0.08002003
000380 1c 0d 89 3d 08 b8 3b be d1 00 c0 bc c8 59 a9 be
       0.066919535 -0.18331921 -0.02343789 -0.3307631
000390 ef fa 35 be 79 49 a6 be c9 78 eb 3d 99 13 3c be
       -0.17771505 -0.3247793 0.11497647 -0.18366851
0003a0 8a b3 f4 3c a5 f8 e5 bd de c7 a3 3e bb bf 9d 3e
       0.029870767 -0.11229066 0.31988424 0.3081034
0003b0 e7 35 1b 3e fb 2d ab bd 30 89 44 3e 08 79 a8 3e
       0.15157281 -0.083583795 0.19192958 0.3290484
0003c0 be d6 14 3e c7 04 ad 3d 60 cd e3 bd d1 17 1c be
       0.14535043 0.08448177 -0.111231565 -0.1524346
0003d0 b6 dd b1 3c 5e 44 97 be 74 8d 15 be e8 7d 6d 3e
       0.021712165 -0.29544348 -0.14604741 0.2319256
0003e0 e1 98 89 be e1 5c 83 be ed fe ec 3c bd 61 80 3e
       -0.2687445 -0.25656798 0.028930152 0.25074568
0003f0 7d 7b f5 3d 0a bb 7f bd 79 71 8c 3e bd 55 79 be
       0.11986444 -0.062434234 0.27430323 -0.24349113

weight f4 [64, 64]
000000 7a 51 82 3d bf 95 09 be 22 59 3a be 63 01 46 be
       0.06363197 -0.1343603 -0.18198064 -0.19336466
000010 f1 a6 a7 3d de 1c 9f bd 66 74 41 be 50 36 1c 3a
       0.081861384 -0.07769178 -0.18892059 0.0005959021
000020 94 9e ff bd 88 fc 85 3d b2 b2 27 bc 14 33 1f 3e
       -0.12481418 0.06542307 -0.010235475 0.15546829
000030 8d 4f 72 be f8 1a b0 3c 15 d5 3a be 01 e2 0d be
       -0.23663159 0.021497235 -0.18245347 -0.13855745
000040 b6 6a 6e 3e 46 ee ff 3d f6 27 99 3d 2f a6 82 3d
       0.23282894 0.12496619 0.07478325 0.06379353
000050 26 87 05 3e 20 0b 8d bd 0c 64 f1 3c 31 b3 04 bd
       0.13039836 -0.068868876 0.029466651 -0.032397453
000060 da 41 57 3d e5 93 a5 3c f5 71 b3 3d a9 af 0e 3d
       0.052553035 0.020212123 0.0876197 0.03483549
000070 b3 a4 8a 3d be 6e 11 3d f5 ee 0f be 82 5c ac 3c
       0.06769695 0.035506003 -0.14055999 0.021040205
000080 52 d1 8f bc 4a d5 89 bd 78 19 82 be 1e c2 86 bd
       -0.017555866 -0.06730135 -0.25410056 -0.06579994
000090 a4 40 96 bd f7 8f 92 bd d6 7f d1 bc b4 7c 18 be
       -0.07336548 -0.07156365 -0.025573652 -0.1489132
0000a0 1a 90 d9 bd c8 b1 1b be 94 71 69 3d 61 57 09 3e
       -0.10623188 -0.15204537 0.056993082 0.13412239
0000b0 d5 49 1e 3d 3a 24 5a bd 34 3f d9 3d 3f e7 f4 bd
       0.03864463 -0.053257205 0.10607758 -0.11958169
0000c0 6c 04 e5 3d fc d7 f3 3d 6d 8a 2d be 87 e3 05 be
       0.11182484 0.1190643 -0.16947336 -0.13075076
0000d0 3a 8c 03 be f4 3f 11 be 4e 62 00 be 8d 9c a3 bc
       -0.12846461 -0.14184552 -0.125375 -0.01997211
0000e0 34 0a fd bb c1 f6 91 3c 3e f3 1c be 7b 16 82 bd
       -0.0077221636 0.017817857 -0.15327165 -0.06351944
0000f0 af 89 73 3e 88 ac 80 bd ac 6e 35 3c 53 c1 12 3d
       0.23782991 -0.06282908 0.0110737495 0.0358289
000100 8d d5 3e bd db fc 80 3d d0 64 97 bd dd a4 43 3d
       -0.046590377 0.06298228 -0.07392275 0.047764648
000110 0d c8 32 3e 02 4a 0f bd 00 7d 0d bc ec 42 ac 3d
       0.17459126 -0.03498269 -0.008635759 0.08411202
000120 af da 0d be 73 12 aa 3c 45 3d bf 3c cf d7 8e 3d
       -0.13852952 0.02076075 0.023344645 0.06974756
000130 37 f6 d4 3d 8c ea a5 3d 17 09 07 bd 55 6f 3c 3d
       0.10398524 0.08101377 -0.032967653 0.046004612
000140 ae 6d ab 3c a4 9d 41 bd 08 6e f7 3c f7 f4 c3 bd
       0.020926323 -0.04726948 0.030203834 -0.09568208
000150 ff 4b 58 3e 59 fc 18 3d 5d 65 19 3e 2e 7d a1 bc
       0.2112274 0.037350032 0.14980073 -0.01971301
000160 30 e9 4d 3d b3 9e f6 3d 7a b2 7d bd e9 ed 17 3e
       0.050271213 0.12041988 -0.061937787 0.1483685
000170 37 c6 2c 3d 1d 1f 96 3d 23 fd d5 3c d1 9d bc 3d
       0.04218122 0.07330153 0.026121682 0.092097886
000180 7d b0 81 bd 18 11 6b 3d 11 4f d4 3d 3c 2e 7d bd
       -0.063324906 0.05738935 0.10366643 -0.06181167
000190 48 df e6 bd 85 f2 4f bd db 6c 38 3e c7 ac 8e 3d
       -0.11273056 -0.050768394 0.18010275 0.069665484
0001a0 bf 36 aa bd c9 5e 5c be 4e d2 4e bd 04 ee e8 bd
       -0.08311223 -0.21520533 -0.05049353 -0.11373523
0001b0 f0 c5 07 3e 21 4f 98 bd 9d 53 0b 3e ef eb 35 3d
       0.13259101 -0.07436968 0.13606115 0.044414457
0001c0 b4 5e 13 be ff e4 c1 3c 2f e8 83 3d 57 47 02 3c
       -0.14391595 0.023668764 0.0644077 0.007951579
0001d0 1f 02 92 3d bb 72 31 3b 10 68 23 bd 6d b0 b3 bd
       0.07129311 0.0027076441 -0.039894164 -0.08773885
0001e0 36 f2 0d 3d 04 9a fc bd 16 87 b6 3d 42 68 23 3d
       0.03465482 -0.12334064 0.08912484 0.03989435
0001f0 b4 81 5a 3e a8 b1 d3 bd 5a 0d bf 3c f3 08 c7 bd
       0.2133854 -0.103366196 0.023321796 -0.09718504
000200 8e 0d 8a bd e8 7d 3a bc 85 79 18 3e a5 2e 31 3e
       -0.067408666 -0.011382557 0.14890106 0.1730295
000210 a7 7e 51 bc 79 36 c9 3d df 4e 08 3e 16 12 e5 bd
       -0.012786544 0.09824843 0.13311337 -0.1118509
000220 f7 67 16 3e db aa 2f be 23 fb 14 bc bd 65 d9 bd
       0.14688097 -0.1715502 -0.009093079 -0.10615108
000230 48 d1 89 bb 0d 7b f9 bd f8 5d 8c 3d 81 42 b4 3d
       -0.0042058565 -0.12181673 0.068538606 0.08801747
000240 9c 92 78 bd 46 d5 28 bd 3d ff cb 3d 38 30 7d bd
       -0.060686693 -0.04121902 0.09960792 -0.061813563
000250 7f 04 27 bd 4d c7 87 bd f4 1e 0a be bf 38 31 be
       -0.040775772 -0.066298105 -0.1348837 -0.17306803
000260 b8 5c c6 bd 08 32 0e 3d f2 47 c2 bd 3d 6a 06 bd
       -0.096856534 0.034715682 -0.09486379 -0.03281616
000270 51 68 8b 3c a1 14 27 be ed 40 ea bd 95 7d 7e 3d
       0.017017515 -0.16316463 -0.11438165 0.062131483
000280 4f 25 9f 3d 23 68 0f bd 77 9e 69 3d fe 9c 98 3d
       0.07770788 -0.035011422 0.05703589 0.07451819
000290 0c bf 1d 3c 1d 6c c2 3c 8b 65 2f bb 4e d1 5d 3d
       0.009628069 0.023733193 -0.0026763405 0.054154687
0002a0 c7 cc 2f be 4e 09 98 3d 07 ce f4 bd 49 7b 12 be
       -0.1716796 0.0742365 -0.11953359 -0.14304842
0002b0 f6 70 e1 bd 17 d3 26 3d e7 e9 a4 bc 1d a2 dc bd
       -0.11007874 0.040728655 -0.020131065 -0.10773108
0002c0 a1 bc d2 3d 1e d9 3b 3c 10 c7 20 3d 9c 9a 97 bd
       0.10289884 0.011465339 0.03925234 -0.07402536
0002d0 f5 54 1a 3e f9 f7 80 3d 56 91 96 3d 66 2c 68 3c
       0.15071471 0.06297297 0.073519394 0.014170742
0002e0 16 59 2a bd a1 cb 27 3d 51 31 fc 3c 49 d5 8c bd
       -0.041588865 0.04096568 0.030785235 -0.068766184
0002f0 85 0c 20 be 07 0e f4 3d 3a db 3f be 90 6b 3c 3c
       -0.15629776 0.11916738 -0.18735972 0.011500254
000300 83 29 3f 3d ce 17 f1 3d d6 4d 3c 3c 9d 03 85 bd
       0.046670448 0.117721185 0.011493167 -0.0649483
000310 f9 f8 2a be 90 6e ba 3d 44 ea e3 3d 3a da 52 3d
       -0.16696538 0.091031194 0.11128667 0.05147765
000320 9c 33 af bd 76 ee 12 bd 8b ce a4 3d c0 e0 88 bc
       -0.085547656 -0.035871945 0.080472074 -0.016708732
000330 b0 62 5b 3d 12 45 d0 bc e3 e8 58 3d ad a7 80 bd
       0.053560913 -0.02542356 0.052956473 -0.062819816
000340 0a 16 2d 3b 49 f8 d0 bd d9 44 d1 3c 5f c4 6e 3d
       0.0026410841 -0.10203607 0.025545524 0.058292743
000350 b3 fc a3 bd 38 9f 84 bd 45 63 11 be 2e bf bf 3d
       -0.08007183 -0.06475681 -0.14198025 0.093626365
000360 b2 11 6a bd e5 5b ea 3d d3 b1 03 3d 6a 4b 86 bd
       -0.05714578 0.11443309 0.03215201 -0.06557353
000370 ba 1e 98 3c 1f 98 b2 bd a9 9c 5c 3d 3e 61 6c 3d
       0.018569339 -0.08720421 0.05386034 0.057709925
000380 c7 1d 24 b9 a7 54 f2 3d 65 0b c3 3a e2 83 41 bd
       -0.00015651352 0.118325524 0.0014880715 -0.047244914
000390 d8 ca 0a 3e 59 1d 26 3e 1c 1b 52 bd 4e 59 bb bd
       0.13553941 0.16222133 -0.051295385 -0.09147893
0003a0 a8 88 e5 ba 71 b4 18 3e 01 d4 b5 ba 9b 30 a7 bc
       -0.001751204 0.14912583 -0.0013872386 -0.02040892
0003b0 32 85 3b bd dc 5d 2d bd a2 6b 12 be 79 2e be bd
       -0.04578132 -0.04232584 -0.14298871 -0.09286208
0003c0 19 39 34 3e 96 79 dd bd 98 2b 74 3d 4b e5 2f bd
       0.17599906 -0.10814206 0.059611887 -0.04294328
0003d0 b7 75 a4 3d 91 c8 c1 3b 3e 6f 94 3d 63 57 6e 3d
       0.08030265 0.005913802 0.0724778 0.058188807
0003e0 42 33 e0 3d ac d3 d9 3d f4 38 43 3e 56 03 fc bc
       0.10947277 0.10636076 0.19064695 -0.03076331
0003f0 3b 93 b0 bd 89 59 ab 3d 55 cb 60 bd 2b 77 44 bd
       -0.08621832 0.08366687 -0.054881413 -0.04796521

weight f4 [64, 64]
000000 84 50 8e bd 10 d2 d5 3b a4 98 e8 bd 92 d5 ad bd
       -0.06948951 0.0065252855 -0.11357239 -0.08488001
000010 7d f8 1f 3e 27 bd 13 be 5b 05 8d 3c 0b bf e8 bd
       0.15622135 -0.14427625 0.017214468 -0.113645636
000020 e0 98 d8 bd e6 cd 4e bd df e9 83 bd cc 4c 69 bd
       -0.105760336 -0.05048933 -0.06441092 -0.056958005
000030 78 73 c0 3a 1b 92 24 bd 14 49 09 be f7 36 98 bd
       0.001468285 -0.0401784 -0.13406783 -0.07432359
000040 66 ed 2e 3d c0 bf a2 bd 84 bc 1f bd d9 60 09 3e
       0.04270687 -0.0794673 -0.038998142 0.1341585
000050 ba 89 57 bd 08 a6 53 3b 6b 40 a7 bd 77 d3 9c 3c
       -0.05262158 0.0032295007 -0.081665836 0.019143803
000060 b1 af 80 bc f6 97 52 3d 8c 3e cb bd db 63 0c 3e
       -0.015708776 0.051414452 -0.09924039 0.13709967
000070 56 ea 25 bc b0 25 5a 3d 2b 6c 42 3c 41 8b 9f bd
       -0.010126671 0.053258598 0.01186661 -0.077902324
000080 1e fd f9 3d 06 a5 14 3e 62 6b cd 3c 79 a3 dc bd
       0.122064814 0.14516076 0.025075618 -0.107733674
000090 ba 48 6a 3c d9 0e c4 bc 86 c0 dd 3d 31 6a 12 be
       0.014299566 -0.023932861 0.108277366 -0.14298321
0000a0 ac 7c 20 bc b5 bd 04 be 13 a0 ad bd b5 c0 ae 3d
       -0.009795349 -0.12962992 -0.08477797 0.0853285
0000b0 ca 8b 6b 3d 58 97 94 3d 23 89 00 3c da 5d 99 ba
       0.05750636 0.07255429 0.007845196 -0.0011700944
0000c0 3b cb fd 3d 8c 0b 01 3e d8 80 79 3d 01 34 26 3d
       0.12392279 0.12602061 0.06091389 0.04057694
0000d0 10 a1 0a be 4e d1 00 3d ab 40 78 bd d6 75 ce 3d
       -0.13538003 0.03144961 -0.060608547 0.10081069
0000e0 0d 39 91 bd 68 07 b6 bd a2 7c 04 bd 83 38 e5 bd
       -0.0709096 -0.088881314 -0.03234542 -0.111924194
0000f0 b7 b8 b0 3a 91 b3 07 bd 56 63 20 3e ea f8 bd bd
       0.0013482784 -0.033130232 0.15662894 -0.09275992
000100 34 a5 c9 bd 64 7c 14 3d ec 04 22 3e ea 01 07 3d
       -0.09845963 0.03625144 0.1582219 0.03296081
000110 12 b7 1c bd 9a 4c 40 3d 84 0b eb bd af da c9 3d
       -0.038260527 0.046948053 -0.11476806 0.09856164
000120 a4 35 07 3d 7f 50 1c bd 5d 9d a6 bd 85 82 e6 bc
       0.03301014 -0.038162705 -0.081354834 -0.028138408
000130 d6 2a bc bd 3b 0a 8c 3d 78 da a5 3d 91 b3 1b be
       -0.09187858 0.06837889 0.0809831 -0.15205218
000140 46 72 c2 3d 34 03 f7 bc 9c bf ae bd 5c f6 04 bc
       0.09494452 -0.030152895 -0.0853264 -0.008115377
000150 dd c7 2d bd 55 94 03 bd 56 8f c6 3d 9d fd 2f 3d
       -0.042426933 -0.032123882 0.09695308 0.042966474
000160 8d 42 1b 3e e9 7d 52 3d d9 61 f1 bd de ec 43 3e
       0.15162106 0.05138961 -0.11786241 0.19133326
000170 e7 48 f0 bd d1 ea 53 3d f4 f1 13 3d 6f 9a 92 3d
       -0.11732655 0.05173761 0.036119416 0.07158362
000180 32 e2 27 bd 15 41 e5 bd 2f 84 50 3d cf dc a1 bd
       -0.0409872 -0.11194054 0.05090731 -0.07903444
000190 a9 ed 33 3d 44 c0 23 bb 57 ca 8e 3d 94 ea 80 bd
       0.043927822 -0.0024986425 0.06972187 -0.06294742
0001a0 49 12 b8 3d ad 2b c9 bc 6b 7b 44 bc ea 5d 83 bd
       0.089878626 -0.024556959 -0.011992316 -0.06414397
0001b0 4e d6 fc bc 71 d9 b7 3d 4a 97 73 bd e0 a1 ac bd
       -0.030863907 0.089770205 -0.059470452 -0.08429313
0001c0 f8 b4 d7 3c 22 8d 36 bd 7f 72 a6 3c ae 67 ab 3d
       0.02633141 -0.04456819 0.020318268 0.08369385
0001d0 f8 d0 07 3d 28 66 d7 3d 51 10 3c bd 15 f2 bc 3c
       0.033158273 0.10517532 -0.045913998 0.023064652
0001e0 00 65 aa bd 48 3e e8 bd 42 5f df 3c ab 58 24 3d
       -0.083200455 -0.11340004 0.027267102 0.040123623
0001f0 f8 e7 3c 3e dd 22 f4 3d 64 58 8f 3d 1e 2c db bd
       0.18447864 0.11920712 0.06999281 -0.10701774
000200 0a e4 9c bd 20 77 e2 3c 8c ba 11 bd f4 79 82 3c
       -0.076606825 0.027644694 -0.035578296 0.015927292
000210 87 22 1b bb 8b 48 a9 bd 6c 96 c0 bd e7 9e a7 3d
       -0.0023671703 -0.082657896 -0.09403691 0.08184605
000220 86 a4 30 bc b1 51 12 bd 64 f8 13 3d 2c 51 4a bd
       -0.010781413 -0.03572244 0.036125556 -0.049393818
000230 40 e7 c9 bd 9d 6a 8d 3d a4 43 b6 bd 03 6a e0 bd
       -0.098585606 0.069051005 -0.0889962 -0.1095772
000240 49 43 18 bc 3c 97 c6 3d 0e 68 98 3d 05 e8 2d bc
       -0.009293386 0.096968144 0.07441722 -0.0106144
000250 b3 cc 8d 3d 72 f1 42 bd 6d 76 34 3d 81 43 dd 3d
       0.06923809 -0.04759354 0.044058252 0.10803891
000260 de 62 ac 3c 18 e1 2e 3e bc 80 b9 3d 81 29 9a 3d
       0.021043237 0.17078054 0.09057757 0.075274475
000270 da 76 00 bd f8 e6 a2 3d c5 f2 a9 3d 42 f6 93 bd
       -0.031363346 0.0795421 0.08298258 -0.07224704
000280 5a 33 ac 3d 45 2a 1d be a0 eb f0 bd ad d6 d4 3b
       0.08408232 -0.15348156 -0.11763692 0.006495318
000290 67 e0 ae bc 8e 9d a4 3d e0 1d a1 3d e8 3b fe 3c
       -0.021347238 0.08037864 0.07867026 0.031034425
0002a0 a2 8b fb 3d 3b 3d 8a bd f1 5f d6 3d be 86 6e 3d
       0.12282492 -0.0674996 0.10467518 0.05823397
0002b0 22 0a b2 3c 79 1b 86 3d 6c 7b f3 bd 82 bf 63 bd
       0.021733347 0.06548209 -0.11888775 -0.055602558
0002c0 20 3d 00 3e ad 60 dc 3c 6f 59 56 bd cd 7b 0c be
       0.12523317 0.026901567 -0.052331384 -0.13719101
0002d0 e0 45 22 be bf 18 73 3b 99 8d 3a bd ae ff 08 3e
       -0.15846968 0.0037093607 -0.045545194 0.13378784
0002e0 b1 8a 91 bc 9e b5 8b bd f2 b5 8b bd bc 88 ed bd
       -0.017766329 -0.0682175 -0.06821813 -0.11598346
0002f0 da 6c 0e bd c8 11 41 3d 10 51 9a 3d 8d 4f b7 bd
       -0.034771778 0.0471361 0.07534993 -0.0895072
000300 c1 5e a7 3d 00 e8 45 bd d0 f1 b5 bc 71 09 13 be
       0.0817237 -0.048316956 -0.022210032 -0.1435907
000310 7c 94 ac 3d 5e b3 07 3e 2b bc 2d 3e 56 ea 03 3e
       0.08426759 0.13252017 0.16966312 0.12882361
000320 b2 16 70 bd 70 47 92 bd 9c 87 31 3d b8 19 a3 bc
       -0.058615394 -0.07142532 0.043342218 -0.019909725
000330 51 a8 80 3d 20 c2 6b 3d f6 ed 56 3b f5 db 47 bc
       0.06282104 0.05755818 0.0032795644 -0.012198438
000340 0f 60 40 be 71 c4 05 be f8 14 fe bd 4a a9 90 3d
       -0.18786643 -0.13063218 -0.12406343 0.07063539
000350 e2 5a 25 be d8 c6 0b 3d 3a 76 9b bd b3 4c 85 3c
       -0.1614795 0.03412518 -0.07590909 0.016271925
000360 7b 7c 66 bd 02 cd b7 3d a7 6b ba bd cb 8c 60 bd
       -0.056271058 0.08974649 -0.09102564 -0.05482177
000370 b9 ff 6f 3d c1 e3 fa bc 09 8b cb bc a4 88 ce 3a
       0.058593486 -0.03062618 -0.02484657 0.0015757275
000380 14 f7 b5 bd 14 e8 6c 3d d0 b5 dd bb 98 12 24 be
       -0.08885017 0.057838514 -0.0067660585 -0.16022718
000390 34 2b 2b bd 1e 22 9f bd c6 29 18 be 3a a5 03 be
       -0.04178925 -0.07770179 -0.14859685 -0.12855998
0003a0 95 ca 33 3d f8 42 73 3c 91 47 3d bc d2 cf 96 bc
       0.04389437 0.01484751 -0.011552707 -0.018409643
0003b0 b6 62 af bc c2 b6 a3 3d b1 91 d5 3d fd a9 0a 3e
       -0.021409374 0.07993843 0.10428179 0.13541408
0003c0 8d 43 a9 bc 70 6d aa 3d 91 c2 58 bd b6 38 c8 3d
       -0.020662094 0.08321655 -0.052919928 0.09776442
0003d0 2d 7c d3 3d 24 a8 92 3d 81 c5 28 3e 2a 82 2b 3d
       0.10326419 0.071609765 0.16481592 0.04187218
0003e0 b6 33 9e 3c e5 34 c3 bd 98 ac cf 3c 2e 30 25 3e
       0.019311767 -0.09531573 0.025350854 0.1613166
0003f0 fc 83 d3 bb f4 71 d7 bd fa e3 0a be 38 f5 b3 3d
       -0.0064549427 -0.10519782 -0.13563529 0.08787006

freqs f4 [8]
000000 ec 10 6f 3f fd 55 0b 40 a4 42 4b 40 17 12 82 40
       0.93385196 2.1771233 3.1759424 4.064708
000010 ba df a8 40 00 9f c8 40 67 91 eb 40 e7 c3 07 41
       5.2773104 6.269409 7.3614993 8.485328

weight f4 [64, 8]
000000 b6 ca 6c 3e 72 16 bd 3d 61 5f 1e 3d ca 54 54 3e
       0.23124203 0.09232797 0.03866518 0.2073547
000010 16 41 4a be 39 0b b4 3d 72 b9 58 3d 2a c2 e4 3c
       -0.19751391 0.08791203 0.05291123 0.027924616
000020 ea 5b b6 be 3d eb ae be 10 37 e9 bd cf 7a 6c be
       -0.35617 -0.34163848 -0.113874555 -0.23093723
000030 2b 8e 9e be 17 53 cf bd cf 88 9c bc 07 fb a0 3d
       -0.3096784 -0.1012327 -0.019108204 0.0786038
000040 3a ff ec bd 06 5d 22 be 5a 6a 11 be 89 33 4b 3e
       -0.11572118 -0.15855798 -0.14200726 0.19843878
000050 ac 97 b3 3d 3c 09 c2 3e cc 66 0a 3e da a3 82 3e
       0.087691635 0.3789767 0.13515776 0.25515634
000060 c5 fe e5 bd c4 67 4e be 58 7e 00 3e e1 48 7b 3e
       -0.11230234 -0.20156771 0.12548196 0.2453952
000070 3f 4f c8 bd 35 10 a6 3d 91 b7 90 be 13 db 19 3e
       -0.0978074 0.0810856 -0.2826505 0.15024976
000080 75 ae d6 be df d6 d5 bd 7a 3f 01 be 51 d4 0b be
       -0.41929975 -0.10441374 -0.1262187 -0.13655211
000090 d5 38 9e 3c 48 87 2b be 1d 93 be 3e 02 6a 19 be
       0.019314209 -0.16750824 0.37221614 -0.14981845
0000a0 d6 3a 42 3e f2 2b 9b be 09 e9 58 3e 39 2c 7f 3e
       0.18967757 -0.30306965 0.21182646 0.24919213
0000b0 7e 2c 89 be 40 70 ed bd b0 72 b0 bd d4 43 6a bd
       -0.26791757 -0.115936756 -0.08615625 -0.057193592
0000c0 90 00 b8 3d 73 05 a3 3e e1 3d 72 bd 39 a6 a5 3d
       0.08984482 0.31840095 -0.059141044 0.08088345
0000d0 9b 5e 84 be 51 f1 40 be ea d6 94 be d1 5c c1 3c
       -0.25853428 -0.18842055 -0.29070216 0.023603829
0000e0 c3 37 2f bc 6e 4a b3 3e fc 12 46 3e 74 3f c6 bc
       -0.010694447 0.35017723 0.1934318 -0.024200179
0000f0 c1 bc fb bd 57 70 29 3d ec 41 30 be 8b 3d 88 3d
       -0.12291861 0.0413669 -0.17212647 0.066523634
000100 aa 52 00 be be 1c 31 be d1 3f 19 3d cc d8 41 3d
       -0.12531534 -0.1729612 0.037414376 0.047325894
000110 27 6e 5f bd 6c 5c 8c 3c 87 c2 9a be 75 88 fa bd
       -0.05454841 0.017133914 -0.30226538 -0.12233058
000120 d1 bc e9 be 42 13 ab 3e 89 07 ad 3e 1f 7f 9f be
       -0.45651868 0.3341313 0.3379481 -0.31151673
000130 b5 c1 67 be 45 10 8e be 22 27 55 3e 79 b1 95 3d
       -0.22632487 -0.27746788 0.20815709 0.07309241
000140 0a 80 ef be 45 3b ea bd 33 60 95 3e 3e bd 03 bd
       -0.46777374 -0.11437086 0.29174957 -0.032162897
000150 27 f4 8f be 87 ff 21 3e a7 49 ac 3e 71 47 ad 3e
       -0.2811596 0.15820132 0.33649942 0.33843568
000160 36 95 4a 3e 44 03 f5 bd e9 55 3e 3b da f7 9b 3e
       0.19783482 -0.119635135 0.0029042906 0.30462533
000170 50 02 d2 3d 72 e5 95 be f3 a5 36 3e 48 70 cb 3d
       0.10254347 -0.29276615 0.17836742 0.09933525
000180 29 15 de be a1 b1 68 be 6d 7c 89 3e 01 80 8a 3e
       -0.4337552 -0.2272401 0.26852742 0.27050784
000190 b4 2f 9a be df 47 fc 3d fa 02 6e 3e 17 86 8b 3d
       -0.3011452 0.12318396 0.23243323 0.06812685
0001a0 5d ce 89 3e 9a bc 03 3e af 50 09 3e 44 f1 16 3e
       0.26915255 0.12864915 0.13409685 0.14740473
0001b0 52 ae 97 bd 2c cd bf 3c d1 c1 ff bd 11 af ab bd
       -0.07406296 0.023413263 -0.124881394 -0.08383001
0001c0 ff a9 5a 3e 9a 0c 2f be ce ef bf 3d 0a 3f 9d 3e
       0.21353911 -0.17094651 0.09371911 0.30712157
0001d0 69 ec 80 3d 1a 52 a1 3e 9b 40 32 bd a8 85 af bd
       0.06295092 0.3150795 -0.043518644 -0.08570415
0001e0 5b b5 df 3e ca 2b 34 be c9 ff b4 3e 2c 7b b3 3e
       0.4369305 -0.17594829 0.353514 0.3505491
0001f0 86 e4 97 be d0 d4 07 be 61 51 88 3e 75 56 00 bd
       -0.29666537 -0.13264775 0.26624587 -0.03133245
000200 cb f0 cf be 80 3f 2f 3d a9 95 dd be 7f 35 1b bc
       -0.40613398 0.042785168 -0.43278244 -0.009473204
000210 2d 50 53 3d 4c 17 ec bd 0c 43 5b bd 33 d7 13 3e
       0.051590133 -0.11527881 -0.053530738 0.1443756
000220 cd b4 ce 3d fe c7 47 bd 10 ea 22 be 5b ac 26 3d
       0.10093079 -0.04877471 -0.159096 0.040691715
000230 76 4e 06 bd 50 2b 85 bd 61 ad e2 bd 6c 8a 83 3d
       -0.03278967 -0.06502402 -0.11068226 0.06422886
000240 00 13 da be e2 d6 02 3e 4f 21 31 be 85 48 a9 3e
       -0.4259262 0.12777284 -0.17297862 0.3306314
000250 87 91 32 3c 1b ac 35 3e 18 cf 8a 3d 92 24 f8 bd
       0.010898954 0.17741434 0.06777781 -0.1211635
000260 fd ae de 3d cd 70 92 be 23 65 ad 3d fc c2 ab 3e
       0.1087322 -0.28601685 0.08466556 0.335472
000270 75 b9 c3 bd 4c df b5 3e 1a c8 88 be 3c 9e 20 3e
       -0.095568575 0.35521924 -0.26715165 0.15685362
000280 9c 06 8c 3e e8 15 11 be 7c fa b9 be 65 9b 91 be
       0.27348793 -0.14168513 -0.36323917 -0.2843887
000290 74 57 2c 3e 14 ae b5 3e 31 2f 92 be b8 dc 3e be
       0.16830236 0.35484374 -0.2855163 -0.18638885
0002a0 52 48 7f 3e 89 e2 52 bd c3 57 a6 be 9c 52 9a bd
       0.24929932 -0.051485572 -0.32488832 -0.07535288
0002b0 1f 1e df 3d 2e 38 be be 0c f1 30 be e6 e4 1a 3e
       0.10894417 -0.37152237 -0.17279452 0.1512638
0002c0 a4 cc ee 3d 69 da 0c be b0 28 cf 3e 4f af 57 3d
       0.11660126 -0.13755192 0.4046073 0.05265742
0002d0 67 61 4e 3e 0f 1f d7 bc 73 55 1c be 7a 0a 80 3e
       0.20154344 -0.026259927 -0.15266971 0.25007993
0002e0 33 74 f3 be bd 50 ca 3d b1 38 49 be 86 6b 2a bd
       -0.4754959 0.09878681 -0.19650532 -0.04160645
0002f0 fe 15 89 3e 7d ef ab be 1d 29 0d 3d 1e 20 a8 bd
       0.2677459 -0.33581153 0.034463037 -0.08209251
000300 11 17 ca 3e f6 71 6e be e4 7c b6 bd 6e fa 51 be
       0.39470723 -0.2328566 -0.0891054 -0.20505688
000310 89 2c 88 3e 07 47 88 3e b2 75 dd bc d7 01 a8 3d
       0.26596478 0.2661669 -0.02703366 0.08203476
000320 25 ca 08 3f 13 ef 74 be c4 0b bf 3d 15 8c b3 3e
       0.5343345 -0.23919325 0.09328416 0.35067812
000330 ae 0f 4d be 21 d7 89 be 66 92 93 3e 23 10 96 3e
       -0.20025513 -0.26921943 0.2882263 0.29309186
000340 0d 60 7d 3e fc b4 8a 3e df 41 1f 3e 47 b2 51 be
       0.24743672 0.27091205 0.15552472 -0.20478164
000350 a0 5c a6 be a2 a3 a7 3c 9d a7 38 be b5 c8 b4 3e
       -0.32492542 0.020463768 -0.1803269 0.35309377
000360 34 76 bb bc 28 d6 54 3e ba c6 97 bc 28 71 a6 bd
       -0.022883512 0.20784819 -0.018527377 -0.081270516
000370 c5 e5 8b bd d8 b5 92 be 6d a6 aa be 97 9c d8 bd
       -0.068309344 -0.2865436 -0.33330098 -0.10576742
000380 ce 7a e3 be 9b 77 9c be 2c d2 39 3e c9 cd 17 be
       -0.4442963 -0.30560002 0.1814658 -0.14824595
000390 80 99 d1 3c 51 07 b9 bc 13 89 7d be 8f 47 0a be
       0.02558589 -0.022586497 -0.24759321 -0.1350386
0003a0 91 e4 d2 be 6e fa 53 3d bf 18 90 3e f6 dd 12 bc
       -0.41190007 0.0517525 0.2814388 -0.008964052
0003b0 f3 6c c8 3d 0a d9 52 3e be 81 41 3e ab 41 55 3d
       0.097864054 0.20590606 0.18897149 0.05206458
0003c0 a2 07 37 be 80 29 14 3e 5f f3 8d 3c 65 3d 9d 3e
       -0.17874005 0.14468956 0.017327962 0.30710903
0003d0 d6 ee a4 bd e8 1a 91 3e be 05 3d 3e b6 23 a5 3e
       -0.08053367 0.2834084 0.18459222 0.32253808
0003e0 cb dc 3f 3e 74 d2 36 3d 80 6e 6c bd 60 d3 42 3e
       0.1873657 0.044634297 -0.05772257 0.19025946
0003f0 19 25 82 3e 8c 9c 78 3e 46 43 b6 be b9 1e 9a 3c
       0.25418928 0.24278468 -0.355982 0.018813478

weight f4 [64, 64]
000000 68 59 05 3e 7e 2f 09 be d2 1f 04 be 07 f0 a2 bd
       0.13022387 -0.13397023 -0.12902763 -0.07955938
000010 c5 56 a1 3c 2f 1e 5a 3d 01 d5 a8 bd 66 d0 22 3d
       0.019694695 0.05325144 -0.08243752 0.039749525
000020 4c 09 7b 3c 3f 1e a2 bd 4d bb 97 3c 84 98 d1 3d
       0.015322041 -0.07915925 0.01852193 0.10234168
000030 74 2c b4 3c 65 d4 9b 3c 14 d3 92 bd b9 c5 0b bd
       0.021993853 0.019022176 -0.07169166 -0.03412411
000040 01 36 7d bc 82 b9 c3 bd 42 15 0c 3d f5 c9 0d be
       -0.01545477 -0.09556867 0.03419996 -0.13846572
000050 a8 f4 a6 bd 44 e5 de 3d 8b 21 84 3d cc ad 95 bd
       -0.08152133 0.10883573 0.0645171 -0.0730854
000060 50 1d 72 bb 41 d8 a0 3c a8 e2 18 3c ae 79 df 3c
       -0.003694374 0.019634368 0.009331383 0.027279701
000070 88 82 57 be 49 d0 0d be 1a f1 8d bd 0e 1c b1 bb
       -0.21045887 -0.13848986 -0.06930752 -0.0054049557
000080 06 bf 9f 3d 53 87 8c bd b3 af e6 bb 3d 84 31 3d
       0.07800107 -0.068617485 -0.007039988 0.043339003
000090 a8 1f 8b bd 58 b9 72 bd 00 00 25 3b bf 8c 59 be
       -0.06793147 -0.05925879 0.0025177002 -0.21245097
0000a0 90 06 ff ba b7 e4 15 bc db d0 21 bc c7 6b eb bd
       -0.0019456912 -0.009148768 -0.009876455 -0.11495166
0000b0 33 2e 29 3e ce 42 5a 3d 19 a5 0a be d4 26 45 3d
       0.1652153 0.053286366 -0.13539542 0.048132733
0000c0 17 bc 59 be f1 26 59 3d eb 53 23 3d b7 ce 21 3e
       -0.21263157 0.053015653 0.039874952 0.15801512
0000d0 ef 70 de 3d b1 be 05 bd 7a 94 e7 bd cf 2a 26 be
       0.10861384 -0.03265256 -0.113076165 -0.16227268
0000e0 07 da 87 3c 50 c8 02 3e 41 81 5b bb 83 19 9b bd
       0.016583456 0.12771726 -0.003349379 -0.07573225
0000f0 93 e7 75 3d 31 16 0c 3e 5f 53 8c 3d 64 62 57 3d
       0.0600353 0.1368034 0.06851839 0.052584067
000100 44 8d ce 3d 3b 26 6f 3d 9b 65 e4 3d 08 96 94 3d
       0.10085538 0.05838607 0.11152192 0.07255179
000110 8d db 3a 3d 51 af 96 3d 4d e1 88 3c 04 bb 0a be
       0.045619536 0.07357658 0.016708994 -0.13547903
000120 e2 82 2a bc 28 7f 0a bd ab a0 d6 bb cc 9d 94 bd
       -0.010407181 -0.033812672 -0.006549915 -0.0725666
000130 d7 13 1a be d1 4f b6 3d cb 5e 95 bd 81 6b 9b bd
       -0.15046631 0.089019425 -0.07293471 -0.07588864
000140 80 39 c9 bd 5d 7a 30 3a af d6 bc bd 9c 7f 03 be
       -0.098254204 0.0006732101 -0.09220635 -0.12841648
000150 ef 68 14 bc 65 53 c1 3d 94 a5 ff 3d 81 45 46 be
       -0.009058221 0.09439734 0.124827534 -0.19362451
000160 d1 7e b7 bc f2 4d d3 bc b8 f8 be bb 9a cf cc 3a
       -0.022399338 -0.025794003 -0.0058279894 0.0015625835
000170 33 da 9f 3d 06 af 3b bd db 1c cc 3d e7 0b a0 bc
       0.0780529 -0.045821212 0.09966441 -0.019536925
000180 b3 b7 ec bd 85 c1 15 3d 4f df 8a 3d 67 dc 36 3e
       -0.11558475 0.036561508 0.06780874 0.17857514
000190 7a 2c ba bd 26 cb d6 bc 50 70 db bd c0 03 ef bd
       -0.090905145 -0.026219916 -0.10714781 -0.11670637
0001a0 b2 22 f9 3b e9 53 38 3c 6d 47 3a 3d fc 97 d3 3d
       0.007603013 0.0112504745 0.045478273 0.10331723
0001b0 70 8b 5c bd 24 cd d9 3c 81 bf f9 bd 1b c0 f1 bc
       -0.053843915 0.026587076 -0.121947296 -0.029510548
0001c0 2c dd 70 3d 5e a3 7a 3d bd c6 d3 bd 13 ce d4 bd
       0.058804676 0.061190955 -0.10340641 -0.10390868
0001d0 61 f8 82 bd fb fc c8 bd 5d 34 22 be 59 ca 01 3d
       -0.06395031 -0.09813877 -0.15840288 0.031687114
0001e0 ef b9 13 3c e3 33 79 bc 5a 73 9f 3d f6 ef 01 be
       0.009016498 -0.015210125 0.077856734 -0.12689194
0001f0 90 99 c6 3d 27 b4 e0 3d 36 73 0f 3d 68 80 f9 3b
       0.096972585 0.10971861 0.035021983 0.007614184
000200 04 c1 e1 bd 94 b1 8f bd e8 5f b3 3d 80 08 06 be
       -0.11023143 -0.07016292 0.08758527 -0.1308918
000210 d3 b4 88 bc f0 ca 44 3d f7 7d 2a bd 32 05 22 3c
       -0.016687786 0.0480451 -0.041624036 0.009888934
000220 a3 ca 70 bd b6 a9 03 3d 21 3d 1a 3c 87 ba e3 bb
       -0.058787 0.03214427 0.009413988 -0.006949726
000230 b6 f3 2f 3e be 2b c8 bd 45 eb a6 3d 78 66 01 be
       0.17182812 -0.09773968 0.08150343 -0.12636745
000240 57 d5 b7 bd c2 d7 58 3d a8 85 15 bd 2a 80 99 3d
       -0.08976238 0.052940138 -0.036504418 0.074951485
000250 70 39 80 bb 09 e9 28 be 65 04 0a be db bb e0 3d
       -0.003913097 -0.16495146 -0.13478239 0.109733306
000260 8e fa 0b be 21 24 28 bd 79 7e c3 3c a2 88 a6 bd
       -0.13669798 -0.04105008 0.023864018 -0.081315294
000270 38 52 2d 3e c5 8c 29 bc 1b e7 8b 3c 54 80 07 bb
       0.16925895 -0.0103485035 0.017077973 -0.0020675855
000280 8b 8f f4 3d 6b de 09 be ca 04 0b 3d 15 64 9a bd
       0.11941441 -0.13463752 0.033940114 -0.075386204
000290 df 13 9c 3d 88 33 15 3d 76 c3 5f bd e1 ef 0b 3e
       0.076209776 0.036426097 -0.054629765 0.13665725
0002a0 56 00 35 bd 04 9e 28 bd 22 99 06 3c b2 91 9f 3d
       -0.044189773 -0.04116632 0.008215221 0.07791461
0002b0 e7 2e 1d bd 02 2c 5b 3d a4 5a 7f bd be b7 bd bd
       -0.038374808 0.053508766 -0.0623423 -0.09263562
0002c0 52 17 10 3e 70 d5 37 bd c0 d2 2b bd 21 aa c0 3c
       0.14071396 -0.044881284 -0.041949034 0.023518624
0002d0 21 bc e1 bd 41 d5 22 bd a9 c8 f1 3b 67 a7 9b bd
       -0.11022211 -0.039754156 0.007378657 -0.07600289
0002e0 80 36 88 3d 11 8b a4 3d 7c eb 3d bd 7b be 09 bd
       0.0665102 0.08034337 -0.046367154 -0.033628922
0002f0 b4 1f 18 be 14 4c e2 bd b5 fd c7 bd 8b a2 0d bd
       -0.14855844 -0.11049667 -0.09765188 -0.03457884
000300 25 90 41 3d 4f 13 ec bd d6 60 8b 3d c0 7a 68 bd
       0.047256608 -0.1152712 0.06805579 -0.05675769
000310 c7 fe 83 bc 6e 40 14 3d 88 00 4c bb af 06 e0 3c
       -0.016112698 0.036194257 -0.0031128246 0.027346937
000320 55 f4 00 be 6f 4e ab bd 88 0e b6 3d 1e 44 94 3c
       -0.12593205 -0.083645694 0.0888949 0.018098887
000330 47 0e 86 bd e3 a2 81 3d fd 6d ed 3d f6 49 0b 3e
       -0.06545692 0.06329896 0.11593244 0.13602433
000340 03 7b 0b be 95 24 e9 3d 6c 5d 24 be 07 d4 de bd
       -0.13621144 0.113839306 -0.16051263 -0.10880285
000350 31 8b 1e 3c 16 0f 07 3d ba 87 c6 bd 2d bd 27 bc
       0.0096767405 0.03297337 -0.096938565 -0.010237974
000360 a7 b6 2b 3d 78 42 61 3d e3 54 ba 3d 9e 38 87 3d
       0.041922238 0.05499503 0.09098222 0.06602596
000370 79 be ee bd 05 fc c2 3c a4 4d af 3d c4 1a 90 bc
       -0.116574235 0.023801813 0.08559731 -0.017590888
000380 e0 4a cd bd a4 70 9c bd 1e ed 75 bd eb ab 93 bc
       -0.10024047 -0.07638672 -0.060040586 -0.018026313
000390 f4 fb 2a be b5 37 2a be 76 e7 95 bd dc 8e a2 bd
       -0.16697675 -0.16622813 -0.07319538 -0.079374045
0003a0 d1 66 c3 3c ce ba 0b be 2e 35 b8 3c 87 9b 95 bc
       0.023852738 -0.13645479 0.022486296 -0.018262638
0003b0 79 b1 a8 3d fe a1 be 3d 8a 8b c5 3d b5 17 a6 3d
       0.08236975 0.09308241 0.096457556 0.081099905
0003c0 56 c5 62 3d ff 13 87 3d 33 bc e5 bc d3 cb 69 3c
       0.055363975 0.06595611 -0.028043842 0.014269787
0003d0 ab 09 6e 3d 2e 20 07 be 75 f6 89 3c b2 e4 2a 3d
       0.05811469 -0.1319587 0.016841153 0.041722007
0003e0 64 57 b3 bd 1d f8 49 3b a4 fa f1 bc de a7 83 3d
       -0.08756903 0.0030818053 -0.02953846 0.064285025
0003f0 ab aa 12 3d 8f 07 0a 3e e3 a5 ee 3a db e0 21 3e
       0.035807293 0.13479446 0.0018207397 0.15808432

weight f4 [64, 64]
000000 b4 5c 8e bd 57 b9 cf 3d 9e ad 1b 3e 6d b0 cc bd
       -0.069512755 0.10142773 0.15202948 -0.09994588
000010 04 b7 36 3e 9b 3d 28 3c b6 10 fc bd f7 86 f8 3d
       0.17843252 0.010268594 -0.12307875 0.121351175
000020 73 76 58 3e 03 d2 2c be a3 4b 5c 3d c9 b9 a8 bc
       0.21138935 -0.16876988 0.05378307 -0.020596402
000030 7d 82 9f 3d e0 15 10 bd db 22 37 3d 3a 95 be 3c
       0.077885605 -0.03517711 0.044710975 0.023264516
000040 0c 04 fa 3c 89 e2 3e bd 9c fb 9c 3d 38 ed 9f bb
       0.030519508 -0.04660276 0.07665178 -0.0048805736
000050 14 f7 9f bd 1f 95 ed 3d fa f6 ad bd e0 9b 95 bd
       -0.07810798 0.11600708 -0.08494373 -0.073051214
000060 9f ee e9 3d cb 30 2a be ed 39 84 3c 98 13 b6 3d
       0.114224665 -0.16620176 0.016140902 0.08890456
000070 ce 69 ce 3a 08 63 c1 3d d5 41 33 3e c4 ad a9 bd
       0.0015748085 0.09442717 0.17505582 -0.08285096
000080 aa 73 86 be 1a 6d 0d 3d 91 99 a1 3d e4 fb d6 3c
       -0.2626012 0.034527875 0.078906186 0.026243158
000090 9a c0 cb bc 5b 75 c0 3c 8b 38 f3 bd 1d 83 c8 bc
       -0.024872113 0.02349346 -0.11876019 -0.024476582
0000a0 ec cc de bd c6 ea 35 be 5f 69 23 be f1 c5 bc bd
       -0.108789295 -0.1776534 -0.15958165 -0.09217442
0000b0 d6 a9 f5 bd 81 88 28 bc 6c d6 13 be 59 38 de 3d
       -0.11995284 -0.010286451 -0.14437264 0.10850591
0000c0 1e 15 93 bc b9 0f 5c be 49 43 22 3b a1 3c d3 3d
       -0.017954405 -0.21490373 0.0024759343 0.103142984
0000d0 af bc fe 3d 39 3d ac bd 0f 2d d0 3d 90 7b 3d 3d
       0.12438332 -0.08410115 0.10164844 0.046260417
0000e0 e1 48 7e bc fe 6a fb 3d cf b7 a7 bc a8 28 58 bd
       -0.015520305 0.122762665 -0.020473389 -0.052773148
0000f0 ab 06 35 bd 7b e6 85 3e 47 43 9a 3b d4 47 07 3e
       -0.044195812 0.26152405 0.004707727 0.13210994
000100 b0 a8 92 bd 9d 41 c6 ba 84 6a 5c 3d 57 80 73 bc
       -0.07161081 -0.0015125755 0.05381252 -0.014862142
000110 18 59 82 3d a5 67 4b 3d f3 f3 74 bd 02 da 21 bd
       0.063646495 0.04965939 -0.05980296 -0.03951455
000120 fc 42 a8 3d ef 62 ba bd d2 0f c7 bd fa cb 6c be
       0.08215901 -0.09100901 -0.09719814 -0.23124686
000130 b2 e3 a9 3d 30 cd 40 bd cb 4e 23 bd f8 45 04 3d
       0.082953826 -0.047070682 -0.039870065 0.03229329
000140 f6 30 40 be 36 4f a0 bc 4f 86 9a bd 8b 88 44 be
       -0.18768677 -0.01956902 -0.075451486 -0.19192712
000150 a7 64 c3 3c bc 12 e9 3d 66 a7 40 3d 9f ef d3 3d
       0.023851706 0.113805264 0.047034644 0.103484385
000160 23 07 66 3d 88 8a 97 bc 4d 91 40 3d 8d 59 9c bd
       0.05615915 -0.018498674 0.04701357 -0.07634268
000170 14 fc f8 bd 3c 8a d6 bd a4 70 04 bc 49 19 8a 3c
       -0.12157455 -0.10475585 -0.008083496 0.01685776
000180 fb be 0f 3e 03 8c 18 3e 3d 5e ac 3d 5e 57 56 3e
       0.14037697 0.1489716 0.08416412 0.20931765
000190 66 a4 a4 3d 79 37 ff 3d 71 5d be bd 1f 6d 4f be
       0.08039169 0.124617524 -0.09295166 -0.2025647
0001a0 3a 93 b6 bd bb 2e 8d 3d 73 20 e9 3d 08 7d 12 be
       -0.089148 0.06893679 0.11383142 -0.14305508
0001b0 f9 b0 8c bd 45 fa d4 bd 9a dc ca bd c4 b3 16 bd
       -0.06869692 -0.103992976 -0.09905358 -0.03679253
0001c0 8d e7 fc bb 11 7e 01 3d f9 0e 6c bc b4 5e de 3d
       -0.0077180327 0.031614367 -0.014407867 0.10857907
0001d0 1e 91 e9 3c 13 e5 1d ba 4d c6 02 3d 30 d9 1b bd
       0.02851158 -0.00060232094 0.031927396 -0.038048923
0001e0 85 05 62 3d d5 8e 4d 3d 39 db 0c 3d 29 b5 ac bc
       0.055181045 0.050185043 0.034388755 -0.021082478
0001f0 93 97 06 be f8 49 99 3d 36 ee c1 3d fe d5 1f bd
       -0.13143758 0.074848115 0.09469263 -0.03902244
000200 71 e1 09 bd 38 6d 95 bd 24 e0 19 3d d0 3d a6 3d
       -0.033662263 -0.072962224 0.037567273 0.081172585
000210 f5 b6 67 be 69 a1 1a 3d db 30 d3 3d 0d b7 65 3d
       -0.22628386 0.03775159 0.10312053 0.056082774
000220 0a 01 61 3c 54 80 a7 bd db 58 a5 3d 78 4a bb 3d
       0.013733158 -0.081787735 0.080735885 0.09145063
000230 6f 44 6d bd 33 7f b4 bd fc e9 fa bd bc a1 a7 3d
       -0.05792659 -0.08813324 -0.1225166 0.08185145
000240 a2 06 0f 3e 29 6f 2e bd fa 56 91 3d f8 d2 d8 3c
       0.13967374 -0.04258648 0.070966676 0.026467785
000250 f5 49 90 3c d3 6b e0 bd db 0b 1f 3d e6 7b 84 bd
       0.01761339 -0.10958066 0.038829666 -0.06468944
000260 78 c0 0b 3d 14 97 08 bd a5 34 28 be 01 f0 29 bd
       0.0341191 -0.033347204 -0.16426332 -0.04148865
000270 30 78 c8 3d f9 f0 af 3d ec e6 37 be d0 54 f9 3d
       0.09788549 0.08590884 -0.17959183 0.1217438
000280 40 ee 51 bc c0 a1 38 be 24 23 50 bd cf 24 6c be
       -0.012813151 -0.18030453 -0.050814763 -0.23060916
000290 98 73 eb bd dc 63 b0 bd bf 6b a9 3d 4c 72 48 3e
       -0.11496657 -0.08612797 0.08272504 0.19574851
0002a0 86 1e 92 bd 3a 8d 36 be 24 56 c7 3d 6b 15 22 3e
       -0.07134728 -0.17827311 0.09733227 0.15828483
0002b0 9a e8 8a bd 76 6f b7 bd ff ff 64 3d 4e 68 65 bd
       -0.067826465 -0.08956806 0.0559082 -0.056007676
0002c0 82 14 06 bd d8 00 21 3e 9e 58 8b bb 53 fe f5 bc
       -0.0327344 0.15722978 -0.0042525074 -0.030028498
0002d0 40 24 31 bc f6 2f 78 3d 29 bd c0 bd 53 13 19 3e
       -0.010811865 0.060592614 -0.094110794 0.14948778
0002e0 99 66 c4 3c 26 a0 50 3d 12 aa 95 bd d6 6a 92 3d
       0.023974704 0.05093398 -0.07307829 0.071492836
0002f0 66 72 42 bc 10 c2 9f bd 2a 7e 04 3e 55 15 4d 3d
       -0.011868095 -0.07800686 0.12938753 0.050069172
000300 9b 07 eb 3d d5 75 9c bd 4c c2 6e 3c 31 03 f9 3c
       0.1147606 -0.07639662 0.014572691 0.03039703
000310 a0 af 09 bd de 9d da b8 c9 16 d7 3d d5 f8 b3 3d
       -0.033614755 -0.00010424455 0.10502393 0.08787695
000320 5e f7 07 be 91 31 80 3d 13 83 fb 3c 06 23 54 3e
       -0.13277957 0.06259454 0.03070215 0.20716485
000330 29 84 0b bc 7b 69 3b 3c 34 1d 40 bc 9e 05 97 3d
       -0.008515396 0.011438723 -0.011725713 0.07374118
000340 83 0f 01 3e 27 4d 86 3d 5a bf 1b 3e 70 12 6d 3e
       0.12603574 0.065576844 0.15209714 0.23151565
000350 f3 f3 05 be c4 63 3c be b0 0a 8d bd 2d 2d 17 3c
       -0.1308134 -0.18397433 -0.06886804 0.009227079
000360 9b 7a 32 3d 2c 48 08 3d 4b 9c 19 be a3 73 d1 bc
       0.043573957 0.033271953 -0.15001027 -0.025567835
000370 89 e8 0c 3d 38 b1 d2 3c 26 7a 4c be 14 1a 84 3c
       0.03440145 0.02571927 -0.19968471 0.016125716
000380 b5 8c 66 3c 67 f8 67 3d 24 7b 05 be 47 59 80 be
       0.014071633 0.05663338 -0.13035256 -0.25068113
000390 ba b1 8e 3c 58 e4 60 bc c2 1f 07 3e 00 a1 63 3b
       0.017418731 -0.013726316 0.13195708 0.0034733415
0003a0 b9 94 b7 bd ac 12 08 3e 23 e2 01 3e f6 25 0c 3e
       -0.089639135 0.13288373 0.1268392 0.13686356
0003b0 4b 69 1b 3e 77 65 e6 3d 7f 7e 36 bb ac 09 96 bd
       0.15176885 0.11249822 -0.0027846394 -0.073260635
0003c0 fa c9 34 bd 06 57 15 bd 74 e7 e4 bc dd 2d 8c 3c
       -0.044137932 -0.036459945 -0.027942397 0.017111713
0003d0 be 40 2c bc c5 9a f0 bc 33 78 86 bd 5c 8e ee bb
       -0.010513483 -0.029370675 -0.06565895 -0.007280154
0003e0 22 e6 bd bd 44 11 93 bc 54 12 77 bd 05 a6 42 bd
       -0.0927241 -0.017952569 -0.060320213 -0.04752161
0003f0 b4 36 cf bd 51 66 07 be fb f6 52 bd 04 d9 2f 3d
       -0.10117856 -0.13222624 -0.05150507 0.04293157
