examples/carbon/outDir/epoch=178-step=88995-val_loss=0.2136.pt (torch, 745777 bytes, 92 tensors)

cutoff f8 []
0	0x4008000000000000	3.0

weight f4 [7, 64]
0	0x3f594515	0.84871036
1	0x3f312783	0.69200915
2	0xbea1cc6d	-0.31601277
3	0xc0075fc1	-2.1152194
4	0xbeb65675	-0.35612836
5	0x3edfdba8	0.43722272
6	0x3efb8c53	0.49130496
7	0xbe51000b	-0.20410173
8	0x3df56f77	0.11984151
9	0x3f9e6b93	1.2376579
10	0x3f8ef28e	1.1167772
11	0xbe7d367c	-0.24727815
12	0xbf8599a7	-1.0437516
13	0xbfac32f6	-1.3453052
14	0x3f490d11	0.7853556
15	0x3f7e2a99	0.9928375
16	0x3f194d8b	0.59883946
17	0xbfc70d5b	-1.5550951
18	0xbeaec6ca	-0.3413604
19	0x3fed2f4e	1.8530061
20	0x3eefaa55	0.4680964
21	0xbe217f5f	-0.15771244
22	0x3fb8c9db	1.4436601
23	0x3e8837a1	0.2660494
24	0x3fb1d6c0	1.3893661
25	0x3fcb0d00	1.5863342
26	0x3f72409c	0.94629836
27	0xbf57fb33	-0.84367675
28	0x3f6e8c30	0.9318266
29	0x3fa12737	1.2590092
30	0x4000519a	2.0049806
31	0x3d5c1b3a	0.053736903
32	0x3ee11fd0	0.43969584
33	0x3de637d6	0.112411186
34	0x3f240af8	0.64079237
35	0x3ee1df3c	0.44115627
36	0xbe5d0b42	-0.21586326
37	0xbf3e17a3	-0.74254817
38	0x3f100e82	0.5627214
39	0x3e84ede2	0.2596274
40	0x3f05da2f	0.52286047
41	0x40135755	2.3022053
42	0xbfbc04b7	-1.4688939
43	0xbfcb189e	-1.5866888
44	0x3f9a033c	1.2032237
45	0x3dad2087	0.0845347
46	0xbf999e2b	-1.2001394
47	0xbb9cd1ae	-0.004785738
48	0xbe6bdd10	-0.23033547
49	0xbec89408	-0.3917544
50	0x3f0b155d	0.5432947
51	0xbeca5217	-0.39515755
52	0x3e527552	0.20552567
53	0xbee6919f	-0.45032975
54	0xbf12b52e	-0.5730771
55	0xbf0e2bf8	-0.5553584
56	0xbfc3fdd9	-1.5311843
57	0xbf9df823	-1.234135
58	0x3fe8ecc2	1.8197253
59	0xbf0d30fc	-0.5515287
60	0xbfa9a448	-1.325326
61	0x3e411430	0.18855357
62	0xbd8d75fb	-0.069072686
63	0xbefd66db	-0.49492535
64	0xbfbd34ce	-1.478174
65	0x40244d8b	2.5672328
66	0xbef23cc2	-0.4731198
67	0x3eabcd4f	0.33555076
68	0x3fc12ae8	1.5091219
69	0x40053ec2	2.0819554
70	0x3fda7587	1.7067116
71	0x401857f1	2.3803675
72	0xbf8892d0	-1.0669804
73	0x3f8eb657	1.1149396
74	0xbe100c2c	-0.14067143
75	0x3f4e45de	0.8057536
76	0x3ea7bd10	0.3276143
77	0xbf42bdb5	-0.7607072
78	0xbfccaeb8	-1.599082
79	0x3c97715a	0.018486667
80	0x3f57865f	0.8418941
81	0xbeccd147	-0.40003416
82	0x3f850d17	1.039462
83	0x3eb75fd8	0.3581531
84	0xbb5885ca	-0.003303873
85	0xbf08d11b	-0.5344407
86	0x3f959790	1.1686878
87	0x3ec9fc44	0.39450276
88	0xbf85c1dc	-1.0449786
89	0xbf74dd3d	-0.9565008
90	0x3d0958b4	0.03353186
91	0x3f35c83c	0.7100866
92	0xbfc4844a	-1.5352871
93	0xbed34aae	-0.41267914
94	0x3f775fa7	0.9663033
95	0x3fcff8e5	1.6247832
96	0xc02740ad	-2.6133225
97	0xbfd92613	-1.6964744
98	0xbe69b837	-0.22824179
99	0x3e8f5643	0.279955
100	0x3d960206	0.07324605
101	0x3f8e8138	1.1133184
102	0x3e908555	0.28226724
103	0x3ede52d3	0.43422565
104	0x3ee9f40f	0.45694014
105	0xbf5d88fa	-0.86537135
106	0x3f4803cc	0.78130794
107	0xbf6d4212	-0.9267894
108	0x3e535ecc	0.20641631
109	0xbeaab9ae	-0.33344787
110	0xbedb8f9b	-0.42883
111	0x3e6e8222	0.23291829
112	0x3f766799	0.9625183
113	0x3eb2c62e	0.34916824
114	0xbf6be4ef	-0.921462
115	0xbd662c81	-0.056194786
116	0xbf33970d	-0.7015236
117	0x3f84b227	1.0366868
118	0xbf1a8a20	-0.6036701
119	0xbfa3ae94	-1.2787652
120	0x3dfdc095	0.12390248
121	0x3f9517a0	1.1647835
122	0x3f6c6235	0.9233735
123	0x3fb192e4	1.3872952
124	0x3fb0013e	1.3750379
125	0x3f28dd95	0.6596311
126	0x3ef3ff4b	0.4765571
127	0xbf82165d	-1.0163075
128	0x3f1c40db	0.6103646
129	0x3eef0b5c	0.46688354
130	0x3ff9af22	1.9506571
131	0xbf88139d	-1.0630985
132	0x3f91f703	1.1403507
133	0xbdb81417	-0.08988207
134	0x3f3ad3ed	0.72979623
135	0xbfec336a	-1.845319
136	0xbdd115f1	-0.10209263
137	0xbf844b50	-1.0335484
138	0xbea01232	-0.31263882
139	0x3e7baf30	0.24578547
140	0x3ec11dfd	0.37718192
141	0x3f8cf543	1.1012348
142	0xbf92468b	-1.1427778
143	0x3d19f325	0.037585396
144	0x3e93c041	0.28857616
145	0x3ec5f024	0.38659775
146	0xbe4de3b3	-0.20106392
147	0xbdf183b4	-0.117926985
148	0xbf545163	-0.82936686
149	0xbfb420fc	-1.4072566
150	0x3fd03c83	1.6268467
151	0x3e306863	0.1722732
152	0xbf344c9c	-0.70429397
153	0x3ea1231b	0.31472096
154	0x3e212b9a	0.15739289
155	0x3ec54e43	0.3853627
156	0x3f12db07	0.5736546
157	0x3f7f786d	0.9979313
158	0x3f0b29fd	0.54360944
159	0x3da16432	0.07880439
160	0x3f7f9ada	0.9984566
161	0xbeff578b	-0.49871477
162	0x3f42d82a	0.7611109
163	0x3f1e48f7	0.61830086
164	0xbe9948ec	-0.29938447
165	0xbe4048e5	-0.18777807
166	0x3ff53c22	1.9158976
167	0x3f30b0a4	0.6901953
168	0xbea0c932	-0.314035
169	0xbf8a131b	-1.078708
170	0x3e769708	0.24081051
171	0xbfb2b793	-1.3962272
172	0x3de88e01	0.1135521
173	0x3f8d67a7	1.1047257
174	0xbfb294ff	-1.395172
175	0x3ef342c3	0.47511873
176	0x3f8a6096	1.0810726
177	0x3e06a22f	0.13147806
178	0x3fc969b4	1.5735383
179	0x3f480bcb	0.78142995
180	0x3f7cc8a5	0.9874366
181	0xbfbe707a	-1.4878075
182	0x3f163126	0.58668745
183	0x3e22182e	0.15829536
184	0x3f2ab22a	0.66678107
185	0xbf7e9052	-0.99438965
186	0xbf983d14	-1.189364
187	0xbf9914df	-1.1959494
188	0x3fa7ec14	1.311892
189	0xbe56e005	-0.20983894
190	0x3f481f8b	0.7817313
191	0x3f7d5c7e	0.98969257
192	0x3e2fa092	0.17151096
193	0x3f604478	0.87604475
194	0xbe92fd1f	-0.2870874
195	0x3f82c51a	1.0216401
196	0xbf02d5bb	-0.51107377
197	0xbfdb5b6f	-1.7137278
198	0xbf02939b	-0.5100648
199	0xbef32531	-0.47489312
200	0x3f298acb	0.66227406
201	0xbf9a681e	-1.2063024
202	0x3f1b812b	0.6074397
203	0xbf0c1278	-0.5471568
204	0xbf8cdc84	-1.1004796
205	0xbf385a47	-0.7201275
206	0x3c43782c	0.011930507
207	0x3eadf6b7	0.3397729
208	0xbfa077c2	-1.2536547
209	0x3f7ca14a	0.9868361
210	0xbefd436d	-0.49465504
211	0xbfa43ac1	-1.283043
212	0x3ee096a1	0.4386492
213	0xbc2f6009	-0.010704049
214	0x3fab4f31	1.3383542
215	0xbe8f0e2d	-0.27940503
216	0x3e934ddc	0.2877034
217	0xbd08b3ff	-0.033374783
218	0xbf87ebf6	-1.0618885
219	0xbdea5845	-0.11442617
220	0x3e481514	0.1953929
221	0xbf3cb335	-0.7371095
222	0x3fd99ced	1.7001015
223	0x3eb1432a	0.34621555
224	0xbe143b30	-0.14475703
225	0x3f233aec	0.6376178
226	0xbe900546	-0.28129023
227	0xbfaa3959	-1.3298751
228	0xbf275f69	-0.6537996
229	0x3fdc2332	1.7198241
230	0xbf76012c	-0.9609554
231	0xbf23335d	-0.6375025
232	0xbf631005	-0.8869632
233	0x3f56b9f0	0.8387747
234	0x3f939211	1.1528951
235	0xbfe16baa	-1.7610981
236	0xbf8db373	-1.1070389
237	0xbfdbd27e	-1.7173612
238	0x3fc46c7f	1.534561
239	0xbb521f4c	-0.0032062111
240	0x3fb85d22	1.4403422
241	0xbde27f35	-0.11059419
242	0x3f13ad1d	0.57686025
243	0xbe2d3bf9	-0.16917409
244	0x3f9826a3	1.1886791
245	0xbe21499a	-0.15750733
246	0xbd3a86ab	-0.045538586
247	0x3f26025b	0.64847344
248	0xbf5ee90d	-0.8707436
249	0x3e14377b	0.14474289
250	0x3ff390cd	1.9028565
251	0x3ec7e1f5	0.3903958
252	0x3d076dbb	0.03306363
253	0xbf830067	-1.0234498
254	0x3f3bc767	0.7335114
255	0x3f8f1172	1.1177199

weight f4 [64, 64]
0	0x3e3b5d3e	0.18297288
1	0x3e0e6cc7	0.13908683
2	0xbe4d80b4	-0.20068628
3	0xbe153c5d	-0.14573808
4	0x3df89b7e	0.12139033
5	0xbd3847be	-0.044990294
6	0xbcfd2e27	-0.030905796
7	0x3e04cba0	0.12968302
8	0xbe792bf9	-0.2433318
9	0x3d77b170	0.060471952
10	0x3e10efa3	0.14153914
11	0x3e4daa1a	0.2008442
12	0x3e4f1a45	0.20224865
13	0x3e3f3bff	0.1867523
14	0xbd2a18fc	-0.041527733
15	0xbdf895d9	-0.12137956
16	0x3df1f59c	0.118144244
17	0x3e1b974d	0.15194435
18	0xbde5350a	-0.11191757
19	0x3beffb87	0.0073236856
20	0xbd7cb53d	-0.06169628
21	0xbe1810c0	-0.1485014
22	0x3e1b5266	0.15168151
23	0x3d9f950c	0.077921
24	0x3e1d950a	0.15388885
25	0x3dda41d4	0.10657087
26	0x3e0c77d0	0.1371758
27	0x3d233db3	0.039853763
28	0xbccf2c99	-0.02528982
29	0x3d44deea	0.04806415
30	0x3cfb9db1	0.030714842
31	0xbd024bd0	-0.03181058
32	0x3e5379b5	0.20651896
33	0xbda46b69	-0.08028299
34	0xbdff196a	-0.12456019
35	0xbc9e0238	-0.019288167
36	0xbd3a4139	-0.045472357
37	0xbe796771	-0.24355866
38	0x3dc5ee1c	0.096645564
39	0xbe3edb06	-0.18638238
40	0x3dcdc96e	0.10048185
41	0xbd6adf77	-0.05734202
42	0x3e3b3e8f	0.18285583
43	0x3dbd3954	0.0923945
44	0x3e16d2b5	0.14728816
45	0xbc2b9429	-0.010472336
46	0x3ca57a9c	0.020200066
47	0x3dbb2357	0.091376
48	0x3dfa7628	0.12229568
49	0x3dab0102	0.083498016
50	0xbdd3c4ed	-0.10340295
51	0xbe103b7f	-0.14085196
52	0xbe0d6024	-0.13806206
53	0xbe319d87	-0.17345248
54	0xbd4ebfbf	-0.050475832
55	0x3e595e9a	0.21227494
56	0xbe1d8ae5	-0.15385015
57	0xbe655c7f	-0.22398566
58	0x3b2e85d2	0.0026630056
59	0x3d50954b	0.050923627
60	0xbd938dd2	-0.072047845
61	0xbe3e8a7b	-0.18607514
62	0x3ce93abe	0.028470393
63	0xbe5af518	-0.21382558
64	0xbdc3c352	-0.09558739
65	0xbce8db9e	-0.028425034
66	0x3e1ae014	0.15124542
67	0xbcb098df	-0.02155727
68	0x3bb72f6b	0.0055903695
69	0xbd1a9c23	-0.03774656
70	0x3d36ba0c	0.044611022
71	0xbd7de468	-0.061985403
72	0xbccfb89a	-0.02535658
73	0xbe03d761	-0.1287513
74	0xbda43ba4	-0.08019188
75	0xbdf29241	-0.11844302
76	0xbd4af2f8	-0.04954812
77	0xbce1f834	-0.027584173
78	0x3e3c10a5	0.18365724
79	0x3b804cb4	0.0039153937
80	0xbde6946e	-0.112587795
81	0xbcb0925e	-0.021554168
82	0x3e0bbe8d	0.13646908
83	0xbc8ffcd5	-0.017576614
84	0x3d4ab49a	0.04948864
85	0x3db2282c	0.086990684
86	0xbe0436a5	-0.1291147
87	0x3dc9ff0d	0.098631
88	0xbdcf8962	-0.101336256
89	0xbdcf1ac8	-0.1011253
90	0x3db45571	0.08805359
91	0xbdbd8464	-0.09253767
92	0xbcaa674d	-0.02080121
93	0xbdc3d607	-0.09562307
94	0xbbd7ee02	-0.006589652
95	0xbd21aa0e	-0.039468817
96	0x3d5cd936	0.053918086
97	0xbdd6479b	-0.104628764
98	0xbbd0ecac	-0.0063758697
99	0x3e0cb702	0.13741687
100	0x3d41ba8e	0.047297053
101	0x3c236ff7	0.009975425
102	0xbe290c79	-0.16508664
103	0x3dd228b9	0.102616735
104	0x3d1dac47	0.038494375
105	0x3d4839b2	0.048883148
106	0xbe0caf19	-0.1373867
107	0x3d2cbb14	0.0421706
108	0xbe4052d0	-0.1878159
109	0x3ccc6ec9	0.02495517
110	0x3cf52ffe	0.029930111
111	0xbdf4f53d	-0.11960838
112	0x3d592509	0.053013835
113	0xbd0a68c8	-0.033791333
114	0xbbc387dc	-0.0059671234
115	0xbd1d54ef	-0.038411077
116	0xbcfd94c6	-0.03095473
117	0x3d691073	0.056900453
118	0x3d963340	0.07333994
119	0xbdf14439	-0.117805906
120	0x3d9a62ab	0.07538351
121	0x3bc85d93	0.0061146705
122	0x3c95381b	0.01821523
123	0xbe016b44	-0.12638575
124	0xbdb3b90d	-0.0877553
125	0x3e07db01	0.13267137
126	0x3d378f45	0.044814367
127	0x3e15ce56	0.14629492
128	0x3c090c0e	0.0083646905
129	0x3d1c7343	0.03819586
130	0xbd98711b	-0.07443448
131	0xbd9317ac	-0.071822494
132	0x3db059df	0.086108916
133	0xbe41ae48	-0.1891414
134	0x3d102254	0.035188988
135	0x3df14cfd	0.117822625
136	0xbe44906c	-0.19195718
137	0x3d986ef6	0.07443039
138	0x3dc0d5b1	0.094157584
139	0x3db818ca	0.08989103
140	0x3e475630	0.19466472
141	0xbcb22d6c	-0.021750174
142	0xbdd617eb	-0.10453781
143	0xbd63b8c0	-0.055596113
144	0xbdb5f99e	-0.08885501
145	0x3db74159	0.08948011
146	0x3d425f00	0.04745388
147	0x3e1a9372	0.15095308
148	0xbdf9c04f	-0.12194883
149	0xbe1b6619	-0.15175666
150	0xbc3ba521	-0.011452944
151	0xbcd3b4b4	-0.025843002
152	0xb9599025	-0.0002074843
153	0xbd800446	-0.06250815
154	0xbe15f704	-0.1464501
155	0xbdcd25d1	-0.100169785
156	0xbddab2a5	-0.10678605
157	0x3d6179a9	0.055047665
158	0x3e157614	0.14595824
159	0xbd0b3210	-0.03398329
160	0x3e2a2dcd	0.16619034
161	0xbd70cd38	-0.05878946
162	0x3d9f3c4d	0.07775173
163	0xbe50c40e	-0.20387289
164	0xbe47944e	-0.19490167
165	0xbd5a820e	-0.053346686
166	0x3e0a1af0	0.13486838
167	0xbe3ca701	-0.18423082
168	0x3c09b576	0.00840508
169	0xbe30c00a	-0.17260757
170	0x3e359b5b	0.17735045
171	0x3cca0627	0.024661137
172	0x3d2cac88	0.042156726
173	0xbd1ab3d4	-0.037769154
174	0x3dfc9e01	0.12334824
175	0x3e4f0d3a	0.2021989
176	0x3d8c3b10	0.06847203
177	0x3e01e6d0	0.12685704
178	0x3da27382	0.079321876
179	0xbda85715	-0.082197346
180	0xbd110e77	-0.035414185
181	0x3cc52ccf	0.024069218
182	0xbd814b1a	-0.063131526
183	0xbd42ac29	-0.047527466
184	0xbda4193b	-0.08012625
185	0x3d663358	0.05620131
186	0x3db379f1	0.08763493
187	0x3e2a2c76	0.16618523
188	0x3e0f91bd	0.14020438
189	0xbd981894	-0.07426563
190	0x3dfffb9a	0.12499161
191	0xbdd8e5d7	-0.105907135
192	0x3dc268f4	0.094926745
193	0x3e7f3eb0	0.24926257
194	0xbdd81b7c	-0.10552117
195	0xbe9b15d4	-0.3029009
196	0x3eafbfc5	0.34325996
197	0xbe4b12df	-0.19831418
198	0xbe52c6ac	-0.205836
199	0x3e74b429	0.2389685
200	0xbe1e56af	-0.15462755
201	0x3de8a45d	0.11359475
202	0x3e4b800e	0.19873068
203	0x3e4a0894	0.19729835
204	0x3dcfffd3	0.101562165
205	0x3d8caf62	0.06869389
206	0xbe0dcfeb	-0.13848846
207	0x3b115215	0.002217417
208	0x3e734fbe	0.23760888
209	0x3e87208b	0.26392016
210	0xbde186e1	-0.11012054
211	0x3d6ef027	0.058334496
212	0x3e8bba56	0.272906
213	0xbd94a912	-0.0725881
214	0x3e488f18	0.19585836
215	0x3e650689	0.22365774
216	0x3eaf0caa	0.3418935
217	0x3e561680	0.2090702
218	0x3e7494c9	0.23884882
219	0x3e709afa	0.23496619
220	0xbe5f2ab8	-0.2179364
221	0x3d580903	0.05274297
222	0x3e378c62	0.17924646
223	0x3da5e062	0.08099438
224	0x3d8b2348	0.06793839
225	0xbe3ae6ab	-0.18252055
226	0xbcc0719d	-0.023491675
227	0xbea9d187	-0.3316767
228	0xbe36ed03	-0.1786385
229	0xbea62e28	-0.3245709
230	0x3decee4b	0.11568888
231	0xbe3d6ad0	-0.18497777
232	0x3cec8290	0.02887085
233	0xbde6e69e	-0.112744555
234	0x3ea32f5b	0.31872067
235	0x3e9e018a	0.3086055
236	0x3e1c13f9	0.15241994
237	0xbda9b1ef	-0.08285891
238	0x3e453dca	0.19261852
239	0x3ea90687	0.33012792
240	0x3e14d9ca	0.14536205
241	0x3daf028e	0.08545409
242	0xbde2abd4	-0.1106793
243	0xbe1c9cab	-0.15294139
244	0x3cb07457	0.02153985
245	0xbe97898e	-0.29597133
246	0xbe15d517	-0.14632069
247	0x3e6c67bf	0.23086451
248	0xbe8a2f4b	-0.26989207
249	0xbe82be92	-0.2553602
250	0x3ce4f405	0.027948389
251	0x3e80da89	0.2516673
252	0x3df66e0a	0.12032707
253	0xbd824aac	-0.06361899
254	0x3e8c13e0	0.27358913
255	0xbe74c72c	-0.23904103

weight f4 [64, 64]
0	0x3d7b397a	0.06133411
1	0xbe0ba9c2	-0.13638976
2	0xbe379eab	-0.17931621
3	0xbe45c4cd	-0.19313355
4	0x3da5b30e	0.080907926
5	0xbda3d746	-0.080000445
6	0xbe4047ec	-0.18777436
7	0xbb2a9ec1	-0.0026034566
8	0xbdf9ffab	-0.12206968
9	0x3d880bf6	0.06642906
10	0xbc5b561f	-0.013387232
11	0x3e1d56d2	0.1536515
12	0xbe713af8	-0.23557651
13	0x3cb978f2	0.022640679
14	0xbe3a5411	-0.18196131
15	0xbe0d20c3	-0.13782029
16	0x3e6d11ae	0.23151276
17	0x3dfb81ac	0.12280592
18	0x3da12f79	0.07870383
19	0x3d7b8140	0.06140256
20	0x3e06685f	0.13125752
21	0xbd90050e	-0.07032214
22	0x3ced255e	0.028948482
23	0xbd0f95b6	-0.035054885
24	0x3d534e17	0.051588144
25	0x3ca355fd	0.019938463
26	0x3db1b058	0.08676213
27	0x3d0ff2aa	0.03514353
28	0x3d89eb2a	0.06734307
29	0x3d068a77	0.032846894
30	0xbe0f51c2	-0.13996032
31	0x3c96ba5f	0.018399416
32	0xbcaa0b6d	-0.020757401
33	0xbd83d1ab	-0.06436475
34	0xbe81cd12	-0.2535177
35	0xbd87ac93	-0.06624713
36	0xbd946d89	-0.07247455
37	0xbd8e977d	-0.06962488
38	0xbccf2a59	-0.025288748
39	0xbe17afd2	-0.14813164
40	0xbdd98148	-0.106203616
41	0xbe1ad486	-0.15120134
42	0x3d5b2dc0	0.053510427
43	0x3e06109f	0.13092278
44	0x3d168eea	0.036757387
45	0xbd59f352	-0.053210564
46	0x3dd5587d	0.104172684
47	0xbdfaf249	-0.122532435
48	0x3de2d5ec	0.110759586
49	0x3df0bae6	0.11754398
50	0xbe2bb5ac	-0.16768521
51	0xbe04ad32	-0.12956694
52	0xbe0168f0	-0.12637687
53	0xbe1095f1	-0.14119698
54	0xbdffef24	-0.12496784
55	0xbcab7380	-0.020929098
56	0xbbdb7d05	-0.006698253
57	0x3ca4b6fe	0.020106789
58	0xbe1fe6bb	-0.1561536
59	0xbd86bf43	-0.06579449
60	0x3e72d964	0.2371574
61	0xbd7d5bdb	-0.06185518
62	0x3c35b747	0.01109106
63	0x3d13fb40	0.036128283
64	0xbd440367	-0.047854807
65	0x3d8429d7	0.06453293
66	0xbd97a03f	-0.074036114
67	0x3d459317	0.04823598
68	0x3e332f17	0.17498432
69	0xbd11c17a	-0.035584904
70	0xbc0f79b0	-0.00875704
71	0x3daacc2c	0.08339724
72	0xbe0cdd26	-0.13756236
73	0x3caafa0e	0.020871188
74	0x3cb8d7a1	0.022563757
75	0x3d8ec8e3	0.0697191
76	0x3dd4e2c4	0.103948146
77	0x3da2a5db	0.07941791
78	0xbd056ca1	-0.0325743
79	0x3d35b7e6	0.044364832
80	0x3cb9451b	0.02261596
81	0xbd3aedf8	-0.0456371
82	0x3cf58f13	0.02997545
83	0xbdc373fa	-0.09543605
84	0x3e5a0f5b	0.2129492
85	0x3d1f48af	0.038887676
86	0x3e1a0adf	0.1504321
87	0xbc9f0493	-0.01941136
88	0x3d4f9cff	0.050686833
89	0x3df82c11	0.1211778
90	0xbd7de31a	-0.06198416
91	0x3e184d17	0.14873157
92	0x3d2bac9a	0.041912653
93	0x3d965676	0.0734071
94	0x3cd68f51	0.026191385
95	0x3dbc522a	0.09195359
96	0xbd7e5f85	-0.062102813
97	0x3d6fb278	0.05851981
98	0x3ddd9ce7	0.10820942
99	0xbd7a87f7	-0.061164822
100	0xbde6719f	-0.1125214
101	0xbd4e6ffe	-0.050399773
102	0x3e392f30	0.18084407
103	0x3d8fc2dd	0.07019589
104	0xbda38e28	-0.079860985
105	0xbe5d02c6	-0.21583089
106	0xbd511255	-0.051042873
107	0xbde367e2	-0.111037984
108	0x3e084a0e	0.133095
109	0xbd955dbb	-0.07293268
110	0x3e0af8b9	0.13571443
111	0x3d3a207c	0.045441136
112	0xbe173e35	-0.14769824
113	0x3cc6d828	0.024272993
114	0x3d8af251	0.067844994
115	0x3bec40d8	0.0072098784
116	0x3d924931	0.071428664
117	0x3b3051c3	0.0026904203
118	0xbd2453d8	-0.040119022
119	0xbdb6e7aa	-0.08930905
120	0x3d0e4037	0.03472921
121	0xbdfb1bb0	-0.1226114
122	0x3db81860	0.08989024
123	0x3d200d00	0.039074898
124	0x3e5aab5a	0.21354428
125	0xbdd351a9	-0.1031831
126	0x3cd79d33	0.026320076
127	0xbdc20275	-0.09473125
128	0xbd8621ac	-0.06549391
129	0xbc5969b0	-0.013269827
130	0x3e162b12	0.14664868
131	0x3e31d1a3	0.17365126
132	0xbc471e61	-0.012153239
133	0x3dc72efc	0.097257584
134	0x3e071e6a	0.13195196
135	0xbde384b0	-0.111092925
136	0x3e169958	0.14706933
137	0xbe2edf2c	-0.17077321
138	0xbc0d2774	-0.008615363
139	0xbddc850e	-0.10767566
140	0xbb851406	-0.004061225
141	0xbdf4f21f	-0.119602434
142	0x3d899bbf	0.06719159
143	0x3db74329	0.08948357
144	0xbd7888ff	-0.060677525
145	0xbd2e9be1	-0.042629126
146	0x3dcd4a7c	0.100239724
147	0xbd7fd834	-0.062462047
148	0xbd248f61	-0.0401758
149	0xbd8848fa	-0.06654544
150	0xbe08695b	-0.1332144
151	0xbe30c5c7	-0.17262946
152	0xbdc76c39	-0.09737439
153	0x3d119948	0.03554657
154	0xbdbfcc04	-0.09365085
155	0xbd0531b7	-0.032518115
156	0x3c8514ce	0.016245272
157	0xbe27c08e	-0.16382048
158	0xbde8464b	-0.11341532
159	0x3d7ec7b1	0.06220216
160	0x3d98cd7d	0.07461069
161	0xbd1778bf	-0.036980387
162	0x3d682792	0.056678362
163	0x3d954916	0.07289331
164	0x3c0ee3fb	0.008721347
165	0x3cb68139	0.022278415
166	0xbb6346d2	-0.0034679663
167	0x3d5b7ba0	0.053584695
168	0xbe35353a	-0.17696086
169	0x3d96d2c6	0.073644206
170	0xbdf578f7	-0.11985963
171	0xbe1417f3	-0.14462261
172	0xbde28a77	-0.11061566
173	0x3d237c5b	0.039913516
174	0xbc974d1b	-0.018469384
175	0xbdddf742	-0.10838176
176	0x3dd46a47	0.10371833
177	0x3c2ae745	0.0104311155
178	0x3d18e738	0.037329882
179	0xbd98a62e	-0.07453571
180	0x3e1a51e5	0.15070303
181	0x3d81a1b3	0.0632967
182	0x3d943e9b	0.072385035
183	0x3c65e757	0.0140322065
184	0xbd28b88a	-0.041191615
185	0x3d24b8b2	0.0402152
186	0x3ce812a9	0.02832921
187	0xbd8a1162	-0.06741597
188	0xbe1eea83	-0.15519147
189	0x3df23019	0.1182558
190	0xbe3f6d89	-0.18694128
191	0x3c407e02	0.011748793
192	0x3d4a6532	0.049412914
193	0x3deed5e4	0.1166189
194	0x3c49f544	0.012326542
195	0xbd88c9e7	-0.06679135
196	0xbe2af89c	-0.166964
197	0x3dba6de2	0.0910299
198	0x3de2f316	0.11081521
199	0x3d5ccd0b	0.05390648
200	0xbdb96b14	-0.09053627
201	0xbd111ba2	-0.035426743
202	0x3da91740	0.08256388
203	0xbc613fce	-0.013748122
204	0x3d58d23e	0.052934878
205	0xbcbd5e3f	-0.02311623
206	0x3d538091	0.051636282
207	0xbd7e844d	-0.06213789
208	0x3b2c118f	0.0026255583
209	0xbdd55f69	-0.10418589
210	0x3ccbceca	0.024878878
211	0x3d73c6ed	0.059515882
212	0xbda3cea8	-0.07998401
213	0xbd86e02e	-0.06585728
214	0xbe119090	-0.14215302
215	0x3dbf8028	0.09350616
216	0xbd6991ca	-0.0570238
217	0x3de647b4	0.11244145
218	0x3cfe269c	0.03102427
219	0xbd85e142	-0.06537105
220	0x3c9734cb	0.01845779
221	0xbdb32492	-0.087472096
222	0x3d61af4b	0.055098813
223	0x3d728182	0.05920554
224	0xba406a4f	-0.000734006
225	0x3df07c19	0.1174242
226	0xbb19efba	-0.0023488835
227	0xbd4bfd02	-0.049801834
228	0x3e09bb0d	0.1345026
229	0x3e2511e4	0.16120106
230	0xbd53af01	-0.05168057
231	0xbdbeb778	-0.09312338
232	0xbbd23f6f	-0.0064162533
233	0x3e18d750	0.14925885
234	0x3b264c5e	0.0025375108
235	0xbcb9a815	-0.022663156
236	0xbd3a09de	-0.045419566
237	0xbd2db1c9	-0.042405877
238	0xbe11acb3	-0.14226036
239	0xbdc00448	-0.093758166
240	0x3e38e302	0.18055347
241	0xbddd94e6	-0.10819416
242	0x3d65da9f	0.056116696
243	0xbd2df7c4	-0.042472616
244	0x3da1aa39	0.078937955
245	0x3bacdf96	0.005275677
246	0x3d93c197	0.07214659
247	0x3d778ed2	0.06043894
248	0x3ddcf588	0.10789019
249	0x3dd5523a	0.10416074
250	0x3e444469	0.19166721
251	0xbce422c9	-0.027848618
252	0xbdafd99d	-0.08586428
253	0x3da7c7e2	0.081924215
254	0xbd6f6480	-0.058445454
255	0xbd6f1161	-0.058366183

weight f4 [64, 64]
0	0xbd8ec200	-0.06970596
1	0x3c7f1e2f	0.015571161
2	0xbde5a063	-0.11212232
3	0xbdaeadd5	-0.085292496
4	0x3e1f4215	0.15552552
5	0xbe147773	-0.14498691
6	0x3c90e04d	0.01768508
7	0xbde8ad21	-0.11361147
8	0xbddab6a3	-0.106793664
9	0xbd518824	-0.051155224
10	0xbd84070b	-0.06446656
11	0xbd4bd7eb	-0.049766462
12	0x3acbb7d7	0.001554246
13	0xbd23e3a0	-0.040012002
14	0xbe08cebc	-0.13360113
15	0xbd9995e9	-0.07499296
16	0x3d319608	0.04335597
17	0xbda1aa4f	-0.07893812
18	0xbd1f7959	-0.038934086
19	0x3e09a1e7	0.13440667
20	0xbd5490de	-0.05189597
21	0x3b6fa65c	0.0036567664
22	0xbda636d1	-0.08115924
23	0x3cbe7d8d	0.023253227
24	0xbc87bb08	-0.016568676
25	0x3d5166a2	0.05112327
26	0xbdc62271	-0.09674538
27	0x3e0bab92	0.13639668
28	0xbc1b7734	-0.009488869
29	0x3d5b2112	0.053498335
30	0x3c6f46d2	0.014604287
31	0xbd9f945d	-0.0779197
32	0x3df8c3eb	0.121467434
33	0x3e1765e7	0.14784966
34	0x3cd538a6	0.026027989
35	0xbddc4f67	-0.10757332
36	0x3c719b67	0.014746523
37	0xbcc1944c	-0.023630284
38	0x3ddc3cdf	0.10753798
39	0xbe125e71	-0.14293839
40	0xbc0ac836	-0.008470586
41	0xbe059fb1	-0.13049199
42	0xbdac1df0	-0.084041476
43	0x3dae3a0e	0.08507167
44	0x3d6c0c89	0.057629142
45	0x3d95aadd	0.0730798
46	0x3bd50625	0.0065009766
47	0xbaea8519	-0.0017892449
48	0x3dfdd2fc	0.12393758
49	0x3e011197	0.12604366
50	0x3d7b86cb	0.061407845
51	0x3d27aa88	0.040934116
52	0xbe0b13cd	-0.13581772
53	0x3d01e943	0.031716596
54	0xbd7ccc1a	-0.061718084
55	0x3dcfdcd2	0.1014954
56	0xbd925b05	-0.07146267
57	0xbdb8a486	-0.09015755
58	0xbd02744d	-0.031849194
59	0xbde512f7	-0.11185258
60	0x39d32328	0.0004027125
61	0xbd08a546	-0.033360742
62	0x3e2223c4	0.15833956
63	0xbdcc8f09	-0.09988219
64	0xbdcb8963	-0.09938314
65	0x3d045ecd	0.03231697
66	0x3e27cd26	0.16386852
67	0x3d0aa61e	0.033849828
68	0xbd22e653	-0.039770436
69	0x3d43328c	0.047655627
70	0xbde93c1e	-0.113884196
71	0x3dc7c9da	0.09755297
72	0x3d0762ad	0.03305309
73	0xbd2081a6	-0.039186142
74	0xbda8c0e2	-0.082399145
75	0xbcf8635f	-0.030320821
76	0xbdb9edca	-0.09078558
77	0x3d89dd88	0.06731707
78	0x3da7b306	0.08188443
79	0xbe1a37c4	-0.15060335
80	0x3dc120c0	0.09430075
81	0xbd0526ac	-0.032507583
82	0xbdac00c1	-0.08398581
83	0xbc1ac2f9	-0.009445899
84	0xbd24a7bc	-0.040199026
85	0xbcffbc10	-0.031217605
86	0x3dc4c196	0.09607236
87	0x3d1f49aa	0.03888861
88	0x3e1a3310	0.15058541
89	0x3d4bb070	0.04972881
90	0xbdf84a6a	-0.12123568
91	0x3e42f621	0.19039203
92	0xbdee1456	-0.116249725
93	0x3d4cf87a	0.050041653
94	0x3d0f9a81	0.035059456
95	0x3d8ffbcb	0.070304476
96	0xbd2def2e	-0.042464428
97	0xbddf6da1	-0.10909582
98	0x3d54e56f	0.051976617
99	0xbda0a12a	-0.078432396
100	0x3d37ffd6	0.04492172
101	0x3b03ae06	0.002009274
102	0x3d8c2c93	0.06844439
103	0xbd7e599e	-0.062097184
104	0x3db58b63	0.088644765
105	0xbcbf655d	-0.023363763
106	0xbc4c0e38	-0.012454562
107	0xbd873e72	-0.066037074
108	0xbd052423	-0.032505166
109	0x3db607c3	0.08888199
110	0xbd8126b5	-0.06306211
111	0xbdb487d3	-0.08814969
112	0x3cd0f753	0.025508558
113	0xbd3dc4f6	-0.046330415
114	0x3cb07697	0.021540923
115	0x3dae41a4	0.08508614
116	0x3d0e0544	0.03467299
117	0x3dd9b781	0.10630704
118	0xbd3960f1	-0.045258466
119	0x3cb15751	0.021648081
120	0xbda83086	-0.0821238
121	0xbde33145	-0.11093382
122	0x3cd2fef3	0.025756335
123	0x3d1f85da	0.03894601
124	0x3e3bfb76	0.18357643
125	0x3df6342c	0.1202167
126	0x3d8baa6e	0.06819616
127	0xbde0d66b	-0.10978397
128	0xbd9d99af	-0.076953284
129	0x3cf34abc	0.029698722
130	0xbd10636e	-0.035251074
131	0x3c848f99	0.016181754
132	0xbb11a56b	-0.002222384
133	0xbda9951b	-0.08280393
134	0xbdc0d83d	-0.09416244
135	0x3da6b5ff	0.08140182
136	0xbc2c2763	-0.010507437
137	0xbd11f4f9	-0.035634015
138	0x3d12fd09	0.035885844
139	0xbd53513f	-0.051591154
140	0xbdca2052	-0.09869446
141	0x3d8cf3e8	0.06882459
142	0xbdb5f7cd	-0.08885155
143	0xbde13fa9	-0.1099847
144	0xbc172ddd	-0.009227243
145	0x3dc735b6	0.097270414
146	0x3d967335	0.07346193
147	0xbc2b119f	-0.010441213
148	0x3d8df903	0.06932261
149	0xbd4332e6	-0.047655962
150	0x3d34dd0a	0.04415611
151	0x3ddb333a	0.1070313
152	0x3cad5e5d	0.02116316
153	0x3e2f4277	0.17115198
154	0x3dbbaf53	0.091643
155	0x3d9aa104	0.075502425
156	0xbd011db8	-0.031522483
157	0x3da2f1f9	0.07956309
158	0x3daa949d	0.08329127
159	0xbd940204	-0.07226947
160	0x3daea218	0.08527011
161	0xbe1b14cd	-0.15144654
162	0xbdef9c12	-0.1169969
163	0x3be2129b	0.0068991906
164	0xbcae323d	-0.02126419
165	0x3da83fec	0.08215317
166	0x3da1ae78	0.078946054
167	0x3cff3fb5	0.031158308
168	0x3dfcec9d	0.12349818
169	0xbd8a93cb	-0.067664705
170	0x3dd7f572	0.10544862
171	0x3d6ff4f7	0.058583226
172	0x3cb3e104	0.021957882
173	0x3d862647	0.065502696
174	0xbdf50c23	-0.119652055
175	0xbd625f6e	-0.05526679
176	0x3dff5321	0.124670275
177	0x3ce0a3e3	0.027421897
178	0xbd5365c0	-0.05161071
179	0xbe0ca2ea	-0.13734022
180	0xbe222e96	-0.15838084
181	0x3b71d8fb	0.0036903012
182	0xbd3ad048	-0.04560879
183	0x3e08ad5f	0.13347386
184	0xbc951cb6	-0.018202167
185	0xbd880f43	-0.06643536
186	0xbd885e90	-0.06658661
187	0xbdefc94f	-0.117083184
188	0xbd0e4c21	-0.03474057
189	0x3d410a99	0.047129247
190	0x3d9c0fa8	0.07620174
191	0xbdaac4b1	-0.08338297
192	0x3da85987	0.08220201
193	0xbd478223	-0.048708092
194	0xbcbd105c	-0.02307909
195	0xbe129334	-0.14313966
196	0x3dadc7c3	0.08485367
197	0x3e07408b	0.13208215
198	0x3e2d4820	0.16922045
199	0x3e04474c	0.12917823
200	0xbd712e21	-0.058881883
201	0xbd916254	-0.07098833
202	0x3d333612	0.043752737
203	0xbcae8a7e	-0.021306273
204	0x3d7faa92	0.062418528
205	0x3d6e1e3d	0.058134306
206	0x3b38034e	0.0028078142
207	0xbc4d98ae	-0.012548609
208	0xbe3fe3b7	-0.1873921
209	0xbe05c586	-0.1306363
210	0xbdffdad0	-0.12492907
211	0x3d919f06	0.071104094
212	0xbe25011f	-0.16113709
213	0x3d0b209a	0.03396664
214	0xbd9a56e7	-0.075361066
215	0x3c80706f	0.015678613
216	0xbd641fe8	-0.05569449
217	0x3db8674e	0.09004079
218	0xbdbbaec9	-0.09164197
219	0xbd5e08f4	-0.054207757
220	0x3d6deb86	0.05808594
221	0xbcfa3996	-0.030545037
222	0xbcc59fe6	-0.024124097
223	0x3b0893f8	0.002084015
224	0xbdb3ef2a	-0.08785851
225	0x3d6ca072	0.0577702
226	0xbbde6afe	-0.006787657
227	0xbe24bb55	-0.16087086
228	0xbd2d1941	-0.042260412
229	0xbd9ed531	-0.07755507
230	0xbe17a64c	-0.14809531
231	0xbe041328	-0.12897933
232	0x3d356426	0.044284962
233	0x3c69e86c	0.014276605
234	0xbc321b37	-0.010870746
235	0xbc9274c5	-0.017877946
236	0xbcabf230	-0.020989507
237	0x3da50deb	0.08059295
238	0x3dd67d42	0.1047311
239	0x3e0b476a	0.13601461
240	0xbca7c215	-0.020478288
241	0x3daba2e6	0.0838068
242	0xbd5a1f0a	-0.053252257
243	0x3dc73a94	0.0972797
244	0x3dd2a1cf	0.10284769
245	0x3d922463	0.071358465
246	0x3e285b07	0.16440974
247	0x3d2b863b	0.04187606
248	0x3c99ffe0	0.018798769
249	0xbdc34af1	-0.09535778
250	0x3ccef1ff	0.025261877
251	0x3e259bfe	0.16172788
252	0xbbc3e1d6	-0.0059778495
253	0xbdd8a299	-0.10577888
254	0xbe0a8a4d	-0.1352932
255	0x3db61240	0.088902

freqs f4 [8]
0	0x3f6f4fe3	0.9348127
1	0x400b906d	2.18069
2	0x404b3827	3.1753023
3	0x40820f4f	4.0643687
4	0x40a8ddf2	5.277093
5	0x40c8793f	6.2648005
6	0x40eb9132	7.361474
7	0x4107be01	8.483888

weight f4 [64, 8]
0	0x3e6c6413	0.2308505
1	0x3dbd5145	0.092440166
2	0x3d1fd2b0	0.039019287
3	0x3e54ce79	0.20781888
4	0xbe4a38f0	-0.19748282
5	0x3db66945	0.08906797
6	0x3d5840ac	0.05279605
7	0x3cd635a5	0.026148627
8	0xbeb63a79	-0.35591486
9	0xbeaed80d	-0.3414921
10	0xbde9c60d	-0.11414728
11	0xbe69bf26	-0.22826824
12	0xbe9ea349	-0.30983952
13	0xbdd0de61	-0.101986654
14	0xbc9a6fd5	-0.018852154
15	0x3da2ce01	0.079494484
16	0xbded39de	-0.11583303
17	0xbe21ae3d	-0.15789123
18	0xbe138ddf	-0.14409588
19	0x3e4ccd5c	0.20000213
20	0x3db35723	0.087568544
21	0x3ec141bf	0.37745473
22	0x3e0b5020	0.13604784
23	0x3e8328a5	0.25616947
24	0xbde5f852	-0.11229004
25	0xbe4daba5	-0.20085008
26	0x3e00cb80	0.12577629
27	0x3e7cac46	0.24675092
28	0xbdc89347	-0.09793716
29	0x3da31722	0.079633966
30	0xbe90cde6	-0.28282088
31	0x3e182515	0.14857896
32	0xbed664b7	-0.41873714
33	0xbdd53db6	-0.10412161
34	0xbe00fb32	-0.12595823
35	0xbe0c247d	-0.13685794
36	0x3c987e03	0.018614775
37	0xbe2a8451	-0.16652037
38	0x3ebe6d1e	0.37192625
39	0xbe191ab4	-0.14951593
40	0x3e4233b0	0.1896503
41	0xbe9afdcc	-0.30271757
42	0x3e595d20	0.2122693
43	0x3e809be0	0.25118923
44	0xbe89255c	-0.26786315
45	0xbdf0e3f2	-0.11762227
46	0xbdb101a0	-0.08642888
47	0xbd678e45	-0.056532163
48	0x3db7c960	0.08973956
49	0x3ea33ce8	0.31882405
50	0xbd70a5bb	-0.058751803
51	0x3da5f0d8	0.08102578
52	0xbe8465e1	-0.25858977
53	0xbe41fc38	-0.1894387
54	0xbe94f2c4	-0.29091465
55	0x3cbd091d	0.023075635
56	0xbc2d0749	-0.010560819
57	0x3eb39068	0.3507111
58	0x3e469efd	0.19396587
59	0xbccc2d34	-0.024923898
60	0xbdfbd560	-0.122965574
61	0x3d28314c	0.04106264
62	0xbe309eb9	-0.17248048
63	0x3d8563a4	0.065131456
64	0xbe006953	-0.12540178
65	0xbe30b13b	-0.17255108
66	0x3d1a3856	0.037651382
67	0x3d43a256	0.047762237
68	0xbd5f6cf8	-0.05454728
69	0x3c832049	0.016006606
70	0xbe9acd0c	-0.30234563
71	0xbdfed030	-0.12442052
72	0xbee9f7ec	-0.45696962
73	0x3eaaf6b1	0.33391336
74	0x3eac41d3	0.3364397
75	0xbe9fc085	-0.31201568
76	0xbe67fae9	-0.22654308
77	0xbe8da1eb	-0.27662596
78	0x3e558f34	0.20855409
79	0x3d97cb54	0.07411829
80	0xbeefd70e	-0.4684376
81	0xbde8f4f7	-0.11374848
82	0x3e955cb0	0.29172277
83	0xbd08086a	-0.03321115
84	0xbe907b86	-0.2821924
85	0x3e224c3b	0.15849392
86	0x3ead31b3	0.3382698
87	0x3eae5a8d	0.3405346
88	0x3e4a6df7	0.19768511
89	0xbdf49b51	-0.11943687
90	0x3b4c93cb	0.003121602
91	0x3e9cccd5	0.30625024
92	0x3dd1e5e2	0.10248925
93	0xbe965f18	-0.29369426
94	0x3e36a941	0.17838003
95	0x3dc3f364	0.095679075
96	0xbeddc0d9	-0.43311194
97	0xbe68d120	-0.22736025
98	0x3e89530c	0.26821172
99	0x3e8e6033	0.2780777
100	0xbe9abd37	-0.30222484
101	0x3df9c7b6	0.12196295
102	0x3e6f6758	0.23379266
103	0x3d85d37a	0.065344766
104	0x3e89b4d8	0.26895785
105	0x3e03f9bb	0.12888233
106	0x3e09c2e9	0.13453259
107	0x3e15946d	0.14607401
108	0xbd97ae16	-0.07406251
109	0x3cc3e25b	0.023911646
110	0xbe00034a	-0.12501255
111	0xbdae1737	-0.08500522
112	0x3e5a41e9	0.21314205
113	0xbe2eadf2	-0.17058542
114	0x3dc10a08	0.094257414
115	0x3e9dc248	0.30812287
116	0x3d809f2f	0.06280362
117	0x3ea127f5	0.31475797
118	0xbd32956f	-0.043599542
119	0xbdb0ca22	-0.08632304
120	0x3edf80dc	0.43653
121	0xbe33e0cb	-0.1756622
122	0x3eb54eba	0.35411626
123	0x3eb44840	0.35211372
124	0xbe97c3bd	-0.29641524
125	0xbe0794d3	-0.13240366
126	0x3e881281	0.26576617
127	0xbd029f25	-0.031890053
128	0xbed11894	-0.40839064
129	0x3d392bff	0.045207974
130	0xbede8216	-0.43458623
131	0xbc1b7c13	-0.009490031
132	0x3d602dc3	0.05473114
133	0xbdea6d4e	-0.114466295
134	0xbd686e38	-0.056745738
135	0x3e165b0e	0.14683172
136	0x3dca72a4	0.09885147
137	0xbd4ac299	-0.04950199
138	0xbe23bb4f	-0.15989421
139	0x3d279cda	0.04092107
140	0xbd05ecf0	-0.032696664
141	0xbd838ebc	-0.06423709
142	0xbde1975d	-0.110151984
143	0x3d804916	0.0626394
144	0xbedb7835	-0.42865148
145	0x3e021188	0.12702
146	0xbe3123f8	-0.17298877
147	0x3eac1430	0.33609152
148	0x3c231ff9	0.009956353
149	0x3e333a38	0.17502677
150	0x3d890b77	0.0669164
151	0xbdf6396d	-0.12022672
152	0x3ddefa87	0.10887628
153	0xbe92996b	-0.28632674
154	0x3dacc0ec	0.084352344
155	0x3eac1914	0.33612883
156	0xbdc3696d	-0.09541593
157	0x3eb5e3d1	0.35525373
158	0xbe88d39f	-0.26723954
159	0x3e1d4d93	0.15361623
160	0x3e8bfe2a	0.2734235
161	0xbe10cc69	-0.14140476
162	0xbeb9b303	-0.36269388
163	0xbe9303f3	-0.2871395
164	0x3e2b9153	0.16754656
165	0x3eb6c1fb	0.3569487
166	0xbe915c22	-0.28390604
167	0xbe3fbaa2	-0.18723539
168	0x3e7f1a8a	0.24912468
169	0xbd5269f8	-0.05137059
170	0xbea631bb	-0.32459816
171	0xbd962361	-0.07330967
172	0x3ddedfbf	0.1088252
173	0xbebeca69	-0.37263802
174	0xbe30d5cd	-0.17269059
175	0x3e1a1ab6	0.15049252
176	0x3deec956	0.116594955
177	0xbe0c85f6	-0.13722977
178	0x3ecf562e	0.40495437
179	0x3d5ca89d	0.05387174
180	0x3e4e2e19	0.20134772
181	0xbce385c3	-0.027773743
182	0xbe1c879e	-0.15286109
183	0x3e8029cb	0.25031886
184	0xbef36368	-0.47536778
185	0x3dc9e4d9	0.09858102
186	0xbe497641	-0.19674017
187	0xbd2a4d61	-0.0415777
188	0x3e892825	0.2678844
189	0xbeab9790	-0.3351407
190	0x3d0bf01f	0.034164544
191	0xbda6dbc1	-0.081473835
192	0x3ec9fe9b	0.3945206
193	0xbe6e67bb	-0.23281758
194	0xbdb5e07f	-0.0888071
195	0xbe53d9c8	-0.20688546
196	0x3e880c33	0.26571807
197	0x3e8940db	0.26807293
198	0xbcda1f17	-0.026626153
199	0x3da531c3	0.08066132
200	0x3f08b48e	0.53400505
201	0xbe74dd30	-0.23912501
202	0x3dbfb0e7	0.09359913
203	0x3eb4fe91	0.3535047
204	0xbe4ce3dc	-0.20008796
205	0xbe8a5f69	-0.27025917
206	0x3e936bc0	0.28793144
207	0x3e95e55f	0.2927656
208	0x3e7d0bc8	0.24711525
209	0x3e89fdbd	0.269514
210	0x3e20c0c2	0.15698531
211	0xbe50347f	-0.20332526
212	0xbea667ca	-0.3250106
213	0x3cadf78f	0.02123621
214	0xbe398ccd	-0.18120117
215	0x3eb3e23e	0.35133547
216	0xbcbc1fc7	-0.022964371
217	0x3e554a5a	0.20829144
218	0xbc9560ac	-0.018234573
219	0xbda4e5a2	-0.080516115
220	0xbd8c2482	-0.06842901
221	0xbe935759	-0.28777578
222	0xbeaab098	-0.33337855
223	0xbdd8c9fa	-0.10585399
224	0xbee36a98	-0.44417262
225	0xbe9caeed	-0.30602208
226	0x3e397702	0.18111804
227	0xbe15bccb	-0.146228
228	0x3cd3763b	0.025813213
229	0xbcb44b9b	-0.022008708
230	0xbe7db29b	-0.24775164
231	0xbe0aace5	-0.13542517
232	0xbed2a777	-0.4114339
233	0x3d54a467	0.0519146
234	0x3e8fedcc	0.28111112
235	0xbc0d810e	-0.008636726
236	0x3dc7ee7b	0.097622834
237	0x3e5346ea	0.2063252
238	0x3e420398	0.18946683
239	0x3d574d35	0.052563865
240	0xbe37f739	-0.17965402
241	0x3e16f0dd	0.1474032
242	0x3c890462	0.016725723
243	0x3e9cd4aa	0.30631
244	0xbda71231	-0.081577666
245	0x3e90a061	0.2824736
246	0x3e3e1039	0.18560876
247	0x3ea4e713	0.32207546
248	0x3e3fc1b6	0.18726239
249	0x3d3656e2	0.04451645
250	0xbd6bf792	-0.05760915
251	0x3e444f52	0.19170883
252	0x3e826416	0.25466985
253	0x3e772ec1	0.24138929
254	0xbeb6e4bd	-0.35721388
255	0x3c987378	0.018609747

weight f4 [64, 64]
0	0x3e0531fa	0.13007346
1	0xbe0923dd	-0.13392587
2	0xbe051ce0	-0.12999296
3	0xbda1ff24	-0.07909992
4	0x3ca2ab4b	0.01985707
5	0x3d5d0ac2	0.053965338
6	0xbda64509	-0.08118636
7	0x3d26650b	0.040623706
8	0x3c79a0ad	0.015236062
9	0xbda214f6	-0.07914154
10	0x3c9532bf	0.018212674
11	0x3dd3d3c7	0.10343128
12	0x3cb3e4ae	0.021959629
13	0x3ca17926	0.019711088
14	0xbd932d21	-0.07186342
15	0xbd0bcb41	-0.034129385
16	0xbc79f2dd	-0.015255657
17	0xbdc40a28	-0.0957225
18	0x3d0c867d	0.034307946
19	0xbe0dd75c	-0.13851684
20	0xbda78e9f	-0.081815
21	0x3ddeb743	0.10874798
22	0x3d8513ac	0.06497893
23	0xbd93c734	-0.07215729
24	0xbb81bf90	-0.0039596036
25	0x3ca0a78a	0.019611139
26	0x3c185ac6	0.009298986
27	0x3ce3965e	0.027781662
28	0xbe571518	-0.2100414
29	0xbe0dc3bf	-0.13844202
30	0xbd8e42b2	-0.06946315
31	0xbbbea3ae	-0.005817852
32	0x3d9f6019	0.07782001
33	0xbd8c876a	-0.06861766
34	0xbbdccea6	-0.0067385016
35	0x3d2d38ee	0.04229062
36	0xbd8b6cc9	-0.068078585
37	0xbd71a409	-0.058994327
38	0x3b0db562	0.0021623005
39	0xbe5962f1	-0.2122915
40	0xbb0e7563	-0.0021737448
41	0xbc189980	-0.009313941
42	0xbc255dbb	-0.010093148
43	0xbdebbcdf	-0.11510634
44	0x3e28a3cc	0.16468734
45	0x3d59412a	0.05304066
46	0xbe0abbbf	-0.13548182
47	0x3d4609d5	0.04834922
48	0xbe59c3bb	-0.21266071
49	0x3d59f638	0.053213328
50	0x3d2243c7	0.03961542
51	0x3e22716f	0.15863584
52	0x3dde5605	0.10856251
53	0xbd04ccff	-0.032422062
54	0xbde79c13	-0.11309066
55	0xbe25e6dd	-0.16201349
56	0x3c88ee18	0.016715094
57	0x3e03418b	0.12817971
58	0xbb41c146	-0.0029564663
59	0xbd9b2fe8	-0.07577497
60	0x3d753c39	0.059871886
61	0x3e0c541b	0.13703959
62	0x3d8b149c	0.0679104
63	0x3d583c2f	0.05279177
64	0x3dce7ade	0.10082029
65	0x3d6e4146	0.05816772
66	0x3de3efaf	0.111297004
67	0x3d98c542	0.07459499
68	0x3d3ac2dc	0.04559599
69	0x3d9808f3	0.07423582
70	0x3c8ce066	0.017196845
71	0xbe0b27c2	-0.13589385
72	0xbc2d0346	-0.0105598625
73	0xbd0bc9b7	-0.034127917
74	0xbbe0dae4	-0.0068620313
75	0xbd906df2	-0.070522204
76	0xbe1a6d5a	-0.15080777
77	0x3db81c14	0.089897305
78	0xbd951f15	-0.07281319
79	0xbd9afdb9	-0.07567925
80	0xbdc68951	-0.0969416
81	0x3aa15039	0.0012307233
82	0xbdbdada0	-0.09261632
83	0xbe0390d4	-0.12848216
84	0xbc1e13ca	-0.009648273
85	0x3dc47223	0.09592082
86	0x3dffd8e9	0.12492544
87	0xbe448deb	-0.19194762
88	0xbcb6c37c	-0.022310011
89	0xbccecd44	-0.025244363
90	0xbbd8609f	-0.006603315
91	0x3ae6a179	0.001759573
92	0x3d9c96d8	0.07645959
93	0xbd3cf4fa	-0.046132065
94	0x3dcbb34c	0.099463075
95	0xbca371ed	-0.019951785
96	0xbded336d	-0.11582074
97	0x3d154887	0.03644612
98	0x3d8408a3	0.0644696
99	0x3e3a757d	0.1820888
100	0xbdbbaa67	-0.09163361
101	0xbcd7667d	-0.026293987
102	0xbddbeaf6	-0.107381746
103	0xbdf01fa6	-0.117247865
104	0x3bf6aa55	0.0075276294
105	0x3c38c047	0.011276311
106	0x3d399351	0.045306507
107	0x3dd2fe69	0.10302431
108	0xbd58b577	-0.052907433
109	0x3cdb63b7	0.026780946
110	0xbdf9fcf4	-0.1220645
111	0xbcef2d8a	-0.02919652
112	0x3d6fed3a	0.058575846
113	0x3d81ec86	0.063439414
114	0xbdd6393e	-0.10460137
115	0xbdd14148	-0.102175295
116	0xbd81e9b7	-0.06343406
117	0xbdc935b0	-0.09824693
118	0xbe22ce47	-0.15899001
119	0x3d001df3	0.03127856
120	0x3bf13949	0.0073615653
121	0xbc604220	-0.01368764
122	0x3d9ec32b	0.07752069
123	0xbe020dd5	-0.12700589
124	0x3dc8027b	0.09766098
125	0x3de1cb69	0.110251255
126	0x3d0f76df	0.035025474
127	0x3bdaac82	0.0066733966
128	0xbde1b0a9	-0.110200234
129	0xbd9028f8	-0.07039064
130	0x3db3e68f	0.0878421
131	0xbe065918	-0.13119924
132	0xbc8b30bf	-0.016991017
133	0x3d43cc78	0.04780242
134	0xbd2c198a	-0.042016543
135	0x3c1af74f	0.009458377
136	0xbd709c81	-0.058743004
137	0x3d0309a8	0.03199163
138	0x3c1a9283	0.009434345
139	0xbbe17ab8	-0.0068810843
140	0x3e2fba56	0.17160925
141	0xbdc7fd72	-0.09765138
142	0x3da771ff	0.0817604
143	0xbe016fb6	-0.1264027
144	0xbdb83e2c	-0.08996233
145	0x3d5a500f	0.053299006
146	0xbd171f09	-0.03689483
147	0x3d99bd5b	0.0750682
148	0xbb65c769	-0.0035061485
149	0xbe28744c	-0.16450614
150	0xbe0a37ae	-0.13497803
151	0x3de360ac	0.11102423
152	0xbe0b9c30	-0.136338
153	0xbd2793fd	-0.040912617
154	0x3cc57f97	0.024108691
155	0xbda6dcc3	-0.08147576
156	0x3e2e9421	0.17048694
157	0xbc2d65d5	-0.010583361
158	0x3c8ba4c0	0.017046332
159	0xbacf0ba7	-0.0015796319
160	0x3df53017	0.11972063
161	0xbe09f7c6	-0.13473424
162	0x3d07941a	0.033100225
163	0xbd96e73c	-0.07368323
164	0x3d9b19a3	0.07573249
165	0x3d1368e3	0.0359887
166	0xbd5f6794	-0.05454214
167	0x3e0b91d6	0.13629851
168	0xbd3465db	-0.04404245
169	0xbd278dc4	-0.040906683
170	0x3c074438	0.008256011
171	0x3d9f9866	0.077927396
172	0xbd193951	-0.037408177
173	0x3d5c91b3	0.053849887
174	0xbd7fb019	-0.0624238
175	0xbdbd9df0	-0.0925864
176	0x3e0fdcda	0.14049092
177	0xbd35e8a6	-0.044411324
178	0xbd2afff9	-0.04174802
179	0x3cbe9cd8	0.023268148
180	0xbde1be34	-0.110226065
181	0xbd244768	-0.04010716
182	0x3be4e437	0.006985213
183	0xbd9cbabd	-0.07652805
184	0x3d87e868	0.06636125
185	0x3da3df1f	0.08001541
186	0xbd3fc6f2	-0.04682059
187	0xbd0a4a59	-0.03376231
188	0xbe17e688	-0.14834034
189	0xbde287ce	-0.11061059
190	0xbdc7aa26	-0.0974925
191	0xbd0d66b2	-0.034521766
192	0x3d40c74c	0.047065064
193	0xbded0481	-0.11573125
194	0x3d87f738	0.0663895
195	0xbd67e29f	-0.056612607
196	0xbc7ee90b	-0.015558491
197	0x3d14dc34	0.036342815
198	0xbb44f22a	-0.0030051568
199	0x3ce5a78c	0.028033994
200	0xbe00baf9	-0.12571324
201	0xbdaa568e	-0.0831729
202	0x3db6ede9	0.089320965
203	0x3c8e04d8	0.017336294
204	0xbd85753e	-0.06516503
205	0x3d832be9	0.064048596
206	0x3ded8c50	0.11599028
207	0x3e0ae185	0.13562591
208	0xbe0b5a6f	-0.13608716
209	0x3de79a69	0.11308748
210	0xbe2462fd	-0.16053386
211	0xbddf351a	-0.108988
212	0x3c28a3e1	0.010292978
213	0x3d02c8fd	0.03192996
214	0xbdc69d4a	-0.09697969
215	0xbc2fedf9	-0.010737889
216	0x3d2d49df	0.042306777
217	0x3d587327	0.052844193
218	0x3db8b779	0.0901937
219	0x3d87d4f0	0.066324115
220	0xbdedfe34	-0.11620751
221	0x3cca7135	0.024712184
222	0x3daf5c51	0.0856253
223	0xbc959be0	-0.018262804
224	0xbdcd9fe6	-0.10040264
225	0xbd9c4285	-0.07629875
226	0xbd735276	-0.059404813
227	0xbc99d31a	-0.018777419
228	0xbe2a5674	-0.16634542
229	0xbe29cf5a	-0.16583005
230	0xbd9634ff	-0.07334327
231	0xbd9fb6c0	-0.07798529
232	0x3cbe79b6	0.023251396
233	0xbe0beabb	-0.13663761
234	0x3cb8e4e4	0.022570081
235	0xbc95ccd2	-0.018286142
236	0x3daa0747	0.08302169
237	0x3dbcd2e4	0.09219912
238	0x3dc429d6	0.09578292
239	0x3da6a1c2	0.081363216
240	0x3d65c348	0.056094438
241	0x3d85cc60	0.06533122
242	0xbce773ab	-0.028253397
243	0x3c64eb03	0.013972047
244	0x3d6b876e	0.057502203
245	0xbe063a0f	-0.13108085
246	0x3c84f872	0.01623175
247	0x3d2c8f00	0.042128563
248	0xbdb28689	-0.08717067
249	0x3b536272	0.0032254723
250	0xbcfb86ad	-0.030703867
251	0x3d845b47	0.06462722
252	0x3d10bd9a	0.03533707
253	0x3e09d032	0.13458326
254	0x3ae100d7	0.0017166388
255	0x3e238d11	0.15971781

weight f4 [64, 64]
0	0xbd8cf2b1	-0.06882227
1	0x3dd16523	0.102243684
2	0x3e1aa4d9	0.15101947
3	0xbdc9d37a	-0.09854789
4	0x3e3581ed	0.17725344
5	0x3c5aa440	0.013344824
6	0xbdfc4148	-0.12317139
7	0x3dffb7bd	0.12486217
8	0x3e57a1d0	0.2105782
9	0xbe2ed3ed	-0.17073031
10	0x3d59bcee	0.053158693
11	0xbc9e85a5	-0.019350836
12	0x3d9d776f	0.07688796
13	0xbd0bf0da	-0.03416524
14	0x3d38f0d9	0.045151565
15	0x3cb481fd	0.02203464
16	0x3d00d2f5	0.031451184
17	0xbd3e5ae0	-0.046473384
18	0x3d9c3fc3	0.07629349
19	0xbb7254b6	-0.0036976761
20	0xbd9c9a67	-0.076466374
21	0x3debe680	0.11518574
22	0xbdaefd80	-0.08544445
23	0xbd957f52	-0.07299675
24	0x3deb2f14	0.11483589
25	0xbe2cf9bf	-0.16892146
26	0x3c74212a	0.014900485
27	0x3db5055f	0.08838915
28	0x3b50c81b	0.0031857553
29	0x3dc11cb9	0.094293065
30	0x3e324da2	0.17412427
31	0xbda80f11	-0.08205999
32	0xbe89de4a	-0.26927406
33	0x3d0ba08c	0.034088656
34	0x3da056a2	0.07829024
35	0x3ccce5c0	0.025011897
36	0xbcdb44fd	-0.026766295
37	0x3cb16bf7	0.021657927
38	0xbdf01756	-0.11723201
39	0xbcbef750	-0.023311287
40	0xbddd6af4	-0.10811415
41	0xbe38343d	-0.17988677
42	0xbe232c3c	-0.15934843
43	0xbdb9d2fd	-0.09073446
44	0xbdf5dbbd	-0.120048024
45	0xbc31ad9f	-0.010844617
46	0xbe12e050	-0.14343381
47	0x3ddc54f8	0.10758394
48	0xbc9b6d01	-0.018972876
49	0xbe5b40fa	-0.21411505
50	0x3b328f3a	0.0027246014
51	0x3dd03fa7	0.10168391
52	0x3dfd9ce1	0.12383438
53	0xbda9d345	-0.082922496
54	0x3dce3f0b	0.10070618
55	0x3d3ab66d	0.04558413
56	0xbc731917	-0.014837525
57	0x3dfff94d	0.12498722
58	0xbc9e13cf	-0.019296555
59	0xbd536a85	-0.051615257
60	0xbd2ec586	-0.04266884
61	0x3e8568f8	0.26056647
62	0x3b993593	0.004675576
63	0x3e060307	0.13087092
64	0xbd931e3b	-0.071835004
65	0xbafdc5b2	-0.0019361286
66	0x3d673685	0.05644848
67	0xbc821869	-0.01588078
68	0x3d826411	0.063667424
69	0x3d4eddc7	0.050504472
70	0xbd691c98	-0.056912035
71	0xbd291480	-0.041279316
72	0x3da8b50b	0.08237656
73	0xbdb785e6	-0.08961086
74	0xbdc63a1f	-0.096790545
75	0xbe6d22c8	-0.23157799
76	0x3da76ac0	0.08174658
77	0xbd3e21f7	-0.04641911
78	0xbd1f82f0	-0.03894323
79	0x3d00edbf	0.031476732
80	0xbe40ca0a	-0.18827072
81	0xbc9f9475	-0.01947997
82	0xbd9fc944	-0.0780206
83	0xbe44c875	-0.19217093
84	0x3cbaffed	0.022827113
85	0x3de881ca	0.1135288
86	0x3d40449a	0.046940424
87	0x3dd38ba4	0.10329369
88	0x3d63d6b9	0.055624697
89	0xbcaac344	-0.020845063
90	0x3d40e191	0.047090117
91	0xbd9d19ec	-0.0767096
92	0xbdfa64e4	-0.122262746
93	0xbdd6a241	-0.10480166
94	0xbc089f39	-0.008338743
95	0x3c8ac26a	0.016938407
96	0x3e1b01c6	0.15137395
97	0x3e17c7f1	0.14822365
98	0x3daa734c	0.083227724
99	0x3e56f4df	0.20991848
100	0x3da63fe9	0.08117659
101	0x3e026e8f	0.12737487
102	0xbdbf01bc	-0.09326503
103	0xbe4fb43f	-0.20283602
104	0xbdb7f318	-0.08981913
105	0x3d8b6230	0.06805837
106	0x3df1c3f8	0.11804956
107	0xbe12db71	-0.14341523
108	0xbd87c81d	-0.066299655
109	0xbdd53a2f	-0.10411488
110	0xbdcad8d2	-0.099046364
111	0xbd15d71b	-0.036582094
112	0xbbf5a01a	-0.0074958922
113	0x3d1acb03	0.037791263
114	0xbc72eef3	-0.014827478
115	0x3ddf14c3	0.10892632
116	0x3ce3f96a	0.02782889
117	0xba8fa9bb	-0.0010960618
118	0x3d029b44	0.031886354
119	0xbd1c2573	-0.03812165
120	0x3d5f610c	0.05453591
121	0x3d4bc793	0.049750876
122	0x3d00bce9	0.03143016
123	0xbcac29fc	-0.021016113
124	0xbe06d35d	-0.13166566
125	0x3d99461f	0.07484078
126	0x3dc92dcb	0.098231874
127	0xbd1d846d	-0.03845637
128	0xbd0df802	-0.034660347
129	0xbd954812	-0.07289137
130	0x3d24c7e7	0.040229704
131	0x3d9fe642	0.0780759
132	0xbe680e3c	-0.2266168
133	0x3d1e7e26	0.038694523
134	0x3dd3a5ae	0.10334335
135	0x3d6c323b	0.05766509
136	0x3c69779b	0.014249708
137	0xbdab2b32	-0.08357848
138	0x3da22d86	0.07918839
139	0x3dba987d	0.09111116
140	0xbd67e18b	-0.05661158
141	0xbdb402aa	-0.08789571
142	0xbdfde813	-0.1239778
143	0x3da876ba	0.0822577
144	0x3e0ecf1d	0.13946195
145	0xbd2d33a9	-0.042285595
146	0x3d97b542	0.07407619
147	0x3cd45931	0.025921436
148	0x3c8f02d8	0.01745741
149	0xbde1814a	-0.11010988
150	0x3d1efddc	0.038816318
151	0xbd83a6de	-0.06428312
152	0x3d07860e	0.03308683
153	0xbd22e685	-0.03977062
154	0xbe2811a5	-0.16412981
155	0xbd2d26b9	-0.042273257
156	0x3dc7a7cd	0.09748802
157	0x3db18d26	0.086695
158	0xbe38aebb	-0.18035404
159	0x3df92cc6	0.12166743
160	0xbc4de499	-0.012566709
161	0xbe39c7e7	-0.18142663
162	0xbd4dbfc1	-0.0502317
163	0xbe6b62cc	-0.22986907
164	0xbdeae014	-0.11468521
165	0xbdb0f848	-0.08641106
166	0x3da876e1	0.08225799
167	0x3e486b43	0.19572167
168	0xbd92fd58	-0.07177228
169	0xbe3ca0de	-0.18420741
170	0x3dcd1719	0.10014171
171	0x3e22076c	0.15823144
172	0xbd8ae0a0	-0.06781125
173	0xbdb74c09	-0.089500494
174	0x3d61bb0a	0.055110015
175	0xbd674a8c	-0.056467578
176	0xbd0537e8	-0.03252402
177	0x3e22e1b3	0.1590641
178	0xbb93a385	-0.004505577
179	0xbcf00ac3	-0.029302007
180	0xbc29985d	-0.010351268
181	0x3d7759c5	0.060388345
182	0xbdc1bef4	-0.094602495
183	0x3e194bed	0.1497037
184	0x3cce2af9	0.025166975
185	0x3d4fbf65	0.050719637
186	0xbd97b320	-0.07407212
187	0x3d918faf	0.071074836
188	0xbc508069	-0.012725928
189	0xbda070f7	-0.07834046
190	0x3e05643e	0.1302652
191	0x3d572f84	0.05253555
192	0x3de88f54	0.11355463
193	0xbd9b2803	-0.07575991
194	0x3c80383d	0.015651817
195	0x3cfd7d41	0.030943515
196	0xbd09d207	-0.033647563
197	0xb9144a93	-0.00014142161
198	0x3dd6ad4d	0.10482273
199	0x3dacaf88	0.084319174
200	0xbe0818c1	-0.13290693
201	0x3d813974	0.063097864
202	0x3cfc618b	0.03080823
203	0x3e53f957	0.20700584
204	0xbba30c8b	-0.0049758605
205	0x3c408d91	0.011752502
206	0xbc5c3f23	-0.013442787
207	0x3d9a7437	0.075416975
208	0x3e016e4a	0.12639728
209	0x3d866e23	0.06563976
210	0x3e1c94cd	0.15291138
211	0x3e6d1a49	0.23154558
212	0xbe070f68	-0.13189471
213	0xbe3c606b	-0.18396156
214	0xbd8ccccf	-0.06875002
215	0x3c1e8c37	0.0096769845
216	0x3d31561e	0.04329502
217	0x3d2281c8	0.03967455
218	0xbe1979a3	-0.14987807
219	0xbcd32676	-0.025775176
220	0x3d0b386d	0.03398936
221	0x3cd64247	0.02615465
222	0xbe4ca86e	-0.19986126
223	0x3c8437db	0.016139915
224	0x3c6a73a3	0.0143097965
225	0x3d675299	0.056475256
226	0xbe03a971	-0.12857606
227	0xbe80245f	-0.2502775
228	0x3c90690e	0.017628219
229	0xbc55d5e5	-0.013051485
230	0x3e072a59	0.13199748
231	0x3b6a9f7f	0.0035800633
232	0xbdb8a784	-0.09016326
233	0x3e084530	0.13307643
234	0x3e0295f2	0.12752512
235	0x3e0c5b29	0.1370665
236	0x3e1acb9d	0.15116735
237	0x3de70aab	0.11281332
238	0xbb2b3767	-0.0026125552
239	0xbd9594cd	-0.07303772
240	0xbd342e58	-0.04398951
241	0xbd1c7f36	-0.038207255
242	0xbce5905d	-0.02802294
243	0x3c8d8230	0.017273992
244	0xbc1dca93	-0.009630817
245	0xbcee6897	-0.029102607
246	0xbd862e69	-0.06551821
247	0xbbe69881	-0.007037223
248	0xbdbcbbfe	-0.09215544
249	0xbc9000cc	-0.017578505
250	0xbd77f11d	-0.060532678
251	0xbd433db5	-0.04766627
252	0xbdd05e6d	-0.1017426
253	0xbe075e1e	-0.13219497
254	0xbd5721b8	-0.05252239
255	0x3d329c1f	0.04360592
