examples/carbon/outDir/epoch=178-step=88995-val_loss=0.2136-v1.pt (torch, 745777 bytes, 92 tensors)

cutoff f8 []
3.0
00000000: 0000 0000 0000 0840

weight f4 [7, 64]
0.84871036 0.69200915 -0.31601277 -2.1152194 -0.35612836 0.43722272 0.49130496 -0.20410173
0.11984151 1.2376579 1.1167772 -0.24727815 -1.0437516 -1.3453052 0.7853556 0.9928375
0.59883946 -1.5550951 -0.3413604 1.8530061 0.4680964 -0.15771244 1.4436601 0.2660494
1.3893661 1.5863342 0.94629836 -0.84367675 0.9318266 1.2590092 2.0049806 0.053736903
0.43969584 0.112411186 0.64079237 0.44115627 -0.21586326 -0.74254817 0.5627214 0.2596274
0.52286047 2.3022053 -1.4688939 -1.5866888 1.2032237 0.0845347 -1.2001394 -0.004785738
-0.23033547 -0.3917544 0.5432947 -0.39515755 0.20552567 -0.45032975 -0.5730771 -0.5553584
-1.5311843 -1.234135 1.8197253 -0.5515287 -1.325326 0.18855357 -0.069072686 -0.49492535
-1.478174 2.5672328 -0.4731198 0.33555076 1.5091219 2.0819554 1.7067116 2.3803675
-1.0669804 1.1149396 -0.14067143 0.8057536 0.3276143 -0.7607072 -1.599082 0.018486667
0.8418941 -0.40003416 1.039462 0.3581531 -0.003303873 -0.5344407 1.1686878 0.39450276
-1.0449786 -0.9565008 0.03353186 0.7100866 -1.5352871 -0.41267914 0.9663033 1.6247832
-2.6133225 -1.6964744 -0.22824179 0.279955 0.07324605 1.1133184 0.28226724 0.43422565
0.45694014 -0.86537135 0.78130794 -0.9267894 0.20641631 -0.33344787 -0.42883 0.23291829
0.9625183 0.34916824 -0.921462 -0.056194786 -0.7015236 1.0366868 -0.6036701 -1.2787652
0.12390248 1.1647835 0.9233735 1.3872952 1.3750379 0.6596311 0.4765571 -1.0163075
0.6103646 0.46688354 1.9506571 -1.0630985 1.1403507 -0.08988207 0.72979623 -1.845319
-0.10209263 -1.0335484 -0.31263882 0.24578547 0.37718192 1.1012348 -1.1427778 0.037585396
0.28857616 0.38659775 -0.20106392 -0.117926985 -0.82936686 -1.4072566 1.6268467 0.1722732
-0.70429397 0.31472096 0.15739289 0.3853627 0.5736546 0.9979313 0.54360944 0.07880439
0.9984566 -0.49871477 0.7611109 0.61830086 -0.29938447 -0.18777807 1.9158976 0.6901953
-0.314035 -1.078708 0.24081051 -1.3962272 0.1135521 1.1047257 -1.395172 0.47511873
1.0810726 0.13147806 1.5735383 0.78142995 0.9874366 -1.4878075 0.58668745 0.15829536
0.66678107 -0.99438965 -1.189364 -1.1959494 1.311892 -0.20983894 0.7817313 0.98969257
0.17151096 0.87604475 -0.2870874 1.0216401 -0.51107377 -1.7137278 -0.5100648 -0.47489312
0.66227406 -1.2063024 0.6074397 -0.5471568 -1.1004796 -0.7201275 0.011930507 0.3397729
-1.2536547 0.9868361 -0.49465504 -1.283043 0.4386492 -0.010704049 1.3383542 -0.27940503
0.2877034 -0.033374783 -1.0618885 -0.11442617 0.1953929 -0.7371095 1.7001015 0.34621555
-0.14475703 0.6376178 -0.28129023 -1.3298751 -0.6537996 1.7198241 -0.9609554 -0.6375025
-0.8869632 0.8387747 1.1528951 -1.7610981 -1.1070389 -1.7173612 1.534561 -0.0032062111
1.4403422 -0.11059419 0.57686025 -0.16917409 1.1886791 -0.15750733 -0.045538586 0.64847344
-0.8707436 0.14474289 1.9028565 0.3903958 0.03306363 -1.0234498 0.7335114 1.1177199
00000000: 1545 593f 8327 313f 6dcc a1be c15f 07c0
00000010: 7556 b6be a8db df3e 538c fb3e 0b00 51be
00000020: 776f f53d 936b 9e3f 8ef2 8e3f 7c36 7dbe
00000030: a799 85bf f632 acbf 110d 493f 992a 7e3f
00000040: 8b4d 193f 5b0d c7bf cac6 aebe 4e2f ed3f
00000050: 55aa ef3e 5f7f 21be dbc9 b83f a137 883e
00000060: c0d6 b13f 000d cb3f 9c40 723f 33fb 57bf
00000070: 308c 6e3f 3727 a13f 9a51 0040 3a1b 5c3d
00000080: d01f e13e d637 e63d f80a 243f 3cdf e13e
00000090: 420b 5dbe a317 3ebf 820e 103f e2ed 843e
000000a0: 2fda 053f 5557 1340 b704 bcbf 9e18 cbbf
000000b0: 3c03 9a3f 8720 ad3d 2b9e 99bf aed1 9cbb
000000c0: 10dd 6bbe 0894 c8be 5d15 0b3f 1752 cabe
000000d0: 5275 523e 9f91 e6be 2eb5 12bf f82b 0ebf
000000e0: d9fd c3bf 23f8 9dbf c2ec e83f fc30 0dbf
000000f0: 48a4 a9bf 3014 413e fb75 8dbd db66 fdbe
00000100: ce34 bdbf 8b4d 2440 c23c f2be 4fcd ab3e
00000110: e82a c13f c23e 0540 8775 da3f f157 1840
00000120: d092 88bf 57b6 8e3f 2c0c 10be de45 4e3f
00000130: 10bd a73e b5bd 42bf b8ae ccbf 5a71 973c
00000140: 5f86 573f 47d1 ccbe 170d 853f d85f b73e
00000150: ca85 58bb 1bd1 08bf 9097 953f 44fc c93e
00000160: dcc1 85bf 3ddd 74bf b458 093d 3cc8 353f
00000170: 4a84 c4bf ae4a d3be a75f 773f e5f8 cf3f
00000180: ad40 27c0 1326 d9bf 37b8 69be 4356 8f3e
00000190: 0602 963d 3881 8e3f 5585 903e d352 de3e
000001a0: 0ff4 e93e fa88 5dbf cc03 483f 1242 6dbf
000001b0: cc5e 533e aeb9 aabe 9b8f dbbe 2282 6e3e
000001c0: 9967 763f 2ec6 b23e efe4 6bbf 812c 66bd
000001d0: 0d97 33bf 27b2 843f 208a 1abf 94ae a3bf
000001e0: 95c0 fd3d a017 953f 3562 6c3f e492 b13f
000001f0: 3e01 b03f 95dd 283f 4bff f33e 5d16 82bf
00000200: db40 1c3f 5c0b ef3e 22af f93f 9d13 88bf
00000210: 03f7 913f 1714 b8bd edd3 3a3f 6a33 ecbf
00000220: f115 d1bd 504b 84bf 3212 a0be 30af 7b3e
00000230: fd1d c13e 43f5 8c3f 8b46 92bf 25f3 193d
00000240: 41c0 933e 24f0 c53e b3e3 4dbe b483 f1bd
00000250: 6351 54bf fc20 b4bf 833c d03f 6368 303e
00000260: 9c4c 34bf 1b23 a13e 9a2b 213e 434e c53e
00000270: 07db 123f 6d78 7f3f fd29 0b3f 3264 a13d
00000280: da9a 7f3f 8b57 ffbe 2ad8 423f f748 1e3f
00000290: ec48 99be e548 40be 223c f53f a4b0 303f
000002a0: 32c9 a0be 1b13 8abf 0897 763e 93b7 b2bf
000002b0: 018e e83d a767 8d3f ff94 b2bf c342 f33e
000002c0: 9660 8a3f 2fa2 063e b469 c93f cb0b 483f
000002d0: a5c8 7c3f 7a70 bebf 2631 163f 2e18 223e
000002e0: 2ab2 2a3f 5290 7ebf 143d 98bf df14 99bf
000002f0: 14ec a73f 05e0 56be 8b1f 483f 7e5c 7d3f
00000300: 92a0 2f3e 7844 603f 1ffd 92be 1ac5 823f
00000310: bbd5 02bf 6f5b dbbf 9b93 02bf 3125 f3be
00000320: cb8a 293f 1e68 9abf 2b81 1b3f 7812 0cbf
00000330: 84dc 8cbf 475a 38bf 2c78 433c b7f6 ad3e
00000340: c277 a0bf 4aa1 7c3f 6d43 fdbe c13a a4bf
00000350: a196 e03e 0960 2fbc 314f ab3f 2d0e 8fbe
00000360: dc4d 933e ffb3 08bd f6eb 87bf 4558 eabd
00000370: 1415 483e 35b3 3cbf ed9c d93f 2a43 b13e
00000380: 303b 14be ec3a 233f 4605 90be 5939 aabf
00000390: 695f 27bf 3223 dc3f 2c01 76bf 5d33 23bf
000003a0: 0510 63bf f0b9 563f 1192 933f aa6b e1bf
000003b0: 73b3 8dbf 7ed2 dbbf 7f6c c43f 4c1f 52bb
000003c0: 225d b83f 357f e2bd 1dad 133f f93b 2dbe
000003d0: a326 983f 9a49 21be ab86 3abd 5b02 263f
000003e0: 0de9 5ebf 7b37 143e cd90 f33f f5e1 c73e
000003f0: bb6d 073d 6700 83bf 67c7 3b3f 7211 8f3f

weight f4 [64, 64]
0.18297294 0.13908677 -0.2006863 -0.1457381 0.1213903 -0.04499029 -0.030905798 0.129683
-0.24333178 0.06047193 0.14153913 0.20084417 0.20224866 0.18675233 -0.041527737 -0.121379524
0.11814423 0.15194444 -0.111917585 0.0073236856 -0.061696272 -0.1485014 0.15168147 0.07792099
0.15388885 0.10657089 0.13717581 0.039853767 -0.025289828 0.048064172 0.030714817 -0.031810597
0.20651895 -0.08028294 -0.124560185 -0.01928819 -0.045472357 -0.24355878 0.09664557 -0.18638243
0.10048182 -0.05734203 0.1828558 0.092394516 0.14728819 -0.010472334 0.020200046 0.09137597
0.1222956 0.08349801 -0.10340292 -0.14085199 -0.13806209 -0.17345247 -0.05047583 0.21227488
-0.15385014 -0.22398552 0.002663007 0.050923664 -0.07204784 -0.18607515 0.02847037 -0.21382567
-0.09558745 -0.028425014 0.15124533 -0.021557193 0.005590363 -0.037746523 0.044611055 -0.061985407
-0.02535664 -0.12875128 -0.08019199 -0.11844287 -0.04954809 -0.027584124 0.18365726 0.003915388
-0.1125878 -0.021554213 0.13646911 -0.017576654 0.04948867 0.08699069 -0.12911461 0.09863108
-0.10133624 -0.101125345 0.08805343 -0.092537716 -0.020801237 -0.09562296 -0.0065896586 -0.039468825
0.053918112 -0.104628675 -0.006375883 0.13741682 0.04729708 0.00997542 -0.16508672 0.102616824
0.038494326 0.048883114 -0.13738695 0.042170595 -0.18781579 0.024955193 0.029930137 -0.119608395
0.053013835 -0.0337913 -0.005967122 -0.038411047 -0.03095475 0.05690035 0.073339954 -0.11780581
0.07538349 0.006114679 0.018215237 -0.12638602 -0.08775538 0.13267152 0.044814378 0.146295
0.008364689 0.038195875 -0.07443449 -0.07182247 0.086108945 -0.1891414 0.035189006 0.11782262
-0.19195713 0.0744304 0.094157636 0.08989121 0.19466476 -0.021750178 -0.10453778 -0.0555961
-0.08885501 0.0894802 0.047453873 0.15095307 -0.121948816 -0.15175676 -0.01145295 -0.025842993
-0.0002074841 -0.06250816 -0.14645003 -0.10016978 -0.106786035 0.055047713 0.14595821 -0.03398329
0.1661904 -0.058789458 0.07775175 -0.2038729 -0.1949017 -0.053346667 0.13486843 -0.18423094
0.008405097 -0.17260762 0.17735039 0.024661165 0.04215673 -0.03776915 0.123348325 0.20219904
0.06847204 0.12685707 0.079321995 -0.08219735 -0.0354142 0.024069225 -0.06313151 -0.047527526
-0.08012619 0.05620141 0.08763491 0.16618529 0.14020441 -0.07426559 0.12499165 -0.10590719
0.09492659 0.24926256 -0.105521105 -0.302901 0.34325993 -0.19831413 -0.20583606 0.23896845
-0.15462741 0.11359483 0.19873062 0.1972986 0.1015622 0.06869399 -0.13848855 0.0022174239
0.23760888 0.26392037 -0.11012053 0.058334444 0.27290604 -0.07258809 0.19585831 0.22365768
0.3418935 0.20907009 0.23884897 0.23496617 -0.2179363 0.052742966 0.17924649 0.08099435
0.067938365 -0.18252082 -0.023491658 -0.33167693 -0.17863844 -0.32457045 0.115688846 -0.18497786
0.028870828 -0.1127446 0.3187208 0.3086056 0.15241987 -0.08285892 0.19261852 0.33012795
0.14536174 0.08545414 -0.11067932 -0.15294133 0.021539785 -0.29597124 -0.1463207 0.23086438
-0.26989204 -0.25536025 0.027948398 0.25166732 0.12032703 -0.06361885 0.2735891 -0.23904091
00000000: 425d 3b3e c36c 0e3e b680 4dbe 5e3c 15be
00000010: 7a9b f83d bd47 38bd 282e fdbc 9fcb 043e
00000020: f72b 79be 6ab1 773d a2ef 103e 18aa 4d3e
00000030: 461a 4f3e 013c 3f3e fd18 2abd d495 f8bd
00000040: 9af5 f13d 5397 1b3e 0c35 e5bd 87fb ef3b
00000050: 3bb5 7cbd c010 18be 6352 1b3e 0a95 9f3d
00000060: 0a95 1d3e d741 da3d d177 0c3e b43d 233d
00000070: 9d2c cfbc f0de 443d a49d fb3c d44b 02bd
00000080: b479 533e 626b a4bd 6919 ffbd 4402 9ebc
00000090: 3941 3abd 7967 79be 1dee c53d 09db 3ebe
000000a0: 6ac9 cd3d 7adf 6abd 8d3e 3b3e 5639 bd3d
000000b0: b7d2 163e 2794 2bbc 917a a53c 5323 bb3d
000000c0: 1e76 fa3d 0101 ab3d e9c4 d3bd 813b 10be
000000d0: 2660 0dbe 869d 31be bebf 4ebd 965e 593e
000000e0: e48a 1dbe 765c 65be d885 2e3b 5595 503d
000000f0: d18d 93bd 7c8a 3ebe b23a e93c 1ef5 5abe
00000100: 5ac3 c3bd 93db e8bc 0ee0 1a3e b698 b0bc
00000110: 5d2f b73b 199c 1abd 15ba 363d 69e4 7dbd
00000120: bab8 cfbc 60d7 03be b33b a4bd 2d92 f2bd
00000130: f0f2 4abd 1af8 e1bc a610 3c3e a84c 803b
00000140: 6f94 e6bd 7692 b0bc 8fbe 0b3e eafc 8fbc
00000150: a2b4 4a3d 2d28 b23d 9f36 04be 17ff c93d
00000160: 6089 cfbd ce1a cfbd 5b55 b43d 6a84 bdbd
00000170: 5b67 aabc f8d5 c3bd 10ee d7bb 10aa 21bd
00000180: 3dd9 5c3d 8f47 d6bd c8ec d0bb ffb6 0c3e
00000190: 95ba 413d f26f 233c 7e0c 29be c528 d23d
000001a0: 3aac 1d3d a939 483d 2aaf 0cbe 13bb 2c3d
000001b0: c852 40be d56e cc3c 0c30 f53c 3ff5 f4bd
000001c0: 0925 593d bf68 0abd d987 c3bb e754 1dbd
000001d0: d194 fdbc 5710 693d 4233 963d 2c44 f1bd
000001e0: a962 9a3d a55d c83b 1f38 953c 566b 01be
000001f0: 18b9 b3bd 0bdb 073e 488f 373d 5bce 153e
00000200: 0c0c 093c 4773 1c3d 1c71 98bd a917 93bd
00000210: e359 b03d 48ae 41be 5922 103d fc4c f13d
00000220: 6990 44be f76e 983d b8d5 c03d e218 b83d
00000230: 3356 473e 6e2d b2bc e717 d6bd bcb8 63bd
00000240: 9ef9 b5bd 6541 b73d fe5e 423d 7193 1a3e
00000250: 4dc0 f9bd 2066 1bbe 27a5 3bbc afb4 d3bc
00000260: 1790 59b9 4704 80bd fff6 15be d025 cdbd
00000270: a3b2 dabd b679 613d 1276 153e 1032 0bbd
00000280: d12d 2a3e 37cd 70bd 4f3c 9f3d 0fc4 50be
00000290: 5094 47be 0982 5abd f31a 0a3e 09a7 3cbe
000002a0: 88b5 093c 0dc0 30be 579b 353e 3606 ca3c
000002b0: 89ac 2c3d d3b3 1abd 0c9e fc3d 440d 4f3e
000002c0: 123b 8c3d d2e6 013e 9273 a23d 1657 a8bd
000002d0: 7b0e 11bd d32c c53c 184b 81bd 39ac 42bd
000002e0: 3319 a4bd 7333 663d ef79 b33d 7a2c 2a3e
000002f0: bf91 0f3e 8f18 98bd 9ffb ff3d dee5 d8bd
00000300: df68 c23d af3e 7f3e 731b d8bd d715 9bbe
00000310: c4bf af3e dc12 4bbe b0c6 52be 25b4 743e
00000320: a656 1ebe 68a4 e83d 0a80 4b3e a508 4a3e
00000330: d8ff cf3d 6faf 8c3d f1cf 0dbe 3352 113b
00000340: be4f 733e 9220 873e df86 e1bd 19f0 6e3d
00000350: 57ba 8b3e 11a9 94bd 158f 483e 8506 653e
00000360: aa0c af3e 7816 563e d394 743e f99a 703e
00000370: b22a 5fbe 0209 583d 648c 373e 5ee0 a53d
00000380: 4523 8b3d bde6 3abe 9471 c0bc 8fd1 a9be
00000390: ffec 36be 192e a6be 46ee ec3d d66a 3dbe
000003a0: 8482 ec3c a4e6 e6bd 5f2f a33e 8e01 9e3e
000003b0: f413 1c3e f0b1 a9bd ca3d 453e 8806 a93e
000003c0: b5d9 143e 9502 af3d d7ab e2bd a79c 1cbe
000003d0: 3474 b03c 8b89 97be 18d5 15be b667 6c3e
000003e0: 4a2f 8abe 94be 82be 0af4 e43c 8ada 803e
000003f0: 056e f63d 9a4a 82bd df13 8c3e 24c7 74be

weight f4 [64, 64]
0.061334148 -0.13638976 -0.17931616 -0.19313373 0.08090792 -0.080000415 -0.18777433 -0.002603457
-0.122069694 0.06642899 -0.013387216 0.15365152 -0.23557653 0.022640677 -0.1819613 -0.13782029
0.23151283 0.122805804 0.0787038 0.06140259 0.13125753 -0.0703221 0.028948486 -0.03505487
0.051588092 0.019938467 0.08676205 0.035143547 0.067343086 0.032846905 -0.13996024 0.018399399
-0.020757401 -0.06436466 -0.25351772 -0.06624722 -0.072474495 -0.06962487 -0.025288723 -0.14813155
-0.10620365 -0.15120146 0.05351043 0.1309226 0.036757354 -0.053210605 0.104172744 -0.12253232
0.11075956 0.11754403 -0.16768524 -0.12956698 -0.1263768 -0.14119694 -0.12496792 -0.02092906
-0.006698239 0.02010678 -0.15615366 -0.06579449 0.23715748 -0.061855156 0.011091063 0.036128186
-0.047854766 0.06453297 -0.07403612 0.048235964 0.17498437 -0.035584897 -0.008757036 0.08339724
-0.1375624 0.020871196 0.02256372 0.069719076 0.10394815 0.07941784 -0.032574292 0.04436477
0.022615978 -0.04563707 0.02997546 -0.09543601 0.21294916 0.038887706 0.15043211 -0.019411338
0.050686847 0.12117791 -0.061984133 0.14873157 0.04191267 0.073407084 0.026191402 0.091953665
-0.062102776 0.058519803 0.10820943 -0.06116479 -0.11252146 -0.050399788 0.18084402 0.07019588
-0.07986101 -0.21583088 -0.05104289 -0.111038044 0.1330949 -0.07293269 0.13571447 0.045441158
-0.14769827 0.024272999 0.067845084 0.0072098766 0.07142875 0.0026904265 -0.040119026 -0.089309104
0.034729235 -0.1226114 0.08989026 0.03907488 0.2135443 -0.10318311 0.026320064 -0.09473123
-0.06549395 -0.013269828 0.14664862 0.17365113 -0.012153213 0.09725764 0.13195197 -0.1110928
0.14706923 -0.1707733 -0.008615358 -0.10767569 -0.004061215 -0.11960257 0.06719156 0.089483544
-0.060677513 -0.04262909 0.10023976 -0.062462077 -0.040175814 -0.06654541 -0.13321435 -0.17262948
-0.09737443 0.0355466 -0.093650915 -0.03251812 0.01624529 -0.16382061 -0.11341534 0.062202174
0.07461062 -0.03698038 0.05667832 0.07289338 0.008721335 0.022278443 -0.003467967 0.05358465
-0.17696087 0.073644206 -0.11985968 -0.14462253 -0.110615656 0.03991351 -0.018469391 -0.108381756
0.103718445 0.010431078 0.037329964 -0.07453573 0.15070319 0.06329677 0.07238501 0.014032203
-0.041191697 0.040215142 0.028329229 -0.06741597 -0.15519147 0.118255675 -0.18694146 0.011748789
0.049412925 0.11661886 0.012326535 -0.06679128 -0.166964 0.09102991 0.11081524 0.05390648
-0.09053636 -0.035426743 0.0825639 -0.013748112 0.05293489 -0.023116158 0.05163624 -0.062137973
0.0026255595 -0.10418593 0.024878858 0.059515875 -0.07998401 -0.06585727 -0.14215304 0.09350607
-0.057023812 0.11244134 0.03102437 -0.065371044 0.018457811 -0.08747215 0.055098824 0.059205554
-0.00073400536 0.11742421 -0.0023488991 -0.04980185 0.13450247 0.16120084 -0.05168057 -0.09312347
-0.0064162663 0.14925891 0.0025375204 -0.022663143 -0.045419525 -0.04240588 -0.14226028 -0.0937582
0.18055323 -0.108194165 0.05611661 -0.042472694 0.078937896 0.005275675 0.07214655 0.060438983
0.107890196 0.10416063 0.19166714 -0.027848642 -0.08586431 0.081924155 -0.058445558 -0.058366302
00000000: 8439 7b3d c2a9 0bbe a89e 37be d9c4 45be
00000010: 0db3 a53d 42d7 a3bd ea47 40be c39e 2abb
00000020: adff f9bd ec0b 883d 0e56 5bbc d356 1d3e
00000030: f93a 71be f178 b93c 1054 3abe c320 0dbe
00000040: b311 6d3e 9c81 fb3d 752f a13d 4881 7b3d
00000050: 6068 063e 0805 90bd 6025 ed3c b295 0fbd
00000060: 094e 533d ff55 a33c 4db0 b13d aef2 0f3d
00000070: 2ceb 893d 7a8a 063d bd51 0fbe 56ba 963c
00000080: 6d0b aabc 9ed1 83bd 13cd 81be 9fac 87bd
00000090: 826d 94bd 7c97 8ebd 4c2a cfbc ccaf 17be
000000a0: 4d81 d9bd 8ed4 1abe c12d 5b3d 9310 063e
000000b0: e18e 163d 5df3 59bd 8558 d53d 3af2 fabd
000000c0: e8d5 e23d edba f03d aeb5 2bbe 35ad 04be
000000d0: eb68 01be ee95 10be 2eef ffbd 6c73 abbc
000000e0: e77c dbbb f9b6 a43c bfe6 1fbe 43bf 86bd
000000f0: 69d9 723e d55b 7dbd 4ab7 353c 26fb 133d
00000100: 5c03 44bd dd29 843d 40a0 97bd 1393 453d
00000110: 1a2f 333e 78c1 11bd ac79 0fbc 2ccc aa3d
00000120: 28dd 0cbe 12fa aa3c 8dd7 b83c e0c8 8e3d
00000130: c5e2 d43d d2a5 a23d 9f6c 05bd d5b7 353d
00000140: 2545 b93c f0ed 3abd 198f f53c f473 c3bd
00000150: 580f 5a3e b748 1f3d e00a 1a3e 8704 9fbc
00000160: 039d 4f3d 202c f83d 13e3 7dbd 174d 183e
00000170: 9fac 2b3d 7456 963d 5a8f d63c 3452 bc3d
00000180: 7b5f 7ebd 76b2 6f3d e89c dd3d ee87 7abd
00000190: a771 e6bd 0270 4ebd 2d2f 393e dcc2 8f3d
000001a0: 2b8e a3bd c502 5dbe 5912 51bd ea67 e3bd
000001b0: 084a 083e bc5d 95bd bcf8 0a3e 8220 3a3d
000001c0: 373e 17be 2bd8 c63c 5df2 8a3d d440 ec3b
000001d0: 3d49 923d de51 303b d953 24bd b1e7 b6bd
000001e0: 3e40 0e3d b01b fbbd 6218 b83d fb0c 203d
000001f0: 5bab 5a3e ab51 d3bd 2d9d d73c 7202 c2bd
00000200: b121 86bd b169 59bc 0e2b 163e 9ad1 313e
00000210: 451e 47bc 032f c73d 6b1e 073e 9f84 e3bd
00000220: 5199 163e 32df 2ebe 6e27 0dbc 1285 dcbd
00000230: f113 85bb 31f2 f4bd bb9b 893d 2643 b73d
00000240: fc88 78bd d79b 2ebd 814a cd3d 3cd8 7fbd
00000250: 658f 24bd f648 88bd 5869 08be c8c5 30be
00000260: 3f6c c7bd 5099 113d 0dcc bfbd b831 05bd
00000270: d814 853c 97c0 27be 4d46 e8bd b5c7 7e3d
00000280: 74cd 983d bd78 17bd 8727 683d 2049 953d
00000290: eee3 0e3c 4881 b63c d546 63bb 947b 5b3d
000002a0: 3b35 35be c6d2 963d fe78 f5bd ee17 14be
000002b0: 768a e2bd 597c 233d 1f4d 97bc 41f7 ddbd
000002c0: 566a d43d 1de7 2a3c 4ee7 183d 30a6 98bd
000002d0: f051 1a3e bda1 813d 983e 943d 53e7 653c
000002e0: a0b8 28bd a2b8 243d b312 e83c 6211 8abd
000002f0: 83ea 1ebe 0830 f23d 956d 3fbe fe7d 403c
00000300: 3565 4a3d ded5 ee3d 3cf5 493c dec9 88bd
00000310: 9cf8 2abe e46d ba3d 1af3 e23d 0bcd 5c3d
00000320: 216b b9bd a21b 11bd 4317 a93d c33f 61bc
00000330: 41d2 583d 195e bdbc 8680 533d 6384 7ebd
00000340: 9411 2c3b 6f5f d5bd bfce cb3c ebc6 733d
00000350: a8ce a3bd 2de0 86bd 9190 11be 1c80 bf3d
00000360: cd91 69bd a547 e63d d226 fe3c 41e1 85bd
00000370: d634 973c 9924 b3bd 4eaf 613d 8681 723d
00000380: 446a 40ba 1b7c f03d fdef 19bb 06fd 4bbd
00000390: 04bb 093e d511 253e 01af 53bd 85b7 bebd
000003a0: 8b3f d2bb 54d7 183e 874c 263b 0ea8 b9bc
000003b0: d309 3abd cab1 2dbd aeac 11be 4d04 c0bd
000003c0: f2e2 383e e794 ddbd 88da 653d d9f7 2dbd
000003d0: 31aa a13d 92df ac3b 92c1 933d de8e 773d
000003e0: 89f5 dc3d 2b52 d53d 6444 443e d622 e4bc
000003f0: a1d9 afbd dac7 a73d 9c64 6fbd 8111 6fbd

weight f4 [64, 64]
-0.069706 0.01557117 -0.11212244 -0.08529249 0.15552552 -0.1449869 0.017685074 -0.11361142
-0.10679364 -0.051155172 -0.064466536 -0.04976641 0.0015542454 -0.04001198 -0.13360116 -0.07499294
0.043355983 -0.07893808 -0.038934086 0.13440664 -0.05189597 0.003656773 -0.08115922 0.02325325
-0.016568672 0.05112329 -0.09674518 0.13639669 -0.009488882 0.053498313 0.014604294 -0.07791973
0.12146743 0.14784953 0.026027983 -0.1075733 0.014746528 -0.023630256 0.10753798 -0.14293835
-0.008470597 -0.130492 -0.08404145 0.08507169 0.057629135 0.073079824 0.0065009715 -0.0017892398
0.12393756 0.12604366 0.061407804 0.04093414 -0.1358176 0.031716593 -0.061718084 0.10149542
-0.07146267 -0.09015752 -0.031849176 -0.1118526 0.00040271276 -0.033360735 0.15833956 -0.09988222
-0.09938323 0.032316975 0.16386849 0.03384982 -0.039770473 0.047655635 -0.1138842 0.097552925
0.033053007 -0.039186172 -0.082399145 -0.030320836 -0.09078557 0.06731707 0.08188457 -0.1506033
0.09430072 -0.032507583 -0.08398583 -0.0094459 -0.040199034 -0.031217592 0.096072346 0.03888855
0.15058537 0.049728896 -0.12123567 0.19039206 -0.116249725 0.05004161 0.035059437 0.07030443
-0.042464424 -0.10909582 0.051976614 -0.07843233 0.044921726 0.002009292 0.06844434 -0.062097166
0.088644825 -0.023363784 -0.012454543 -0.066037044 -0.032505188 0.088882 -0.063062266 -0.088149734
0.025508575 -0.046330437 0.021540962 0.085086145 0.034673005 0.10630695 -0.04525845 0.021648122
-0.08212377 -0.11093389 0.025756331 0.038945965 0.1835764 0.12021671 0.06819624 -0.10978392
-0.076953314 0.029698702 -0.03525113 0.016181799 -0.0022223801 -0.0828039 -0.09416244 0.08140178
-0.010507454 -0.035634037 0.03588587 -0.0515911 -0.098694466 0.06882458 -0.08885153 -0.10998473
-0.0092272395 0.09727046 0.07346191 -0.010441204 0.06932259 -0.047655974 0.044156123 0.107031316
0.02116316 0.17115189 0.09164298 0.07550241 -0.031522483 0.07956307 0.083291225 -0.07226945
0.0852701 -0.15144655 -0.11699687 0.00689919 -0.021264201 0.08215323 0.07894608 0.031158302
0.123498194 -0.06766473 0.105448626 0.058583207 0.021957858 0.06550268 -0.11965202 -0.055266753
0.12467035 0.027421894 -0.051610686 -0.13734026 -0.15838091 0.0036903082 -0.045608785 0.13347389
-0.01820217 -0.066435516 -0.06658661 -0.117083184 -0.034740567 0.04712925 0.07620167 -0.083383
0.08220203 -0.048708037 -0.023079084 -0.14313988 0.08485367 0.13208216 0.16922048 0.12917815
-0.058881994 -0.07098829 0.043752756 -0.021306248 0.062418543 0.05813426 0.0028078163 -0.01254863
-0.1873921 -0.13063638 -0.12492902 0.07110418 -0.1611371 0.033966634 -0.07536106 0.015678601
-0.05569448 0.09004081 -0.09164208 -0.054207765 0.05808598 -0.030545013 -0.024124067 0.0020840145
-0.08785852 0.057770196 -0.0067876517 -0.16087076 -0.042260416 -0.077554934 -0.1480952 -0.1289794
0.044285007 0.014276616 -0.010870748 -0.017877936 -0.020989465 0.08059297 0.10473118 0.13601454
-0.020478249 0.08380678 -0.05325223 0.09727966 0.102847666 0.07135855 0.16440977 0.041876115
0.018798776 -0.09535783 0.025261892 0.16172796 -0.0059778513 -0.105778806 -0.13529316 0.088902004
00000000: 05c2 8ebd 381e 7f3c 73a0 e5bd d4ad aebd
00000010: 1542 1f3e 7277 14be 4ae0 903c 1bad e8bd
00000020: a0b6 dabd 1688 51bd 0807 84bd ddd7 4bbd
00000030: d2b7 cb3a 9ae3 23bd bece 08be e695 99bd
00000040: 0b96 313d 4aaa a1bd 5979 1fbd e5a1 093e
00000050: de90 54bd 78a6 6f3b ce36 a6bd 9a7d be3c
00000060: 06bb 87bc a866 513d 5622 c6bd 93ab 0b3e
00000070: 4177 1bbc 0c21 5b3d d946 6f3c 6194 9fbd
00000080: eac3 f83d de65 173e a338 d53c 644f dcbd
00000090: 6c9b 713c 3d94 c1bc df3c dc3d 6e5e 12be
000000a0: 42c8 0abc b29f 05be ec1d acbd 113a ae3d
000000b0: 870c 6c3d e0aa 953d 1a06 d53b ed84 eaba
000000c0: fad2 fd3d 9711 013e c086 7b3d 8faa 273d
000000d0: c513 0bbe 42e9 013d 1acc 7cbd d5dc cf3d
000000e0: 055b 92bd 81a4 b8bd 4874 02bd fa12 e5bd
000000f0: 3123 d339 44a5 08bd c423 223e 0d8f ccbd
00000100: 6f89 cbbd ce5e 043d 24cd 273e 1ca6 0a3d
00000110: 5de6 22bd 8e32 433d 1f3c e9bd d4c9 c73d
00000120: 9762 073d ae81 20bd e2c0 a8bd 6763 f8bc
00000130: c9ed b9bd 88dd 893d 19b3 a73d c037 1abe
00000140: bc20 c13d ac26 05bd c300 acbd fac2 1abc
00000150: bea7 24bd 09bc ffbc 94c1 c43d 9a49 1f3d
00000160: 0d33 1a3e 87b0 4b3d 684a f8bd 23f6 423e
00000170: 5614 eebd 6ef8 4c3d 7c9a 0f3d c5fb 8f3d
00000180: 2def 2dbd a16d dfbd 6ee5 543d 21a1 a0bd
00000190: d8ff 373d 53ae 033b 8c2c 8c3d 9959 7ebd
000001a0: 6b8b b53d 6865 bfbc 240e 4cbc 6e3e 87bd
000001b0: 2924 05bd c407 b63d ca26 81bd d987 b4bd
000001c0: 5cf7 d03c fcc4 3dbd ac76 b03c a541 ae3d
000001d0: 4805 0e3d 75b7 d93d ed60 39bd 6757 b13c
000001e0: 8230 a8bd 4f31 e3bd f1fe d23c ce85 1f3d
000001f0: 74fb 3b3e 2e34 f63d 78aa 8b3d 64d6 e0bd
00000200: b399 9dbd b14a f33c 7d63 10bd b18f 843c
00000210: 5aa5 11bb 1795 a9bd 3dd8 c0bd fab5 a63d
00000220: 7527 2cbc fff4 11bd 10fd 123d 3051 53bd
00000230: 5320 cabd e7f3 8c3d caf7 b5bd ad3f e1bd
00000240: d92d 17bc bc35 c73d 3373 963d 9511 2bbc
00000250: 01f9 8d3d e932 43bd 0ddd 343d 3c33 db3d
00000260: 5d5e ad3c 7142 2f3e 51af bb3d 02a1 9a3d
00000270: b81d 01bd f6f1 a23d 9794 aa3d 0102 94bd
00000280: 17a2 ae3d ce14 1bbe 0e9c efbd 9a12 e23b
00000290: 4332 aebc f43f a83d 7bae a13d b23f ff3c
000002a0: 9fec fc3d ce93 8abd 73f5 d73d f2f4 6f3d
000002b0: f7e0 b33c 4526 863d 1e0c f5bd 645f 62bd
000002c0: 2b53 ff3d e1a3 e03c ba65 53bd eda2 0cbe
000002d0: 9b2e 22be 19d9 713b 47d0 3abd 61ad 083e
000002e0: b81c 95bc 580f 88bd 905e 88bd 4fc9 efbd
000002f0: 204c 0ebd 9a0a 413d 9f0f 9c3d b5c4 aabd
00000300: 8a59 a83d 1482 47bd 5910 bdbc 4393 12be
00000310: c3c7 ad3d 8c40 073e 2248 2d3e 4747 043e
00000320: 3f2e 71bd 4f62 91bd 1736 333d 718a aebc
00000330: 96aa 7f3d 311e 6e3d 5703 383b c598 4dbc
00000340: b7e3 3fbe 8bc5 05be c9da ffbd 119f 913d
00000350: 2001 25be 9920 0b3d e656 9abd 6970 803c
00000360: e51f 64bd 5167 b83d d8ae bbbd f608 5ebd
00000370: 91eb 6d3d 8939 fabc d69f c5bc f693 083b
00000380: 2bef b3bd 71a0 6c3d f36a debb 4ebb 24be
00000390: 4219 2dbd 1fd5 9ebd 45a6 17be 2d13 04be
000003a0: 3264 353d 78e8 693c 391b 32bc c074 92bc
000003b0: 19f2 abbc ed0d a53d 4d7d d63d 6547 0b3e
000003c0: 00c2 a7bc e4a2 ab3d 031f 5abd 8f3a c73d
000003d0: cca1 d23d 6e24 923d 095b 283e 4a86 2b3d
000003e0: e4ff 993c f74a c3bd 07f2 ce3c 049c 253e
000003f0: dae1 c3bb 8fa2 d8bd 4a8a 0abe 4112 b63d

freqs f4 [8]
0.93481284 2.1806903 3.1753023 4.0643687 5.277093 6.2648 7.361474 8.483888
00000000: e54f 6f3f 6e90 0b40 2738 4b40 4f0f 8240
00000010: f2dd a840 3e79 c840 3291 eb40 01be 0741

weight f4 [64, 8]
0.23085052 0.092440106 0.03901931 0.20781887 -0.19748285 0.08906799 0.05279607 0.026148668
-0.35591486 -0.34149215 -0.11414727 -0.22826818 -0.30983964 -0.10198667 -0.018852213 0.0794943
-0.11583307 -0.15789132 -0.14409581 0.20000213 0.087568566 0.37745482 0.13604799 0.25616956
-0.11229005 -0.20085005 0.12577632 0.24675082 -0.09793714 0.07963397 -0.28282094 0.14857909
-0.41873696 -0.1041216 -0.1259582 -0.1368577 0.018614735 -0.16652025 0.37192625 -0.1495159
0.18965036 -0.3027175 0.21226937 0.25118923 -0.2678631 -0.11762226 -0.086428836 -0.056532178
0.08973957 0.318824 -0.05875182 0.08102578 -0.2585898 -0.18943873 -0.2909146 0.023075618
-0.010560816 0.3507111 0.19396587 -0.02492391 -0.12296558 0.041062642 -0.1724805 0.06513144
-0.1254018 -0.17255107 0.037651367 0.047762256 -0.054547302 0.016006617 -0.30234557 -0.124420665
-0.45696962 0.33391336 0.3364397 -0.31201568 -0.22654308 -0.27662596 0.20855409 0.0741183
-0.46843755 -0.11374853 0.2917228 -0.033211187 -0.28219247 0.15849383 0.33826986 0.3405346
0.1976851 -0.11943686 0.003121601 0.30625024 0.10248926 -0.2936942 0.17838007 0.09567919
-0.43311194 -0.22736026 0.26821166 0.27807754 -0.30222487 0.121963 0.23379263 0.06534468
0.26895788 0.12888229 0.13453257 0.146074 -0.07406254 0.023911696 -0.12501255 -0.08500523
0.21314205 -0.17058544 0.09425742 0.3081229 0.06280361 0.31475797 -0.04359954 -0.08632311
0.43653002 -0.1756622 0.35411614 0.3521134 -0.29641512 -0.13240376 0.26576626 -0.031890046
-0.40839052 0.045207944 -0.43458617 -0.0094900625 0.05473116 -0.11446642 -0.056745633 0.14683168
0.09885149 -0.049501985 -0.1598942 0.04092109 -0.032696657 -0.06423712 -0.11015199 0.062639385
-0.42865148 0.12701984 -0.17298909 0.3360919 0.009956308 0.17502673 0.066916525 -0.12022692
0.108876236 -0.28632677 0.084352344 0.33612886 -0.0954159 0.35525373 -0.26723957 0.15361643
0.27342337 -0.14140482 -0.36269376 -0.2871394 0.16754673 0.35694882 -0.28390598 -0.18723553
0.24912469 -0.051370624 -0.3245982 -0.07330961 0.10882524 -0.372638 -0.17269062 0.15049258
0.11659498 -0.13722979 0.40495428 0.05387167 0.20134771 -0.027773736 -0.15286098 0.2503188
-0.47536778 0.098581046 -0.1967402 -0.041577693 0.26788434 -0.3351407 0.034164507 -0.08147391
0.39452064 -0.2328176 -0.08880711 -0.20688547 0.265718 0.26807296 -0.026626142 0.080661304
0.534005 -0.23912503 0.09359912 0.35350457 -0.20008798 -0.27025923 0.2879314 0.2927654
0.24711508 0.26951385 0.15698533 -0.20332527 -0.3250109 0.021236155 -0.1812013 0.35133556
-0.022964375 0.20829143 -0.018234571 -0.0805161 -0.068428956 -0.2877758 -0.33337855 -0.10585395
-0.4441725 -0.30602214 0.18111803 -0.14622815 0.02581322 -0.022008732 -0.24775162 -0.13542521
-0.41143394 0.051914588 0.2811111 -0.008636687 0.09762285 0.20632514 0.18946701 0.052563835
-0.17965384 0.14740324 0.016725667 0.3063099 -0.081577614 0.2824738 0.18560873 0.32207558
0.18726224 0.04451647 -0.057609152 0.191709 0.2546697 0.24138917 -0.35721415 0.018609745
00000000: 1464 6c3e 3d51 bd3d b6d2 1f3d 78ce 543e
00000010: f238 4abe 4769 b63d b140 583d bb35 d63c
00000020: 793a b6be 0fd8 aebe 0bc6 e9bd 22bf 69be
00000030: 4da3 9ebe 63de d0bd f56f 9abc e8cd a23d
00000040: e339 edbd 43ae 21be da8d 13be 5ccd 4c3e
00000050: 2657 b33d c241 c13e 2a50 0b3e a828 833e
00000060: 53f8 e5bd a3ab 4dbe 82cb 003e 3fac 7c3e
00000070: 4493 c8bd 2317 a33d e8cd 90be 1e25 183e
00000080: b164 d6be b53d d5bd 30fb 00be 6d24 0cbe
00000090: ee7d 983c 4984 2abe 1e6d be3e b21a 19be
000000a0: b433 423e cafd 9abe 245d 593e e09b 803e
000000b0: 5a25 89be f0e3 f0bd 9a01 b1bd 498e 67bd
000000c0: 61c9 b73d e63c a33e c0a5 70bd d8f0 a53d
000000d0: e265 84be 3afc 41be c2f2 94be 1409 bd3c
000000e0: 4607 2dbc 6890 b33e fd9e 463e 3a2d ccbc
000000f0: 61d5 fbbd 4d31 283d ba9e 30be a263 853d
00000100: 5469 00be 3ab1 30be 5238 1a3d 5ba2 433d
00000110: fe6c 5fbd 4f20 833c 0acd 9abe 43d0 febd
00000120: ecf7 e9be b1f6 aa3e d341 ac3e 85c0 9fbe
00000130: e9fa 67be eba1 8dbe 348f 553e 56cb 973d
00000140: 0cd7 efbe fdf4 e8bd b15c 953e 7408 08bd
00000150: 887b 90be 354c 223e b531 ad3e 8d5a ae3e
00000160: f66d 4a3e 509b f4bd c693 4c3b d5cc 9c3e
00000170: e4e5 d13d 165f 96be 44a9 363e 73f3 c33d
00000180: d9c0 ddbe 21d1 68be 0a53 893e 2e60 8e3e
00000190: 38bd 9abe bdc7 f93d 5667 6f3e 6ed3 853d
000001a0: d9b4 893e b8f9 033e e8c2 093e 6c94 153e
000001b0: 1aae 97bd 76e2 c33c 4a03 00be 3917 aebd
000001c0: e941 5a3e f3ad 2ebe 090a c13d 49c2 9d3e
000001d0: 2e9f 803d f527 a13e 6e95 32bd 2cca b0bd
000001e0: dd80 df3e cbe0 33be b64e b53e 3548 b43e
000001f0: b9c3 97be da94 07be 8412 883e 239f 02bd
00000200: 9018 d1be f72b 393d 1482 debe 357c 1bbc
00000210: c82d 603d 5f6d eabd 1c6e 68bd 0b5b 163e
00000220: a672 ca3d 98c2 4abd 4ebb 23be df9c 273d
00000230: eeec 05bd c08e 83bd 5e97 e1bd 1449 803d
00000240: 3578 dbbe 7d11 023e 0d24 31be 3d14 ac3e
00000250: c81f 233c 353a 333e 880b 893d 8839 f6bd
00000260: 81fa de3d 6c99 92be ecc0 ac3d 1519 ac3e
00000270: 6969 c3bd d1e3 b53e a0d3 88be a04d 1d3e
00000280: 26fe 8b3e 6dcc 10be ffb2 b9be ef03 93be
00000290: 5f91 2b3e ffc1 b63e 205c 91be acba 3fbe
000002a0: 8b1a 7f3e 016a 52bd bc31 a6be 5923 96bd
000002b0: c4df de3d 68ca bebe cfd5 30be ba1a 1a3e
000002c0: 59c9 ee3d f785 0cbe 2b56 cf3e 8aa8 5c3d
000002d0: 182e 4e3e bf85 e3bc 9787 1cbe c929 803e
000002e0: 6863 f3be dce4 c93d 4376 49be 5f4d 2abd
000002f0: 2328 893e 9097 abbe 15f0 0b3d cbdb a6bd
00000300: 9cfe c93e bd67 6ebe 81e0 b5bd c9d9 53be
00000310: 310c 883e dc40 893e 111f dabc c131 a53d
00000320: 8db4 083f 31dd 74be e5b0 bf3d 8dfe b43e
00000330: dde3 4cbe 6b5f 8abe bf6b 933e 59e5 953e
00000340: bc0b 7d3e b8fd 893e c3c0 203e 8034 50be
00000350: d467 a6be 72f7 ad3c d58c 39be 41e2 b33e
00000360: c91f bcbc 594a 553e ab60 95bc a0e5 a4bd
00000370: 7b24 8cbd 5a57 93be 98b0 aabe f5c9 d8bd
00000380: 946a e3be efae 9cbe 0177 393e d5bc 15be
00000390: 3f76 d33c a84b b4bc 9ab2 7dbe e8ac 0abe
000003a0: 78a7 d2be 64a4 543d cbed 8f3e e480 0dbc
000003b0: 7dee c73d e646 533e a403 423e 2d4d 573d
000003c0: 2df7 37be e0f0 163e 4404 893c a7d4 9c3e
000003d0: 2a12 a7bd 68a0 903e 3710 3e3e 17e7 a43e
000003e0: acc1 3f3e e756 363d 93f7 6bbd 5d4f 443e
000003f0: 1164 823e b92e 773e c6e4 b6be 7773 983c

weight f4 [64, 64]
0.13007347 -0.1339258 -0.12999296 -0.079099886 0.019857058 0.05396534 -0.08118638 0.040623702
0.015236049 -0.07914156 0.018212652 0.10343122 0.021959614 0.01971109 -0.07186344 -0.034129392
-0.015255654 -0.09572249 0.034307946 -0.1385169 -0.08181499 0.10874793 0.064978905 -0.072157346
-0.003959607 0.019611122 0.009298986 0.027781663 -0.21004137 -0.13844195 -0.06946313 -0.0058178464
0.07782001 -0.06861769 -0.006738505 0.04229064 -0.06807857 -0.058994357 0.0021622977 -0.21229148
-0.0021737472 -0.0093139475 -0.010093159 -0.11510634 0.16468732 0.053040657 -0.13548182 0.04834922
-0.2126607 0.053213317 0.03961541 0.15863591 0.10856249 -0.032422043 -0.11309067 -0.16201355
0.016715102 0.1281797 -0.0029564667 -0.075775 0.05987192 0.13703954 0.067910396 0.052791763
0.10082022 0.058167685 0.11129701 0.074595004 0.045595944 0.074235834 0.017196843 -0.13589385
-0.010559861 -0.034127917 -0.0068620257 -0.07052216 -0.15080763 0.089897305 -0.07281317 -0.07567933
-0.096941575 0.0012307168 -0.09261635 -0.12848221 -0.0096482765 0.09592078 0.124925435 -0.19194771
-0.02231003 -0.025244383 -0.0066033164 0.0017595716 0.07645962 -0.046132114 0.09946303 -0.019951772
-0.115820765 0.036446124 0.06446957 0.1820887 -0.09163362 -0.026293952 -0.10738174 -0.11724781
0.0075276345 0.011276321 0.045306504 0.10302434 -0.052907445 0.026780907 -0.122064486 -0.029196523
0.05857585 0.063439414 -0.10460142 -0.10217536 -0.06343402 -0.098246925 -0.15898998 0.03127856
0.007361566 -0.013687624 0.07752066 -0.12700593 0.09766094 0.11025124 0.035025526 0.006673401
-0.11020021 -0.07039065 0.0878421 -0.13119932 -0.016991017 0.04780244 -0.04201654 0.009458375
-0.058742967 0.031991612 0.009434348 -0.0068811015 0.17160924 -0.09765138 0.081760414 -0.12640272
-0.08996233 0.05329911 -0.03689482 0.07506819 -0.00350615 -0.16450615 -0.13497806 0.111024246
-0.13633798 -0.040912606 0.024108687 -0.08147576 0.17048694 -0.010583375 0.017046336 -0.0015796286
0.1197206 -0.13473429 0.033100232 -0.07368335 0.07573249 0.035988666 -0.054542176 0.1362986
-0.044042453 -0.0409067 0.008255994 0.07792739 -0.03740818 0.05384986 -0.062423814 -0.0925864
0.1404909 -0.044411317 -0.041748006 0.023268167 -0.11022607 -0.040107198 0.0069852164 -0.0765281
0.066361226 0.080015406 -0.046820596 -0.033762313 -0.14834028 -0.11061055 -0.097492576 -0.03452186
0.047065064 -0.11573123 0.06638949 -0.056612607 -0.015558492 0.03634282 -0.0030051563 0.028033994
-0.12571324 -0.083172895 0.08932094 0.017336322 -0.065165006 0.0640486 0.11599029 0.13562591
-0.13608718 0.11308747 -0.16053388 -0.108988 0.0102929855 0.031929918 -0.09697972 -0.010737893
0.04230678 0.052844197 0.09019369 0.066324115 -0.11620751 0.024712196 0.08562529 -0.018262804
-0.100402616 -0.07629876 -0.059404805 -0.01877742 -0.16634543 -0.16583003 -0.07334328 -0.07798534
0.02325139 -0.13663761 0.022570089 -0.018286154 0.08302168 0.09219915 0.09578292 0.081363216
0.05609443 0.06533122 -0.028253421 0.013972049 0.057502203 -0.13108087 0.016231751 0.04212855
-0.087170675 0.0032254702 -0.030703878 0.0646272 0.03533707 0.13458325 0.0017166358 0.1597178
00000000: fb31 053e d823 09be e01c 05be 1fff a1bd
00000010: 45ab a23c c30a 5d3d 0b45 a6bd 0a65 263d
00000020: 9fa0 793c f814 a2bd b332 953c bfd3 d33d
00000030: a6e4 b33c 2779 a13c 242d 93bd 43cb 0bbd
00000040: daf2 79bc 270a c4bd 7d86 0c3d 60d7 0dbe
00000050: 9e8e a7bd 3cb7 de3d a913 853d 3bc7 93bd
00000060: 97bf 81bb 81a7 a03c c65a 183c 5f96 e33c
00000070: 1615 57be bac3 0dbe af42 8ebd a2a3 bebb
00000080: 1960 9f3d 6e87 8cbd adce dcbb f338 2d3d
00000090: c76c 8bbd 11a4 71bd 56b5 0d3b f062 59be
000000a0: 6d75 0ebb 8799 18bc c75d 25bc dfbc ebbd
000000b0: cba3 283e 2941 593d bfbb 0abe d509 463d
000000c0: bac3 59be 35f6 593d c543 223d 7471 223e
000000d0: 0356 de3d facc 04bd 159c e7bd e1e6 25be
000000e0: 1cee 883c 8a41 033e 48c1 41bb ec2f 9bbd
000000f0: 423c 753d 1854 0c3e 9b14 8b3d 2d3c 583d
00000100: d57a ce3d 3d41 6e3d b0ef e33d 44c5 983d
00000110: d0c2 3a3d f508 983d 65e0 8c3c c227 0bbe
00000120: 4403 2dbc b7c9 0bbd d8da e0bb ec6d 90bd
00000130: 516d 1abe 141c b83d 121f 95bd c4fd 9abd
00000140: 4e89 c6bd 0150 a13a a4ad bdbd d790 03be
00000150: ce13 1ebc 1d72 c43d e8d8 ff3d f18d 44be
00000160: 86c3 b6bc 4fcd cebc a260 d8bb 6da1 e63a
00000170: dc96 9c3d 07f5 3cbd 46b3 cb3d e671 a3bc
00000180: 7033 edbd 8848 153d 9f08 843d 7675 3a3e
00000190: 68aa bbbd 6a66 d7bc f5ea dbbd 9f1f f0bd
000001a0: 60aa f63b 51c0 383c 5093 393d 6dfe d23d
000001b0: 7ab5 58bd a263 db3c f2fc f9bd 8c2d efbc
000001c0: 3bed 6f3d 86ec 813d 4539 d6bd 5141 d1bd
000001d0: b2e9 81bd af35 c9bd 45ce 22be f31d 003d
000001e0: 4b39 f13b 0e42 60bc 27c3 9e3d d80d 02be
000001f0: 7502 c83d 67cb e13d ed76 0f3d 8cac da3b
00000200: a6b0 e1bd f928 90bd 8fe6 b33d 1d59 06be
00000210: bf30 8bbc 7ecc 433d 8919 2cbd 4df7 1a3c
00000220: 779c 70bd a309 033d 8692 1a3c dd7a e1bb
00000230: 55ba 2f3e 72fd c7bd 0172 a73d b76f 01be
00000240: 2c3e b8bd 2b50 5a3d 061f 17bd 5abd 993d
00000250: 70c7 65bb 4d74 28be b037 0abe ae60 e33d
00000260: 2f9c 0bbe fa93 27bd 957f c53c c3dc a6bd
00000270: 2194 2e3e e465 2dbc c2a4 8b3c 8a0b cfba
00000280: 1330 f53d c9f7 09be 1c94 073d 4ce7 96bd
00000290: a319 9b3d da68 133d 9e67 5fbd dc91 0b3e
000002a0: dc65 34bd c98d 27bd 2644 073c 6598 9f3d
000002b0: 5239 19bd ac91 5c3d 1db0 7fbd f09d bdbd
000002c0: d9dc 0f3e a4e8 35bd f5ff 2abd e29c be3c
000002d0: 35be e1bd 7247 24bd 3ee4 e43b c4ba 9cbd
000002e0: 65e8 873d 1edf a33d f4c6 3fbd 5a4a 0abd
000002f0: 84e6 17be c987 e2bd 30aa c7bd cb66 0dbd
00000300: 4cc7 403d 7f04 edbd 37f7 873d 9fe2 67bd
00000310: 0ce9 7ebc 35dc 143d 28f2 44bb 8ca7 e53c
00000320: f9ba 00be 8d56 aabd e6ed b63d e704 8e3c
00000330: 3b75 85bd ea2b 833d 518c ed3d 85e1 0a3e
00000340: 705a 0bbe 679a e73d fe62 24be 1a35 dfbd
00000350: e9a3 283c f2c8 023d 4e9d c6bd fded 2fbc
00000360: e049 2d3d 2873 583d 78b7 b83d f0d4 873d
00000370: 34fe edbd 3b71 ca3c 505c af3d e09b 95bc
00000380: e39f cdbd 8642 9cbd 7452 73bd 1bd3 99bc
00000390: 7556 2abe 59cf 29be 0035 96bd c7b6 9fbd
000003a0: b379 be3c bbea 0bbe e8e4 b83c d8cc 95bc
000003b0: 4507 aa3d e8d2 bc3d d629 c43d c2a1 a63d
000003c0: 46c3 653d 60cc 853d b873 e7bc 05eb 643c
000003d0: 6e87 6b3d 103a 06be 73f8 843c fd8e 2c3d
000003e0: 8a86 b2bd 6962 533b b386 fbbc 445b 843d
000003f0: 9abd 103d 31d0 093e bd00 e13a 108d 233e

weight f4 [64, 64]
-0.0688223 0.10224369 0.15101953 -0.09854793 0.17725345 0.013344811 -0.123171344 0.124862015
0.2105782 -0.17073032 0.05315868 -0.019350845 0.07688795 -0.034165252 0.045151565 0.022034645
0.031451184 -0.046473384 0.07629349 -0.0036976775 -0.07646638 0.115185715 -0.08544444 -0.07299674
0.11483588 -0.16892155 0.014900486 0.08838915 0.0031857505 0.094293065 0.17412436 -0.08205997
-0.26927403 0.034088653 0.07829025 0.025011914 -0.02676631 0.02165792 -0.11723204 -0.023311283
-0.108114146 -0.17988676 -0.15934837 -0.09073447 -0.12004798 -0.010844612 -0.14343382 0.10758391
-0.018972872 -0.21411511 0.0027246028 0.10168391 0.12383436 -0.082922496 0.10070621 0.045584135
-0.014837524 0.12498717 -0.019296562 -0.051615253 -0.042668834 0.26056638 0.004675582 0.13087085
-0.07183494 -0.0019361284 0.056448445 -0.01588077 0.063667424 0.05050453 -0.056912012 -0.041279387
0.08237662 -0.089610904 -0.096790574 -0.23157793 0.08174658 -0.046419136 -0.03894331 0.03147674
-0.18827069 -0.019479977 -0.07802061 -0.19217093 0.022827102 0.11352877 0.04694042 0.10329371
0.055624697 -0.020845063 0.04709009 -0.07670957 -0.1222628 -0.10480164 -0.008338754 0.016938403
0.1513738 0.14822376 0.083227634 0.20991851 0.08117657 0.127375 -0.093265004 -0.20283602
-0.08981918 0.068058334 0.1180494 -0.14341524 -0.06629965 -0.104114786 -0.099046364 -0.03658206
-0.0074958964 0.037791193 -0.014827479 0.10892633 0.02782888 -0.0010960631 0.031886365 -0.03812165
0.054535925 0.04975084 0.031430155 -0.021016115 -0.13166565 0.074840866 0.09823187 -0.03845639
-0.034660432 -0.072891355 0.040229764 0.07807591 -0.22661678 0.03869457 0.10334359 0.057665218
0.014249725 -0.08357853 0.07918834 0.09111126 -0.056611564 -0.087895654 -0.123977624 0.08225767
0.13946196 -0.042285588 0.07407616 0.02592143 0.017457452 -0.11010994 0.038816333 -0.064283036
0.033086933 -0.039770413 -0.1641298 -0.042273294 0.097488 0.08669501 -0.18035413 0.121667415
-0.012566668 -0.18142657 -0.050231688 -0.2298692 -0.114685126 -0.08641118 0.08225802 0.19572164
-0.07177232 -0.18420766 0.100141875 0.15823159 -0.067811124 -0.089500524 0.05511 -0.056467608
-0.03252403 0.15906456 -0.004505574 -0.02930199 -0.0103512835 0.06038832 -0.094602585 0.14970367
0.025166987 0.050719634 -0.074072175 0.0710749 -0.012725948 -0.07834045 0.13026509 0.052535467
0.113554545 -0.07575995 0.015651857 0.030943546 -0.033647556 -0.00014141893 0.10482274 0.08431908
-0.1329069 0.06309787 0.030808227 0.20700586 -0.0049758586 0.011752521 -0.013442774 0.07541699
0.12639728 0.06563977 0.1529114 0.23154558 -0.13189472 -0.18396163 -0.06875002 0.009676985
0.043295 0.039674565 -0.149878 -0.025775181 0.033989318 0.026154647 -0.19986129 0.01613993
0.014309795 0.056475267 -0.12857632 -0.25027755 0.017628241 -0.013051449 0.13199753 0.0035800638
-0.09016328 0.13307638 0.12752508 0.13706648 0.15116727 0.112813346 -0.002612546 -0.07303774
-0.043989528 -0.038207185 -0.02802294 0.017273996 -0.009630784 -0.029102612 -0.065518126 -0.0070372215
-0.09215545 -0.01757854 -0.0605326 -0.047666255 -0.10174257 -0.13219501 -0.052522384 0.0436059
00000000: b5f2 8cbd 2465 d13d dda4 1a3e 7fd3 c9bd
00000010: ee81 353e 32a4 5a3c 4241 fcbd a8b7 ff3d
00000020: d0a1 573e eed3 2ebe ebbc 593d aa85 9ebc
00000030: 6e77 9d3d ddf0 0bbd d9f0 383d 0082 b43c
00000040: f5d2 003d e05a 3ebd c33f 9c3d bc54 72bb
00000050: 689a 9cbd 7de6 eb3d 7ffd aebd 517f 95bd
00000060: 132f eb3d c5f9 2cbe 2b21 743c 5f05 b53d
00000070: 06c8 503b b91c c13d a84d 323e 0f0f a8bd
00000080: 49de 89be 8ba0 0b3d a356 a03d c9e5 cc3c
00000090: 0545 dbbc f36b b13c 5a17 f0bd 4ef7 bebc
000000a0: f36a ddbd 3c34 38be 382c 23be fed2 b9bd
000000b0: b7db f5bd 99ad 31bc 51e0 12be f454 dc3d
000000c0: ff6c 9bbc fe40 5bbe 408f 323b a73f d03d
000000d0: de9c fd3d 45d3 a9bd 0f3f ce3d 6eb6 3a3d
000000e0: 1619 73bc 46f9 ff3d d313 9ebc 846a 53bd
000000f0: 84c5 2ebd f568 853e a035 993b 0203 063e
00000100: 321e 93bd b0c5 fdba 7c36 673d 6318 82bc
00000110: 1164 823d d7dd 4e3d 921c 69bd 9314 29bd
00000120: 13b5 a83d ec85 b7bd 233a c6bd c422 6dbe
00000130: c06a a73d fe21 3ebd 0583 1fbd c1ed 003d
00000140: 08ca 40be 7994 9fbc 45c9 9fbd 75c8 44be
00000150: e7ff ba3c c681 e83d 9944 403d a78b d33d
00000160: b9d6 633d 44c3 aabc 8ae1 403d e819 9dbd
00000170: eb64 fabd 3ea2 d6bd 459f 08bc 68c2 8a3c
00000180: bc01 1b3e f8c7 173e 4073 aa3d e1f4 563e
00000190: e73f a63d 986e 023e b901 bfbd 3fb4 4fbe
000001a0: 1ef3 b7bd 2b62 8b3d e2c3 f13d 72db 12be
000001b0: 1cc8 87bd 223a d5bd d2d8 cabd 12d7 15bd
000001c0: 23a0 f5bb f0ca 1a3d f4ee 72bc c514 df3d
000001d0: 64f9 e33c c6a9 8fba 479b 023d 7325 1cbd
000001e0: 1061 5f3d 89c7 4b3d e8bc 003d fd29 acbc
000001f0: 5cd3 06be 2b46 993d ca2d c93d 7384 1dbd
00000200: 19f8 0dbd 1048 95bd f7c7 243d 43e6 9f3d
00000210: 3b0e 68be 337e 1e3d cea5 d33d 5d32 6c3d
00000220: ae77 693c 382b abbd 7f2d a23d 8a98 ba3d
00000230: 87e1 67bd a302 b4bd fbe7 fdbd b676 a83d
00000240: 1ecf 0e3e a733 2dbd 3eb5 973d 2e59 d43c
00000250: ee02 8f3c 5281 e1bd e0fd 1e3d d3a6 83bd
00000260: 2a86 073d 4de6 22bd a411 28be c326 2dbd
00000270: caa7 c73d 278d b13d c1ae 38be c42c f93d
00000280: 6de4 4dbc e3c7 39be bebf 4dbd d562 6bbe
00000290: 09e0 eabd 58f8 b0bd e576 a83d 416b 483e
000002a0: 5efd 92bd efa0 3cbe 2f17 cd3d 7607 223e
000002b0: 8fe0 8abd 0d4c b7bd 06bb 613d 944a 67bd
000002c0: eb37 05bd d2e1 223e 7ea3 93bb ba0a f0bc
000002d0: 6e98 29bc be59 773d 00bf c1bd eb4b 193e
000002e0: ff2a ce3c 64bf 4f3d 27b3 97bd b88f 913d
000002f0: 7f80 50bc f570 a0bd 3664 053e 6e2f 573d
00000300: 498f e83d 0828 9bbd 5338 803c 527d fd3c
00000310: 05d2 09bd db49 14b9 4ead d63d 7baf ac3d
00000320: bf18 08be 7539 813d 8961 fc3c 58f9 533e
00000330: 870c a3bb a58d 403c 153f 5cbc 3974 9a3d
00000340: 4a6e 013e 256e 863d ce94 1c3e 491a 6d3e
00000350: 690f 07be 7060 3cbe cfcc 8cbd 388c 1e3c
00000360: 1956 313d cc81 223d 9e79 19be 7926 d3bc
00000370: 6238 0b3d 4542 d63c 70a8 4cbe e337 843c
00000380: a173 6a3c 9c52 673d 83a9 03be 6124 80be
00000390: 1a69 903c bfd5 55bc 5c2a 073e 819f 6a3b
000003a0: 87a7 b8bd 2d45 083e ef95 023e 285b 0c3e
000003b0: 98cb 1a3e af0a e73d 4037 2bbb d094 95bd
000003c0: 5d2e 34bd 237f 1cbd 5d90 e5bc 3282 8d3c
000003d0: 70ca 1dbc 9a68 eebc 5e2e 86bd 7e98 e6bb
000003e0: ffbb bcbd df00 90bc 08f1 77bd b13d 43bd
000003f0: 695e d0bd 215e 07be b621 57bd 1a9c 323d

weight f4 [64, 64]
-0.05785541 -0.04304112 0.012746074 -0.07363337 -0.0048366087 -0.050934188 -0.012759312 -0.08258758
0.118645795 0.020385852 -0.15018491 -0.009387797 0.004038637 -0.012115282 -0.0067834887 -0.006344867
-0.02737192 0.12617719 0.09125331 0.12824711 -0.038765226 0.14776999 -0.07980762 0.058253426
0.012240093 0.12579437 -0.021458318 0.030328048 -0.06596013 0.046988375 -0.05979222 0.032735135
-0.015633745 0.07947883 0.008743592 0.04933468 -0.16237582 0.008638692 0.01008745 0.11164124
0.08268746 -0.014648881 0.013726612 -0.07132734 0.11335203 -0.0060083577 0.01711418 0.016742887
-0.13786386 -0.06819406 -0.058567002 0.14566302 0.02276016 -0.1396761 -0.08615023 0.032593712
-0.15581107 0.1320723 0.075962916 0.010108847 0.1011073 0.0072901193 0.02389987 0.106375776
0.047841694 0.09386227 -0.005624718 -0.05336432 -0.13040638 -0.053562686 -0.072390676 0.078051485
0.048136562 -0.10366311 0.01346597 0.058441915 0.0045196805 0.014730097 0.07980162 0.073199324
-0.07703416 0.060729742 -0.100595504 0.121598676 -0.01757657 0.11267467 0.062337913 0.06789256
-0.078000225 -0.05876948 -0.031950463 -0.056407988 -0.022526741 -0.08811921 -0.051948935 0.081286125
-0.023904268 0.017831808 -0.12252097 -0.10103955 0.08597114 -0.023656711 0.04969422 0.051410224
0.07273375 0.033914804 0.08959968 -0.031146232 0.043503534 0.052998718 -0.06962109 0.060255673
-0.027895961 -0.045081213 -0.0030623414 -0.09914891 -0.0063277627 -0.11977551 -0.12307679 -0.0071321754
-0.06758509 -0.032957528 -0.029562807 0.12897028 0.01701947 0.08470894 0.070781045 0.10412858
0.09514873 0.09805601 -0.08295113 -0.05319615 -0.13821489 0.003993738 -0.03334245 0.023819385
-0.0954094 -0.077039726 0.027460119 0.08691533 0.10167791 0.009642852 -0.04251664 -0.098261714
-0.045356747 0.081572495 0.081698015 0.02699504 -0.10645958 0.11692381 -0.07769177 0.06267419
0.027134888 0.12973976 0.045755323 -0.11726901 -0.0719779 0.11126297 0.0023197008 0.09125359
0.13109176 0.02183774 0.06533646 -0.07712827 -0.078037016 0.09322143 -0.121903084 0.14488421
0.09576224 -0.10697083 -0.009222015 0.011863761 -0.07126333 -0.053382635 0.06333414 0.0025610898
-0.08877968 0.10556722 0.078684784 -0.07041857 0.026316555 -0.09567985 -0.11945502 0.041553028
-0.03873873 0.078384705 -0.13635045 -0.07056644 -0.004056593 0.07539822 -0.025520248 0.073736034
-0.054806348 0.037040953 -0.00014390172 -0.06547997 -0.12223934 -0.028404504 -0.083841644 -0.14108275
0.10279534 -0.1543878 0.10235614 0.055930648 0.067145415 0.023707373 -0.120372705 0.06681334
-0.0050109974 0.054456253 0.078160666 -0.027082063 -0.046209425 0.13557176 -0.012334674 -0.13297664
-0.061864495 0.069868825 0.100878455 -0.13183403 0.002672504 0.09292193 0.14939015 0.06597937
-0.06218984 0.14680916 -0.05737487 -0.05480682 -0.045480672 0.01595958 -0.038232006 0.17408518
0.073481955 0.1477464 -0.074568704 0.10864335 0.0003701645 0.028286796 -0.14544323 -0.11255303
-0.01453723 -0.096481755 -0.09005133 -0.055263333 0.12666619 -0.08418494 0.07271881 0.05597817
-0.16687207 0.11645999 0.034941223 0.058960214 0.1199759 -0.0928613 0.14495261 -0.0059185503
00000000: cbf9 6cbd e34b 30bd e9d4 503c 18cd 96bd
00000010: 6a7c 9ebb 5ea0 50bd 6f0c 51bc ad23 a9bd
00000020: 91fc f23d 3b00 a73c 13ca 19be 46cf 19bc
00000030: 8b56 843b 2d7f 46bc 0748 debb 9ae8 cfbb
00000040: 143b e0bc 9834 013e 04e3 ba3d 3653 033e
00000050: 49c8 1ebd 0451 173e 2d72 a3bd 259b 6e3d
00000060: ac8a 483c 3dd0 003e 5bc9 afbc 8772 f83c
00000070: 1b16 87bd e276 403d b0e8 74bd 4715 063d
00000080: 5712 80bc ccc5 a23d 4841 0f3c 2913 4a3d
00000090: d945 26be 4d89 0d3c d545 253c 2aa4 e43d
000000a0: 0b58 a93d dc01 70bc 95e5 603c 1214 92bd
000000b0: 1c25 e83d c2e1 c4bb 0933 8c3c 6128 893c
000000c0: 2f2c 0dbe 54a9 8bbd f4e3 6fbd b028 153e
000000d0: 8473 ba3c 4007 0fbe 886f b0bd fc80 053d
000000e0: f08c 1fbe f63d 073e 7292 9b3d 949f 253c
000000f0: 5811 cf3d f4e1 ee3b a9c9 c33c 8bdb d93d
00000100: a7f5 433d dd3a c03d 8e4f b8bb 8c94 5abd
00000110: 4089 05be 8c64 5bbd 9041 94bd 75d9 9f3d
00000120: d82a 453d 534d d4bd 5fa0 5c3c ca60 6f3d
00000130: d419 943b 8156 713c 086f a33d 87e9 953d
00000140: 16c4 9dbd c0bf 783d 0405 cebd ba08 f93d
00000150: bdfc 8fbc fac1 e63d 0a56 7f3d 410b 8b3d
00000160: 95be 9fbd 44b8 70bd 7dde 02bd 100c 67bd
00000170: 008a b8bc d877 b4bd 68c8 54bd 5779 a63d
00000180: e2d2 c3bc 0314 923c 46ec fabd d3ed cebd
00000190: a311 b03d b8cb c1bc 2b8c 4b3d 8793 523d
000001a0: 6ff5 943d 40ea 0a3d 0980 b73d 6226 ffbc
000001b0: c330 323d 2f15 593d 8195 8ebd a7ce 763d
000001c0: 1286 e4bc 14a7 38bd 90b1 48bb 950e cbbd
000001d0: 1f59 cfbb dd4c f5bd af0f fcbd 06b5 e9bb
000001e0: 0d6a 8abd 79fe 06bd b32d f2bc c910 043e
000001f0: 6a6c 8b3c e17b ad3d a7f5 903d 5d41 d53d
00000200: 56dd c23d 97d1 c83d 48e2 a9bd 35e4 59bd
00000210: 3488 0dbe e7dd 823b 1892 08bd df20 c33c
00000220: 0166 c3bd 01c7 9dbd 0bf4 e03c aa00 b23d
00000230: 823c d03d 0dfd 1d3c ee25 2ebd 703d c9bd
00000240: ffc7 39bd 7b0f a73d 4a51 a73d b424 dd3c
00000250: 7b07 dabd c075 ef3d dd1c 9fbd 535b 803d
00000260: fc49 de3c 80da 043e ef69 3b3d bc2a f0bd
00000270: 2669 93bd d7dd e33d 1f06 183b 2ae3 ba3d
00000280: eb3c 063e 0fe5 b23c 1fcf 853d 6df5 9dbd
00000290: dfd1 9fbd e1ea be3d 53a8 f9bd 875c 143e
000002a0: fe1e c43d 8613 dbbd ef17 17bc 3860 423c
000002b0: 82f2 91bd c0a7 5abd 54b5 813d f5d7 273b
000002c0: 1fd2 b5bd a033 d83d 7d25 a13d 9c37 90bd
000002d0: d195 d73c ccf3 c3bd d5a4 f4bd 8233 2a3d
000002e0: 81ac 1ebd 2988 a03d 749f 0bbe 2385 90bd
000002f0: 2bed 84bb 626a 9a3d d70f d1bc eb02 973d
00000300: 9f7c 60bd 41b8 173d 53e4 16b9 5d1a 86bd
00000310: 9e58 fabd 90b0 e8bc 2bb5 abbd ff77 10be
00000320: 5d86 d23d d617 1ebe 19a0 d13d 8917 653d
00000330: 8983 893d f735 c23c f785 f6bd 6fd5 883d
00000340: 4b33 a4bb 850d 5f3d b312 a03d 34db ddbc
00000350: 1846 3dbd 53d3 0a3e 5f17 4abc 072b 08be
00000360: a065 7dbd 6317 8f3d 5d99 ce3d 80ff 06be
00000370: 2d25 2f3b da4d be3d bbf9 183e 3120 873d
00000380: c6ba 7ebd 2455 163e e901 6bbd 1e7d 60bd
00000390: f149 3abd aabd 823c 2a99 1cbd 6343 323e
000003a0: b57d 963d d54a 173e 7ab7 98bd 6880 de3d
000003b0: a312 c239 b6b9 e73c 12ef 14be 3482 e6bd
000003c0: 902d 6ebc 3a98 c5bd d56c b8bd ce5b 62bd
000003d0: c8b4 013e 2769 acbd 99ed 943d 5e49 653d
000003e0: 83e0 2abe 9382 ee3d 871e 0f3d 4480 713d
000003f0: edb5 f53d 112e bebd 756e 143e 66f0 c1bb
