interface/lammps/example/infer.pt (torch, 383144 bytes, 73 tensors)

cutoff f8 []
0	0x4008000000000000	3.0

weight f4 [1, 64]
0	0x3e9ce18d	0.30640832
1	0x3e72f2f0	0.23725486
2	0x3f1d472f	0.6143674
3	0x3eeb2450	0.45926142
4	0x3ed85b1a	0.42257005
5	0xbdaff70c	-0.08592042
6	0x3d8d5a90	0.06902039
7	0x3f03ff71	0.5156165
8	0x3e6dacbc	0.23210424
9	0x3f834353	1.0254921
10	0x3f0fb2d8	0.5613227
11	0xbf9a7961	-1.2068292
12	0xbe1862e9	-0.14881481
13	0x3eb45d56	0.3522746
14	0x3dbef467	0.0932396
15	0xbe9b24c0	-0.30301476
16	0xbc0078f7	-0.00784134
17	0x3e9edee0	0.31029415
18	0x3d69dfb0	0.05709809
19	0xbe837b80	-0.2568016
20	0x3e511f3c	0.20422071
21	0xbd9dff40	-0.07714701
22	0x3ecc0c17	0.39852974
23	0xbdae4f96	-0.085112736
24	0x3ea6d552	0.32584625
25	0xbd899d14	-0.067194134
26	0x3dfba5e0	0.122874975
27	0x3e2008dc	0.1562838
28	0xbdfc249d	-0.12311671
29	0xbd8b0685	-0.06788353
30	0x3ea9dcf5	0.3317639
31	0x3ecacd90	0.39609957
32	0xbd31fe1c	-0.04345523
33	0x3ecaab65	0.3958389
34	0xbcd0917a	-0.025459994
35	0x3f4d9a8c	0.80313945
36	0xbd8c8cc6	-0.06862788
37	0xbce96c68	-0.028494075
38	0x3eae087c	0.33990848
39	0xbd2ce5a4	-0.04221119
40	0xbd697b1c	-0.057002172
41	0x3e622b1a	0.22086754
42	0x3e3b33f1	0.18281533
43	0x3f002f08	0.50071764
44	0x3d4c5d03	0.04989339
45	0xbda235dc	-0.07920429
46	0x3e97778b	0.29583392
47	0xbdbeb4e7	-0.09311848
48	0x3f29309d	0.66089803
49	0x3ec08197	0.3759887
50	0xbd850235	-0.064945616
51	0x3d5fd396	0.054645143
52	0x3e5e2bea	0.2169644
53	0x3ea2e22b	0.31813177
54	0xbb1e626e	-0.0024167555
55	0xbd35717d	-0.044297684
56	0x3d8e4455	0.06946627
57	0x3cc9afc4	0.024619944
58	0x3de7ca1f	0.113178484
59	0xbda6e464	-0.08149031
60	0x3e21f4b9	0.1581601
61	0xbd860a64	-0.065449506
62	0x3e8c5b77	0.27413532
63	0x3c4ba7b0	0.0124301165

freqs f4 [12]
0	0x3f7be2a1	0.98392683
1	0x3fe50a3c	1.7893748
2	0x40388ae0	2.8834763
3	0x407df798	3.968237
4	0x409d4655	4.9148355
5	0x40c84c12	6.259286
6	0x40e5ac77	7.177303
7	0x4108b405	8.54395
8	0x411875ec	9.5287895
9	0x412d7f3f	10.843566
10	0x413e9c91	11.913224
11	0x4152297d	13.135129

weight f4 [64, 12]
0	0xbf452e8c	-0.7702415
1	0xbfab4d91	-1.3383046
2	0x3f6bd913	0.92128104
3	0x3fb228be	1.3918684
4	0xbf00f739	-0.5037723
5	0xbef2cec7	-0.47423384
6	0x3dcf52ea	0.101232365
7	0x3e00d1be	0.1258001
8	0x3dcb7b03	0.09935572
9	0xbd05246a	-0.03250543
10	0xbe8e7d86	-0.27830142
11	0xbe477501	-0.19478227
12	0xbf04ee48	-0.5192609
13	0x3f6c9324	0.9241202
14	0xbf221188	-0.63308
15	0xbf159b8b	-0.58440465
16	0x3d00171d	0.031272043
17	0xbe95ba92	-0.29243904
18	0xbe3358fb	-0.17514412
19	0xbc197c76	-0.009368053
20	0x3e544989	0.20731176
21	0x3e35c682	0.17751506
22	0x3e7bbaf2	0.24583033
23	0x3dccec8f	0.100060575
24	0x3ef62e0b	0.48082003
25	0xbde386b7	-0.11109679
26	0x3f9d045f	1.2266959
27	0x3fadac16	1.3568141
28	0xbf45d294	-0.7727444
29	0xbf370638	-0.71493864
30	0x3f0ee820	0.55822945
31	0x3e7dc01f	0.2478032
32	0xbdb04424	-0.08606747
33	0xbd468d2e	-0.048474483
34	0xbe230e92	-0.15923527
35	0xbdb0434b	-0.08606585
36	0xbeafa576	-0.34305924
37	0xbed923fe	-0.42410272
38	0xbe79cf8f	-0.24395584
39	0x3ea0949b	0.31363377
40	0x3ebc3057	0.3675563
41	0x3e8ec146	0.2788183
42	0xbea07c1e	-0.31344694
43	0xbe51c37b	-0.20484726
44	0x3e29edf5	0.1659468
45	0x3e84ebe1	0.2596121
46	0x3ecd0792	0.40044838
47	0x3e8bb812	0.27288872
48	0xbf81283f	-1.0090407
49	0xbf6c7b69	-0.9237581
50	0x3b590b6b	0.0033118378
51	0x3f178c57	0.59198517
52	0x3f007f48	0.50194216
53	0x3df19538	0.11796039
54	0xbe9da732	-0.30791622
55	0xbe8e507f	-0.2779579
56	0xbd4eb0d2	-0.050461598
57	0x3e19022f	0.14942239
58	0x3d1ee168	0.038789183
59	0x3d81827b	0.06323715
60	0xc050a588	-3.2601032
61	0xbecd4591	-0.40092137
62	0x400fc8f8	2.2466412
63	0x3f840802	1.0314944
64	0xbf1c20cf	-0.6098756
65	0xbe2bc90c	-0.16775912
66	0x3f3af78e	0.7303399
67	0xbf07ba56	-0.530187
68	0xbf1ea081	-0.6196366
69	0x3ed63527	0.41837427
70	0x3dffc782	0.12489225
71	0xbdd11adf	-0.102102034
72	0xbd9c110b	-0.07620438
73	0x3f5db9d0	0.8661165
74	0x3e7e6058	0.2484144
75	0xbfbeeb87	-1.4915627
76	0x3cfdfdf4	0.031004883
77	0x3fbc909b	1.473163
78	0x3f1432e4	0.5789015
79	0x3e71686a	0.23574987
80	0xbe65f991	-0.22458483
81	0x3e3c0f1c	0.18365139
82	0x3f2ecd40	0.68281937
83	0x3f212827	0.6295189
84	0xbfd1009e	-1.6328313
85	0xbf53810a	-0.82618773
86	0x3ee1609d	0.44019023
87	0x3f188685	0.5958026
88	0x3dafb6a3	0.08579757
89	0x3befc3bd	0.007317035
90	0xbf0d488a	-0.5518881
91	0xbec03bc0	-0.37545586
92	0x3e0dcde1	0.13848068
93	0x3e6456e5	0.22298773
94	0x3e21cbc5	0.15800388
95	0x3ba851a1	0.005136684
96	0x3f81d730	1.0143795
97	0x3f447efa	0.7675625
98	0x3f382fe7	0.71948093
99	0x3e4c0932	0.19925383
100	0xbfbf427a	-1.4942162
101	0x3f0dc156	0.5537313
102	0x3e9db9a7	0.30805704
103	0xbdee5009	-0.11636359
104	0x3f17126c	0.59012485
105	0xbd84490e	-0.064592466
106	0xbdb62fbc	-0.08895823
107	0xbcaa2caa	-0.02077325
108	0xc00cf075	-2.2021763
109	0xbf48ceff	-0.7844085
110	0x3f4439aa	0.7665049
111	0x3f14269c	0.57871413
112	0x3b47e757	0.003050288
113	0x3e0cdc01	0.137558
114	0xbd3c034b	-0.045901578
115	0xbdb85d9f	-0.09002232
116	0xbded8b80	-0.11598873
117	0xbe4c8425	-0.19972284
118	0xbda7cfa3	-0.081939004
119	0xbd212f52	-0.03935177
120	0x3dc54d49	0.096338816
121	0xbda94493	-0.082650326
122	0x3f71fcae	0.94526184
123	0x3f9f8825	1.2463423
124	0x3d1dedbe	0.038556807
125	0xbf24aba0	-0.6432438
126	0x3dde3a07	0.108509116
127	0x3ec6299a	0.38703614
128	0x3d039d9a	0.032132722
129	0xbd736f83	-0.059432518
130	0x3d4546e8	0.048163325
131	0x3c985d39	0.01859914
132	0xbfe715e6	-1.8053558
133	0xbf0213d5	-0.5081151
134	0x3f0aedd6	0.5426916
135	0x3f795314	0.9739239
136	0x3eb4368f	0.35197875
137	0xbea0624e	-0.31325
138	0xbf2e9c65	-0.6820739
139	0xbea31604	-0.31852734
140	0x3e9d6dec	0.30747926
141	0x3eb3c28f	0.35109374
142	0x3e570190	0.2099669
143	0x3dac98a4	0.084275514
144	0xc006a3af	-2.1037405
145	0x3d4cde95	0.05001696
146	0x400fdff6	2.2480445
147	0x3f846330	1.034277
148	0xbe3c9590	-0.18416429
149	0x3d84c6ca	0.064832285
150	0xbeac95d0	-0.33708048
151	0xbe2e377d	-0.17013355
152	0x3e5940c5	0.21216114
153	0xbdff1ac5	-0.12456278
154	0xbcade0bd	-0.021225328
155	0xbc8db9f8	-0.01730059
156	0x3dcf3a38	0.10118526
157	0x3e9a9b02	0.30196387
158	0xbf5c555d	-0.86067754
159	0xbf2f5d5a	-0.6850182
160	0x3e3e1db4	0.18566018
161	0xbd67ce81	-0.05659342
162	0x3d97a487	0.07404428
163	0x3e48e621	0.19619037
164	0x3e73775c	0.23776
165	0x3e1d63ce	0.15370104
166	0x3d0685df	0.032842513
167	0xbc5babe7	-0.013407684
168	0xbf941492	-1.1568778
169	0x4006234a	2.0959039
170	0x3eff7712	0.4989553
171	0xbfe97556	-1.8238933
172	0x3d8d55b8	0.06901115
173	0x3fc89f4d	1.5673615
174	0x3ce28058	0.02764909
175	0xbf7f5357	-0.9973654
176	0xbe215139	-0.1575364
177	0x3f288992	0.65834916
178	0x3f16f74c	0.58971095
179	0xbe34680a	-0.17617813
180	0xc06be313	-3.6857345
181	0xbf32cfb7	-0.698482
182	0x3fd1c742	1.6388934
183	0x3fdee148	1.74125
184	0xbe927fa3	-0.28613004
185	0xbe15dd9d	-0.1463532
186	0x3e0f9c51	0.14024474
187	0xbcb7b602	-0.022425655
188	0x3d22bdb6	0.039731704
189	0xbe8f1c29	-0.27951172
190	0xbe513b95	-0.20432885
191	0xbd11b473	-0.03557248
192	0xbfddc0cc	-1.7324462
193	0x3ed20b95	0.4102446
194	0x3fde092b	1.7346548
195	0x3f3fe7a8	0.74962854
196	0xbee77882	-0.45209128
197	0xbe931f38	-0.28734756
198	0xbcaa8e80	-0.020819902
199	0x3d7b46ae	0.061346702
200	0x3d3598e3	0.044335257
201	0xbdc737c3	-0.097274326
202	0xbdf01bce	-0.11724053
203	0xbdd85799	-0.10563583
204	0x3f01a03f	0.5063514
205	0xbe4a8864	-0.19778591
206	0xbd15ece9	-0.03660289
207	0x3e06b75d	0.13155885
208	0xbe50cfc4	-0.20391756
209	0x3c6abb5c	0.0143268965
210	0xbb7f9307	-0.0038997547
211	0x3bc3517a	0.0059606405
212	0x3e2b62e9	0.1673695
213	0x3dff440a	0.12464149
214	0xbde62dde	-0.11239217
215	0xbe021a1f	-0.12705277
216	0xbf439b2d	-0.76408654
217	0x3f87cf57	1.061015
218	0x3f2d5db1	0.67721087
219	0xbefa4904	-0.48883832
220	0x3ea1cbba	0.31600744
221	0xbe40fb91	-0.18845965
222	0xbe877eb0	-0.26463842
223	0x3ece1241	0.40248302
224	0x3f25b24c	0.64725184
225	0x3e5686a3	0.20949797
226	0x3e213717	0.15743671
227	0x3c12f76d	0.008970124
228	0xc0822b3b	-4.067777
229	0xbf284517	-0.6573042
230	0x3fbcd666	1.4752929
231	0x3f954368	1.1661196
232	0x3f41b96c	0.75673556
233	0xbe1e4314	-0.15455276
234	0xbf92cbac	-1.1468406
235	0x3da455fd	0.080242135
236	0x3e5bc011	0.21459986
237	0x3e934712	0.2876516
238	0x3e7f4cca	0.24931636
239	0xbc83f96f	-0.01611015
240	0x3ec09005	0.37609878
241	0x3f43abd0	0.7643404
242	0xbf48ce05	-0.7843936
243	0xbf9a2360	-1.2042046
244	0x3f1977cf	0.5994844
245	0x3fb05287	1.3775185
246	0x3addae2f	0.0016912873
247	0xbf0adce6	-0.54243314
248	0x3c1f855d	0.009736386
249	0x3e4d8c62	0.20073083
250	0x3e9a3c3c	0.3012408
251	0x3df9ec76	0.122033045
252	0xc022ccd6	-2.5437522
253	0x3f2c4b74	0.6730263
254	0xbe0705bd	-0.13185783
255	0x3ff2d0b3	1.896994

weight f4 [64, 12]
0	0x403698ed	2.8530838
1	0x3f44bf1e	0.7685412
2	0xbf31903e	-0.6936072
3	0xbefd193c	-0.49433315
4	0x3f5dc5c2	0.8662988
5	0x3ee570c4	0.44812596
6	0xba348969	-0.0006886931
7	0xbdd15fa8	-0.10223323
8	0xbebda654	-0.3704096
9	0xbd8868ec	-0.06660637
10	0xbda6458a	-0.08118732
11	0x3baafd7b	0.0052182055
12	0x3e9d426f	0.30714747
13	0xbec2cae0	-0.38045406
14	0xbdfdc37f	-0.123908035
15	0x3eb52a72	0.35383946
16	0xbe1cedc6	-0.15325078
17	0xbdebc979	-0.11513037
18	0x3dbaa067	0.091126256
19	0xbea7822d	-0.32716504
20	0xbddf28e0	-0.10896468
21	0xbc9f9f2f	-0.019485084
22	0xbe486720	-0.19570589
23	0xbdbb8156	-0.09155528
24	0xbf88ce76	-1.0688007
25	0x3d03068e	0.031988673
26	0xbf55913c	-0.83424735
27	0xbf58ae12	-0.8464061
28	0xbe5d75c7	-0.2162696
29	0x3e1a460a	0.1506578
30	0xbe76078a	-0.24026313
31	0xbe1821f3	-0.148567
32	0x3e5bb7a3	0.2145677
33	0x3a6529f7	0.000874191
34	0x3df7f169	0.12106592
35	0x3dfad07f	0.12246799
36	0xbe7a4cdd	-0.24443384
37	0xbf61bcd4	-0.88178754
38	0xbe4a6484	-0.19764906
39	0x3f176003	0.5913088
40	0x3f228a7a	0.6349255
41	0xbecd68d7	-0.4011905
42	0x3c1d991c	0.009619024
43	0x3e332a50	0.1749661
44	0xbf068407	-0.5254521
45	0xbe296230	-0.16541362
46	0xbe8a4d19	-0.27011946
47	0xbe49420e	-0.19654104
48	0x3f8f84ec	1.121244
49	0x3ea790bf	0.3272762
50	0x3e879ccf	0.26486823
51	0x3f21c7c0	0.6319542
52	0x3de1a141	0.11017085
53	0xbd768872	-0.06018872
54	0x3e885750	0.26629114
55	0x3d1e2cca	0.038616933
56	0xbe3ace63	-0.18242793
57	0xbd27c330	-0.04095763
58	0xbdaf6bfc	-0.08565518
59	0xbd018397	-0.031619634
60	0x3f46d729	0.7767206
61	0x3eb0501e	0.34436125
62	0x3fa589f7	1.2932729
63	0x3f44eafe	0.7692107
64	0xbf7d54ff	-0.9895782
65	0x3d9ae742	0.0756364
66	0xbe05f82b	-0.1308295
67	0xbc51ce9a	-0.012805605
68	0x3f20856c	0.62703586
69	0x3e39ae41	0.18132879
70	0x3d3944d2	0.045231648
71	0x3e968d36	0.2940461
72	0x3de0d65d	0.109783866
73	0xbf31b272	-0.6941291
74	0xbf26092c	-0.64857745
75	0xbdb6a83f	-0.08918809
76	0x3e10de10	0.1414721
77	0x3efede3a	0.4977892
78	0xbec7386c	-0.38910234
79	0x3dd4071e	0.1035292
80	0xbf43ff7e	-0.76561725
81	0xbeb1a58e	-0.3469662
82	0x3d8522bc	0.06500766
83	0xbe58d347	-0.21174346
84	0x3e90598c	0.2819332
85	0x3eab456d	0.33451405
86	0x3f26a2eb	0.65092343
87	0x3e423ce3	0.18968539
88	0x3e33dc70	0.17564559
89	0x3bbef3ae	0.0058273887
90	0xbe97ab24	-0.29622757
91	0xbecc7ffb	-0.3994139
92	0xbeb9f55a	-0.3632
93	0xbf0c9251	-0.5491076
94	0xbe64c8ec	-0.2234227
95	0xbd8e2cec	-0.06942162
96	0xbef8e4b5	-0.4861199
97	0xbf875b4d	-1.0574738
98	0x3e510e46	0.20415601
99	0x3f7b8ba6	0.9825996
100	0x3e2b8c05	0.16752632
101	0xbdbbd451	-0.091713555
102	0xbead6637	-0.33867046
103	0xbd859b45	-0.06523756
104	0x3e0f7ed3	0.14013223
105	0x3d56a450	0.052402794
106	0xbe42034f	-0.18946575
107	0xbd69e791	-0.057105605
108	0xbea340fe	-0.31885523
109	0xbe3d9c87	-0.18516742
110	0xbf40f5c1	-0.7537499
111	0xbf121d2e	-0.57075775
112	0xbef0f7e8	-0.47064137
113	0xbf006941	-0.50160605
114	0xbbb56653	-0.0055358796
115	0xbba0ae19	-0.0049035666
116	0x3e2ee0d4	0.17077953
117	0x3e822cb4	0.2542473
118	0x3dd78f84	0.1052542
119	0x3d961259	0.07327718
120	0xbeb79a8b	-0.35860094
121	0xbe6a624e	-0.22889063
122	0xbe454e9a	-0.19268265
123	0xbdfad8bb	-0.12248369
124	0xbee2b8ae	-0.44281524
125	0xbdbe6f92	-0.09298624
126	0xbc182204	-0.009285454
127	0xbd000b34	-0.031260684
128	0x3e88f735	0.26751104
129	0x3e18283a	0.14859095
130	0x3df04b14	0.1173307
131	0x3e3bd770	0.18343902
132	0x3ee61e1c	0.44944847
133	0x3f8ee19c	1.11626
134	0x3e8e644a	0.2781089
135	0xbd376c7f	-0.044781204
136	0x3ed6ab51	0.4192758
137	0xbbdc1d46	-0.006717357
138	0x3e1c611a	0.15271416
139	0x3ee23057	0.44177505
140	0x3dce0ac0	0.10060644
141	0xbe110e42	-0.14165595
142	0xbdac930c	-0.084264845
143	0xbd0e3cfb	-0.034726124
144	0x3cec58eb	0.028850993
145	0x3db45ffb	0.08807369
146	0x3df08f02	0.117460266
147	0x3e0e4076	0.13891777
148	0xbef53421	-0.47891334
149	0xbe9db477	-0.30801746
150	0xbe959903	-0.292183
151	0xbea0049c	-0.31253517
152	0xbe73faef	-0.23826192
153	0xbeb7a617	-0.35868904
154	0xbe21f9ea	-0.15817991
155	0xbd35b96e	-0.044366293
156	0xbfd862df	-1.6905173
157	0xbe8a7b93	-0.27047405
158	0x3f15bd6e	0.5849217
159	0xbefd11b3	-0.49427566
160	0xbd5e5f15	-0.054289896
161	0x3ead51d4	0.33851492
162	0xbee61a28	-0.4494183
163	0x3e94225b	0.2893246
164	0x3e006b5d	0.12540956
165	0xbe928aad	-0.28621426
166	0x3d8d7f6d	0.0690907
167	0x3e02a9b3	0.12760048
168	0x3faa0f2b	1.3285879
169	0x3f2581d5	0.6465123
170	0x3da44b0c	0.080221266
171	0xbf680a8c	-0.90641093
172	0x3ecec243	0.40382585
173	0x3f226ff2	0.63452065
174	0xbf1a4960	-0.6026821
175	0xbe590d9a	-0.21196595
176	0x3d74077f	0.05957746
177	0x3e9c2f9c	0.30505073
178	0x3ece289f	0.40265366
179	0x3e5d3aa0	0.21604395
180	0xbfddd333	-1.7330078
181	0xbf0f2e0e	-0.5592965
182	0x3f2af038	0.66772795
183	0x3cbdee34	0.023184873
184	0xbedb39ae	-0.42817444
185	0xbea4577e	-0.32098
186	0xbe6bceda	-0.23028126
187	0x3d6810a8	0.05665651
188	0x3e5f3bdc	0.21800178
189	0x3e89ccfe	0.2691421
190	0x3e23beac	0.15990704
191	0x3c1ce509	0.009576091
192	0xbed305d6	-0.4121539
193	0xbe90c574	-0.28275645
194	0x3eff0c86	0.49814242
195	0x3f32954e	0.6975907
196	0x3d1e44ba	0.03863976
197	0x3c37b09c	0.011211541
198	0xbe431734	-0.1905182
199	0xbe098dbd	-0.13432975
200	0x3e36a432	0.17836073
201	0x3e69459e	0.22780463
202	0x3bab00e5	0.0052186125
203	0x3bb91124	0.0056477953
204	0xbfe31054	-1.7739358
205	0x3e40e1e9	0.18836178
206	0x3fa97ce2	1.3241236
207	0xbdb08e01	-0.08620835
208	0xbe4b6d09	-0.19865812
209	0xbe9ef648	-0.31047273
210	0x3d2d9e0a	0.042387046
211	0x3d816e12	0.06319822
212	0xbe1670aa	-0.14691415
213	0x3aaddc80	0.0013264567
214	0x3c9632f4	0.018334843
215	0x3c204486	0.009781962
216	0x3f9f7e23	1.2460369
217	0x3f3b0fa2	0.7307073
218	0xbf5bcb37	-0.85856956
219	0xbf83858a	-1.0275128
220	0x3f2b508e	0.6691979
221	0x3d9fe036	0.07806437
222	0xbe018fb1	-0.1265247
223	0x3e865c62	0.26242357
224	0xbdd316ad	-0.103070594
225	0xbf067d1a	-0.5253464
226	0xbd8902b2	-0.06689967
227	0xbd2c2d8d	-0.042035628
228	0xbf58db6b	-0.84709805
229	0xbe8d35b8	-0.27580047
230	0xbf08c7f4	-0.53430104
231	0x3d969d68	0.073542416
232	0xbe020283	-0.1269627
233	0xbede6e09	-0.43443325
234	0x3eda303c	0.42614925
235	0x3e2611c4	0.16217715
236	0x3e8048c6	0.25055522
237	0x3ec5dfd8	0.38647342
238	0x3e1797bf	0.1480398
239	0xbddea976	-0.10872166
240	0xbe35fd99	-0.17772521
241	0x3dcd74f9	0.100320764
242	0xbf89a999	-1.0754882
243	0xbef734b7	-0.48282406
244	0xbe91c4b3	-0.28470382
245	0xbf45aab7	-0.77213615
246	0xbed04f2f	-0.40685412
247	0xbe881890	-0.2658124
248	0xbe80358c	-0.25040853
249	0x3da61b45	0.0811067
250	0x3e031025	0.12799127
251	0x3d94854b	0.07251986
252	0x3e8fbf48	0.28075624
253	0x3d86bf7e	0.06579493
254	0x3f1a6e68	0.60324717
255	0x3f202a7d	0.6256483

weight f4 [64, 12]
0	0x3f727de3	0.9472334
1	0xbed38d7e	-0.41318887
2	0x3f06fd29	0.5273004
3	0x3e7aa95e	0.24478671
4	0xbddb2f70	-0.10702407
5	0x3f18d13f	0.59694284
6	0xbd3cb154	-0.04606755
7	0xbda0c63f	-0.078503124
8	0xbe424736	-0.18972477
9	0xbe997add	-0.2997655
10	0xbe295cab	-0.16539256
11	0xbd53c01f	-0.051696893
12	0xbb8d6fb8	-0.0043162964
13	0x3d806e92	0.062710896
14	0x3ebfafc7	0.37438795
15	0x3e405500	0.18782425
16	0x3ef0c09f	0.47021958
17	0x3ef45cdf	0.47727105
18	0x3ef0f567	0.47062227
19	0x3ef7cf7b	0.48400483
20	0x3ed2d310	0.41176653
21	0x3eb3e03e	0.3513202
22	0x3e214130	0.15747523
23	0x3e19e719	0.15029563
24	0xbdec0735	-0.11524812
25	0x3d43b923	0.047783982
26	0xbed4b9b6	-0.41547936
27	0xbe538796	-0.2065719
28	0xbec83e4d	-0.39110032
29	0xbc4bf102	-0.012447597
30	0x3eacdc5b	0.33761868
31	0x3e19b69e	0.15011069
32	0x3e88677d	0.26641455
33	0x3e5af274	0.21381551
34	0x3e42daf3	0.19028835
35	0x3e03446e	0.12819073
36	0x3bc07a1c	0.0058739316
37	0xbe45582b	-0.19271915
38	0xbe760e88	-0.2402898
39	0xbea83743	-0.3285466
40	0xbeb9fac5	-0.36324134
41	0xbde42d20	-0.111414194
42	0x3db7751d	0.089578845
43	0xbd4d2742	-0.050086267
44	0x3d9fe6c4	0.07807687
45	0x3deaf196	0.1147186
46	0x3d5b1ff6	0.053497277
47	0xbb073c0a	-0.0020635151
48	0xbea9410d	-0.33057442
49	0xbeba8afc	-0.36434162
50	0xbfa02060	-1.250988
51	0xbba90125	-0.005157607
52	0x3da157ad	0.07878051
53	0xbec91ddb	-0.3928059
54	0xbe79257d	-0.24330707
55	0xbd45dc28	-0.04830566
56	0x3e83b36f	0.25722834
57	0x3eaf5ca1	0.34250358
58	0x3e43cf4b	0.19122045
59	0x3cf3f663	0.029780572
60	0x3f84a9b4	1.0364289
61	0xbcbf69e7	-0.023365928
62	0x3e1e38e5	0.15451391
63	0x3db7f7c4	0.089828044
64	0x3d3e218e	0.04641872
65	0x3e92015b	0.2851666
66	0xbd7b330e	-0.061327986
67	0x3d98c179	0.07458777
68	0x3c419b37	0.011816791
69	0xbed8388b	-0.4223064
70	0x3c92ced7	0.017920895
71	0x3eb51b92	0.35372597
72	0x3f99d762	1.2018855
73	0x3dc1dfa9	0.09466488
74	0xbf0fb16a	-0.5613009
75	0xbddf6b75	-0.10909168
76	0x3f91eb14	1.1399865
77	0xbf98fae2	-1.1951563
78	0x3e8cab75	0.2747456
79	0x3cf7c4b8	0.03024517
80	0xbf156e3b	-0.58371323
81	0x3e9295b4	0.2862984
82	0xbdba0013	-0.090820454
83	0x3d2d3b6b	0.042292994
84	0xbf92b71a	-1.1462128
85	0xbef47a1c	-0.47749412
86	0x3f6a762e	0.9158658
87	0x3eef1cae	0.46701568
88	0xbea3f51e	-0.32022947
89	0xbc8b12fb	-0.016976824
90	0x3e4d446c	0.20045632
91	0xbc9c2469	-0.01906033
92	0xbd131264	-0.03590621
93	0xbb5441b1	-0.0032387788
94	0xbdfa3526	-0.122171685
95	0x3d3dbd2c	0.046322986
96	0xbe40d4f0	-0.18831229
97	0xbeee9f67	-0.4660599
98	0xbebb17ac	-0.36541498
99	0x3e9b455f	0.30326363
100	0xbf034933	-0.5128357
101	0xbe6aeca5	-0.22941835
102	0xbe858b9b	-0.26083073
103	0xbe53161b	-0.20613901
104	0xbcd56b06	-0.02605201
105	0x3e5de6cc	0.21670073
106	0xbcea4c02	-0.028600696
107	0xbd7b43d3	-0.06134398
108	0x3f4d6c9d	0.80243856
109	0xbd503263	-0.050829303
110	0x3e3f7d70	0.18700194
111	0x3e95b2e5	0.29238048
112	0x3e9ed6ad	0.3102316
113	0x3ba98186	0.005172911
114	0x3d068e2c	0.03285043
115	0x3d16ec38	0.03684637
116	0xbe990118	-0.29883647
117	0xbde51aa9	-0.11186726
118	0xbdebcd21	-0.115137346
119	0xbdc20f26	-0.094755456
120	0x3f4afb06	0.7928928
121	0x3f5def5f	0.86693376
122	0x3db86dc8	0.09005314
123	0xbf53c38e	-0.8272027
124	0x3ee0c177	0.43897602
125	0x3ea23443	0.31680498
126	0x3e01c335	0.12672122
127	0x3cbff1b1	0.023430677
128	0xbe1fb97d	-0.15598102
129	0xbd8be3fe	-0.068305954
130	0x3d277175	0.040879685
131	0x3dd790af	0.10525643
132	0xbf7509ed	-0.9571827
133	0xbf1acfe4	-0.60473466
134	0x3ee165c7	0.44022962
135	0x3ec29c7f	0.38010022
136	0xbe592731	-0.21206357
137	0xbd13650e	-0.035985045
138	0x3dc7199c	0.097216815
139	0xbe1bc520	-0.15211916
140	0xbe15299b	-0.14566652
141	0xbbda377e	-0.006659447
142	0xbda7bbf8	-0.08190149
143	0xbd13ada3	-0.036054265
144	0x3f57a964	0.84242845
145	0xbfa90270	-1.3203869
146	0xbde6ad56	-0.1126353
147	0x3f898f87	1.0746926
148	0xbe7df4b7	-0.24800383
149	0xbdc915d4	-0.098186165
150	0x3d40a3d9	0.047031257
151	0xbea0c5aa	-0.31400806
152	0xbe268f8b	-0.16265695
153	0x3e67b2ca	0.22626796
154	0x3ec1bad3	0.37837848
155	0x3cc9c903	0.024631983
156	0xbf17cb47	-0.5929455
157	0x3e5b7568	0.21431506
158	0x3f5f0379	0.87114674
159	0xbf81376d	-1.009504
160	0xbeb19b64	-0.34688866
161	0x3e9ac710	0.30229998
162	0xbedc97db	-0.43084607
163	0xbea2e723	-0.31816968
164	0xbe8817c1	-0.26580623
165	0x3d1d8b5a	0.038462974
166	0x3e8be863	0.27325734
167	0x3df52299	0.119694896
168	0xbc5894a6	-0.013219034
169	0xbd8b74d0	-0.068093896
170	0x3e63cbbc	0.22245687
171	0x3e3c0950	0.18362927
172	0xbede472f	-0.43413684
173	0xbe6ed14a	-0.23322025
174	0xbe81d564	-0.25358117
175	0xbeeb3b52	-0.45943695
176	0x3d397d72	0.04528565
177	0xbe295e7e	-0.16539952
178	0xbd8508ae	-0.06495796
179	0x3ea23b8a	0.3168605
180	0xbf5c13ac	-0.85967517
181	0xbd686bdd	-0.05674349
182	0xbe2e39cc	-0.17014235
183	0xbf038f1b	-0.51390237
184	0x3e6bc8c2	0.23025802
185	0x3e517917	0.20456348
186	0xbe8d155f	-0.27555367
187	0xbcabbf6c	-0.0209653
188	0xbd436f0f	-0.047713336
189	0xbe4c1771	-0.19930817
190	0x3d744466	0.059635542
191	0x3e0d1200	0.13776398
192	0x3f52ff92	0.8242122
193	0x3efe3938	0.4965303
194	0xbf23767f	-0.63852686
195	0xbeb2b0d4	-0.34900534
196	0x3eab789f	0.33490464
197	0x3e21a1e4	0.15784413
198	0xbd55c947	-0.052193906
199	0x3e8ec6f9	0.2788618
200	0xbe6d66fe	-0.2318382
201	0xbe847dcb	-0.25877222
202	0xbe2f6655	-0.1712888
203	0x3c46dbcc	0.012137365
204	0x3f8e5e0a	1.1122448
205	0xbdffa3c8	-0.12482411
206	0xbf7a7776	-0.9783853
207	0x3f722a4f	0.9459581
208	0xbe19f31a	-0.15034142
209	0xbf247b89	-0.64251
210	0x3ecca027	0.39965937
211	0x3e4f0746	0.20217618
212	0xbce58bde	-0.028020795
213	0xbe02fb1d	-0.12791105
214	0xbd020c56	-0.031750046
215	0xbdc22834	-0.094803244
216	0xbde4069d	-0.11134074
217	0xbe075997	-0.1321777
218	0x4004addb	2.0731113
219	0x3e07a02e	0.13244697
220	0xbebcc056	-0.3686549
221	0x3e916230	0.28395224
222	0xbda02a1b	-0.07820531
223	0xbf245ce6	-0.6420425
224	0xbf6827c2	-0.90685666
225	0xbeb7dfba	-0.35912877
226	0xbec0167b	-0.3751715
227	0xbe331f4f	-0.17492412
228	0xbe198941	-0.14993764
229	0xbf50e6f7	-0.81602424
230	0xbdda0b5c	-0.10646698
231	0x3ef61c63	0.48068532
232	0xbe43da01	-0.1912613
233	0x3e3220a0	0.17395258
234	0x3dc7c7a2	0.09754874
235	0xbf16b036	-0.58862627
236	0xbd8267b9	-0.0636744
237	0xbd5b6388	-0.053561717
238	0xbe8cbddd	-0.27488604
239	0x3c3f6e48	0.011684008
240	0x3d07489b	0.033028226
241	0xbef159f4	-0.4713894
242	0x3f3d215d	0.73879033
243	0x3e29ee07	0.16594706
244	0xbe60fa9f	-0.21970604
245	0x3f92814f	1.1445712
246	0xbebac2e3	-0.36476812
247	0xbea15994	-0.31513655
248	0xbb5f7a64	-0.003410005
249	0xbeb972de	-0.3622045
250	0xbe29f2a8	-0.16596472
251	0x3d97952e	0.07401501
252	0xbc9b62b0	-0.018967956
253	0x3e10537d	0.14094348
254	0x3eadce61	0.33946517
255	0x3eab12af	0.33412692

weight f4 [64, 64]
0	0xbe44adc0	-0.19206905
1	0xbe7b73c6	-0.24555883
2	0xbea5bc80	-0.32370377
3	0xbd8537fa	-0.06504817
4	0xbe94017a	-0.28907377
5	0xbde01f10	-0.10943425
6	0xbe8c27d0	-0.27374125
7	0xbe216d45	-0.1576434
8	0xbe1c9d9f	-0.15294503
9	0xbd57d30b	-0.0526915
10	0xbe068819	-0.13137855
11	0x3dccb2be	0.0999503
12	0xbea0a32b	-0.31374487
13	0xbe9205cb	-0.28520045
14	0xbe8bbc3c	-0.2729205
15	0xbe26c1a6	-0.16284809
16	0xbedc7dee	-0.43064827
17	0xbe75c50f	-0.24000953
18	0xbebc7b4b	-0.36812815
19	0xbe386eaa	-0.18010965
20	0xbe7d0327	-0.24708234
21	0xbe12ec5d	-0.14347978
22	0xbe041f9a	-0.1290268
23	0xbe03f282	-0.12885478
24	0xbdbd81f1	-0.092533
25	0x3d3e44c4	0.0464523
26	0xbe2c2109	-0.16809477
27	0xbe89c313	-0.26906642
28	0x3dcbd5ce	0.099528894
29	0x3ddcadc0	0.10775328
30	0xbe250a0f	-0.16117118
31	0xbe67f9db	-0.22653906
32	0xbe1936e0	-0.1496234
33	0xbe3c2ed1	-0.18377234
34	0x3ea9bf04	0.33153546
35	0xbdac4e7b	-0.084134065
36	0xbe216414	-0.15760833
37	0x3ec4fd6d	0.384746
38	0xbe655382	-0.22395137
39	0xbe589439	-0.21150292
40	0xbee41d16	-0.4455344
41	0xbee7f43c	-0.45303524
42	0x3e9310fc	0.28723896
43	0x3dbe0c68	0.0927971
44	0x3dda3041	0.10653735
45	0xbd8fe318	-0.070257366
46	0xbe21c985	-0.1579953
47	0xbd0bcf44	-0.03413321
48	0xbe3775f7	-0.17916094
49	0xbdb2a8e6	-0.08723621
50	0x3c3323ab	0.010933797
51	0x3e8ef322	0.2791987
52	0xbe823651	-0.25432065
53	0xbdee3a53	-0.11632218
54	0x3e11b8c8	0.14230645
55	0x3e279779	0.16366376
56	0xbe8ee39f	-0.27908036
57	0xbda7612c	-0.08172831
58	0xbeb8f967	-0.3612778
59	0x3d6f24a6	0.05838456
60	0xbe659e43	-0.22423653
61	0x3ed1dfcd	0.4099106
62	0xbdfbc333	-0.12293091
63	0xbc8b69c3	-0.017018205
64	0xbdb5cb0a	-0.08876617
65	0x3c5a1c26	0.013312375
66	0xbcaa8e3d	-0.020819778
67	0xbe45596f	-0.19272397
68	0xbe0a7a30	-0.13523173
69	0xbe2061ee	-0.15662357
70	0xbe72d99b	-0.23715822
71	0x3d35d8ea	0.04439632
72	0x3d4efebd	0.050535906
73	0x3d565f23	0.052336823
74	0xbdb24d16	-0.08706109
75	0x3da20580	0.07911205
76	0xbe0725f4	-0.13198072
77	0xbde6d11a	-0.11270352
78	0x3ea8d4c8	0.3297484
79	0xbe2fc016	-0.17163119
80	0xbd7222b3	-0.059115123
81	0x3e14e369	0.14539875
82	0xbe3e9742	-0.18612388
83	0x3e43bd2f	0.19115137
84	0xbcbbd89b	-0.022930434
85	0xbf44b0d5	-0.76832324
86	0x3d40d55a	0.047078468
87	0x3eebd60c	0.46061742
88	0xbdca7d74	-0.098872095
89	0x3c0d4469	0.008622267
90	0xbdab66de	-0.0836923
91	0xbcf81228	-0.030282095
92	0xbd7f3812	-0.062309332
93	0xbefb1bf2	-0.49044758
94	0xbdc0b3dd	-0.09409306
95	0xbe43550d	-0.19075413
96	0xbdfe6332	-0.12421264
97	0x3db1988b	0.086716734
98	0xbdd026c1	-0.10163642
99	0x3b2800dc	0.0025635278
100	0x3d60b021	0.05485547
101	0x3f61d48a	0.88214934
102	0xbd5ef4dd	-0.05443274
103	0xbef4199b	-0.47675785
104	0xbf20af16	-0.6276716
105	0xbe869a88	-0.26289773
106	0x3d82a043	0.06378224
107	0xbce88015	-0.028381387
108	0x3e92d257	0.28676102
109	0x3f388194	0.7207272
110	0xbe4c6cff	-0.19963454
111	0x3f9832f6	1.1890552
112	0xbd51a5c2	-0.05118347
113	0x3d5a3bc4	0.053279653
114	0x3e8f3511	0.27970174
115	0xbc6bcfd0	-0.014392808
116	0xbc5843e7	-0.013199783
117	0x3e325dc6	0.17418584
118	0x3f959c35	1.1688296
119	0x3dbf44af	0.09339272
120	0x3bbade80	0.0057027936
121	0xbf069033	-0.5256378
122	0xbeddb6dd	-0.43303576
123	0xbee7cd8c	-0.45274007
124	0x3e17e112	0.14831951
125	0x3f0a7ac4	0.54093575
126	0x3dbdc1f7	0.092655115
127	0x3e3d9928	0.18515456
128	0xbdf0bbae	-0.11754547
129	0xbbb289f5	-0.0054485747
130	0xbd38c9b8	-0.04511425
131	0xbdb85a0a	-0.090015486
132	0xbdd7984a	-0.10527094
133	0xbd13e86a	-0.03611032
134	0xbe22a438	-0.15882957
135	0x3d4f65c6	0.050634168
136	0xbc2246d5	-0.009904583
137	0xbdc24358	-0.09485501
138	0x3c840f8b	0.016120693
139	0x3d813792	0.06309427
140	0xbd69e1dd	-0.057100166
141	0xbd22d2b6	-0.03975173
142	0xbd5fd7a2	-0.054649003
143	0xbe862d46	-0.26206416
144	0x3ea329bb	0.31867775
145	0xbe535214	-0.20636779
146	0xbdcd2d49	-0.10018403
147	0xbddbfe5f	-0.10741877
148	0xbd816217	-0.06317537
149	0xbd8aa345	-0.067694224
150	0x3dbc427e	0.0919237
151	0x3dc38afc	0.095479935
152	0xbcb0a6dd	-0.021563942
153	0x3d4ca171	0.04995865
154	0xbe1b48d7	-0.15164505
155	0xbd81dddf	-0.06341147
156	0x3d858968	0.06520349
157	0x3d03f4fc	0.032216057
158	0xbb921b76	-0.00445884
159	0xbe83c8a2	-0.25739008
160	0x3d9f9738	0.077925146
161	0xbe18d834	-0.14926225
162	0xbe252dfa	-0.1613082
163	0xbbc366ed	-0.0059631974
164	0xbde970a0	-0.11398435
165	0xbdaa8e93	-0.08327975
166	0xbe1e5c33	-0.15464859
167	0x3e7e8e39	0.24858941
168	0xbe0a0093	-0.13476782
169	0xbe805c11	-0.2507024
170	0x3e54e7c7	0.20791541
171	0x3c030807	0.007997519
172	0x3df0b43c	0.11753127
173	0xbee7a99b	-0.45246586
174	0xbe6e02b6	-0.23243222
175	0x3dfad417	0.12247484
176	0xbaca6622	-0.0015441815
177	0x3da7633d	0.08173225
178	0xbde1107e	-0.10989474
179	0x3e1b95ba	0.15193835
180	0x3d60dbc6	0.054897092
181	0xbd0effca	-0.03491191
182	0xbe2c8ad5	-0.16849835
183	0x3e81821b	0.25294575
184	0x3b9ce0fc	0.0047875624
185	0x3e19a03d	0.15002532
186	0xbe0e1498	-0.13875043
187	0xbc5f72de	-0.013638226
188	0xbe13a68e	-0.14419004
189	0x3dca56d3	0.09879842
190	0xbd075f66	-0.033049963
191	0xbcfb5de9	-0.030684428
192	0xbea03a71	-0.31294587
193	0x3d08babc	0.03338121
194	0xbdbde104	-0.09271434
195	0x3d7595f0	0.059957445
196	0xbe6531be	-0.22382256
197	0x3f66d142	0.9016305
198	0xbe609e19	-0.2193531
199	0xbd00f5a8	-0.031484276
200	0x3d91593e	0.070971
201	0x3e1e847e	0.1548023
202	0x3d192fa4	0.03739895
203	0x3c7a9c72	0.0152960885
204	0xbf382e22	-0.71945393
205	0xbe1d10d4	-0.1533845
206	0xbe687c9b	-0.22703783
207	0xbcc6c8ca	-0.024265666
208	0xbf3d7f78	-0.74022627
209	0xbec2f1d1	-0.38075116
210	0x3e4a74a0	0.19771051
211	0xbef53a9b	-0.47896275
212	0xbe7e9892	-0.24862888
213	0xbea818f1	-0.3283153
214	0x3db371a3	0.08761909
215	0xbeba9688	-0.3644297
216	0x3dfc6e5c	0.12325737
217	0xbe013383	-0.12617306
218	0x3dd0fd60	0.102045774
219	0xbe4393f1	-0.19099404
220	0x3d9295a5	0.07157449
221	0xbd876348	-0.06610733
222	0x3d1a1ae4	0.0376233
223	0xbe25959a	-0.1617035
224	0x3f43ea47	0.76529354
225	0xbd5d8712	-0.05408389
226	0x3f7ee152	0.9956256
227	0x3e27ce3c	0.16387266
228	0x3f707b81	0.9393845
229	0xbe1ce47e	-0.15321538
230	0xbf120c36	-0.5704988
231	0xbf18849e	-0.5957736
232	0xbea2958d	-0.31754723
233	0xbec4dec1	-0.38451198
234	0xbe359a87	-0.17734729
235	0x3e6cfe84	0.23143965
236	0x3e9228a7	0.2854664
237	0x3f6e2fbe	0.930416
238	0xbda2e338	-0.07953495
239	0xbe319e0b	-0.17345445
240	0xbd2df5fa	-0.04247091
241	0x3e339cd1	0.1754029
242	0x3ef45bb8	0.47726226
243	0xbf78d49d	-0.9719942
244	0xbd83e142	-0.06439449
245	0x3da1c9fe	0.07899855
246	0xbe28fe68	-0.16503298
247	0xbf0f271f	-0.5591907
248	0xbea42ac1	-0.3206387
249	0x3d1f1d65	0.038846392
250	0xbed49c80	-0.4152565
251	0x3d1bbe7a	0.03802345
252	0xbe70c730	-0.23513484
253	0x3dfe0c52	0.12404694
254	0x3d91d91d	0.07121489
255	0xbdcfa17d	-0.10138223

bias f4 [64]
0	0xbe6bbda5	-0.23021562
1	0xbc16149c	-0.009160187
2	0xbe6ecc03	-0.23320012
3	0xbe8716be	-0.26384538
4	0xbe766968	-0.24063647
5	0x3d64b1ed	0.055833746
6	0xbf09dc4b	-0.53851765
7	0xbe4534dc	-0.19258446
8	0xbf2a0db9	-0.6642719
9	0xbf273207	-0.6531071
10	0xbe700933	-0.23441009
11	0xbe931544	-0.28727162
12	0xbf0c5d8f	-0.5483026
13	0xbe8121d3	-0.25221118
14	0xbf686cb0	-0.90790844
15	0x3e3785a8	0.1792208
16	0xbe2c5a2c	-0.16831273
17	0xbe2eaceb	-0.1705815
18	0xbf576683	-0.84140795
19	0x3cfd56f5	0.030925253
20	0xbe688e6a	-0.22710577
21	0xbd765e9c	-0.06014882
22	0xbec76847	-0.38946745
23	0xbf53afba	-0.8269001
24	0xbeb3e28c	-0.3513378
25	0xbf27ee63	-0.65598124
26	0xbeb4b753	-0.35296115
27	0xc0104744	-2.2543497
28	0xbf008242	-0.5019876
29	0xbf61d83a	-0.8822056
30	0xbe8684e8	-0.26273274
31	0xbe8b21c0	-0.27174187
32	0xbe4d6903	-0.2005959
33	0xbe8ac122	-0.27100474
34	0xbeaa23ce	-0.33230442
35	0xbd476e30	-0.048689067
36	0x3cc79727	0.024364067
37	0xbf843d5b	-1.0331224
38	0xbd7c460b	-0.061590236
39	0xbe9d74a3	-0.3075305
40	0xbf1491b7	-0.58034843
41	0xbe93fcc6	-0.28903788
42	0xbf311eaa	-0.69187415
43	0xbd7de061	-0.061981563
44	0xbf48d5a3	-0.78450984
45	0xbf1cd106	-0.61256444
46	0xbe44044b	-0.19142263
47	0xbf28cf17	-0.65940994
48	0xbe6ebf58	-0.2331518
49	0xbeab3d2a	-0.33445102
50	0xbf0c366c	-0.5477054
51	0xbf1141bd	-0.56740934
52	0xbf11f059	-0.57007366
53	0xbd2cbbe7	-0.042171385
54	0xbf1d7873	-0.61511916
55	0xbe9430ab	-0.2894338
56	0xbf341eea	-0.7035967
57	0xbf01e135	-0.50734264
58	0xbe4271a8	-0.18988669
59	0xbe5226b6	-0.2052258
60	0xbf611eea	-0.87937796
61	0xbe8b20a8	-0.27173352
62	0x3d2cec84	0.042217746
63	0xbddeb18c	-0.10873708

weight f4 [64, 64]
0	0x3e2ccbe0	0.16874647
1	0xbc2427bb	-0.010019238
2	0xbf15d3b0	-0.58526134
3	0xbe592e61	-0.21209098
4	0x3f4d6d91	0.8024531
5	0xbf0c3dbc	-0.547817
6	0xbe1a333e	-0.1505861
7	0x3e6d8ef7	0.23199068
8	0x3d6fb8c4	0.058525816
9	0xbec9cf15	-0.39415804
10	0xbefa0c2e	-0.48837417
11	0xbf03ec10	-0.5153208
12	0x3ea50494	0.32230055
13	0xbf37b6c2	-0.7176324
14	0x3ea77a97	0.32710716
15	0x3e74aa4e	0.23893091
16	0xbe3079e6	-0.17234
17	0xbf6af804	-0.9178469
18	0x3f4ac64e	0.7920884
19	0xbd9de0bb	-0.077088796
20	0xbe4c5b63	-0.19956736
21	0xbe49f395	-0.19721825
22	0x3e8ade5c	0.27122772
23	0xbf2a398d	-0.66494066
24	0xbe8290de	-0.2550115
25	0xbf02fec5	-0.5117
26	0xbf4660ca	-0.7749144
27	0x3f24e61d	0.64413625
28	0xbef18940	-0.47175026
29	0x3ec803b6	0.3906533
30	0x3eda7046	0.42663783
31	0x3d5788ce	0.0526207
32	0xbe8da6bf	-0.2766628
33	0x3de43647	0.11143165
34	0xbf3c2020	-0.7348652
35	0xbd2c5d31	-0.04208106
36	0x3e6f684b	0.23379628
37	0xbe5d8a79	-0.21634854
38	0x3dec95a4	0.11551979
39	0x3e80857d	0.25101843
40	0x3dc6dc13	0.097099446
41	0x3e82ae1e	0.25523466
42	0x3ee806a7	0.45317575
43	0xbe5cdbb8	-0.21568191
44	0xbeab0147	-0.33399412
45	0x3e9151b8	0.2838266
46	0x3d122f22	0.03568948
47	0xbf58c594	-0.8467648
48	0x3f3c8d96	0.73653543
49	0xbdb77c48	-0.08959252
50	0x3e2d537e	0.16926381
51	0xbe09e92c	-0.13467854
52	0xbeddf048	-0.43347383
53	0x3eb2d42b	0.34927496
54	0xbce1d63f	-0.02756798
55	0xbee9bf66	-0.45653838
56	0xbf15c483	-0.5850298
57	0xbbb38d0e	-0.0054794615
58	0x3e1dad2e	0.15398094
59	0xbda8376a	-0.082136944
60	0xbeb14483	-0.34622583
61	0xbfa42813	-1.282473
62	0x3f001f42	0.50047696
63	0xbf899daa	-1.075124
64	0x3eaccbe5	0.3374931
65	0xbfadac13	-1.3568138
66	0x3ef95584	0.48698056
67	0x3f3e08b7	0.7423205
68	0xbef39823	-0.4757701
69	0x3dc78d91	0.097437985
70	0xbec6e8cd	-0.38849488
71	0x3f2d1ac4	0.67618966
72	0x3f9ac5a7	1.2091569
73	0xbf80e71f	-1.0070533
74	0xbe1fd99d	-0.15610357
75	0x3fa703e3	1.3048061
76	0xbdae1515	-0.08500115
77	0xbe59626d	-0.21228953
78	0xbf75d084	-0.96021295
79	0x3e8a8d36	0.2706086
80	0xbf1fe9e6	-0.62466276
81	0xbd6ebebf	-0.05828738
82	0x3e831734	0.2560364
83	0x3f054b9d	0.520685
84	0xbf65cde7	-0.8976731
85	0xbf116664	-0.5679686
86	0x3de5957b	0.11210152
87	0xbf416277	-0.7554087
88	0x3e44f2e9	0.19233288
89	0xbf83c025	-1.0293013
90	0xbed60e72	-0.41807896
91	0xbdb1df41	-0.086851604
92	0x3e8341f3	0.25636253
93	0xbea31dcf	-0.3185868
94	0x3fc2d8dd	1.5222431
95	0xbd5d2b74	-0.05399652
96	0x3dc877da	0.09788485
97	0xbebc338d	-0.3675808
98	0x3da9e7e3	0.08296182
99	0x3e117512	0.14204815
100	0xbe93460c	-0.2876438
101	0x3de4f45e	0.11179422
102	0xbe8c40ac	-0.2739309
103	0x3e6960fb	0.22790901
104	0x3ec6f435	0.3885819
105	0xbe16a4b3	-0.14711265
106	0x3f25153b	0.6448552
107	0x3e07a196	0.13245234
108	0xbe90e200	-0.28297424
109	0x3f0b1395	0.54326755
110	0xbe81cafe	-0.25350183
111	0x3cced938	0.025250062
112	0xbf05c98f	-0.5226068
113	0x3e25b4b2	0.16182211
114	0xbe8b716b	-0.2723497
115	0xbd724dac	-0.059156105
116	0x3d5c9712	0.05385501
117	0xbf1e6afc	-0.61881995
118	0x3f099116	0.5373701
119	0xbe1ea0ef	-0.15491079
120	0xbe27a6ac	-0.16372174
121	0xbf9135f3	-1.1344589
122	0x3e15175e	0.14559695
123	0x3f16bfa9	0.588862
124	0xbfaa628a	-1.3311322
125	0xba665f18	-0.0008787974
126	0xbec1d6fb	-0.3785933
127	0xbe7c91f9	-0.24665059
128	0x3fa72160	1.305706
129	0x3e586a92	0.21134403
130	0xbf4facfe	-0.8112334
131	0x3e1fb864	0.15597683
132	0xbe9e426a	-0.30910045
133	0x3f8b9cef	1.0907267
134	0x3faf3b76	1.3690021
135	0xbe8d962d	-0.27653638
136	0xbec0dbe1	-0.37667754
137	0x3e187855	0.14889653
138	0xbd9ab798	-0.07554549
139	0xbdc726f2	-0.09724225
140	0x3e808ea1	0.25108817
141	0x3e94c3c2	0.290556
142	0x3ec90e42	0.3926869
143	0x3eeaf690	0.45891237
144	0xbeb755bd	-0.358076
145	0xbfa3d19e	-1.2798345
146	0x3fc74c95	1.5570246
147	0xbe2c976d	-0.1685464
148	0xbe179560	-0.14803076
149	0xbe79a725	-0.24380167
150	0x3e856fcc	0.26061857
151	0xbec0a2ca	-0.37624198
152	0xbfa415f5	-1.2819201
153	0xbfc5acad	-1.5443321
154	0xbe205db8	-0.15660751
155	0x3e05af02	0.13055041
156	0xbe845049	-0.25842503
157	0x3f05e9ce	0.5230988
158	0x3ea4e689	0.32207134
159	0x3d7beb32	0.061503597
160	0x3df2d109	0.118562765
161	0x3f2b969c	0.67026687
162	0xbf26cee9	-0.6515947
163	0xbce3c7c5	-0.027805218
164	0x3f270745	0.6524547
165	0xbe904162	-0.28174883
166	0x3dc77c9f	0.097405665
167	0x3f4991d8	0.78738165
168	0x3eb0283b	0.34405693
169	0x3f2f3255	0.68436176
170	0xbf6fa37e	-0.93608844
171	0x3be65ca1	0.007030085
172	0xbf83c271	-1.0293714
173	0x3fc7797f	1.5583953
174	0x3e2b834b	0.16749303
175	0xbf0bad13	-0.54560965
176	0xbee29560	-0.4425459
177	0x3e5e7d68	0.21727526
178	0xbd93ef13	-0.07223334
179	0xbdcbe9a3	-0.09956672
180	0xbea74f0b	-0.32677492
181	0x3e9c5f85	0.30541626
182	0x3e0dba0e	0.13840505
183	0x3f0071de	0.5017375
184	0x3f3c60a5	0.7358497
185	0x3e703df2	0.2346113
186	0xbf45ac77	-0.77216285
187	0xbeab8e74	-0.3350712
188	0xbe31f39f	-0.1737809
189	0xbf2dbbf2	-0.67864907
190	0xbe2e7e91	-0.17040469
191	0xbeac2332	-0.33620602
192	0xbf1abdbc	-0.6044576
193	0x3f10cbbd	0.5656088
194	0xbdacc717	-0.08436411
195	0xbfa51720	-1.2897682
196	0x3f2d2c45	0.67645675
197	0xbf1eb1be	-0.61989963
198	0x3c7c0ec3	0.015384379
199	0xbead3e56	-0.3383662
200	0x3f05c298	0.5225005
201	0xbd954138	-0.0728783
202	0x3e019e13	0.12657957
203	0x3eba314d	0.3636574
204	0xbd9305d4	-0.07178846
205	0xbe33501c	-0.17511028
206	0xbef10895	-0.4707686
207	0xbd07a61b	-0.033117395
208	0xbeaa021c	-0.33204734
209	0xbe246592	-0.16054371
210	0xbf5aa6a7	-0.8541054
211	0xbeed0941	-0.46296123
212	0xbdd0c238	-0.10193294
213	0x3d692bec	0.056926653
214	0xbf0ece6c	-0.55783725
215	0x3bbc0d72	0.0057389075
216	0x3f246c22	0.642275
217	0x3e9cac55	0.3060023
218	0xbf087362	-0.5330106
219	0x3f2a66f3	0.6656334
220	0xbea9c262	-0.33156115
221	0x3dbf99d6	0.09355514
222	0x3f273495	0.6531461
223	0x3da38195	0.079837
224	0xbea406a2	-0.3203631
225	0xbded4b75	-0.11586658
226	0x3f0e7fb2	0.556636
227	0xbe8c1b30	-0.27364492
228	0xbf0f766b	-0.56040066
229	0x3eeed912	0.46649987
230	0x3d492f98	0.049117655
231	0xbf77bd95	-0.96773654
232	0x3e64ba80	0.22336769
233	0xbe17e326	-0.14832744
234	0x3f358809	0.709107
235	0x3dd74be5	0.105125226
236	0x3f1630e9	0.5866838
237	0xbe5776e2	-0.21041444
238	0x3d7dd5a8	0.061971337
239	0x3f3f91d2	0.7483188
240	0x3e0a874b	0.13528173
241	0xbe7274a5	-0.23677309
242	0xbe186622	-0.1488271
243	0xbedc2665	-0.42998043
244	0x3f464de5	0.7746261
245	0xbecd8d0b	-0.4014667
246	0xbc676ea4	-0.0141255
247	0xbe4a9f19	-0.19787253
248	0xbea4194f	-0.3205056
249	0xbe3d637b	-0.1849498
250	0xbf1a3100	-0.6023102
251	0x3f22604e	0.634282
252	0xbf528fd2	-0.822507
253	0xbd9a1f54	-0.075255066
254	0x3f0579a8	0.5213876
255	0xbecd5001	-0.401001

weight f4 [64, 64]
0	0xbf1259f5	-0.57168514
1	0x3de7c735	0.113172926
2	0xbf1f8292	-0.6230861
3	0xbd876995	-0.06611935
4	0xbed55d2f	-0.41672656
5	0xbd138153	-0.036012005
6	0x3f3a04d6	0.7266363
7	0xbf061689	-0.52378136
8	0xbe8a72bb	-0.27040657
9	0x3f544dd8	0.8293128
10	0x3eba7d32	0.3642364
11	0x3ea5e474	0.32400858
12	0xbf630644	-0.88681436
13	0xbe604bda	-0.21903935
14	0xbe25980b	-0.16171281
15	0x3d2b2759	0.04178557
16	0x3eec8bc8	0.46200395
17	0xbee1c5f7	-0.44096348
18	0x3f759159	0.9592491
19	0xbf099e23	-0.5375692
20	0x3f469115	0.7756513
21	0xbe599827	-0.21249448
22	0x3ed79556	0.42106122
23	0x3edb79c4	0.42866337
24	0xbda45b74	-0.08025256
25	0xbe01216b	-0.12610404
26	0x3e3ed95a	0.186376
27	0xbec7ab35	-0.38997808
28	0x3ea7239d	0.32644358
29	0x3e97bc38	0.29635787
30	0x3ddeb96a	0.10875209
31	0x3e490754	0.19631702
32	0x3ead577d	0.3385581
33	0xbdcf1bcd	-0.101127245
34	0x3e895fdd	0.2683095
35	0xbf04ef79	-0.51927906
36	0x3f045c7c	0.5170362
37	0x3f0621cd	0.52395326
38	0x3dbecfbf	0.09316968
39	0x3dafc63c	0.08582732
40	0xbe044c89	-0.12919821
41	0x3f4b378e	0.79381645
42	0xbefe499d	-0.49665537
43	0x3e80284d	0.25030747
44	0x3e0ba933	0.13638763
45	0x3dc6011a	0.09668179
46	0xbef61673	-0.48064002
47	0x3f7f064e	0.99618995
48	0x3ee509c2	0.44734007
49	0x3e4038db	0.18771689
50	0xbe9abc15	-0.3022162
51	0x3e8de40a	0.27713042
52	0x3ef0139f	0.4688997
53	0xbecc0116	-0.39844579
54	0x3f2545a3	0.6455938
55	0x3f8e4bc8	1.1116877
56	0x3eee731b	0.46572194
57	0xbf82a30c	-1.0206008
58	0xbdd4bfed	-0.103881694
59	0x3e9b9ebf	0.3039455
60	0xbe8dd51e	-0.27701658
61	0xbe845d0e	-0.25852245
62	0xbeebb802	-0.46038824
63	0xbe796863	-0.24356227
64	0xbf151ab1	-0.5824385
65	0xc09331c1	-4.5998235
66	0x3e731454	0.23738223
67	0xbd8ef0c4	-0.06979516
68	0xbd813987	-0.063098006
69	0x3f76568b	0.96225804
70	0xbc1bbdee	-0.009505732
71	0xbe7761d6	-0.24158415
72	0x3eecccde	0.4625005
73	0x3e969f6b	0.294185
74	0x3ecf16a7	0.4044697
75	0x3d98e19c	0.074649066
76	0x3f27e18f	0.6557855
77	0x3f56e49e	0.8394259
78	0xbf332dea	-0.69991934
79	0x3f26fc35	0.6522859
80	0x3de27b67	0.110586934
81	0xbe81b093	-0.25330028
82	0xbe91d1f4	-0.28480494
83	0x3f1247a3	0.5714056
84	0xbd6d3960	-0.057916045
85	0xbe7f140d	-0.24909993
86	0x3ec2445a	0.37942773
87	0x3f12488e	0.5714196
88	0x3e479f95	0.1949447
89	0x3ef43fba	0.4770487
90	0xbe1ad7dd	-0.15121408
91	0xbe582f75	-0.21111853
92	0xbe45b022	-0.1930547
93	0xbe018546	-0.12648496
94	0x3f3c03d7	0.7344336
95	0x3f8b15c1	1.0866014
96	0xbd530355	-0.05151685
97	0xbe34fbe2	-0.1767421
98	0xbe63eae7	-0.22257577
99	0x3f48b647	0.78403133
100	0xbd92786a	-0.071518734
101	0x3fb0dc06	1.3817146
102	0x3ef76736	0.4832093
103	0x3eea5e38	0.45775008
104	0x3da9d4ac	0.08292517
105	0x3f24ade0	0.6432781
106	0x3ebf409b	0.37353978
107	0x3f11c074	0.56934285
108	0x3e25864b	0.1616451
109	0x3e8759a2	0.26435572
110	0xbcd8dfcc	-0.026473902
111	0xbf1fb7ac	-0.62389636
112	0xbf4f8fcf	-0.8107881
113	0xbef21c2d	-0.4728712
114	0x3defe231	0.117130645
115	0x3f2c7b41	0.6737557
116	0xbfa34609	-1.2755748
117	0x3f07d7af	0.5306348
118	0xbe27b64e	-0.16378137
119	0xbd96ac35	-0.07357065
120	0x3f016597	0.5054564
121	0x3ec1039b	0.37698063
122	0x3e76080e	0.2402651
123	0xbe15a138	-0.14612281
124	0x3f8cd2a1	1.1001779
125	0x3efe7fa5	0.4970676
126	0x3c8f6ae6	0.017507028
127	0xbe9dcd79	-0.30820826
128	0xbf129f55	-0.5727437
129	0x3ed63806	0.41839617
130	0x3e94c24a	0.2905448
131	0x3c59e83b	0.013299997
132	0x3f356d1f	0.7086963
133	0x3eed0cf6	0.4629895
134	0xbf9314a8	-1.1490679
135	0x3f693e06	0.91110265
136	0xbd8055ea	-0.06266387
137	0xbf64db21	-0.89396864
138	0xbf9f8169	-1.2461368
139	0xbed3e3ef	-0.41384837
140	0x3ec78526	0.38968772
141	0xbf207c09	-0.6268926
142	0xbebd1ccd	-0.36936036
143	0x3e33a25a	0.17542401
144	0x3fc88837	1.566657
145	0x3f4b3c31	0.7938872
146	0xbf7eda3d	-0.99551755
147	0x3d9893be	0.074500546
148	0xbe8dbc2b	-0.27682623
149	0xbeeae758	-0.45879626
150	0xbe871338	-0.2638185
151	0x3df15331	0.117834456
152	0x3f7966b7	0.97422355
153	0xbf121977	-0.57070106
154	0xbf1df516	-0.61702096
155	0x3f8ee007	1.1162118
156	0xbd0dd554	-0.034627274
157	0x3fd5a044	1.6689534
158	0xbf3522ed	-0.7075642
159	0x3e939281	0.2882271
160	0xbf577f1c	-0.8417833
161	0xbebaa7a0	-0.36456013
162	0x3f4a142e	0.7893704
163	0x3f043f22	0.51658833
164	0xbe896d10	-0.2684102
165	0xbdf5158d	-0.11967001
166	0xbe21f76d	-0.15817042
167	0xbea8036a	-0.32815105
168	0x3eb7c304	0.35890973
169	0xbf3839a9	-0.7196298
170	0x3ef800c0	0.48438072
171	0x3e3e9967	0.18613206
172	0xbf10c51b	-0.5655076
173	0x3ee84369	0.4536393
174	0x3f4b190a	0.7933508
175	0xbfa4d93b	-1.2878793
176	0xbe2beaab	-0.16788737
177	0xbed97752	-0.42473847
178	0x3a2bc082	0.0006551818
179	0x3eabaaf2	0.33528858
180	0x3eedd183	0.46448907
181	0x3e725b16	0.23667559
182	0xbf4bdb44	-0.7963145
183	0xbf0760ec	-0.52882266
184	0x3f6aecac	0.9176738
185	0x3f96ba71	1.1775647
186	0x3e2f5977	0.17123972
187	0xbd67f29f	-0.056627866
188	0x3f21cd2e	0.63203704
189	0xbdef3b24	-0.11681202
190	0xbf1a72c2	-0.60331357
191	0xbf2c0030	-0.67187786
192	0x3da3f807	0.08006292
193	0x3d4dee5b	0.05027614
194	0x3f29eabd	0.6637381
195	0xc0736552	-3.803059
196	0xbe00fb01	-0.1259575
197	0x3e21ddb7	0.15807234
198	0xbe736cd3	-0.23771982
199	0x3efc708d	0.4930462
200	0x3f47566c	0.77866244
201	0xbd47facd	-0.048823167
202	0xbebe8e5e	-0.37217993
203	0xbe7cdb8f	-0.2469313
204	0xbf26ddbd	-0.65182096
205	0xbf05dba5	-0.52288276
206	0x3efee5b1	0.49784616
207	0x3f694a80	0.911293
208	0xbf3565ce	-0.70858467
209	0x3ee157b7	0.44012234
210	0x3e81fae2	0.2538672
211	0xbf1ed590	-0.6204462
212	0x3c395393	0.01131143
213	0xbf30cf4c	-0.6906631
214	0xbd13665f	-0.0359863
215	0x3e8847bf	0.26617238
216	0x3f7cb169	0.98708206
217	0x3e58437e	0.21119496
218	0xbeeba9ea	-0.46028072
219	0x3f051955	0.5199178
220	0x3f75a368	0.95952463
221	0x3fc710ce	1.5552003
222	0xbea0971d	-0.3136529
223	0x3f2c3350	0.67265797
224	0xbe956e5f	-0.2918577
225	0x3d9f77d9	0.07786531
226	0x3f146784	0.5797045
227	0xbef1b9c0	-0.47212029
228	0x3e93179d	0.28728953
229	0x3e803d25	0.2504665
230	0xbe5149d9	-0.20438327
231	0xbe989ee4	-0.29808724
232	0xbda908d5	-0.08253638
233	0x3e9dd84f	0.30829093
234	0xbe353905	-0.17697532
235	0x3f1bbc6f	0.608344
236	0xbd0e831d	-0.034793008
237	0x3e94da42	0.29072767
238	0xbee26c49	-0.4422324
239	0x3eb0a882	0.3450356
240	0xbd86b869	-0.06578142
241	0xbe713356	-0.2355474
242	0x3cec574c	0.02885022
243	0x3ebffee5	0.37499157
244	0x3f2e4d47	0.68086666
245	0xbf2623fb	-0.6489865
246	0x3d4891b2	0.04896707
247	0x3e9be633	0.30449066
248	0x3f58fbe4	0.84759355
249	0x3e36e26f	0.17859815
250	0xbea48f4d	-0.3214058
251	0xbca82d93	-0.020529544
252	0x3ef5a1b6	0.47974938
253	0x3e852e05	0.26011673
254	0xbfeccfcc	-1.8500915
255	0xbeb80519	-0.3594139

weights f4 [64]
0	0x3f800000	1.0
1	0x3f800000	1.0
2	0x3f800000	1.0
3	0x3f800000	1.0
4	0x3f800000	1.0
5	0x3f800000	1.0
6	0x3f800000	1.0
7	0x3f800000	1.0
8	0x3f800000	1.0
9	0x3f800000	1.0
10	0x3f800000	1.0
11	0x3f800000	1.0
12	0x3f800000	1.0
13	0x3f800000	1.0
14	0x3f800000	1.0
15	0x3f800000	1.0
16	0x3f800000	1.0
17	0x3f800000	1.0
18	0x3f800000	1.0
19	0x3f800000	1.0
20	0x3f800000	1.0
21	0x3f800000	1.0
22	0x3f800000	1.0
23	0x3f800000	1.0
24	0x3f800000	1.0
25	0x3f800000	1.0
26	0x3f800000	1.0
27	0x3f800000	1.0
28	0x3f800000	1.0
29	0x3f800000	1.0
30	0x3f800000	1.0
31	0x3f800000	1.0
32	0x3f800000	1.0
33	0x3f800000	1.0
34	0x3f800000	1.0
35	0x3f800000	1.0
36	0x3f800000	1.0
37	0x3f800000	1.0
38	0x3f800000	1.0
39	0x3f800000	1.0
40	0x3f800000	1.0
41	0x3f800000	1.0
42	0x3f800000	1.0
43	0x3f800000	1.0
44	0x3f800000	1.0
45	0x3f800000	1.0
46	0x3f800000	1.0
47	0x3f800000	1.0
48	0x3f800000	1.0
49	0x3f800000	1.0
50	0x3f800000	1.0
51	0x3f800000	1.0
52	0x3f800000	1.0
53	0x3f800000	1.0
54	0x3f800000	1.0
55	0x3f800000	1.0
56	0x3f800000	1.0
57	0x3f800000	1.0
58	0x3f800000	1.0
59	0x3f800000	1.0
60	0x3f800000	1.0
61	0x3f800000	1.0
62	0x3f800000	1.0
63	0x3f800000	1.0

bias f4 [64]
0	0x00000000	0.0
1	0x00000000	0.0
2	0x00000000	0.0
3	0x00000000	0.0
4	0x00000000	0.0
5	0x00000000	0.0
6	0x00000000	0.0
7	0x00000000	0.0
8	0x00000000	0.0
9	0x00000000	0.0
10	0x00000000	0.0
11	0x00000000	0.0
12	0x00000000	0.0
13	0x00000000	0.0
14	0x00000000	0.0
15	0x00000000	0.0
16	0x00000000	0.0
17	0x00000000	0.0
18	0x00000000	0.0
19	0x00000000	0.0
20	0x00000000	0.0
21	0x00000000	0.0
22	0x00000000	0.0
23	0x00000000	0.0
24	0x00000000	0.0
25	0x00000000	0.0
26	0x00000000	0.0
27	0x00000000	0.0
28	0x00000000	0.0
29	0x00000000	0.0
30	0x00000000	0.0
31	0x00000000	0.0
32	0x00000000	0.0
33	0x00000000	0.0
34	0x00000000	0.0
35	0x00000000	0.0
36	0x00000000	0.0
37	0x00000000	0.0
38	0x00000000	0.0
39	0x00000000	0.0
40	0x00000000	0.0
41	0x00000000	0.0
42	0x00000000	0.0
43	0x00000000	0.0
44	0x00000000	0.0
45	0x00000000	0.0
46	0x00000000	0.0
47	0x00000000	0.0
48	0x00000000	0.0
49	0x00000000	0.0
50	0x00000000	0.0
51	0x00000000	0.0
52	0x00000000	0.0
53	0x00000000	0.0
54	0x00000000	0.0
55	0x00000000	0.0
56	0x00000000	0.0
57	0x00000000	0.0
58	0x00000000	0.0
59	0x00000000	0.0
60	0x00000000	0.0
61	0x00000000	0.0
62	0x00000000	0.0
63	0x00000000	0.0

weights f4 [64]
0	0x3f92f781	1.1481782
1	0xc052b70d	-3.2924225
2	0xbfc6d615	-1.5534083
3	0x40416777	3.02194
4	0xc04d8ae9	-3.2116034
5	0x3f1f5525	0.62239295
6	0xbfac9801	-1.3483888
7	0xc074ce02	-3.8250737
8	0xbf8db9d0	-1.107233
9	0x40068caf	2.1023366
10	0x4020d43b	2.5129535
11	0x3e2e7dc8	0.17040169
12	0xbfbee6f1	-1.4914228
13	0x40033775	2.0502598
14	0xc01e476b	-2.473109
15	0x3dd0a718	0.101881206
16	0xbfe89d56	-1.8173015
17	0x3fc1b008	1.5131845
18	0xbfd7c6a9	-1.6857501
19	0xc07fcb25	-3.996774
20	0xbfc394b8	-1.527976
21	0x3f4cbb4c	0.7997329
22	0xbfddbdff	-1.7323607
23	0xc09bbd0d	-4.8668275
24	0xc06bbe64	-3.6834955
25	0x3fbd02d9	1.4766494
26	0xbf610448	-0.8789716
27	0x400a0709	2.1566794
28	0xc0abfe08	-5.3747597
29	0xc0203cc9	-2.50371
30	0xbfe52709	-1.7902538
31	0x3eb2764e	0.34855884
32	0x4047e02e	3.1230578
33	0xbfb7a119	-1.4346038
34	0xbf91a750	-1.1379185
35	0xbfbfe1f8	-1.4990835
36	0xbeeba388	-0.46023202
37	0xbfcab8e3	-1.5837673
38	0x3fb3a3e8	1.4034395
39	0xc03394c8	-2.805956
40	0x3ddf94ca	0.10917051
41	0xbfff47d1	-1.9943792
42	0x3f97efcb	1.1870054
43	0x400b6179	2.1778243
44	0xc0028e7d	-2.0399468
45	0xbf9309e0	-1.1487389
46	0x3f6d335a	0.9265648
47	0xc03bee30	-2.9364128
48	0xc04a7fae	-3.164043
49	0xc007e1ee	-2.1231647
50	0xc08d954d	-4.424475
51	0x401c4016	2.4414115
52	0xc09d1562	-4.90886
53	0xc00adec5	-2.1698468
54	0x3fb076e3	1.3786281
55	0xbf3d3dee	-0.7392262
56	0x3e85e9e5	0.2615501
57	0x3f16f990	0.5897455
58	0x3e4e967c	0.20174593
59	0xbf8a973f	-1.0827407
60	0xbf76a5a9	-0.9634653
61	0x4063f09c	3.5615606
62	0xc0a858ed	-5.260855
63	0xbf770893	-0.9649746

bias f4 [64]
0	0xbf0c1e7e	-0.5473403
1	0xbfe70d78	-1.8050985
2	0xbe504f2a	-0.20342699
3	0xbf3ec566	-0.74519956
4	0xbfe82944	-1.8137593
5	0xbf469a67	-0.7757935
6	0xbffe1d48	-1.9852686
7	0xbfd9fc21	-1.7030069
8	0xbf49cd0a	-0.7882849
9	0xbf778626	-0.9668907
10	0xbfa245a3	-1.2677501
11	0xbef39a18	-0.47578502
12	0xc0241bf6	-2.5642066
13	0xbf883b35	-1.0643069
14	0xbfb20b53	-1.3909706
15	0xbf94d337	-1.1626958
16	0xbe4e30b7	-0.2013577
17	0xbce51af1	-0.027966948
18	0xbed6bb51	-0.41939786
19	0xbfa49908	-1.2859201
20	0xbf577857	-0.84168
21	0xbf4c172d	-0.79722863
22	0xbf557e4c	-0.8339584
23	0xbfce1677	-1.6100606
24	0xbfece52c	-1.8507438
25	0xbfa5e2d5	-1.2959849
26	0xbed4eef8	-0.4158857
27	0xbf1c6d00	-0.6110382
28	0xc00dc86d	-2.215358
29	0x3eb43fdf	0.3520498
30	0xbf4f09b0	-0.80874157
31	0xbf4b3805	-0.79382354
32	0xc008902a	-2.133799
33	0xbf2ee0be	-0.6831168
34	0xbe773366	-0.241407
35	0xbf4abf54	-0.79198194
36	0xbf4f73b6	-0.81035936
37	0xbf81b65c	-1.0133777
38	0xbf826a88	-1.0188761
39	0xbea9ee96	-0.3318984
40	0xbfbd7559	-1.4801437
41	0xbf0b3bf0	-0.5438833
42	0xbf1c2051	-0.6098681
43	0xbf918084	-1.1367345
44	0xc01a6fc1	-2.413071
45	0xbfd4ed8a	-1.6634991
46	0xbf5986b6	-0.8497118
47	0xc0172bcf	-2.3620489
48	0xbfe5ccb0	-1.7953091
49	0xbf9835b1	-1.1891385
50	0xc007b9cc	-2.1207151
51	0xbfc452f0	-1.533781
52	0xbfa0b302	-1.2554629
53	0xbfed6aad	-1.854818
54	0xbf98c049	-1.1933681
55	0x3daf4ce4	0.085595876
56	0xbfc46470	-1.5343151
57	0xbf9408a2	-1.1565135
58	0xc0279a62	-2.6187978
59	0xbe77c4ed	-0.24196215
60	0xbec9cb71	-0.39413026
61	0xc00038e1	-2.0034716
62	0xc0085405	-2.1301281
63	0xbf8a4d0c	-1.0804763
